src/params_data/240418_005728/11param.pt (torch, 46927 bytes, 8 tensors)

fc1.weight f4 [128, 4]
0	0xbdb46dbd	-0.088099934
1	0x3e818fc1	0.25304988
2	0x3ee5695e	0.4480695
3	0x3e9af053	0.30261478
4	0xbea9ad40	-0.33139992
5	0xbef030f2	-0.46912342
6	0xbec140be	-0.37744707
7	0x3df51f40	0.11968851
8	0xbe03015a	-0.12793484
9	0x3ef591bf	0.47962758
10	0xbed5ab00	-0.41732025
11	0xbe5e4140	-0.21704578
12	0xbedb352c	-0.42814004
13	0xbac87a00	-0.0015295148
14	0xbea82e5a	-0.32847863
15	0x3ea6d222	0.32582194
16	0xbe37e470	-0.17958236
17	0xbec25816	-0.3795783
18	0x3e2f15b1	0.17098118
19	0x3d17b2a0	0.037035584
20	0xbe4b661c	-0.1986317
21	0xbe6af0e5	-0.22943456
22	0x3e40bd28	0.18822157
23	0xbd9edcbc	-0.077569455
24	0xbe6f80a8	-0.23388922
25	0xbe78a322	-0.2428098
26	0x3eb4e87a	0.35333616
27	0x3b48dd2a	0.0030649402
28	0x3bac5c80	0.0052600503
29	0xbef4d25c	-0.4781674
30	0x3c7fe468	0.015618421
31	0xbdab9e08	-0.083797514
32	0xbea77059	-0.32702902
33	0x3eb22ba1	0.3479891
34	0xbe40bb4b	-0.18821447
35	0x3d27e71d	0.04099189
36	0x3eeb8db5	0.4600655
37	0x3e8c3709	0.27385738
38	0x3eda5d68	0.42649388
39	0xbeecd151	-0.46253446
40	0x3dc53d78	0.09630865
41	0xbe1c0641	-0.1523676
42	0x3db8b26a	0.09018405
43	0xbed943c4	-0.42434514
44	0xbe009a17	-0.1255878
45	0x3ed1a8e6	0.40949172
46	0xbc1cf63a	-0.009580189
47	0xbe8bb1fd	-0.27284232
48	0x3d33f25b	0.0439323
49	0x3e7b11e0	0.24518538
50	0xbe3ac93e	-0.1824083
51	0x3ee8aec3	0.45445833
52	0xbe347509	-0.1762277
53	0x3e69f8c5	0.22848804
54	0xbe754b1a	-0.2395443
55	0x3eff81f0	0.49903822
56	0xbe38640c	-0.18006915
57	0xbeaf3774	-0.34221995
58	0x3e868001	0.26269534
59	0x3ba71b80	0.005099714
60	0x3ed9773e	0.42473787
61	0xbecc4960	-0.3989973
62	0xbe3a5e00	-0.1819992
63	0xbe7804b8	-0.2422055
64	0x3ec07b0c	0.37593877
65	0xbe1c4c90	-0.15263581
66	0xbdc4db08	-0.096120894
67	0x3e7296f0	0.2369039
68	0xbeea925d	-0.4581479
69	0xbd251b86	-0.04030945
70	0x3ea19847	0.3156149
71	0xbee38c15	-0.44442812
72	0x3deab6e8	0.11460668
73	0xbe405a1c	-0.18784374
74	0xbdaafb98	-0.08348769
75	0x3ef5854c	0.4795326
76	0x3eb979cc	0.36225736
77	0xbeb3eeba	-0.3514307
78	0x3e4d6822	0.20059255
79	0xbe1925c0	-0.14955807
80	0x3cd95b84	0.026532896
81	0x3e4753b1	0.1946552
82	0x3e9d180f	0.30682418
83	0xbee49b14	-0.44649565
84	0x3ed43475	0.41446272
85	0x3d2dd821	0.042442445
86	0x3e7c3fcf	0.24633716
87	0x3e5026a0	0.20327234
88	0x3d176790	0.036964
89	0xbef61e56	-0.4807002
90	0xbef2103a	-0.47278005
91	0xbedbd6be	-0.42937273
92	0xbec0aaf0	-0.37630415
93	0x3ea9082d	0.3301405
94	0x3e395700	0.18099594
95	0xbe7adcbd	-0.24498267
96	0x3e803367	0.25039217
97	0x3ebcb71b	0.36858448
98	0xbe7c5783	-0.24642758
99	0x3e927888	0.28607583
100	0xbed6746a	-0.41885692
101	0x3d117b49	0.035517965
102	0xbd343f23	-0.044005524
103	0x3ed47a70	0.41499662
104	0xbe056ec8	-0.13030541
105	0xbe4e1a27	-0.20127164
106	0x3e80f9c4	0.25190556
107	0x3dda9198	0.10672301
108	0x3e5e85ad	0.21730681
109	0x3e95a813	0.29229793
110	0xbe9fa9d4	-0.31184256
111	0x3edb82ed	0.42873326
112	0xbeedd76e	-0.46453422
113	0x3ecca117	0.39966652
114	0x3d0a9462	0.033832915
115	0xbe877f5b	-0.26464352
116	0xbc8461e8	-0.016159967
117	0x3ebb2d1a	0.36557847
118	0x3ecadf1f	0.39623353
119	0x3d8101b6	0.062991545
120	0x3ed28d18	0.4112327
121	0xbdbf7308	-0.09348112
122	0xbe6c357c	-0.23067278
123	0xbeb6d30e	-0.35707897
124	0x3ef80e25	0.4844829
125	0x3e95b511	0.29239705
126	0x3cd862a7	0.026414229
127	0x3e81e3e2	0.25369173
128	0xbd719a13	-0.058984827
129	0x3ecba8ba	0.39777166
130	0xbda3a3f8	-0.07990259
131	0x3e9b2ac2	0.3030606
132	0x3ec7edc3	0.39048585
133	0x3bf000ec	0.0073243286
134	0x3ed14477	0.40872547
135	0x3df515f1	0.119670756
136	0x3dccf4cc	0.10007629
137	0x3eed106d	0.46301594
138	0xbe78befd	-0.24291606
139	0xbe3b6df7	-0.18303667
140	0x3d031b60	0.03200853
141	0xbed8d552	-0.4235025
142	0xbe1468b0	-0.1449306
143	0x3dcd5a20	0.100269556
144	0x3ed554bc	0.4166621
145	0xbcb65ec3	-0.022261983
146	0x3efdb546	0.49552363
147	0x3e8b0cf8	0.27158332
148	0x3e39021b	0.1806721
149	0x3e9082f0	0.28224897
150	0xbed04d70	-0.4068408
151	0x3ef64761	0.48101333
152	0x3d6d85a0	0.057988763
153	0xbe4b76a0	-0.1986947
154	0x3d8e0e27	0.06936293
155	0xbdcafc98	-0.0991146
156	0x3db3e48f	0.087838285
157	0x3efb8f0b	0.4913257
158	0x3e1db38c	0.15400523
159	0x3e01e3a5	0.12684496
160	0xbcadf67b	-0.021235695
161	0x3eaae7f1	0.33380082
162	0x3e21ec7b	0.15812866
163	0xbef407ec	-0.47662294
164	0x3eae8682	0.34086996
165	0xbecfef40	-0.4061222
166	0xbdcf2f28	-0.10116416
167	0x3deadac0	0.114675045
168	0xbead5406	-0.33853167
169	0xbeb6ec82	-0.35727316
170	0x3e081719	0.13290061
171	0xbdfdb8b0	-0.12388742
172	0xbed2ca68	-0.4117005
173	0x3ec6b791	0.38811925
174	0x3e9d8369	0.3076432
175	0x3e4b2f24	0.19842201
176	0x3e06da9e	0.13169333
177	0x3efd46c1	0.49468043
178	0xbec3b586	-0.3822443
179	0xbe3aa459	-0.18226756
180	0x3e8125c9	0.2522414
181	0x3d85ce68	0.065335095
182	0xbe56b949	-0.20969118
183	0xbde62735	-0.11237947
184	0xbdb854d4	-0.09000555
185	0x3e89acb8	0.26889586
186	0xbe499933	-0.19687347
187	0xbe14af0e	-0.14519903
188	0xbcae4cd2	-0.021276865
189	0x3d02596b	0.031823557
190	0xbe2340a3	-0.15942626
191	0xbe17290f	-0.14761756
192	0x3e8a86fa	0.27056104
193	0xbec0d20a	-0.37660247
194	0xbedb32fc	-0.42812335
195	0x3d360c80	0.044445515
196	0x3ec9eca5	0.39438358
197	0xbc10d547	-0.008839912
198	0xbedb7248	-0.42860627
199	0xbe95a6c3	-0.29228792
200	0xbee8d8af	-0.45477816
201	0x3e1226f1	0.14272667
202	0xbeb4fc85	-0.35348907
203	0xbea289c3	-0.3174573
204	0xbe1d6fa9	-0.15374626
205	0x3e850c7e	0.25986093
206	0x3b8dbddd	0.004325612
207	0x3d2ef173	0.042710733
208	0x3e0f0dec	0.13970155
209	0xbe10b83d	-0.14132781
210	0x3e9578be	0.2919368
211	0xbee6f549	-0.45109013
212	0x3eb94150	0.36182642
213	0x3ec0beec	0.37645662
214	0xbd11b4c0	-0.035572767
215	0xbe5d47b5	-0.21609385
216	0x3ec58f1e	0.38585752
217	0xbecd6571	-0.40116456
218	0x3e968a7d	0.29402533
219	0xbe267884	-0.1625691
220	0xbd17d180	-0.03706503
221	0xbd9d1900	-0.07670784
222	0xbe8eb860	-0.27875042
223	0xbebd2278	-0.3694036
224	0xbe2d4fdc	-0.16924995
225	0xbe82569e	-0.2545671
226	0xbdd5c628	-0.10438186
227	0x3e47b840	0.1950388
228	0xbeaad818	-0.3336799
229	0xbe1ebd3c	-0.15501875
230	0x3d3d077e	0.046149723
231	0xbe6ce9a0	-0.23135996
232	0x3e84b5da	0.25919992
233	0x3e6b744a	0.2299358
234	0x3ddcf915	0.10789696
235	0xbd9c14e0	-0.07621169
236	0x3de4a4d8	0.11164254
237	0xbe6e3ec0	-0.23266125
238	0x3df27211	0.11838163
239	0x3ec1fd52	0.3788858
240	0xbdec3610	-0.11533749
241	0x3e560452	0.20900086
242	0x3eadb2f3	0.3392559
243	0x3ef67cc7	0.48142073
244	0xbe9df37e	-0.30849832
245	0xbed659f8	-0.41865516
246	0xbead5966	-0.33857268
247	0x3a79e000	0.0009531975
248	0xbede9cde	-0.43479055
249	0x3e811e32	0.2521835
250	0xbee5339f	-0.44765946
251	0xbc1e9039	-0.00967794
252	0xbea00daf	-0.3126044
253	0x3e4e3fff	0.201416
254	0x3d973c2d	0.073845245
255	0x3e8b30b6	0.271856

fc1.bias f4 [128]
0	0xbec689ad	-0.38776913
1	0x3eff73b6	0.49892968
2	0xbed52c82	-0.4163552
3	0xbd0647f0	-0.03278345
4	0xbea14fb3	-0.31506118
5	0x3e98c7fe	0.29840082
6	0x3d05aa55	0.032633144
7	0xbe28e4fa	-0.16493598
8	0xbe9d97eb	-0.30779967
9	0xbe343a27	-0.17600308
10	0x3d303ad5	0.043024857
11	0xbe50af57	-0.20379387
12	0x3eeeaa8e	0.46614498
13	0x3e5560a7	0.20837651
14	0xbe9353be	-0.28774828
15	0xbe9fcea2	-0.31212336
16	0xbef43fba	-0.4770487
17	0x3ef8c73d	0.48589507
18	0x3df1f6a0	0.11814618
19	0x3ee729cf	0.45149085
20	0xbe6c90e2	-0.23102143
21	0xbe724d83	-0.23662381
22	0xbe854ce4	-0.26035225
23	0x3e2ea069	0.17053379
24	0xbee853ef	-0.45376536
25	0x3e9d730b	0.30751833
26	0xbe15517f	-0.1458187
27	0xbe29f095	-0.16595681
28	0x3ef7ec17	0.4842231
29	0xbe8f5e43	-0.28001603
30	0xbdb19080	-0.08670139
31	0x3ed710be	0.4200496
32	0x3e7e5939	0.24838723
33	0x3e43b8cb	0.19113462
34	0x3efe801d	0.49707118
35	0x3d88eac8	0.06685406
36	0xbef90a65	-0.48640743
37	0xbed0279c	-0.4065522
38	0xbe6ea236	-0.23304066
39	0xbef7283f	-0.48272893
40	0x3d25d8c5	0.04048993
41	0xbe3a0b28	-0.18168318
42	0xbe318ca3	-0.17338805
43	0x3ec20207	0.37892172
44	0xbee2ea36	-0.44319314
45	0x3efcab82	0.493496
46	0x3e4d01ad	0.2002017
47	0x3ed3234c	0.41237867
48	0xbe905456	-0.28189343
49	0xbe8f6ae2	-0.28011233
50	0xbeae5332	-0.34047848
51	0xbefe3451	-0.4964929
52	0x3eee54d2	0.46549088
53	0xbe91d273	-0.28480873
54	0x3dcb14c3	0.09916069
55	0xbea81b36	-0.3283326
56	0x3e54bf00	0.20775986
57	0xbe1b4f95	-0.15167077
58	0x3e9420f7	0.289314
59	0xbe4c9617	-0.1997913
60	0x3ed3edbb	0.4139231
61	0x3ee6e074	0.4509312
62	0xbe821fec	-0.2541498
63	0x3ef7dac8	0.48409104
64	0xbeae74ee	-0.34073585
65	0x3da9c038	0.08288616
66	0xbcb2b43f	-0.021814464
67	0x3e6911cc	0.22760695
68	0x3ed2c930	0.4116912
69	0xbec03dad	-0.37547055
70	0xbe7afa6a	-0.24509588
71	0xbea60a5a	-0.32429773
72	0x3dda2800	0.10652161
73	0x3e60c915	0.21951707
74	0xbe1188af	-0.14212297
75	0x3ec8b9fe	0.392044
76	0x3ebaef08	0.3651049
77	0x3ee4cd7d	0.44688025
78	0xbdcd7179	-0.10031409
79	0xbcdc8d5d	-0.026922876
80	0x3ee3f93a	0.44526082
81	0xbe9568cc	-0.29181516
82	0x3e310be4	0.17289692
83	0xbe37da1e	-0.17954299
84	0x3eb975ce	0.3622269
85	0xbcda9b64	-0.026685424
86	0x3e9261d0	0.2859025
87	0xbd0d70b0	-0.034531295
88	0x3e0dde15	0.13854249
89	0xbe5450c7	-0.20733939
90	0x3d5aacc3	0.053387415
91	0x3ccb0f42	0.024787549
92	0x3eb36fdf	0.35046288
93	0xbd962720	-0.07331681
94	0xbeb8f14a	-0.3612159
95	0xbd430983	-0.047616493
96	0xbe90c188	-0.28272653
97	0x3ee76414	0.4519354
98	0xbdad6028	-0.08465606
99	0x3cece660	0.028918445
100	0xbd001aa2	-0.0312754
101	0x3dbd3470	0.09238517
102	0x3eba1f6a	0.36352092
103	0x3e5e77b4	0.2172535
104	0xbeecd2ea	-0.46254665
105	0x3eda5bf1	0.4264827
106	0xbed92b29	-0.4241574
107	0xbe32f4b4	-0.1747616
108	0x3d4602bb	0.048342448
109	0x3e99677a	0.2996176
110	0xbedb982f	-0.42889544
111	0xbe91f488	-0.28506875
112	0xbee57e75	-0.44823042
113	0xbc9e10e0	-0.019295156
114	0x3e809b97	0.25118706
115	0x3e39bd40	0.181386
116	0xbefd0aaa	-0.494222
117	0xbeabc073	-0.33545265
118	0x3c707340	0.014675915
119	0xbed76c76	-0.42074937
120	0x3e7a12e9	0.24421276
121	0xbe671c94	-0.22569495
122	0x3ed97a11	0.42475942
123	0xbc9fff65	-0.019530961
124	0xbed77675	-0.42082563
125	0x3ea6525e	0.32484716
126	0x3ec21ba8	0.37911725
127	0x3e7d6db4	0.2474888

fc2.weight f4 [64, 128]
0	0xbd84f93e	-0.06492852
1	0xbd529019	-0.051406953
2	0x3c649e8d	0.013953817
3	0x3d91b94f	0.07115423
4	0x3d5b90b0	0.05360478
5	0x3d8a1da6	0.06743936
6	0x3c7039c5	0.014662211
7	0xbd96fba2	-0.07372214
8	0xb9ac47a1	-0.00032859764
9	0x3d9f5864	0.07780531
10	0xbcbd83b6	-0.023134094
11	0x3d9a94a0	0.07547879
12	0xbdb48294	-0.08813968
13	0xbd972bdb	-0.07381412
14	0x3d812a31	0.063068755
15	0xbd9e2734	-0.07722321
16	0xbd61e53c	-0.055150256
17	0x3d18d0ed	0.037308622
18	0xbd88fdec	-0.06689057
19	0xbcb0ae9e	-0.021567639
20	0xbb9ca04c	-0.004779851
21	0x3b9a6a44	0.004712375
22	0xbd53d744	-0.051718965
23	0xbd305045	-0.0430453
24	0xbd5ef092	-0.054428644
25	0x3d85d5f6	0.065349504
26	0x3bac08f8	0.0052500926
27	0x3c41a99f	0.011820226
28	0xbcbc7482	-0.023004774
29	0xbcc4cbe7	-0.02402301
30	0x3bbef1b0	0.0058271512
31	0xbd8619f5	-0.0654792
32	0xbdb79cf6	-0.08965485
33	0xbb211420	-0.0024578646
34	0xbd8fee88	-0.07027918
35	0xbd8d79fb	-0.069080316
36	0x3c83b705	0.016078481
37	0x3d93d323	0.072180055
38	0x3cfc46d1	0.030795487
39	0xbc80ed95	-0.015738288
40	0x3dac56bf	0.08414983
41	0xba116a80	-0.0005547181
42	0xbc2d4205	-0.010574822
43	0x3d72ca1d	0.05927478
44	0xbb335c64	-0.0027368302
45	0x3b0c2d60	0.002138935
46	0xbd8a7dfb	-0.0676231
47	0xbd077db0	-0.03307885
48	0xbd182524	-0.037144795
49	0x3da680d5	0.081300415
50	0xbd8557f3	-0.065109156
51	0x3d9a99f6	0.07548897
52	0x3d721641	0.059103254
53	0xbd67da5c	-0.056604728
54	0xbd6771f9	-0.056505177
55	0xbda84853	-0.0821692
56	0xbcec891c	-0.028873973
57	0x3d220d15	0.039563257
58	0xbd953689	-0.072857924
59	0x3cbe469b	0.023227027
60	0x3ca08528	0.019594744
61	0x3d8b5e95	0.068051495
62	0x3bc45f80	0.00599283
63	0xbb5cd90e	-0.003369871
64	0x3d8da354	0.06915918
65	0xbda8f79a	-0.08250351
66	0x3db1b71c	0.086775035
67	0x3da48ca7	0.0803464
68	0xbc7f93a0	-0.015599161
69	0x3d50fbc2	0.051021345
70	0xbd0ccb84	-0.034373775
71	0x3c2f9b78	0.010718219
72	0xbd8363af	-0.064154975
73	0xbd001440	-0.031269312
74	0x3d09ed59	0.033673618
75	0x3c5b67c8	0.013391443
76	0xbce38506	-0.027773391
77	0xbdac423b	-0.0841107
78	0xbd605461	-0.05476797
79	0x3d4387e2	0.04773701
80	0x3da51574	0.080607325
81	0xbd8976f2	-0.0671214
82	0xbd8ce094	-0.068787724
83	0xbd5c96fe	-0.053854935
84	0x3c377128	0.011196412
85	0xbce8d8d2	-0.0284237
86	0x3cec2984	0.02882839
87	0x3d85d74f	0.065352075
88	0xbd3ecfb4	-0.0465848
89	0x3d4fdaa7	0.050745632
90	0xbc6a13b0	-0.01428692
91	0xbd90cd53	-0.070704125
92	0xbd465adb	-0.04842649
93	0xbdac5950	-0.084154725
94	0x3d89ab95	0.0672218
95	0xbc9131a6	-0.01772387
96	0x3d803844	0.06260732
97	0x3d673b62	0.056453116
98	0x3cc54d08	0.024084583
99	0xbdb2804d	-0.08715878
100	0x3d745eaf	0.05966061
101	0x3d3d8df1	0.046277944
102	0xbd99a4b8	-0.07502121
103	0xbd6f1d70	-0.058377683
104	0xbbe399d0	-0.006945826
105	0xbb088a7d	-0.0020834499
106	0x3d526afe	0.051371567
107	0x3b8cb790	0.0042943433
108	0xbd89ecbf	-0.06734609
109	0xbbbe9a40	-0.005816728
110	0xbdb5aec7	-0.08871227
111	0xbcdd95c4	-0.027048953
112	0xbbc6578a	-0.006052916
113	0x3d61639a	0.055026628
114	0x3dab9c03	0.08379366
115	0xbda6c314	-0.08142677
116	0xbc8139a8	-0.015774563
117	0xbcb63ddb	-0.022246292
118	0xbd6eb0e0	-0.05827415
119	0xbd5a4f33	-0.053298187
120	0x3c2e4bee	0.01063822
121	0x3c8f79e7	0.017514182
122	0xbd7601b7	-0.06006023
123	0x3d5bd854	0.053673103
124	0xbd5dba2f	-0.054132637
125	0x3cdfd1a6	0.027321648
126	0xbccd6d95	-0.025076667
127	0xbcbb9599	-0.022898482
128	0xbc2bdf27	-0.010490215
129	0xbd3cd4c8	-0.04610136
130	0xbd74277a	-0.05960796
131	0x3d9ebf53	0.07751336
132	0xbc93c679	-0.018038975
133	0xbd93f01a	-0.0722353
134	0xbd0cb762	-0.034354575
135	0xbb20ec53	-0.0024554923
136	0x3d68238e	0.056674533
137	0x3d9ef533	0.07761612
138	0xbdabbe92	-0.08385958
139	0x3d81fbb1	0.063468345
140	0x3ab849c8	0.0014060074
141	0x3d2fb5f0	0.04289812
142	0x3d9dee93	0.0771152
143	0x3d10a666	0.03531494
144	0x3b8f33e0	0.0043701977
145	0xbd0e25aa	-0.034703888
146	0x3c9c76ec	0.019099675
147	0x3d80d0be	0.062898144
148	0x3d600e2b	0.05470101
149	0x3d864efd	0.065580346
150	0x3c771df8	0.015082829
151	0x3d19258a	0.037389316
152	0x3d909510	0.070596814
153	0xbd974ac6	-0.07387309
154	0x3d63b63f	0.055593725
155	0xbdb584b7	-0.08863204
156	0x3ca9e4cf	0.020738987
157	0x3d9d0eaf	0.07668816
158	0xbcaf3df8	-0.021391854
159	0xbd8f515c	-0.0699794
160	0x3ac2edac	0.0014871857
161	0xbbcd56e6	-0.0062664626
162	0xbc5ecb55	-0.013598283
163	0x3d326e16	0.043562017
164	0xbd09d0ed	-0.033646513
165	0x3d43e37d	0.04782437
166	0xbc36f317	-0.011166356
167	0x3b9e66aa	0.004834016
168	0xbd1ea27b	-0.038729172
169	0x3d5924ee	0.053013735
170	0xbd2bd5cc	-0.04195194
171	0x3d326bda	0.043559887
172	0xbccc7ec0	-0.024962783
173	0x3a97576c	0.001154644
174	0xbd9347ec	-0.071914524
175	0x3c2bcb27	0.010485447
176	0xbd062a35	-0.032755096
177	0xbd7d6b40	-0.06186986
178	0xbce89dab	-0.028395494
179	0x3c9aa47c	0.01887726
180	0x3d419b20	0.04726708
181	0x3d45a563	0.04825343
182	0xbd644c57	-0.055736866
183	0xbd883375	-0.0665044
184	0x3d48717a	0.048936345
185	0x3af2a8c0	0.0018513426
186	0x3ce6695e	0.028126415
187	0xbbe21eb1	-0.0069006314
188	0xbd768c61	-0.06019247
189	0xbd28bbb2	-0.041194625
190	0x3da95e45	0.082699336
191	0xbd46bbb2	-0.048518844
192	0x3d9e7a73	0.07738199
193	0xbd30aa15	-0.043130953
194	0x3ce043f7	0.027376158
195	0xbcba8db6	-0.022772651
196	0xbd109aaa	-0.03530375
197	0x3d618443	0.055057775
198	0xbc91d792	-0.017802987
199	0xbd122a3f	-0.03568482
200	0x3d854c5b	0.06508704
201	0xba9f39c8	-0.0012147957
202	0x3d89b631	0.067242034
203	0xbda9de58	-0.08294362
204	0x3b0841e0	0.0020791218
205	0xbb1d0d6d	-0.0023964301
206	0x3d863458	0.065529525
207	0x3c5ef56b	0.013608317
208	0xbd63556a	-0.05550138
209	0x3d96bcd0	0.07360232
210	0x3d93e653	0.07221665
211	0x3d743e1f	0.059629556
212	0x3c7ba398	0.015358828
213	0xbc512a99	-0.012766504
214	0x3beef700	0.0072926283
215	0x3d1a41e6	0.037660502
216	0xbc714c2c	-0.014727633
217	0x3d95b0c4	0.07309106
218	0x3d9b53c7	0.07584339
219	0xbc29b918	-0.010359071
220	0xbd1a9f74	-0.037749723
221	0xbc94fc8c	-0.01818683
222	0x3d068caa	0.03284899
223	0xbdb269d7	-0.087115936
224	0xbc619abe	-0.013769804
225	0xbae998a9	-0.0017821986
226	0x3ce5b904	0.028042324
227	0x38289800	4.0195882e-05
228	0xbd907b1f	-0.070547335
229	0x3d672525	0.05643191
230	0xbd3e3a53	-0.04644234
231	0x3d19850e	0.037480406
232	0xbd1510ec	-0.03639309
233	0x3c66f94f	0.014097526
234	0xbb92edd6	-0.0044839187
235	0x3cddfcd8	0.027098104
236	0xbd870915	-0.06593529
237	0xbd92436e	-0.071417674
238	0x3b07a14b	0.0020695503
239	0xbd9177fe	-0.07102965
240	0xbd38ef87	-0.045150306
241	0x3d89d5ff	0.0673027
242	0x3d8322aa	0.06403096
243	0x3c2ec88b	0.01066793
244	0x3d77c44a	0.06048993
245	0x3d7ca121	0.061677102
246	0xbb81e940	-0.003964573
247	0xbdaae3cc	-0.0834423
248	0xbd9af4a9	-0.075661965
249	0xbd27dd0b	-0.040982287
250	0x3ce75009	0.028236406
251	0xbd39a7bf	-0.04532599
252	0x3d1f651c	0.038914785
253	0xbd46ecaa	-0.048565544
254	0x3daca08d	0.0842906
255	0x3d2b3330	0.041796863

fc2.bias f4 [64]
0	0x3daeb093	0.085297726
1	0x3c3ba70e	0.011453403
2	0xbd3f2850	-0.046669304
3	0x3d08e0da	0.03341756
4	0xbbadf016	-0.0053081615
5	0xbbd6c16c	-0.0065538194
6	0x3da1e0f1	0.07904232
7	0xbc61349f	-0.013745456
8	0xbd07ceef	-0.03315633
9	0x3d5d2186	0.05398705
10	0xbd1b4416	-0.03790673
11	0xbda5b8c7	-0.08091884
12	0x3d17efa3	0.03709377
13	0x3d955f41	0.07293559
14	0x3da7cfd2	0.081939355
15	0x3d730dbd	0.059339274
16	0x3ca5c9ea	0.020237882
17	0x3db30137	0.08740466
18	0xbd82d85d	-0.06388924
19	0x3d8e5f61	0.06951786
20	0xbc61643e	-0.01375681
21	0x3d9b8202	0.075931564
22	0x3da6ee98	0.08150977
23	0x3da50644	0.08057836
24	0x3d09cef0	0.033644617
25	0x3d911ef9	0.07085986
26	0xbd86a610	-0.06574643
27	0x3cc2a950	0.023762375
28	0x3d92bcf3	0.071649455
29	0x3d837def	0.06420504
30	0xbcd5edc1	-0.026114346
31	0xbd9afe01	-0.07567979
32	0x3cb7c8eb	0.022434672
33	0x3d94734e	0.07248555
34	0x3dab0b4a	0.083517626
35	0x3dad4c6d	0.08461843
36	0xbd0d1a9e	-0.034449212
37	0xbc80d370	-0.015725821
38	0x3c02f590	0.007993117
39	0x3d4707b7	0.04859134
40	0xbd2de69b	-0.04245625
41	0xbbf3bbfa	-0.00743818
42	0xbdb46534	-0.088083655
43	0x3d1b3518	0.03789243
44	0xbd4f4da2	-0.050611146
45	0x3d205682	0.039145
46	0x3da56062	0.08075024
47	0xbd844712	-0.06458868
48	0xbd876d2d	-0.066126205
49	0x3d42bafa	0.047541596
50	0x3d369a7a	0.044580914
51	0x3da0402e	0.07824741
52	0xbd96fe20	-0.07372689
53	0x3d1dd539	0.038533423
54	0x3d5c47eb	0.053779524
55	0xbc9d7a90	-0.019223481
56	0xbccf906c	-0.02533742
57	0x3d92f8e4	0.07176378
58	0xbcedf3e0	-0.029046953
59	0x3d489c2e	0.04897707
60	0x3d2362c4	0.039889112
61	0x3da2cdcc	0.07949409
62	0xbd666b80	-0.056254864
63	0x3b5c9827	0.0033660026

fc3.weight f4 [32, 64]
0	0x3dd51998	0.10405272
1	0xbcb7cb57	-0.022435827
2	0x3d8f3ab0	0.069936156
3	0xbde1bfba	-0.11022897
4	0xbde11bad	-0.10991607
5	0xbdde057f	-0.10840892
6	0x3d661dc1	0.05618072
7	0x3d71117c	0.058854565
8	0x3da9c244	0.08289006
9	0xbd1a2f04	-0.037642494
10	0xbd9729dd	-0.07381032
11	0x3d1d8684	0.038458362
12	0x3de5e76b	0.1122578
13	0xbbb55220	-0.0055334717
14	0x3de14124	0.10998753
15	0xbd8735bd	-0.06602047
16	0xbd880c60	-0.06642985
17	0x3d3b9653	0.045797657
18	0x3d5d432c	0.05401914
19	0x3dd54184	0.10412887
20	0xbd8c26e8	-0.06843358
21	0x3de28e32	0.11062278
22	0xbddd1eaf	-0.10796868
23	0x3ddb89f5	0.107196726
24	0xbcfa7e74	-0.030577876
25	0x3ca678c0	0.02032125
26	0x3c90294d	0.017597819
27	0x3c751e80	0.014960885
28	0xbda4a007	-0.08038335
29	0x3cf92a2a	0.030415613
30	0xbd3e6505	-0.04648306
31	0x3d0946ee	0.03351491
32	0xbdd2a738	-0.10285801
33	0x3cafad12	0.021444831
34	0x3dc70333	0.09717407
35	0x3c894696	0.01675729
36	0xbbb1d9e0	-0.005427584
37	0xbd4a3000	-0.049362183
38	0xbd6dcf00	-0.05805874
39	0x3ddcbf9d	0.10778735
40	0x3d06a3cd	0.032871056
41	0xbceb5803	-0.02872849
42	0xbc0c2d60	-0.00855574
43	0x3d866e22	0.06563975
44	0xbd9aad8e	-0.07552634
45	0x3da2015d	0.07910416
46	0xba664026	-0.00087833626
47	0x3c441c90	0.0119697
48	0xbd88f0d0	-0.06686556
49	0xbd73c354	-0.05951245
50	0xbd072724	-0.03299631
51	0x3de92b20	0.113851786
52	0x3dc6e52b	0.09711679
53	0xbdf4b850	-0.11949217
54	0xbd1cc177	-0.03827044
55	0x3d1a2ab8	0.037638396
56	0x3d9d7958	0.0768916
57	0xbbbd8c96	-0.0057845814
58	0x3cb598e1	0.022167625
59	0xbd3ce5e0	-0.046117663
60	0x3b934080	0.004493773
61	0xbdce59f5	-0.10075752
62	0x3bf4dacc	0.0074723717
63	0x3dc4b028	0.09603912
64	0xbd8ff117	-0.07028406
65	0xbd8302bf	-0.06397008
66	0x3e003ccd	0.12523194
67	0xbd29ab54	-0.041423157
68	0xbd0ed844	-0.034874216
69	0x3da54d97	0.0807144
70	0xbdb5530c	-0.088537306
71	0x3d6a1c01	0.057155613
72	0x3db7e2a9	0.08978779
73	0xbd8fe318	-0.070257366
74	0xbc50a35c	-0.01273426
75	0xbd3bc320	-0.045840383
76	0x3de9121f	0.113804094
77	0xbcda4cd8	-0.02664797
78	0xbc132eae	-0.008983297
79	0x3c23a111	0.009987132
80	0xbdec0fba	-0.11526437
81	0xbd8ba4bd	-0.06818531
82	0xbc0be695	-0.008538862
83	0xbca29650	-0.019847065
84	0x3db347e5	0.08753947
85	0x3da96cb4	0.082726866
86	0xbd0ef3be	-0.03490042
87	0x3c886452	0.016649399
88	0x3cab9711	0.020946058
89	0x3d4d6f94	0.050155237
90	0xbd4aff32	-0.04955978
91	0x3dde2082	0.10846044
92	0x3b7f5b3d	0.0038964294
93	0x3b1dc49c	0.0024073487
94	0xbd6a0766	-0.057135962
95	0x3d51b376	0.051196538
96	0xbdb91143	-0.090364955
97	0xbcbb593f	-0.022869704
98	0xbd2fb8b5	-0.04290076
99	0xbd04bdb1	-0.032407466
100	0x3c39bcd0	0.01133652
101	0xbd1996c2	-0.03749729
102	0xbddf482c	-0.109024376
103	0x3d95d041	0.07315112
104	0x3db475ef	0.088115565
105	0x3d8ea66c	0.06965336
106	0x3d9b8ce4	0.07595232
107	0xbd72587b	-0.059166413
108	0x3dd6f978	0.10496801
109	0x3d0f8b9c	0.03504525
110	0x3de34e94	0.11098972
111	0x3d9d93e0	0.076942205
112	0x3cc4546a	0.023966033
113	0x3df3d634	0.119060904
114	0x3d82f818	0.063949764
115	0x3b90edd4	0.0044228826
116	0x3dd46424	0.10370663
117	0x3d2c664d	0.04208975
118	0x3db5429a	0.08850594
119	0x3ded797a	0.115954354
120	0x3d4f2264	0.050569907
121	0x3d54a6ba	0.051916815
122	0x3dae0773	0.084975146
123	0xbd8e93d8	-0.06961793
124	0x3da2ed35	0.079554
125	0xbd5ac217	-0.053407755
126	0x3defe971	0.11714447
127	0x3d9cc981	0.07655621
128	0xbdba6f38	-0.091032445
129	0x3dbfa365	0.09357337
130	0x3cefb6fe	0.029262062
131	0x3db914ad	0.09037147
132	0xbde8aab4	-0.11360684
133	0xbcc502c8	-0.024049178
134	0x3cdd17d8	0.026988909
135	0xbd911ea3	-0.070859216
136	0x3df8b49e	0.12143825
137	0x3d963208	0.073337615
138	0xbda6de4c	-0.081478685
139	0xbdfd7bf6	-0.12377159
140	0x3dbcf50a	0.09226425
141	0x3d99b658	0.075054824
142	0xbcccf788	-0.025020376
143	0xbdaad48e	-0.08341323
144	0xbcd258a7	-0.025677038
145	0xbde03b3c	-0.10948798
146	0xbc22a2f3	-0.009926545
147	0x3deacbc8	0.114646494
148	0x3dbbcfc4	0.091704875
149	0xbbb5c69e	-0.0055473587
150	0x3ce43ed8	0.027861997
151	0xbd0575d0	-0.032583058
152	0x3dbf5c39	0.09343762
153	0x3dd1ade0	0.10238242
154	0x3d152da7	0.03642049
155	0xbdb730fc	-0.0894489
156	0xbde53f3b	-0.11193701
157	0xbde4e1f7	-0.11175912
158	0xbd0cdeb4	-0.034392074
159	0x3d534ac6	0.05158498
160	0xbdac7941	-0.08421565
161	0x3d2b7cd2	0.041867085
162	0x3c612b70	0.013743266
163	0xbd844dc2	-0.064601436
164	0x3ddff8b6	0.1093611
165	0x38e96000	0.00011128187
166	0x3dd823f6	0.10553734
167	0x3d437af9	0.047724698
168	0x3dca9d49	0.09893281
169	0xbdda0ae1	-0.10646606
170	0xbc3d1b20	-0.011542112
171	0x3dee5e4e	0.11639081
172	0x3d12c830	0.035835445
173	0x3da3d948	0.080004275
174	0x3de376d0	0.11106646
175	0xbcf288c8	-0.029606238
176	0xbd233639	-0.039846633
177	0x3da93dc4	0.08263734
178	0x3da2c498	0.079476535
179	0xbbc178cd	-0.005904293
180	0xbd155219	-0.036455248
181	0xbdbf4d25	-0.09340886
182	0xbcf95a83	-0.030438667
183	0xbd782698	-0.06058368
184	0xbdba3fdc	-0.090942115
185	0x3c8339ed	0.016018832
186	0xbd0fc501	-0.035099987
187	0xbbab9b00	-0.0052369833
188	0xbddb538f	-0.10709297
189	0x3d059e8b	0.0326219
190	0x3d308fc2	0.043105848
191	0x3d2763b8	0.040866584
192	0xbd9dce8e	-0.07705413
193	0xbda638cf	-0.08116304
194	0xbcad446a	-0.021150786
195	0xbdcab5a4	-0.098979264
196	0x3c4e5198	0.012592696
197	0xbd05950e	-0.032612853
198	0xbb614b8d	-0.0034377307
199	0xbd93237f	-0.07184505
200	0x3df1a76a	0.1179951
201	0x3d7b308c	0.061325595
202	0x3de59c9a	0.1121151
203	0xbcd91eb8	-0.026503906
204	0x3ce5a5f3	0.028033232
205	0x3df984d2	0.121835366
206	0xbdaf2bc4	-0.085532695
207	0xbdb11170	-0.08645904
208	0x3c33df04	0.010978464
209	0xbd7c3565	-0.06157436
210	0x3d473371	0.048633043
211	0xbdf0a0e2	-0.11749436
212	0xbd644f21	-0.055739526
213	0xbc10c103	-0.00883508
214	0xbdf42af2	-0.11922254
215	0x3dc89e6a	0.0979584
216	0xbdd7cfca	-0.105376795
217	0xbc55c470	-0.013047323
218	0x3d5be2b4	0.053682998
219	0xbcabf1b0	-0.020989269
220	0xbd429168	-0.04750195
221	0xbdf1ec9e	-0.11812709
222	0xbdb491ec	-0.08816895
223	0xbd021b2e	-0.0317642
224	0xbc90fff9	-0.017700182
225	0x3d24700a	0.04014591
226	0x3c4a9b30	0.012366101
227	0x3d80279c	0.06257555
228	0x3d8eef0c	0.06979188
229	0x3da79446	0.08182578
230	0x3d3c9828	0.046043545
231	0x3c3bda1e	0.011465577
232	0x3dc2a56a	0.095042065
233	0x3b230fd3	0.0024881258
234	0x3c9b5fc8	0.01896657
235	0xbcc043cc	-0.023469828
236	0xbdf52290	-0.11969483
237	0xbdd3eedd	-0.10348294
238	0xbdc24389	-0.094855376
239	0xbba27de0	-0.004958853
240	0xbd33dbd0	-0.0439108
241	0x3c3bb0e0	0.0114557445
242	0x3de43e22	0.111446634
243	0xbdcc9f68	-0.09991342
244	0x3cef7b32	0.029233549
245	0x3dee9e11	0.116512425
246	0xbcf688ed	-0.030094588
247	0xbcea2fd8	-0.028587267
248	0x3bc843c0	0.006111592
249	0x3d7ccd67	0.061719324
250	0xbd5a00e4	-0.053223506
251	0xbda5e092	-0.08099474
252	0x3d84e2c7	0.06488567
253	0x3db70c55	0.08937899
254	0xbd749766	-0.059714697
255	0x3d00cc9b	0.031445127

fc3.bias f4 [32]
0	0xbc28c658	-0.010301195
1	0x3deba71a	0.115064815
2	0xbc980e39	-0.01856147
3	0xbde65301	-0.112463005
4	0x3cf327e1	0.029682102
5	0xbde684ba	-0.11255784
6	0x3dfce388	0.12348086
7	0xbd4b28c4	-0.049599424
8	0xbddee612	-0.10883726
9	0xbc1ccd20	-0.00957039
10	0x3c94c62d	0.018160904
11	0xbdd68a6e	-0.10475622
12	0x3b2426a9	0.0025047457
13	0x3d8ce821	0.068802126
14	0x3c6265b0	0.0138181895
15	0x3dcfef0a	0.10153015
16	0xbcd77624	-0.026301451
17	0xbba71993	-0.005099484
18	0xbcf2a3a1	-0.02961904
19	0xbcf51d92	-0.029921327
20	0xbc505ef8	-0.012717955
21	0x3da55ad9	0.080739684
22	0xbdb29dc9	-0.087215014
23	0x3c58c3ea	0.013230303
24	0x3d1d8051	0.03845245
25	0xbca04386	-0.019563448
26	0xbd982e84	-0.07430747
27	0x3de43864	0.11143568
28	0xbd577744	-0.052603975
29	0xbdb8a152	-0.090151444
30	0x3d75e746	0.060035013
31	0x3dd61c82	0.10454656

fc4.weight f4 [6, 32]
0	0xbe033d3a	-0.12816325
1	0x3ddac4ec	0.10682091
2	0xbdc46c16	-0.09590928
3	0xbe2e1675	-0.17000754
4	0xbd90ea3d	-0.070759274
5	0x3d04009b	0.03222714
6	0xbe17c4b9	-0.14821137
7	0x3d60892c	0.054818317
8	0x3e320119	0.17383231
9	0x3dbc8c5e	0.092064604
10	0x3e30df59	0.172727
11	0x3de18ce3	0.110132
12	0x3d8fb1db	0.07016345
13	0xbd11eb70	-0.03562492
14	0x3dbd2812	0.092361584
15	0x3deea526	0.11652593
16	0xbd6bab89	-0.057536636
17	0xbe11b6fd	-0.1422996
18	0x3d2b8c2e	0.041881733
19	0x3e148ced	0.14506884
20	0xbdafc1d7	-0.08581894
21	0x3d4b50a5	0.049637455
22	0x3d79d26a	0.060991682
23	0xbd87e5fd	-0.06635664
24	0xbe26a275	-0.1627291
25	0x3e2c5b31	0.16831662
26	0xbe2ef7b9	-0.17086686
27	0x3c71df50	0.0147627145
28	0xbe078ee8	-0.13238108
29	0xbd868ace	-0.06569444
30	0xbe178401	-0.14796449
31	0x3d955e0e	0.0729333
32	0xbca6f1e0	-0.020379007
33	0x3dcd9770	0.1003865
34	0xbda2bf0e	-0.07946597
35	0x3e1778d4	0.14792186
36	0xbdd74037	-0.10510295
37	0x3df79234	0.12088433
38	0xbdf1b190	-0.118014455
39	0xbe2e0f66	-0.16998062
40	0x3b52ed40	0.003218487
41	0xbe2e0884	-0.16995436
42	0xbdf8cb3c	-0.12148139
43	0xbe2a0b21	-0.16605808
44	0xbd46efc2	-0.048568495
45	0xbd15fd68	-0.03661862
46	0xbe268e61	-0.1626525
47	0x3d30a8cc	0.043129727
48	0xbe262aa9	-0.16227211
49	0x3cb07004	0.021537788
50	0x3d4a7029	0.04942337
51	0x3df91a94	0.121632725
52	0xbdda0c2a	-0.10646851
53	0x3de8f6c5	0.113751926
54	0xbe00263e	-0.12514588
55	0xbdcaf6fd	-0.099103905
56	0xbdbfa225	-0.093570985
57	0xbdcd4442	-0.10022785
58	0xbdbbbca8	-0.09166843
59	0x3d9224a2	0.071358934
60	0x3d9f3f52	0.07775749
61	0xbb6710c7	-0.0035257803
62	0x3d85cea6	0.06533556
63	0xbd057d40	-0.03259015
64	0xbd2797fd	-0.04091643
65	0xbdf462fe	-0.11932944
66	0xbdac5495	-0.0841457
67	0xbd07884a	-0.03308896
68	0xbba1bbd7	-0.0049357223
69	0x3e2102c4	0.15723711
70	0x3e0af19f	0.13568734
71	0x3c733cb0	0.014846012
72	0x3e1f41f7	0.15552507
73	0xbdd3b3d3	-0.10337033
74	0xbd97cc01	-0.074119575
75	0x3da1362f	0.07871663
76	0xbdafe916	-0.085893795
77	0xbe2b5cbb	-0.16734593
78	0xbe141da0	-0.14464426
79	0x3d4b7d78	0.049680203
80	0x3dbf1a2b	0.09331163
81	0xbe0d0ed0	-0.13775182
82	0x3bd1a692	0.0063980306
83	0xb99dfcfb	-0.0003013386
84	0xbca6f3c3	-0.020379907
85	0x3ca754a2	0.020426098
86	0xbd828766	-0.063734815
87	0xbd8e3044	-0.069428
88	0xbdc2d7e0	-0.09513831
89	0x3dbf81de	0.09350942
90	0xbd3fd0dc	-0.046830043
91	0xbdefd0c2	-0.11709739
92	0xbda9caa0	-0.08290601
93	0xbde7b90e	-0.11314593
94	0x3dfdaa5e	0.123860106
95	0x3df16a46	0.11787848
96	0xbe0164a8	-0.12636054
97	0x3e0a3021	0.13494922
98	0x3d31d87e	0.043419354
99	0x3de07dd2	0.10961498
100	0x3de6ec2e	0.112755165
101	0x3da36564	0.07978323
102	0xbe16a152	-0.14709976
103	0xbda8920b	-0.082309805
104	0xbdf7711f	-0.12082123
105	0x3da7788a	0.08177288
106	0x3deecd59	0.11660261
107	0xbe31a90e	-0.17349645
108	0x3da9c396	0.08289258
109	0xbd0e775b	-0.034781795
110	0x3d88ebe4	0.066856176
111	0x3dc228f6	0.09480469
112	0xbdc1a77e	-0.09455775
113	0x3db4d964	0.088305265
114	0xbe1d619e	-0.15369269
115	0x3c3e1dd1	0.0116037885
116	0x3dacfc7e	0.084465966
117	0xbe202a14	-0.15641052
118	0x3b3d27af	0.0028862765
119	0x3e0d678f	0.13809036
120	0x3d173a54	0.03692086
121	0x3cdceec7	0.026969327
122	0x3cab6e20	0.020926535
123	0x3e10fd59	0.14159144
124	0x3d9c96ba	0.07645936
125	0x3b8812ba	0.004152623
126	0x3d1f798c	0.038934276
127	0x3dfed4b6	0.12442915
128	0x3daa59bc	0.08317897
129	0xbe02d579	-0.12776746
130	0xbe259e59	-0.16173686
131	0x3dc01afa	0.09380145
132	0xbe1a2642	-0.15053657
133	0x3e1486a1	0.14504482
134	0x3d862db2	0.065516844
135	0xbddb89e2	-0.107196584
136	0xbd6a2e14	-0.05717285
137	0x3e1c5b61	0.15269233
138	0x3df84382	0.12122251
139	0xbdbf6a66	-0.09346466
140	0x3de51ea2	0.11187483
141	0xbdb079c4	-0.08616975
142	0x3e279773	0.16366367
143	0x3dade8aa	0.08491643
144	0x3db00f7b	0.08596703
145	0xbe20e566	-0.15712509
146	0xbe0e9ad1	-0.13926245
147	0x3de8c53a	0.11365743
148	0x3e28e000	0.16491699
149	0x3d100a6c	0.03516619
150	0x3de58132	0.11206283
151	0xbe2e0789	-0.16995062
152	0x3db73f43	0.08947613
153	0xbd785625	-0.06062903
154	0x3c287550	0.010281876
155	0xbde0c8d3	-0.10975804
156	0x3cb3c278	0.021943316
157	0x3d2ab899	0.041679952
158	0x3e1a8a52	0.15091828
159	0x3e2e085d	0.16995378
160	0x3d39a7c3	0.045326006
161	0xbe2c962d	-0.16854163
162	0xbd64a7af	-0.055823978
163	0xbbfe1b1d	-0.007754697
164	0x3dce4677	0.10072034
165	0xbe214359	-0.15748347
166	0xbe22d8dd	-0.1590304
167	0x3dae5646	0.08512549
168	0xbd65562c	-0.055990383
169	0x3e22294d	0.15836067
170	0x3dcadc2d	0.099052764
171	0x3c079399	0.008274936
172	0x3c6005ef	0.01367329
173	0x3d74f39b	0.059802633
174	0x3d0419d4	0.032251194
175	0xbe1fb78b	-0.1559736
176	0x3d43886e	0.04773753
177	0xbdfe2728	-0.12409812
178	0x3dd3aa24	0.10335186
179	0x3d6673f2	0.056262918
180	0x3e002bd2	0.12516716
181	0xbda645be	-0.08118771
182	0x3ba964f8	0.005169507
183	0xbb31832a	-0.0027086237
184	0x3d3d808b	0.046265166
185	0x3d840eb9	0.064481206
186	0x3e23f917	0.16012989
187	0xbe081cda	-0.13292256
188	0x3c030bd0	0.007998422
189	0xbded2964	-0.1158016
190	0x3d4f7dfe	0.050657265
191	0x3d7fa7d0	0.062415898

fc4.bias f4 [6]
0	0x3e02d8a5	0.12777956
1	0x3c6ac67f	0.014329552
2	0x3e081e0b	0.1329271
3	0xbd70f501	-0.058827404
4	0xbd8fbfaa	-0.07018979
5	0x3cd63689	0.026149051
