src/params_data/240418_005728/125param.pt (torch, 46927 bytes, 8 tensors)

fc1.weight f4 [128, 4]
000000 7d 53 a7 bd 98 58 81 3e 6a fb e4 3e 8f 83 96 3e
       -0.08170221 0.25262904 0.44723064 0.29397246
000010 40 ad a9 be f2 30 f0 be be 40 c1 be 40 1f f5 3d
       -0.33139992 -0.46912342 -0.37744707 0.11968851
000020 c4 72 07 be f3 75 f5 3e cd 48 d6 be 26 96 4c be
       -0.13227373 0.4794155 -0.41852418 -0.19979152
000030 2c 35 db be 00 7a c8 ba 5a 2e a8 be 22 d2 a6 3e
       -0.42814004 -0.0015295148 -0.32847863 0.32582194
000040 70 e4 37 be 16 58 c2 be 6e 6d 36 3e a0 b2 17 3d
       -0.17958236 -0.3795783 0.17815182 0.037035584
000050 1c 66 4b be f5 9b 53 be 2e 31 4e 3e 25 2b 96 bd
       -0.1986317 -0.20664962 0.20135948 -0.07332448
000060 30 94 66 be f4 cd 7c be 66 f6 b2 3e fe 36 a3 3c
       -0.22517467 -0.2468794 0.34953612 0.019923683
000070 80 5c ac 3b 5c d2 f4 be 34 e2 b9 3c 08 9e ab bd
       0.0052600503 -0.4781674 0.02269087 -0.083797514
000080 4e 81 9e be 75 f1 b0 3e 93 b7 43 be 15 04 6c bc
       -0.30958027 0.34559217 -0.19112997 -0.01440527
000090 a6 a8 ef 3e e3 b9 8b 3e 7f 55 d9 3e 77 48 fc be
       0.46808356 0.27290258 0.4244804 -0.49274036
0000a0 78 3d c5 3d 34 7d 23 be f8 b7 c2 3d c4 43 d9 be
       0.09630865 -0.1596573 0.095077455 -0.42434514
0000b0 f3 b5 d9 bd ae 05 d1 3e 96 23 49 bc 18 3d a7 be
       -0.10630407 0.40824646 -0.012276551 -0.32663798
0000c0 c2 2b 14 3d 33 88 7a 3e b6 f7 3b be b4 ee f5 3e
       0.036174543 0.24466018 -0.18356213 0.4803368
0000d0 13 6b 1e be ff 6e 69 3e 83 3a 74 be 1a 66 f0 3e
       -0.15470533 0.22796248 -0.23850445 0.46952897
0000e0 0c 64 38 be 77 c7 b9 be 4e 7c 83 3e 80 1b a7 3b
       -0.18006915 -0.36284992 0.25680774 0.005099714
0000f0 3e 77 d9 3e 60 49 cc be 00 5e 3a be b8 04 78 be
       0.42473787 -0.3989973 -0.1819992 -0.2422055
000100 0c 7b c0 3e 90 4c 1c be 08 db c4 bd f0 96 72 3e
       0.37593877 -0.15263581 -0.096120894 0.2369039
000110 3a ac ef be 73 2c 1f bd 74 21 a1 3e d0 5b e4 be
       -0.46811086 -0.03886075 0.31470835 -0.44601297
000120 e8 b6 ea 3d 1c 5a 40 be 98 fb aa bd 4c 85 f5 3e
       0.11460668 -0.18784374 -0.08348769 0.4795326
000130 cc 79 b9 3e 56 1f b6 be 2b 99 50 3e c0 25 19 be
       0.36225736 -0.35570782 0.20370929 -0.14955807
000140 31 f7 8f 3c 85 ad 46 3e 9e dc 9d 3e 89 4e d9 be
       0.017573925 0.1940213 0.3083238 -0.4244273
000150 8f e6 da 3e 3f 19 2a 3d c0 b7 7b 3e 12 a6 5b 3e
       0.42754027 0.041527983 0.24581814 0.2145007
000160 90 67 17 3d 56 1e f6 be 3a 10 f2 be be d6 db be
       0.036964 -0.4807002 -0.47278005 -0.42937273
000170 23 cb c0 be 23 6f a8 3e d6 79 39 3e 4d be 90 be
       -0.3765498 0.3289729 0.18112883 -0.28270188
000180 2d b3 80 3e 59 26 bc 3e 4f 51 7d be 3c 33 95 3e
       0.251367 0.36748007 -0.24738048 0.2914065
000190 3f c7 cf be 4f b3 2b 3d 92 72 22 bd 82 92 e8 3e
       -0.405817 0.04191905 -0.039660044 0.45424277
0001a0 c8 6e 05 be 8d ae 4c be c1 70 80 3e c1 d2 e4 3d
       -0.13030541 -0.19988461 0.25086024 0.111730106
0001b0 98 4b 54 3e 92 b4 94 3e da ca 9f be 15 4e d6 3e
       0.20731962 0.29044014 -0.3120945 0.41856447
0001c0 06 68 f5 be 7e 73 cc 3e 31 93 0c 3d 35 29 85 be
       -0.47930926 0.39931864 0.03432006 -0.26008
0001d0 1f 92 00 bd c8 ab ba 3e 15 25 cb 3e df 73 ad 3d
       -0.031389352 0.36459184 0.3967673 0.08469366
0001e0 18 8d d2 3e 08 73 bf bd 7c 35 6c be 0e d3 b6 be
       0.4112327 -0.09348112 -0.23067278 -0.35707897
0001f0 ff 22 f4 3e c8 ea 94 3e fd 04 bf 3c fe 9a 8c 3e
       0.4768295 0.29085374 0.023317808 0.27462
000200 cf 9d 6a bd 32 cb ca 3e e1 73 a0 bd ff 1d 93 3e
       -0.057279404 0.3960815 -0.07834602 0.28733823
000210 2f 3e d3 3e ed b4 f7 3b 8c 72 d0 3e b7 b6 9d 3d
       0.4125838 0.00755941 0.40712392 0.07700866
000220 b2 f7 b2 3d 07 0a ed 3e d9 b1 79 be 82 60 3e be
       0.087386504 0.46296713 -0.2438425 -0.18591502
000230 60 1b 03 3d 52 d5 d8 be b0 68 14 be 20 5a cd 3d
       0.03200853 -0.4235025 -0.1449306 0.100269556
000240 2f 64 cf 3e 1f c4 b9 bc a7 8e fc 3e 2d 07 8f 3e
       0.40506122 -0.022676526 0.49327585 0.27935162
000250 97 f1 37 3e da c6 90 3e e8 2f d0 be 73 00 f1 3e
       0.17963253 0.28276712 -0.4066155 0.47070655
000260 a0 85 6d 3d a0 76 4b be a5 b3 8c 3d 98 fc ca bd
       0.057988763 -0.1986947 0.06870202 -0.0991146
000270 77 93 b5 3d 1a 02 fb 3e c9 01 19 3e 8b 0a 13 3e
       0.08866017 0.4902504 0.14942087 0.1435949
000280 3f 3f 4e bc 08 d5 aa 3e 51 e4 21 3e cd 01 e6 be
       -0.012588321 0.33365655 0.15809752 -0.4492325
000290 82 86 ae 3e 40 ef cf be 28 2f cf bd c0 da ea 3d
       0.34086996 -0.4061222 -0.10116416 0.114675045
0002a0 06 54 ad be 82 ec b6 be 18 54 0f 3e b0 b8 fd bd
       -0.33853167 -0.35727316 0.13996923 -0.12388742
0002b0 43 45 c3 be 27 82 c6 3e 55 53 9b 3e 22 71 36 3e
       -0.3813878 0.38771173 0.30337015 0.17816594
0002c0 ae e6 0f 3e f0 57 fd 3e dc 80 c5 be 4f d8 5b be
       0.14052841 0.49481153 -0.38574874 -0.21469234
0002d0 55 c1 83 3e 39 5e 94 3d 86 1c 4e be 2c d9 e8 bd
       0.25733438 0.07244534 -0.20128068 -0.11369547
0002e0 7e 3d ab bd 54 4b 89 3e 85 0e 45 be 69 2c 06 be
       -0.08361338 0.26815283 -0.1924382 -0.13102879
0002f0 90 59 b4 bc cc c6 08 3d 9b 7d 22 be 74 6d 12 be
       -0.022015363 0.033392712 -0.15868227 -0.14299566
000300 fa 86 8a 3e 0a d2 c0 be fc 32 db be 80 0c 36 3d
       0.27056104 -0.37660247 -0.42812335 0.044445515
000310 27 71 ce 3e 5c 3d 37 3a 0c f5 d6 be 53 b9 90 be
       0.40320703 0.0006990039 -0.4198383 -0.2826639
000320 63 80 ee be 58 70 1a 3e f3 88 ae be 77 0e 9a be
       -0.46582326 0.15081918 -0.3408886 -0.3008916
000330 76 4e 21 be 18 e2 84 3e ad 12 ba 3b 47 c3 9a 3d
       -0.15752587 0.25953746 0.005678496 0.075567774
000340 5b 4d 18 3e e1 90 0d be 85 a8 96 3e e5 2e f4 be
       0.14873259 -0.13824798 0.29425445 -0.47692028
000350 f1 c0 b7 3e 95 c5 c0 3e ed 7c 17 bd 16 a4 37 be
       0.3588939 0.37650743 -0.036984373 -0.17933688
000360 1e 8f c5 3e 7d a9 df be a0 33 8c 3e 84 78 26 be
       0.38585752 -0.43683997 0.27383137 -0.1625691
000370 80 d1 17 bd 00 19 9d bd 60 b8 8e be 78 22 bd be
       -0.03706503 -0.07670784 -0.27875042 -0.3694036
000380 dc 4f 2d be 9e 56 82 be 28 c6 d5 bd 40 b8 47 3e
       -0.16924995 -0.2545671 -0.10438186 0.1950388
000390 18 d8 aa be 3c bd 1e be d3 97 4d 3d a0 e9 6c be
       -0.3336799 -0.15501875 0.05019362 -0.23135996
0003a0 29 d1 8c 3e 91 9c 6a 3e 38 29 d3 3d 90 5b ff bd
       0.27503327 0.22911288 0.10310596 -0.12468636
0003b0 d8 a4 e4 3d c0 3e 6e be f3 dc ea 3d 52 fd c1 3e
       0.11164254 -0.23266125 0.11467924 0.3788858
0003c0 68 a7 f4 bd 8b 55 55 3e bc 21 af 3e 60 fc 02 3f
       -0.11945993 0.20833413 0.34205425 0.51166344
0003d0 7e f3 9d be f8 59 d6 be 66 59 ad be 00 e0 79 3a
       -0.30849832 -0.41865516 -0.33857268 0.0009531975
0003e0 a4 31 dd be 9d 9b 80 3e 7d 65 e5 be a2 5e 25 bd
       -0.43201935 0.25118724 -0.44803992 -0.040373452
0003f0 8b 7d 9f be 55 cd 4d 3e 68 c2 99 3d e2 ca 84 3e
       -0.3115047 0.20097859 0.07507783 0.25936037

fc1.bias f4 [128]
000000 59 7f c3 be b6 73 ff 3e cc f4 da be f0 47 06 bd
       -0.38183096 0.49892968 -0.4276489 -0.03278345
000010 06 a4 9d be 08 da a0 3e 4f fd d8 3c 22 a7 21 be
       -0.30789202 0.31416345 0.026487974 -0.15786412
000020 93 59 9f be 33 ba 33 be b0 77 42 3d 63 3c 52 be
       -0.31123027 -0.17551498 0.047477424 -0.20530848
000030 95 55 f6 3e 62 d8 4e 3e 1c a9 97 be a2 ce 9f be
       0.4811217 0.20199731 -0.29621208 -0.31212336
000040 ba 3f f4 be 24 68 f5 3e a0 f6 f1 3d 12 b5 e8 3e
       -0.4770487 0.47931015 0.11814618 0.45450646
000050 4d 33 6c be 54 24 7d be e4 4c 85 be 2c 70 2a 3e
       -0.23066445 -0.2472089 -0.26035225 0.16644353
000060 ae b1 ed be 70 9a a1 3e 4b a4 19 be 19 8c 2d be
       -0.4642462 0.3156314 -0.15004079 -0.16947974
000070 e9 a8 f6 3e ba 5e 8b be 80 90 b1 bd 96 95 d5 3e
       0.48175743 -0.27220708 -0.08670139 0.41715688
000080 cb 7f 7b 3e 81 89 40 3e 1c fc 00 3f c8 ea 88 3d
       0.24560468 0.18802454 0.5038469 0.06685406
000090 3a 1b f3 be 3b 47 d4 be 69 4f 6f be 58 45 f5 be
       -0.4748171 -0.41460595 -0.23370136 -0.47904468
0000a0 b6 0a df 3c 28 0b 3a be 05 50 2a be cb cf bb 3e
       0.027226787 -0.18168318 -0.16632088 0.3668197
0000b0 37 b3 e4 be 58 f0 01 3f ba 28 53 3e ac 7d d4 3e
       -0.4466798 0.5075736 0.20621005 0.4150213
0000c0 56 54 90 be 7b 6c 8a be 58 58 a4 be a5 bc fa be
       -0.28189343 -0.2703589 -0.3209865 -0.4897205
0000d0 27 48 f3 3e a0 ec 96 be ef c5 99 3d 36 1b a8 be
       0.47515985 -0.29477406 0.07508456 -0.3283326
0000e0 00 bf 54 3e b6 2b 17 be d6 60 8f 3e 85 60 50 be
       0.20775986 -0.14762768 0.28003567 -0.2034932
0000f0 97 85 d3 3e 74 e0 e6 3e ca 7c 84 be 8a 0b f6 3e
       0.41312858 0.4509312 -0.25876456 0.4805568
000100 8c ed b1 be 73 b3 aa 3d a4 d7 79 bb 02 8b 76 3e
       -0.34751546 0.083350085 -0.0038122917 0.24076465
000110 30 c9 d2 3e 24 16 bd be f3 10 7c be 5a 0a a6 be
       0.4116912 -0.36930954 -0.2461584 -0.32429773
000120 00 28 da 3d bc 69 53 3e e8 25 1e be fe b9 c8 3e
       0.10652161 0.20645803 -0.15444148 0.392044
000130 08 ef ba 3e bd 4e e6 3e 80 5a c2 bd 50 5a aa bc
       0.3651049 0.44981948 -0.09489918 -0.020795017
000140 67 04 e6 3e de 80 94 be e4 0b 31 3e 82 e2 33 be
       0.44925234 -0.29004568 0.17289692 -0.17566875
000150 ce 75 b9 3e 23 dd 9b bc d0 61 92 3e b0 70 0d bd
       0.3622269 -0.019026345 0.2859025 -0.034531295
000160 e6 2c 09 3e 66 af 5a be ad 9d 6c 3d 9d fc f3 3c
       0.13396034 -0.21355972 0.05776756 0.029783541
000170 9b de ad 3e 20 27 96 bd 4a f1 b8 be 58 69 51 bd
       0.33958897 -0.07331681 -0.3612159 -0.051125854
000180 ff 5a 95 be 27 5e e1 3e 28 60 ad bd 60 e6 ec 3c
       -0.29170987 0.44017145 -0.08465606 0.028918445
000190 4d 38 89 bc 18 01 ae 3d 00 f2 c1 3e b4 77 5e 3e
       -0.01675048 0.08496302 0.37879944 0.2172535
0001a0 a8 9f f5 be 9e e5 d7 3e 0e 74 da be 8c 6e 45 be
       -0.4797337 0.42167372 -0.42666668 -0.19280452
0001b0 e5 ab 2c 3d f2 30 99 3e 8c fd d7 be 88 f4 91 be
       0.04215612 0.29920155 -0.42185628 -0.28506875
0001c0 6b 38 ea be e0 10 9e bc c4 09 79 3e 19 ed 41 3e
       -0.45746168 -0.019295156 0.24320132 0.18938102
0001d0 aa 0a fd be b9 b8 a7 be 40 73 70 3c 76 6c d7 be
       -0.494222 -0.3275812 0.014675915 -0.42074937
0001e0 cc 39 70 3e d5 ff 60 be a9 7a e1 3e 61 16 e9 bc
       0.23459548 -0.21972592 0.44038895 -0.028453054
0001f0 cc 58 ce be 5b fb a3 3e 8d cd c2 3e a3 5c 78 3e
       -0.40302122 0.32027707 0.38047448 0.24254088

fc2.weight f4 [64, 128]
000000 c8 25 85 bd 19 90 52 bd b6 48 2b 3c 4f b9 91 3d
       -0.06501347 -0.051406953 0.010454347 0.07115423
000010 25 2f 47 3d 4b 01 86 3d 1b 6c 57 3c 0a 08 a2 bd
       0.048628945 0.06543215 0.013148333 -0.079116896
000020 ef 43 16 bb 33 5d 9f 3d 01 68 e6 bc 28 11 9d 3d
       -0.0022928675 0.07781448 -0.028125765 0.07669288
000030 22 06 ba bd c1 10 9b bd 05 d3 73 3d 34 27 9e bd
       -0.09083201 -0.07571555 0.059527416 -0.07722321
000040 3c e5 61 bd 0a 00 16 3d ec fd 88 bd bd 30 d9 bc
       -0.055150256 0.03662113 -0.06689057 -0.026512498
000050 e8 68 9c bb b9 69 8b 3b 44 d7 53 bd 43 10 2e bd
       -0.004773248 0.0042545465 -0.051718965 -0.042495977
000060 f2 7c 69 bd 3d e5 76 3d 82 c4 65 3b ff f2 2e 3c
       -0.057003923 0.060277212 0.0035059755 0.010678052
000070 ed dc b2 bc 80 7a c3 bc b0 f1 be 3b 9c d3 83 bd
       -0.021833861 -0.023862123 0.0058271512 -0.06436846
000080 01 0e b6 bd 3f a0 47 bb 8f 39 92 bd fb 79 8d bd
       -0.0888939 -0.0030460504 -0.07139885 -0.069080316
000090 97 5d 7b 3c 23 d3 93 3d 26 08 d4 3c 2a 1c 75 bc
       0.015342138 0.072180055 0.025882792 -0.014960328
0000a0 2d a9 ad 3d 80 6a 11 ba 1f 48 7f bc e8 34 74 3d
       0.08479533 -0.0005547181 -0.01558116 0.059620768
0000b0 bf 23 c0 bb 60 2d 0c 3b 0c a2 8f bd b0 7d 07 bd
       -0.0058636363 0.002138935 -0.0701333 -0.03307885
0000c0 24 25 18 bd d5 80 a6 3d f3 57 85 bd ff 09 9d 3d
       -0.037144795 0.081300415 -0.065109156 0.07667922
0000d0 40 82 6d 3d d5 c3 63 bd db f6 76 bd 53 48 a8 bd
       0.057985544 -0.05560668 -0.060294013 -0.0821692
0000e0 1c 89 ec bc 86 f0 0d 3d af e8 93 bd 48 8a 96 3c
       -0.028873973 0.03465321 -0.07222115 0.018376485
0000f0 84 47 a0 3c 95 5e 8b 3d 80 5f c4 3b 93 52 2f bb
       0.019565351 0.068051495 0.00599283 -0.00267521
000100 db f0 8e 3d fc 3c ac bd c3 c8 ad 3d e6 4d a3 3d
       0.06979533 -0.08410069 0.08485558 0.07973842
000110 a0 93 7f bc a4 8d 3b 3d 8b cb 0c bd 78 9b 2f 3c
       -0.015599161 0.045789376 -0.0343738 0.010718219
000120 af 63 83 bd 10 94 0f bd 4a ed 09 3d c8 67 5b 3c
       -0.064154975 -0.035053313 0.033673562 0.013391443
000130 06 85 e3 bc 96 b4 ab bd 16 d2 71 bd 73 65 33 3d
       -0.027773391 -0.083840534 -0.059038244 0.04379792
000140 5d d3 a5 3d 85 d0 8e bd 94 e0 8c bd 9a 8a 64 bd
       0.08096955 -0.06973366 -0.068787724 -0.055796243
000150 28 71 37 3c 79 11 e3 bc 84 29 ec 3c 4f d7 85 3d
       0.011196412 -0.027718293 0.02882839 0.065352075
000160 38 2e 3c bd a1 49 52 3d 47 49 69 bc 11 f9 8f bd
       -0.045942515 0.05133975 -0.014238662 -0.070299275
000170 69 04 42 bd 50 59 ac bd 95 ab 89 3d b4 8e 91 bc
       -0.047367487 -0.084154725 0.0672218 -0.017768241
000180 2a 31 7f 3d 8a 81 6a 3d 08 4d c5 3c 4d 80 b2 bd
       0.062302746 0.057252444 0.024084583 -0.08715878
000190 93 83 75 3d 1f b7 3b 3d 40 0f 9b bd 70 1d 6f bd
       0.059939932 0.045828935 -0.07571268 -0.058377683
0001a0 c5 da 0c bc 16 f1 c3 ba f4 6a 52 3d 7b 84 80 3b
       -0.008597081 -0.0014949169 0.05137153 0.003922043
0001b0 b1 ea 93 bd 40 9a be bb 4b 68 b7 bd c4 95 dd bc
       -0.07222498 -0.005816728 -0.08955439 -0.027048953
0001c0 ec 58 df bb 9a 63 61 3d 03 9c ab 3d 69 00 a5 bd
       -0.0068160202 0.055026628 0.08379366 -0.08056719
0001d0 a8 39 81 bc e1 c0 b9 bc e0 b0 6e bd 33 4f 5a bd
       -0.015774563 -0.02267498 -0.05827415 -0.053298187
0001e0 77 f3 1a 3c f1 4f 4d 3c c5 01 76 bd 69 60 5d 3d
       0.009457461 0.012531267 -0.06006028 0.054047022
0001f0 43 77 62 bd 1a 69 d0 3c db cb ce bc 9e 55 d5 bc
       -0.055289518 0.025440741 -0.02524369 -0.026041802
000200 ea f1 5d bc c8 d4 3c bd 0e 3c 6d bd 53 bf 9e 3d
       -0.013546446 -0.04610136 -0.0579186 0.07751336
000210 f2 1b 6b bc 90 84 94 bd af 5e 15 bd 35 38 ca 3a
       -0.014349924 -0.07251847 -0.03646725 0.0015428128
000220 c9 ab 68 3d 44 a3 9b 3d 02 27 a4 bd 5e bf 80 3d
       0.056804452 0.075995 -0.08015253 0.062865004
000230 bb 78 22 3b 98 31 34 3d e2 6c a2 3d 66 a6 10 3d
       0.00247912 0.04399261 0.07930924 0.03531494
000240 e0 33 8f 3b 8e 7d 3c bd ec 76 9c 3c 40 5f 88 3d
       0.0043701977 -0.046018176 0.019099675 0.066587925
000250 4d 51 56 3d 0a 36 82 3d f8 1d 77 3c 8d 29 10 3d
       0.05232363 0.063579634 0.015082829 0.035195876
000260 84 17 94 3d 99 7c a6 bd a0 93 58 3d 4e 0d b0 bd
       0.07231048 -0.08129234 0.05287516 -0.08596288
000270 3e f2 9c 3c 03 92 98 3d f8 3d af bc f2 f3 8e bd
       0.019158479 0.074497245 -0.021391854 -0.069801226
000280 76 10 94 3a 1f 5f 2a bc ee 1a 50 bc 16 6e 32 3d
       0.001129641 -0.010398655 -0.012701733 0.043562017
000290 e4 52 1e bd cb 4d 55 3d a0 50 f3 bb d8 aa 7c 3b
       -0.03865327 0.052076142 -0.0074253827 0.003855398
0002a0 cf e5 23 bd ee 24 59 3d 41 a5 1c bd 3b d4 27 3d
       -0.040014084 0.053013735 -0.038243536 0.040973883
0002b0 67 5c bd bc 67 86 5d 3c e8 04 91 bd 46 b7 8b 3c
       -0.02311535 0.013520814 -0.07081014 0.017055165
0002c0 35 2a 06 bd ca 66 67 bd 14 e5 a5 bc 68 04 93 3c
       -0.032755096 -0.05649451 -0.020250835 0.017946437
0002d0 2c a4 32 3d 57 86 47 3d 69 c6 59 bd 75 33 88 bd
       0.043613598 0.0487121 -0.053167734 -0.0665044
0002e0 7a 71 48 3d ac d9 b3 3b 88 df e0 3c d8 5c 56 bb
       0.048936345 0.005488595 0.027450338 -0.0032709148
0002f0 2e f1 81 bd b2 bb 28 bd 03 bb b0 3d 3c 4b 51 bd
       -0.063448295 -0.041194625 0.0862942 -0.05109714
000300 37 df 9a 3d c7 c4 2a bd db 61 db 3c b6 d2 e1 bc
       0.07562106 -0.041691568 0.02678006 -0.027566295
000310 aa 9a 10 bd 37 e3 70 3d 9d 79 69 bc 3f 2a 12 bd
       -0.03530375 0.05881044 -0.014250186 -0.03568482
000320 5b 4c 85 3d a1 3e ac 3a e7 94 90 3d 58 de a9 bd
       0.06508704 0.0013141223 0.07059651 -0.08294362
000330 e0 41 08 3b e9 f4 78 bb d4 2b 8c 3d 78 f0 65 3c
       0.0020791218 -0.0037987775 0.06844297 0.014034383
000340 83 62 69 bd 22 a3 97 3d 53 e6 93 3d 13 ee 6c 3d
       -0.056978714 0.07404162 0.07221665 0.057844233
000350 98 a3 7b 3c e2 e5 67 bc 00 f7 ee 3b e6 41 1a 3d
       0.015358828 -0.014153929 0.0072926283 0.037660502
000360 f7 14 86 bc 6e ee 93 3d e9 48 96 3d ac e8 3c bc
       -0.016367419 0.07223211 0.07338125 -0.011530083
000370 f1 be 18 bd 8c fc 94 bc aa 8c 06 3d 5a 31 bb bd
       -0.03729147 -0.01818683 0.03284899 -0.091402724
000380 07 80 87 bc 32 39 17 bb 04 b9 e5 3c 00 98 28 38
       -0.01654054 -0.0023074863 0.028042324 4.0195882e-05
000390 30 21 95 bd 7e 81 40 3d d4 4e 3a bd 0e 85 19 3d
       -0.07281721 0.046998493 -0.045485333 0.037480406
0003a0 7c bd 20 bd d4 29 63 3c c6 65 3e ba 2e a7 e7 3c
       -0.039243206 0.013864953 -0.000726309 0.02827796
0003b0 8d 27 7f bd 70 d7 72 bd b4 21 12 bc fe 77 91 bd
       -0.062293578 -0.05928749 -0.008919168 -0.07102965
0003c0 58 ab 37 bd ff d5 89 3d ed fd 86 3d 62 58 34 3c
       -0.04484114 0.0673027 0.06591401 0.0110074
0003d0 4a c4 77 3d ba cc 6a 3d 40 e9 81 bb cc e3 aa bd
       0.06048993 0.05732415 -0.003964573 -0.0834423
0003e0 5a 10 77 bd 86 c1 18 bd 6c 89 f7 3c cf 55 40 bd
       -0.06031833 -0.037293933 0.030216895 -0.046956833
0003f0 f9 3b 08 3d 0f 16 41 bd 44 db a4 3d 80 a1 31 3d
       0.03326032 -0.047140177 0.08049634 0.04336691

fc2.bias f4 [64]
000000 a4 24 b1 3d 60 38 8f 39 bb a5 52 bd b2 be fd 3c
       0.08649567 0.00027317088 -0.051427584 0.03097472
000010 13 24 0e 3c fd 25 0c 3c db 36 8c 3d e8 fe 7b bc
       0.008675593 0.008553979 0.068464 -0.015380599
000020 dd 11 d6 bc 86 21 5d 3d c3 75 32 bd c7 b8 a5 bd
       -0.026131565 0.05398705 -0.043569338 -0.08091884
000030 01 b1 5b 3d 41 5f 95 3d ff 6b ac 3d c5 d0 62 3d
       0.0536356 0.07293559 0.08419036 0.05537488
000040 d4 4a c9 3c a2 80 93 3d 86 c4 70 bd 61 5f 8e 3d
       0.024571814 0.07202269 -0.05878117 0.06951786
000050 cb 5a 2e bc 07 93 c4 3d 38 26 d2 3d be 7c a6 3d
       -0.010641764 0.09598356 0.10261196 0.081292614
000060 7a 4d ae 3c f9 1e 91 3d f9 23 91 bd 50 a9 c2 3c
       0.021277178 0.07085986 -0.07086939 0.023762375
000070 3e 83 83 3d 97 94 90 3d a2 94 d9 bc 35 20 a4 bd
       0.06421517 0.07059591 -0.026560131 -0.080139555
000080 47 34 ec 3b 02 43 61 3d 54 23 af 3d c2 49 b8 3d
       0.0072083804 0.054995544 0.0855166 0.08998443
000090 9e 1a 0d bd 87 89 a8 bc 90 f5 02 3c 55 a9 21 3d
       -0.034449212 -0.02057339 0.007993117 0.03946813
0000a0 1c 1e 12 bd c4 ce 00 3b 34 65 b4 bd e1 86 18 3d
       -0.035673246 0.0019654492 -0.088083655 0.037238006
0000b0 a2 4d 4f bd 24 c7 11 3d b9 99 a6 3d 1d df 70 bd
       -0.050611146 0.035590306 0.08134789 -0.058806527
0000c0 ca 0e 91 bd fa ba 42 3d 7a 9a 36 3d 29 40 a0 3d
       -0.07082899 0.047541596 0.044580914 0.078247376
0000d0 3b 61 7c bd 47 4b 47 3d 7f bd 76 3d 90 7a 9d bc
       -0.061616164 0.048655774 0.06023931 -0.019223481
0000e0 6c 90 cf bc 88 55 91 3d 8d 06 a6 bc 2e 9c 48 3d
       -0.02533742 0.07096392 -0.020266796 0.04897707
0000f0 a3 76 15 3d 63 4f a6 3d ac 61 6b bd 9c 4a 89 ba
       0.036490094 0.081206106 -0.057466194 -0.0010474506

fc3.weight f4 [32, 64]
000000 6b d6 d1 3d 93 a8 b9 bc dd 34 8f 3d 90 db de bd
       0.10245975 -0.02266339 0.06992505 -0.10881722
000010 b8 07 e2 bd e8 c2 df bd a9 04 67 3d 13 6d 73 3d
       -0.110366285 -0.10925847 0.05640093 0.059430193
000020 b4 c8 ab 3d 04 2f 1a bd 18 92 98 bd 84 86 1d 3d
       0.083878905 -0.037642494 -0.0744974 0.038458362
000030 3b 40 e5 3d 20 52 b5 bb b1 8e dc 3d 23 bb 7e bd
       0.111938916 -0.0055334717 0.10769404 -0.062190186
000040 3a ad 8b bd 26 18 3a 3d 38 78 5e 3d 84 41 d5 3d
       -0.0682015 0.045433186 0.05431387 0.10412887
000050 7d f5 8b bd 1a f2 e1 3d c2 14 e4 bd 54 6e d8 3d
       -0.068339325 0.11032505 -0.11136772 0.105679184
000060 51 ff f6 bc c0 78 a6 3c bf c7 9b 3c 80 1e 75 3c
       -0.030151041 0.02032125 0.019016145 0.014960885
000070 d3 12 9f bd e7 42 e8 3c 2d d7 43 bd 79 4d 0b 3d
       -0.07767262 0.028352214 -0.04781263 0.03400943
000080 b3 a0 d2 bd 13 ac ac 3c 6e ac c3 3d b3 53 85 3c
       -0.10284557 0.021078145 0.09554373 0.016275262
000090 e0 d9 b1 bb a2 ea 50 bd 00 cf 6d bd f1 9b d7 3d
       -0.005427584 -0.051005013 -0.05805874 0.1052779
0000a0 a9 8c 05 3d 40 8d ea bc 60 2d 0c bc a1 71 82 3d
       0.032604847 -0.028631806 -0.00855574 0.06369329
0000b0 8e ad 9a bd d1 f5 9e 3d e4 31 80 ba 84 a9 96 3c
       -0.07552634 0.077617295 -0.0009780494 0.018391378
0000c0 37 bf 89 bd 54 c3 73 bd 24 27 07 bd 20 2b e9 3d
       -0.067259245 -0.05951245 -0.03299631 0.113851786
0000d0 bf c6 c7 3d 94 2e f6 bd 67 48 1d bd b8 2a 1a 3d
       0.09754705 -0.12020603 -0.038399126 0.037638396
0000e0 58 79 9d 3d 02 8f bf bb b9 3d ad 3c e0 e5 3c bd
       0.0768916 -0.0058459053 0.021147596 -0.046117663
0000f0 4c cb 94 3b c6 0c cf bd ef f4 d0 3b fe 76 c4 3d
       0.0045408364 -0.10109858 0.0063768546 0.095930085
000100 ed 68 95 bd 65 31 83 bd be b2 ff 3d 91 95 35 bd
       -0.07295404 -0.06405906 0.12485264 -0.04433209
000110 4e 7b 12 bd ec 1d a5 3d 2a 52 b5 bd 42 5c 65 3d
       -0.035762124 0.08062348 -0.08853562 0.055996187
000120 72 a0 b4 3d 18 e3 8f bd ab fa 47 bc 20 c3 3b bd
       0.08819665 -0.070257366 -0.01220576 -0.045840383
000130 46 c8 e9 3d d8 4c da bc f1 0e 01 bc 8c c9 c5 3b
       0.11415152 -0.02664797 -0.007877097 0.006035989
000140 57 cc e2 bd c1 20 8b bd 20 a2 19 bc 50 96 a2 bc
       -0.11074131 -0.06793357 -0.0093770325 -0.019847065
000150 35 3b b2 3d e6 df a9 3d 26 f8 f7 bc 8a 5b 5a 3c
       0.08702699 0.08294658 -0.030269694 0.013327489
000160 66 2a ad 3c 94 6f 4d 3d 1f d1 55 bd 82 20 de 3d
       0.021138381 0.050155237 -0.052201387 0.10846044
000170 84 25 c7 39 b8 68 42 3b 59 8f 68 bd db 22 4a 3d
       0.0003798419 0.0029664468 -0.056777332 0.049349647
000180 fe a1 b8 bd d2 79 b8 bc 69 82 2e bd 68 97 05 bd
       -0.090152726 -0.022519026 -0.042604838 -0.032615095
000190 d0 bc 39 3c b8 ae 2e bd 2c 48 df bd b5 d4 99 3d
       0.01133652 -0.042647094 -0.109024376 0.07511274
0001a0 73 64 b3 3d 0a f5 8d 3d e4 8c 9b 3d 37 4a 78 bd
       0.087593935 0.06931503 0.07595232 -0.06061765
0001b0 78 f9 d6 3d 96 81 0a 3d 5f 99 e3 3d 8f e5 a0 3d
       0.10496801 0.03381499 0.111132376 0.07856285
0001c0 6f 5e c9 3c 34 d6 f3 3d 18 f8 82 3d 57 ee 90 3b
       0.024581162 0.119060904 0.063949764 0.0044229436
0001d0 07 c1 d3 3d a7 d0 32 3d 42 cc b4 3d 7a 79 ed 3d
       0.103395514 0.043656018 0.088280216 0.115954354
0001e0 64 22 4f 3d e1 b0 53 3d e6 83 b0 3d d8 93 8e bd
       0.050569907 0.051682357 0.08618908 -0.06961793
0001f0 93 60 a2 3d c1 9b 58 bd 59 8a ef 3d 57 41 99 3d
       0.07928576 -0.052882914 0.116963096 0.07483166
000200 38 6f ba bd 48 a3 bf 3d 76 b6 ef 3c 8b 14 b9 3d
       -0.091032445 0.09357315 0.029261809 0.090371214
000210 cc aa e8 bd 36 03 c5 bc 5f 17 dd 3c be 1e 91 bd
       -0.11360702 -0.024049383 0.026988683 -0.07085942
000220 80 b4 f8 3d 08 32 96 3d 67 de a6 bd f6 7b fd bd
       0.12143803 0.073337615 -0.08147889 -0.12377159
000230 f0 f4 bc 3d 58 b6 99 3d 88 f7 cc bc b4 d4 aa bd
       0.092264056 0.075054824 -0.025020376 -0.08341351
000240 35 59 d2 bc 57 3b e0 bd e7 a3 22 bc c8 cb ea 3d
       -0.025677303 -0.10948818 -0.009926773 0.114646494
000250 a6 cf bb 3d b8 c8 b5 bb d8 3e e4 3c d0 75 05 bd
       0.09170465 -0.005547609 0.027861997 -0.032583058
000260 1e 5c bf 3d e0 ad d1 3d 44 2d 15 3d fc 30 b7 bd
       0.09343742 0.10238242 0.03642012 -0.0894489
000270 56 3f e5 bd 19 e2 e4 bd b4 de 0c bd 80 4a 53 3d
       -0.11193721 -0.11175937 -0.034392074 0.05158472
000280 5f 79 ac bd 98 7c 2b 3d 70 2b 61 3c e1 4d 84 bd
       -0.08421587 0.04186687 0.013743266 -0.06460167
000290 b6 f8 df 3d 00 60 e9 38 f6 23 d8 3d a9 7a 43 3d
       0.1093611 0.00011128187 0.10553734 0.0477244
0002a0 2e 9d ca 3d 03 0b da bd 20 1b 3d bc 4e 5e ee 3d
       0.09893261 -0.106466316 -0.011542112 0.11639081
0002b0 30 c8 12 3d 48 d9 a3 3d b2 76 e3 3d e6 88 f2 bc
       0.035835445 0.080004275 0.11106624 -0.029606294
0002c0 71 36 23 bd c4 3d a9 3d 98 c4 a2 3d 50 79 c1 bb
       -0.03984684 0.08263734 0.079476535 -0.005904354
0002d0 5a 52 15 bd 43 4d bf bd 0e 5b f9 bc 98 26 78 bd
       -0.03645549 -0.093409084 -0.030438926 -0.06058368
0002e0 dc 3f ba bd 56 39 83 3c 45 c5 0f bd 00 9b ab bb
       -0.090942115 0.01601855 -0.03510024 -0.0052369833
0002f0 b4 53 db bd 51 9e 05 3d c2 8f 30 3d 78 63 27 3d
       -0.107093245 0.032621685 0.043105848 0.040866345
000300 cd 93 9f bd 63 6b a6 bd 74 72 ae bc 7a b5 ca bd
       -0.07791863 -0.08125951 -0.02129481 -0.09897895
000310 cd 3b 4b 3c dc 71 06 bd c7 00 63 bb d2 27 93 bd
       0.012404394 -0.03282343 -0.0034637915 -0.071853295
000320 6a a7 f1 3d 8c 30 7b 3d ed 53 e5 3d b8 1e d9 bc
       0.1179951 0.061325595 0.11197648 -0.026503906
000330 0e 6e e4 3c d2 84 f9 3d c4 2b af bd 70 11 b1 bd
       0.02788451 0.121835366 -0.085532695 -0.08645904
000340 59 9b 2f 3c 2b eb 7c bd 95 c6 46 3d e2 a0 f0 bd
       0.01071819 -0.06174771 0.048529226 -0.11749436
000350 75 92 64 bd 4b 30 13 bc fc 97 f9 bd 99 3b c1 3d
       -0.055803735 -0.008983682 -0.12187192 0.094351955
000360 b6 d1 d7 bd 70 c4 55 bc b4 e2 5b 3d b0 f1 ab bc
       -0.10538046 -0.013047323 0.053682998 -0.020989269
000370 68 91 42 bd b4 ff f1 bd 34 92 b4 bd 53 96 02 bd
       -0.04750195 -0.118163496 -0.088169485 -0.03188164
000380 e6 5f 91 bc dc f5 23 3d 30 9b 4a 3c 9b 81 7f 3d
       -0.017745923 0.04002939 0.012366101 0.06237946
000390 0c ef 8e 3d ab 99 a6 3d 28 98 3c 3d 37 92 36 3c
       0.06979188 0.081347786 0.046043545 0.011143259
0003a0 77 a5 c2 3d 03 04 1e 3b c8 5f 9b 3c f4 1c d1 bc
       0.09504216 0.0024111278 0.01896657 -0.025526501
0003b0 90 22 f5 bd 8b 3a d4 bd 25 a0 c2 bd e0 7d a2 bb
       -0.11969483 -0.10362729 -0.095032014 -0.004958853
0003c0 51 2a 34 bd e0 b0 3b 3c 22 3e e4 3d 68 9f cc bd
       -0.04398567 0.0114557445 0.111446634 -0.09991342
0003d0 7b 15 ef 3c c1 46 ee 3d c2 7b f7 bc d8 2f ea bc
       0.029185047 0.11634589 -0.03021038 -0.028587267
0003e0 c0 43 c8 3b 9b cd 7c 3d b4 18 5b bd 92 e0 a5 bd
       0.006111592 0.06171952 -0.053490356 -0.08099474
0003f0 ff 8c 84 3d 52 de b6 3d cd 61 75 bd de 0f 00 3d
       0.06472205 0.08929123 -0.059907723 0.031265132

fc3.bias f4 [32]
000000 c9 76 4a bc 43 b8 fd 3d b6 0e 98 bc f9 11 e7 bd
       -0.012357422 0.12388661 -0.018561702 -0.11282725
000010 d7 58 a1 3c a3 f9 d8 bd 53 88 13 3e c4 28 4b bd
       0.019695682 -0.105944894 0.14407472 -0.049599424
000020 12 e6 de bd 20 cd 1c bc f4 e1 7e 3c e9 00 cb bd
       -0.10883726 -0.00957039 0.015556801 -0.09912283
000030 e9 37 fc ba ea dd 87 3d b0 65 62 3c 0a ef cf 3d
       -0.0019242737 0.066341236 0.0138181895 0.10153015
000040 a8 97 d7 bc 68 3a 34 3b 58 81 08 bd 24 88 f4 bc
       -0.026317433 0.0027500633 -0.033326477 -0.029850073
000050 4f e5 4a bc 68 0e bf 3d 30 30 a6 bd 8e 50 24 3c
       -0.012383773 0.0932892 -0.0811466 0.010028971
000060 59 4f 06 3d 9f 77 ce bc 84 2e 98 bd 64 38 e4 3d
       0.032790516 -0.025203524 -0.07430747 0.11143568
000070 44 77 57 bd 52 a1 b8 bd 7a a7 59 3d 82 1c d6 3d
       -0.052603975 -0.090151444 0.053138234 0.10454656

fc4.weight f4 [6, 32]
000000 ad 7d f9 bd 1d 31 dc 3d 07 6c c4 bd c9 11 2e be
       -0.12182174 0.10751555 -0.09590917 -0.16998972
000010 d6 75 8f bd e5 44 05 3d 0a b0 0d be 2c 89 60 3d
       -0.07004897 0.032536406 -0.13836685 0.054818317
000020 19 01 32 3e 5e 8c bc 3d df 80 31 3e c3 16 dd 3d
       0.17383231 0.092064604 0.17334317 0.10795357
000030 99 0a 93 3d f2 6b 17 bd 12 28 bd 3d 26 a5 ee 3d
       0.07179756 -0.03696818 0.092361584 0.11652593
000040 04 ab 6b bd 2e e9 0d be f6 2c 31 3d 99 ab 14 3e
       -0.05753614 -0.13858482 0.04325577 0.14518584
000050 19 fd b0 bd 93 f4 4d 3d f0 03 59 3d d0 a8 82 bd
       -0.086420245 0.050282072 0.05298227 -0.06379855
000060 9f 45 25 be 64 30 2d 3e b9 f7 2e be 50 df 71 3c
       -0.1613984 0.16912991 -0.17086686 0.0147627145
000070 e8 8e 07 be cd 8a 86 bd b8 3b 15 be 0e 5e 95 3d
       -0.13238108 -0.06569443 -0.14573562 0.0729333
000080 f6 a4 94 bc 98 7f ce 3d fe be a2 bd 61 73 17 3e
       -0.018145066 0.1008293 -0.07946585 0.14790107
000090 83 db d4 bd e6 f0 f8 3d 05 98 fe bd 66 0f 2e be
       -0.10393431 0.12155323 -0.12431339 -0.16998062
0000a0 40 ed 52 3b 84 08 2e be 05 61 e6 bd 7e 9a 29 be
       0.003218487 -0.16995436 -0.11248974 -0.1656284
0000b0 14 9b 3a bd cb b0 31 bd 61 8e 26 be cc a8 30 3d
       -0.04555805 -0.043381494 -0.1626525 0.043129727
0000c0 52 2a 26 be 58 81 83 3c 5b e0 4f 3d 9e f6 f8 3d
       -0.16227081 0.016052887 0.05075107 0.121564135
0000d0 5e 30 c1 bd b0 66 e5 3d 67 bf 11 be 8a 45 d0 bd
       -0.094330534 0.11201227 -0.1423317 -0.101695135
0000e0 8c 6a be bd f1 ee c5 bd a8 bc bb bd a2 24 92 3d
       -0.09297666 -0.09664715 -0.09166843 0.071358934
0000f0 52 3f 9f 3d e6 0f 67 bb 85 49 8b 3d 40 7d 05 bd
       0.07775749 -0.003525728 0.06801132 -0.03259015
000100 5d a2 18 bd 6a 43 f4 bd 8b 54 ac bd b5 89 07 bd
       -0.037264217 -0.11926921 -0.08414563 -0.033090312
000110 1b 6e b1 bb 16 84 1f 3e bd 76 10 3e b0 3c 73 3c
       -0.005414737 0.1557773 0.14107795 0.014846012
000120 f7 41 1f 3e d3 b3 d3 bd ab 8e a4 bd 2a bc 9f 3d
       0.15552507 -0.10337033 -0.08035024 0.07799561
000130 9a af af bd 6b 68 29 be a0 1d 14 be 78 7d 4b 3d
       -0.08578415 -0.16543739 -0.14464426 0.049680203
000140 fe 19 bf 3d 6b bb 07 be 13 74 d1 3b 2f e5 0f 3a
       0.093311295 -0.13255088 0.006392011 0.0005489168
000150 98 bd df bc 94 ab ae 3c d0 d2 57 bd 44 30 8e bd
       -0.027312085 0.02132205 -0.05269128 -0.069428
000160 77 63 c2 bd ee 30 bd 3d dc d0 3f bd c2 d0 ef bd
       -0.09491628 0.09237848 -0.046830043 -0.11709739
000170 a0 ca a9 bd 09 b9 e7 bd dc a6 fb 3d 46 6a f1 3d
       -0.08290601 -0.113145895 0.12287685 0.11787848
000180 04 4c f2 bd 0c c3 0a 3e 91 d8 31 3d 03 64 e0 3d
       -0.11830905 0.13550967 0.043419424 0.10956576
000190 02 7e e2 3d 55 0d a2 3d 14 af 0b be 0b 92 a8 bd
       0.1105919 0.07912699 -0.13641006 -0.082309805
0001a0 1f 71 f7 bd 8a 78 a7 3d c3 a5 f6 3d 40 1d 2b be
       -0.12082123 0.08177288 0.12043335 -0.16710377
0001b0 7a 7a aa 3d fa ba 58 bd e4 eb 88 3d f6 28 c2 3d
       0.08324142 -0.05291269 0.066856176 0.09480469
0001c0 86 a7 c1 bd 3a a0 ba 3d f6 7b 1b be fd a9 41 3c
       -0.09455781 0.09112592 -0.15184006 0.0118203135
0001d0 0b c2 bd 3d 06 a7 1e be f2 6e 55 bb 60 4f 0b 3e
       0.092655264 -0.15493402 -0.003256735 0.13604498
0001e0 d6 2a 1d 3d 96 c2 e3 3c 20 6e ab 3c 59 fd 10 3e
       0.03837093 0.027802747 0.020926535 0.14159144
0001f0 ba 96 9c 3d 33 13 88 3b 38 d2 20 3d b6 d4 fe 3d
       0.07645936 0.0041526794 0.03926298 0.12442915
000200 bc 4a bb 3d 46 78 02 be 54 9e 25 be 3a 23 c0 3d
       0.09145114 -0.12741193 -0.16173679 0.09381719
000210 1a 63 19 be 70 88 13 3e 4a 00 72 3d e2 89 db bd
       -0.1497921 0.14407516 0.059082307 -0.107196584
000220 14 2e 6a bd 61 5b 1c 3e 73 35 f0 3d 52 e2 bc bd
       -0.05717285 0.15269233 0.11728945 -0.09222855
000230 c0 f0 e4 3d 5e 0b b4 bd 73 97 27 3e aa e8 ad 3d
       0.11178732 -0.087912306 0.16366367 0.08491643
000240 d4 0f b0 3d 27 83 21 be bd c1 0d be b0 ee e8 3d
       0.08596769 -0.15772687 -0.13843437 0.11373651
000250 bb c7 27 3e e5 80 09 3d f6 3e d1 3d 08 f9 2d be
       0.16384785 0.03357019 0.10217087 -0.16989529
000260 14 da b6 3d de d5 71 bd 50 75 28 3c d3 c8 e0 bd
       0.08928314 -0.05904185 0.010281876 -0.10975804
000270 78 c2 b3 3c a3 b8 2a 3d 1e 37 1b 3e 5d 08 2e 3e
       0.021943316 0.04167999 0.15157744 0.16995378
000280 4f 40 3a 3d 6f a2 2a be a6 a7 64 bd 84 bf fe bb
       0.045471486 -0.16663526 -0.055823945 -0.0077742953
000290 e6 dd cf 3d fa 0a 1e be d8 a0 34 be 46 56 ae 3d
       0.10149746 -0.15433875 -0.17639482 0.08512549
0002a0 2c 56 65 bd 4d 29 22 3e 2c c4 d9 3d 67 b3 d7 3b
       -0.055990383 0.15836067 0.1063312 0.0065826657
0002b0 3b 9b 8a 3c be 2d 50 3d d4 19 04 3d 8b b7 1f be
       0.016919723 0.050824873 0.032251194 -0.1559736
0002c0 b1 8a 43 3d 4f ba 02 be ad 4a d8 3d 96 68 65 3d
       0.04773969 -0.12766384 0.10561118 0.056007944
0002d0 f2 45 09 3e e6 55 a7 bd b9 52 46 bc 9a c0 4f bb
       0.13405588 -0.08170681 -0.012104684 -0.0031700493
0002e0 b7 64 40 3d ff f1 8a 3d 17 f9 23 3e da 1c 08 be
       0.04697105 0.06784438 0.16012989 -0.13292256
0002f0 d0 0b 03 3c 67 29 ed bd e8 36 5c 3d d0 a7 7f 3d
       0.007998422 -0.115801625 0.0537633 0.062415898

fc4.bias f4 [6]
000000 fd 50 05 3e 47 c1 62 3c 63 3f 07 3e 19 75 88 bd
       0.13019176 0.013840026 0.13207774 -0.066629596
000010 a8 ed 8f bd 21 0e ee 3b
       -0.07027751 0.007264868
