src/params_data/240418_005728/129param.pt (torch, 46927 bytes, 8 tensors)

fc1.weight f4 [128, 4]
00000000: d302 a7bd 5647 813e 45f3 e43e 8955 963e
00000010: 40ad a9be f230 f0be be40 c1be 401f f53d
00000020: f88b 07be e268 f53e 556f d6be 2e5d 4cbe
00000030: 2c35 dbbe 007a c8ba 5a2e a8be 22d2 a63e
00000040: 70e4 37be 1658 c2be 25f2 363e a0b2 173d
00000050: 1c66 4bbe 1109 53be 64f8 4d3e e024 96bd
00000060: fffd 65be a868 7dbe 66bd b23e 3147 a03c
00000070: 805c ac3b 5cd2 f4be 39b5 bc3c 089e abbd
00000080: 7364 9ebe e3f1 b03e f398 43be fc4c 85bc
00000090: a09f ef3e c4d7 8b3e e676 d93e d5ab fcbe
000000a0: 783d c53d 347d 23be a2f5 c23d c443 d9be
000000b0: 65fa d8bd 2e02 d13e 0b10 48bc b829 a8be
000000c0: 4a63 143d 3bcf 7a3e 50d9 3bbe a78c f63e
000000d0: 7958 1ebe a761 693e 551b 74be 34d3 ef3e
000000e0: 0c64 38be 9a30 babe d2b1 833e 801b a73b
000000f0: 3e77 d93e 6049 ccbe 005e 3abe b804 78be
00000100: 0c7b c03e 904c 1cbe 08db c4bd f096 723e
00000110: 4023 f0be ec68 1fbd 1b37 a13e 0531 e4be
00000120: e8b6 ea3d 1c5a 40be 98fb aabd 4c85 f53e
00000130: cc79 b93e 561f b6be f8c3 503e c025 19be
00000140: c22a 8f3c 7c66 463e 34ad 9d3e 1419 d9be
00000150: 11e8 da3e d7fa 283d 078b 7b3e 08ab 5b3e
00000160: 9067 173d 561e f6be 3a10 f2be bed6 dbbe
00000170: 5704 c1be e468 a83e a88b 393e 5a71 91be
00000180: f2b3 803e c808 bc3e e3a6 7dbe b403 953e
00000190: 3035 cfbe f92a 2c3d 0d05 23bd 051f e93e
000001a0: c86e 05be c94f 4cbe 23cf 803e a77b e53d
000001b0: a9a3 533e f497 943e c1e7 9fbe b12e d63e
000001c0: 369a f5be 1660 cc3e 7e9b 0b3d bc18 85be
000001d0: e498 01bd b4bb ba3e 2e24 cb3e f6a3 af3d
000001e0: 188d d23e 0873 bfbd 7c35 6cbe 0ed3 b6be
000001f0: 4707 f43e 2307 953e fd0e c03c 1720 8d3e
00000200: 3384 6bbd 0f94 ca3e 2460 a1bd 5d84 923e
00000210: 3777 d33e d557 fc3b c891 d03e 25f8 9a3d
00000220: bc21 b43d beff ec3e c1e0 79be 2ea5 3ebe
00000230: 601b 033d 52d5 d8be b068 14be 205a cd3d
00000240: e179 cf3e dae5 babc 4a77 fc3e 6615 8f3e
00000250: a1d4 373e ffa8 903e 4b41 d0be afaf f03e
00000260: a085 6d3d a076 4bbe f3d8 8d3d 98fc cabd
00000270: 5809 b73d 8c11 fb3e abf0 183e 887e 133e
00000280: 0634 4dbc b4c5 aa3e a7df 213e be98 e5be
00000290: 8286 ae3e 40ef cfbe 282f cfbd c0da ea3d
000002a0: 0654 adbe 82ec b6be 56d1 0f3e b0b8 fdbd
000002b0: 4014 c3be 9982 c63e dc55 9b3e 94a0 353e
000002c0: 2e4d 103e de6f fd3e fb57 c5be f5db 5cbe
000002d0: 870c 843e db99 943d d912 4ebe 66f8 e9bd
000002e0: dfbe abbd 121f 893e 3352 45be 81e0 05be
000002f0: e8c4 b1bc da20 073d 1dec 22be 43d6 11be
00000300: fa86 8a3e 0ad2 c0be fc32 dbbe 800c 363d
00000310: 8957 ce3e dd18 103a 6b1e d7be 3fcc 90be
00000320: c6a3 eebe efd2 1a3e 1847 aebe 13b8 99be
00000330: e282 21be dfe3 843e dbda bd3b 91df 9d3d
00000340: 352f 193e e2f8 0cbe a3e7 963e 156b f4be
00000350: 35c4 b73e dfcf c03e 82c3 17bd 0052 36be
00000360: 1e8f c53e 94f6 dfbe fed9 8b3e 8478 26be
00000370: 80d1 17bd 0019 9dbd 60b8 8ebe 7822 bdbe
00000380: dc4f 2dbe 9e56 82be 28c6 d5bd 40b8 473e
00000390: 18d8 aabe 3cbd 1ebe ce4e 4e3d a0e9 6cbe
000003a0: 92f6 8c3e 7db7 6a3e aea6 d33d 995e 01be
000003b0: d8a4 e43d c03e 6ebe fee7 ea3d 52fd c13e
000003c0: e0a2 f4bd b51c 553e 59f3 ae3e 142a 033f
000003d0: 7ef3 9dbe f859 d6be 6659 adbe 00e0 793a
000003e0: 975c ddbe e779 803e 4e79 e5be 4a8c 2abd
000003f0: cea1 9fbe 8109 4e3e f7f0 993d aca3 843e
-0.081548356 0.25249738 0.4471685 0.29362133 -0.33139992 -0.46912342 -0.37744707 0.11968851
-0.13236988 0.47931582 -0.41881815 -0.1995742 -0.42814004 -0.0015295148 -0.32847863 0.32582194
-0.17958236 -0.3795783 0.17865808 0.037035584 -0.1986317 -0.20608927 0.20114285 -0.07331252
-0.22460173 -0.24746954 0.34910125 0.019565197 0.0052600503 -0.4781674 0.023035632 -0.083797514
-0.30936012 0.34559545 -0.19101314 -0.01627206 0.46801472 0.27313054 0.42473525 -0.49349847
0.09630865 -0.1596573 0.09519507 -0.42434514 -0.10594634 0.40821975 -0.012210856 -0.3284433
0.036227502 0.24493115 -0.18344617 0.48154184 -0.15463437 0.22791158 -0.23838551 0.46840823
-0.18006915 -0.36365205 0.25721604 0.005099714 0.42473787 -0.3989973 -0.1819992 -0.2422055
0.37593877 -0.15263581 -0.096120894 0.2369039 -0.46901894 -0.03891842 0.31487355 -0.4456865
0.11460668 -0.18784374 -0.08348769 0.4795326 0.36225736 -0.35570782 0.20387256 -0.14955807
0.017476443 0.19375032 0.30796206 -0.42401946 0.42755178 0.041254845 0.24564753 0.21451962
0.036964 -0.4807002 -0.47278005 -0.42937273 -0.37698624 0.32892525 0.18119681 -0.28406793
0.25137287 0.3672545 -0.24770693 0.29104388 -0.40470266 0.04203317 -0.03979974 0.4553148
-0.13030541 -0.1995231 0.25158033 0.112052254 0.206679 0.2902218 -0.31231502 0.41832498
-0.47969216 0.39917058 0.034083836 -0.25995433 -0.03163995 0.3647133 0.3967604 0.08576195
0.4112327 -0.09348112 -0.23067278 -0.35707897 0.47661802 0.29107007 0.023444647 0.27563545
-0.057499122 0.39566085 -0.078796655 0.2861661 0.4130189 0.0077009 0.40736222 0.07566861
0.08795497 0.46288866 -0.24402143 -0.18617699 0.03200853 -0.4235025 -0.1449306 0.100269556
0.40522674 -0.02281468 0.4930976 0.27946013 0.17952205 0.28253934 -0.40674815 0.47009036
0.057988763 -0.1986947 0.069261454 -0.0991146 0.08937329 0.49036825 0.14935558 0.14403737
-0.01252461 0.3335396 0.15807973 -0.44843096 0.34086996 -0.4061222 -0.10116416 0.114675045
-0.33853167 -0.35727316 0.14044699 -0.12388742 -0.38101387 0.38771513 0.30338943 0.17737037
0.14091942 0.4949941 -0.38543686 -0.21568282 0.25790808 0.07255908 -0.20124377 -0.11424331
-0.08386015 0.26781517 -0.19269638 -0.13073923 -0.021700338 0.032990314 -0.15910383 -0.1424189
0.27056104 -0.37660247 -0.42812335 0.044445515 0.4030116 0.0005496869 -0.42015395 -0.28280827
-0.46609324 0.15119527 -0.34038615 -0.3002325 -0.15772584 0.25955102 0.005793912 0.077086575
0.14959414 -0.13766816 0.294736 -0.47737947 0.35891882 0.37658593 -0.037051685 -0.17804718
0.38585752 -0.43742812 0.27314752 -0.1625691 -0.03706503 -0.07670784 -0.27875042 -0.3694036
-0.16924995 -0.2545671 -0.10438186 0.1950388 -0.3336799 -0.15501875 0.050368123 -0.23135996
0.27531868 0.22921558 0.10334526 -0.12633742 0.11164254 -0.23266125 0.1147003 0.3788858
-0.119451284 0.20811732 0.34170035 0.5123608 -0.30849832 -0.41865516 -0.33857268 0.0009531975
-0.43234703 0.25093004 -0.4481911 -0.041637696 -0.31178135 0.20120813 0.075166635 0.25906122

fc1.bias f4 [128]
00000000: 9e70 c3be b673 ff3e 7442 dbbe f047 06bd
00000010: b061 9dbe dace a03e dc74 d53c c34c 21be
00000020: 335c 9fbe ed64 33be eff1 423d a137 52be
00000030: 65c4 f63e 1eaa 4e3e 7e81 97be a2ce 9fbe
00000040: ba3f f4be ac6a f53e a0f6 f13d 6aca e83e
00000050: fd99 6cbe aea1 7dbe e44c 85be f65c 2a3e
00000060: 9b0b eebe 56a4 a13e 2de7 18be 07dc 2dbe
00000070: 7f81 f63e 322f 8bbe 8090 b1bd 00ad d53e
00000080: 4ed9 7a3e 4aa5 403e a8fc 003f c8ea 883d
00000090: bbf6 f2be 7a87 d4be c6bc 6ebe c02a f5be
000000a0: ab51 db3c 280b 3abe cdd2 29be 4aac bb3e
000000b0: fa99 e4be 56ff 013f 2f03 533e 0845 d43e
000000c0: 5654 90be 6b7d 8abe 6707 a4be 3591 fabe
000000d0: 9488 f33e 0315 97be 9655 983d 361b a8be
000000e0: 00bf 543e fafd 16be 685b 8f3e fb5a 50be
000000f0: 3150 d33e 74e0 e63e 26a3 84be ba18 f63e
00000100: 93f6 b1be 2c39 ab3d 6ee9 4dbb e102 773e
00000110: 30c9 d23e 9dd6 bcbe 642c 7cbe 5a0a a6be
00000120: 0028 da3d c20f 533e 9988 1ebe feb9 c83e
00000130: 08ef ba3e 476a e63e 1908 c3bd 3f58 aabc
00000140: 1c1e e63e cd50 94be e40b 313e a902 34be
00000150: ce75 b93e 6667 97bc d061 923e b070 0dbd
00000160: 0e4a 093e 713a 5bbe 9b8d 6c3d f553 f83c
00000170: 9778 ad3e 2027 96bd 4af1 b8be 4e40 52bd
00000180: 7cae 95be 1055 e13e 2860 adbd 60e6 ec3c
00000190: bbbf 83bc 434f ad3d 1939 c23e b477 5e3e
000001a0: 31dc f5be 76e4 d73e ed6b dabe b975 46be
000001b0: 5dc9 2a3d 143c 993e b4be d7be 88f4 91be
000001c0: 6482 eabe e010 9ebc 204b 793e 8339 423e
000001d0: aa0a fdbe fe94 a7be 4073 703c 766c d7be
000001e0: f618 703e 8af2 60be c9da e13e ed4f ebbc
000001f0: 4b62 cebe d50a a43e 81bd c23e ffa0 783e
-0.38171858 0.49892968 -0.42824137 -0.03278345 -0.30738592 0.31407815 0.0260567 -0.15751939
-0.3112503 -0.17518969 0.047594007 -0.20529033 0.48196712 0.20182082 -0.29590982 -0.31212336
-0.4770487 0.47932947 0.11814618 0.4546693 -0.23105617 -0.24768707 -0.26035225 0.16637024
-0.4649323 0.3157069 -0.14931937 -0.16978465 0.48145673 -0.27184445 -0.08670139 0.4173355
0.24496958 0.18813053 0.5038552 0.06685406 -0.47453865 -0.4150961 -0.23314199 -0.47884178
0.02677234 -0.18168318 -0.1658432 0.36654884 -0.44648725 0.50780237 0.20606683 0.41458917
-0.28189343 -0.2704881 -0.32036898 -0.4893891 0.47565138 -0.29508218 0.07438199 -0.3283326
0.20775986 -0.14745322 0.27999425 -0.20347206 0.4127212 0.4509312 -0.25905722 0.4806574
-0.34758434 0.08360514 -0.0031419653 0.24122192 0.4116912 -0.36882487 -0.24626309 -0.32429773
0.10652161 0.2061148 -0.15481795 0.392044 0.3651049 0.45002958 -0.09523029 -0.020794032
0.44944847 -0.28967896 0.17289692 -0.1757914 0.3622269 -0.018481921 0.2859025 -0.034531295
0.13407156 -0.21409012 0.057752233 0.030313471 0.33881065 -0.07331681 -0.3612159 -0.051330857
-0.29234684 0.4401021 -0.08465606 0.028918445 -0.016082635 0.084623836 0.37934187 0.2172535
-0.48019555 0.4216649 -0.42660466 -0.19380845 0.04169594 0.29928648 -0.42137682 -0.28506875
-0.45802605 -0.019295156 0.24345064 0.18967251 -0.494222 -0.3273086 0.014675915 -0.42074937
0.23447022 -0.21967521 0.44112232 -0.028724635 -0.40309367 0.32039514 0.38035205 0.24280165

fc2.weight f4 [64, 128]
00000000: 7914 85bd 1990 52bd bc62 283c 4fb9 913d
00000010: 6c0d 473d ac31 863d 2fcd 583c 5a20 a2bd
00000020: 3681 20bb e26e 9f3d 52ab e6bc 7a0a 9d3d
00000030: 1b6d babd 584b 9bbd 5cd1 733d 3427 9ebd
00000040: 3ce5 61bd b73f 163d ecfd 88bd 4e71 d9bc
00000050: 3d4c 9bbb f2cf 8c3b 44d7 53bd 02fc 2dbd
00000060: 8c48 6abd 64a5 753d 7570 6b3b 4df8 2d3c
00000070: a5d8 b2bc c041 c3bc b0f1 be3b 92d3 83bd
00000080: f11e b6bd 794a 44bb ce76 92bd fb79 8dbd
00000090: c230 7c3c 23d3 933d 5dc4 d33c f401 75bc
000000a0: 1bb2 ad3d 806a 11ba 1bd0 7fbc 3e4e 743d
000000b0: 97ad c6bb 602d 0c3b 7209 90bd b07d 07bd
000000c0: 2425 18bd d580 a63d f357 85bd 8102 9d3d
000000d0: e7d4 6d3d c0db 63bd 7a10 77bd 5348 a8bd
000000e0: 1c89 ecbc 0dcd 0d3d 93df 93bd 664d 963c
000000f0: 458f a03c 955e 8b3d 805f c43b 4f53 2ebb
00000100: 1ff6 8e3d c385 acbd c6f7 ad3d 3768 a33d
00000110: a093 7fbc 4363 3b3d 8bcb 0cbd 789b 2f3c
00000120: af63 83bd a1a6 0fbd 4aed 093d c867 5b3c
00000130: 0685 e3bc 03a6 abbd 90da 71bd 5197 323d
00000140: 80df a53d 1438 8fbd 94e0 8cbd cb2f 64bd
00000150: 2871 373c 0bfc e2bc 8429 ec3c 4fd7 853d
00000160: c81b 3cbd d256 523d abca 68bc 7fec 8fbd
00000170: 6c19 42bd 5059 acbd 95ab 893d 2a41 91bc
00000180: a84e 7f3d 7661 6a3d 084d c53c 4d80 b2bd
00000190: de9f 753d b4e5 3b3d 7e42 9bbd 701d 6fbd
000001a0: 33aa 0bbc 5f1a c9ba f46a 523d d397 7b3b
000001b0: f7f9 93bd 409a bebb 344c b7bd c495 ddbc
000001c0: 5c0c debb 9a63 613d 039c ab3d 6afc a4bd
000001d0: a839 81bc ba63 b9bc e0b0 6ebd 334f 5abd
000001e0: d460 1c3c 05cc 4c3c c501 76bd 6075 5d3d
000001f0: 4231 62bd a584 cf3c 6979 cebc c428 d5bc
00000200: c8a2 59bc c8d4 3cbd 4505 6dbd 53bf 9e3d
00000210: 529a 5ebc 9634 93bd af23 12bd cf94 213b
00000220: 1012 693d 2328 9c3d e293 a2bd aa0c 813d
00000230: f17c 263b 863d 343d 8ede a33d 66a6 103d
00000240: e033 8f3b ccbd 39bd ec76 9c3c 04ea 893d
00000250: 4a64 573d a1e1 823d f81d 773c 5dfd 103d
00000260: d93e 943d 7766 a6bd f059 5b3d 4b0a b0bd
00000270: 1944 9e3c 060b 993d f83d afbc 84a7 8ebd
00000280: 29d0 a43a 1aa6 23bc 657c 4ebc 166e 323d
00000290: 1d68 1cbd b421 553d 0ef9 dabb 5009 843b
000002a0: fd19 23bd ee24 593d bd83 19bd d5b4 283d
000002b0: 3cd3 bcbc 5769 5c3c 4cdc 90bd 08d2 8e3c
000002c0: 352a 06bd f513 65bd 4730 a6bc 3d3e 943c
000002d0: 4a04 373d a316 483d 46dc 56bd 7533 88bd
000002e0: 7a71 483d 81b4 cd3b a862 e23c cd17 26bb
000002f0: f06b 81bd b2bb 28bd ff8a b03d 608c 50bd
00000300: 773f 9b3d fa60 2abd bf86 e03c ff7d debc
00000310: aa9a 10bd 3c43 743d 91d5 69bc 3f2a 12bd
00000320: 5b4c 853d a663 043b 1790 903d 58de a9bd
00000330: e041 083b 45c5 6abb 60a9 8d3d 89e8 663c
00000340: b78b 68bd 84cc 973d 53e6 933d 7869 6f3d
00000350: 98a3 7b3c e3fa 64bc 00f7 ee3b e641 1a3d
00000360: 0b7b 84bc 094e 943d 42c6 963d d473 39bc
00000370: 5531 18bd 8cfc 94bc aa8c 063d 049c babd
00000380: 304a 85bc d57f 0ebb 04b9 e53c 0098 2838
00000390: b8a9 94bd 2410 423d 31dd 39bd 0e85 193d
000003a0: f87b 1dbd 2331 653c 29a0 44ba 3692 e83c
000003b0: 8626 7cbd 7337 72bd 37cb 07bc fe77 91bd
000003c0: da4a 36bd ffd5 893d 04ee 863d 38ec 363c
000003d0: 4ac4 773d 8a3f 6c3d 40e9 81bb cce3 aabd
000003e0: 32be 73bd baa4 15bd 076d f73c ec81 3fbd
000003f0: 03ee 0c3d c5fa 40bd 7972 a53d 2674 343d
-0.064980455 -0.051406953 0.010277446 0.07115423 0.048596784 0.06552443 0.013232513 -0.07916327
-0.0024491078 0.07784821 -0.028157864 0.07668014 -0.091028415 -0.0758273 0.059525833 -0.07722321
-0.055150256 0.036681857 -0.06689057 -0.026543286 -0.004739313 0.00429725 -0.051718965 -0.04247666
-0.057198092 0.059972182 0.0035925184 0.010618282 -0.02183182 -0.023835063 0.0058271512 -0.06436838
-0.0889262 -0.0029951616 -0.071515664 -0.069080316 0.015392484 0.072180055 0.02585047 -0.014954079
0.084812365 -0.0005547181 -0.015613581 0.05964493 -0.006063174 0.002138935 -0.070330516 -0.03307885
-0.037144795 0.081300415 -0.065109156 0.07666493 0.058064368 -0.05562949 -0.060318448 -0.0821692
-0.028873973 0.03461938 -0.07220378 0.018347453 0.019599566 0.068051495 0.00599283 -0.0026599949
0.069805376 -0.084239505 0.08494525 0.07978862 -0.015599161 0.04574896 -0.0343738 0.010718219
-0.064154975 -0.03507102 0.033673562 0.013391443 -0.027773391 -0.083812736 -0.059046328 0.043601338
0.0809927 -0.06993118 -0.068787724 -0.05570964 0.011196412 -0.027708074 0.02882839 0.065352075
-0.04592493 0.05135233 -0.014208476 -0.0702753 -0.047387525 -0.084154725 0.0672218 -0.017731268
0.06233087 0.057221852 0.024084583 -0.08715878 0.059966914 0.04587336 -0.07581042 -0.058377683
-0.008524465 -0.0015342942 0.05137153 0.0038390055 -0.072254114 -0.005816728 -0.089500815 -0.027048953
-0.0067763757 0.055026628 0.08379366 -0.08055957 -0.015774563 -0.022630561 -0.05827415 -0.053298187
0.00954457 0.012499814 -0.06006028 0.054067016 -0.055222757 0.025331805 -0.025204377 -0.026020415
-0.013283439 -0.04610136 -0.057866354 0.07751336 -0.0135865975 -0.07187764 -0.03567856 0.0024655347
0.05690199 0.07624843 -0.07938363 0.063012436 0.002540406 0.044003986 0.08001433 0.03531494
0.0043701977 -0.04534702 0.019099675 0.06734088 0.052585877 0.063906915 0.015082829 0.035397876
0.0723855 -0.08125012 0.053552568 -0.08595713 0.01931958 0.07472806 -0.021391854 -0.06965545
0.0012574244 -0.009988332 -0.0126029 0.043562017 -0.038185228 0.052034095 -0.0066825217 0.0040294304
-0.039819706 0.053013735 -0.03747915 0.04118808 -0.023049943 0.013452849 -0.07073268 0.017434135
-0.032755096 -0.055927236 -0.020286692 0.018096084 0.044681825 0.048849713 -0.052456163 -0.0665044
0.048936345 0.0062776213 0.027634934 -0.0025343776 -0.063194156 -0.041194625 0.086202614 -0.050915122
0.07580464 -0.04159639 0.027408002 -0.027159689 -0.03530375 0.059634432 -0.01427211 -0.03568482
0.06508704 0.0020200997 0.07058733 -0.08294362 0.0020791218 -0.0035823148 0.06917071 0.014093527
-0.056773867 0.07412055 0.07221665 0.058450192 0.015358828 -0.013975832 0.0072926283 0.037660502
-0.016171953 0.072414465 0.073620334 -0.0113191195 -0.03715642 -0.01818683 0.03284899 -0.09111789
-0.016270727 -0.0021743674 0.028042324 4.0195882e-05 -0.07258934 0.047378674 -0.04537696 0.037480406
-0.038448304 0.013988766 -0.00075006724 0.028390031 -0.061560176 -0.05913491 -0.008288196 -0.07102965
-0.044504978 0.0673027 0.06588367 0.011164717 0.06048993 0.057677783 -0.003964573 -0.0834423
-0.059507556 -0.03653405 0.030203355 -0.046754763 0.034406673 -0.047114152 0.080784746 0.04405608

fc2.bias f4 [64]
00000000: 3872 b13d 5b59 e139 d3cc 52bd a784 ff3c
00000010: f860 163c 186f 0f3c 0907 8b3d 4928 7dbc
00000020: cc4a d4bc 8621 5d3d d2fe 33bd c7b8 a5bd
00000030: 50fd 5e3d 415f 953d 535d ac3d 9afb 603d
00000040: f681 ca3c 82fd 913d f56b 71bd 615f 8e3d
00000050: 970f 29bc e53e c63d 11d7 d23d e4af a53d
00000060: 4f07 ab3c f91e 913d 531f 91bd 50a9 c23c
00000070: fd9a 833d 895b 903d 2a32 d4bc f072 a4bd
00000080: 9587 d63b 941c 603d 3189 af3d fc36 b93d
00000090: 9e1a 0dbd a03b a8bc 90f5 023c 9127 203d
000000a0: 7338 12bd cc50 243b 3465 b4bd ac14 1a3d
000000b0: a24d 4fbd bcd2 113d 11e3 a63d 4df6 6ebd
000000c0: 73d9 91bd faba 423d 7a9a 363d 2940 a03d
000000d0: 0ed6 7abd d3fa 483d 37b4 763d 907a 9dbc
000000e0: 6c90 cfbc 8855 913d 86e2 9fbc 2e9c 483d
000000f0: 52dd 153d d060 a63d bc4b 6cbd d8f6 b2ba
0.086643636 0.0004298192 -0.051464867 0.031191183 0.009178393 0.008754514 0.06788451 -0.015451499
-0.025914572 0.05398705 -0.043944187 -0.08091884 0.054440796 0.07293559 0.08416238 0.054927446
0.024720173 0.07128431 -0.058940846 0.06951786 -0.010318658 0.09679965 0.10294927 0.08090189
0.020877508 0.07085986 -0.07086053 0.023762375 0.06426046 0.07048709 -0.025902826 -0.08029735
0.0065469244 0.054714754 0.08571089 0.090436906 -0.034449212 -0.020536244 0.007993117 0.039100233
-0.035698365 0.0025072573 -0.088083655 0.03761737 -0.050611146 0.035601363 0.08148778 -0.05834036
-0.07121553 0.047541596 0.044580914 0.078247376 -0.061239295 0.04906733 0.06023046 -0.019223481
-0.02533742 0.07096392 -0.019517194 0.04897707 0.03658802 0.08123934 -0.057689413 -0.0013653887

fc3.weight f4 [32, 64]
00000000: 9565 d13d a608 babc 6e19 8f3d f8f2 debd
00000010: 7222 e2bd 16e0 dfbd cdd8 663d 0b3e 733d
00000020: fba9 ab3d 042f 1abd b1ae 98bd 8486 1d3d
00000030: d72d e53d 2052 b5bb 12ff db3d d3e8 7ebd
00000040: f3c9 8bbd b1de 393d e14d 5e3d 8441 d53d
00000050: 3309 8cbd e6db e13d 5c5f e4bd 30f7 d73d
00000060: 8458 f7bc c078 a63c 0c62 9b3c 801e 753c
00000070: 181a 9fbd b179 e63c b3b9 44bd 821a 0b3d
00000080: 00b6 d2bd 324f ac3c ec33 c33d 63e7 843c
00000090: e0d9 b1bb 75d5 51bd 00cf 6dbd ac66 d73d
000000a0: f856 053d d5eb eabc 602d 0cbc 8e21 823d
000000b0: 8ead 9abd 5b89 9e3d 1834 86ba 6166 963c
000000c0: 55d2 89bd 54c3 73bd 2427 07bd 202b e93d
000000d0: 36ae c73d 2149 f6bd 2a7c 1dbd b82a 1a3d
000000e0: 5879 9d3d 028f bfbb e8c1 ac3c e0e5 3cbd
000000f0: 8f2a 933b 332c cfbd c024 cb3b 885f c43d
00000100: 1756 96bd 5f2e 83bd a3a1 ff3d a55b 35bd
00000110: d580 12bd 6b04 a53d 5f45 b5bd 976d 653d
00000120: 9093 b43d 18e3 8fbd 6e61 48bc 20c3 3bbd
00000130: 5bd0 e93d d84c dabc 1d0e 0fbc 5775 c83b
00000140: 8aba e2bd ae2f 8bbd a9b4 19bc 5096 a2bc
00000150: 3d44 b23d d3e4 a93d f833 f9bc 3e3d 4e3c
00000160: 90a0 ad3c 946f 4d3d 5791 55bd 8220 de3d
00000170: 21b2 c739 b1bf 2a3b 8e79 6bbd e311 4a3d
00000180: 1693 b8bd 5879 b8bc bbaf 31bd 50b3 05bd
00000190: d0bc 393c 95a5 30bd 2c48 dfbd ac4e 993d
000001a0: 3e88 b33d cfff 8d3d e48c 9b3d 5d59 7abd
000001b0: 78f9 d63d c8d5 073d 1b95 e33d 48c2 9f3d
000001c0: d18c c93c 34d6 f33d 18f8 823d 57ee 903b
000001d0: 56c2 d33d a8d9 323d e3ce b43d 7a79 ed3d
000001e0: 6422 4f3d e1b0 533d d869 b03d d893 8ebd
000001f0: 8356 a23d ae8f 58bd 605d ee3d f91d 993d
00000200: 386f babd 48a3 bf3d 76b6 ef3c 8b14 b93d
00000210: ccaa e8bd 3603 c5bc 5f17 dd3c be1e 91bd
00000220: 80b4 f83d 0832 963d 67de a6bd f67b fdbd
00000230: f0f4 bc3d 58b6 993d 88f7 ccbc b4d4 aabd
00000240: 3559 d2bc 573b e0bd e7a3 22bc c8cb ea3d
00000250: a6cf bb3d b8c8 b5bb d83e e43c d075 05bd
00000260: 1e5c bf3d e0ad d13d 442d 153d fc30 b7bd
00000270: 563f e5bd 19e2 e4bd b4de 0cbd 804a 533d
00000280: 5f79 acbd 987c 2b3d 702b 613c e14d 84bd
00000290: b6f8 df3d 0060 e938 f623 d83d a97a 433d
000002a0: 2e9d ca3d 030b dabd 201b 3dbc 4e5e ee3d
000002b0: 30c8 123d 48d9 a33d b276 e33d e688 f2bc
000002c0: 7136 23bd c43d a93d 98c4 a23d 5079 c1bb
000002d0: 5a52 15bd 434d bfbd 0e5b f9bc 9826 78bd
000002e0: dc3f babd 5639 833c 45c5 0fbd 009b abbb
000002f0: b453 dbbd 519e 053d c28f 303d 7863 273d
00000300: cd93 9fbd 636b a6bd 7472 aebc 7ab5 cabd
00000310: cd3b 4b3c dc71 06bd c700 63bb d227 93bd
00000320: 6aa7 f13d 8c30 7b3d ed53 e53d b81e d9bc
00000330: 0e6e e43c d284 f93d c42b afbd 7011 b1bd
00000340: 599b 2f3c 2beb 7cbd 95c6 463d e2a0 f0bd
00000350: 7592 64bd 4b30 13bc fc97 f9bd 993b c13d
00000360: b6d1 d7bd 70c4 55bc b4e2 5b3d b0f1 abbc
00000370: 6891 42bd b4ff f1bd 3492 b4bd 5396 02bd
00000380: e65f 91bc dcf5 233d 309b 4a3c 9b81 7f3d
00000390: 0cef 8e3d ab99 a63d 2898 3c3d 3792 363c
000003a0: 77a5 c23d 0304 1e3b c85f 9b3c f41c d1bc
000003b0: 9022 f5bd 8b3a d4bd 25a0 c2bd e07d a2bb
000003c0: 512a 34bd e0b0 3b3c 223e e43d 689f ccbd
000003d0: 7b15 ef3c c146 ee3d c27b f7bc d82f eabc
000003e0: c043 c83b 9bcd 7c3d b418 5bbd 92e0 a5bd
000003f0: ff8c 843d 52de b63d cd61 75bd de0f 003d
0.10224453 -0.022709202 0.06987272 -0.10886186 -0.11041726 -0.10931413 0.0563591 0.05938534
0.083820306 -0.037642494 -0.07455195 0.038458362 0.11190384 -0.0055334717 0.1074201 -0.062233757
-0.06825628 0.04537839 0.05427349 0.10412887 -0.06837692 0.110282704 -0.11151001 0.10545194
-0.030193575 0.02032125 0.01896765 0.014960885 -0.07768649 0.028134199 -0.04802866 0.033960827
-0.1028862 0.021033857 0.09531388 0.016223615 -0.005427584 -0.05122896 -0.05805874 0.1051763
0.032553643 -0.028676907 -0.00855574 0.06354056 -0.07552634 0.07741042 -0.0010238914 0.018359365
-0.06729571 -0.05951245 -0.03299631 0.113851786 0.09750025 -0.12025667 -0.03844849 0.037638396
0.0768916 -0.0058459053 0.021088555 -0.046117663 0.0044911574 -0.10115852 0.0061994493 0.09588534
-0.07340639 -0.06405329 0.12482002 -0.044276852 -0.035767395 0.08057483 -0.08851122 0.056012716
0.08817208 -0.070257366 -0.01223026 -0.045840383 0.11416694 -0.02664797 -0.008731392 0.0061175036
-0.11070736 -0.067962036 -0.009381452 -0.019847065 0.08704422 0.08295598 -0.030420288 0.012587843
0.021194726 0.050155237 -0.05214056 0.10846044 0.00038088954 0.0026054198 -0.05748897 0.049333464
-0.090124294 -0.022518799 -0.04338048 -0.03264171 0.01133652 -0.04312666 -0.109024376 0.074857086
0.087662205 0.06933557 0.07595232 -0.06112038 0.10496801 0.033162862 0.11112424 0.07800728
0.02460328 0.119060904 0.063949764 0.0044229436 0.10339801 0.043664604 0.08828523 0.115954354
0.050569907 0.051682357 0.08613938 -0.06961793 0.07926657 -0.0528714 0.116389036 0.0747642
-0.091032445 0.09357315 0.029261809 0.090371214 -0.11360702 -0.024049383 0.026988683 -0.07085942
0.12143803 0.073337615 -0.08147889 -0.12377159 0.092264056 0.075054824 -0.025020376 -0.08341351
-0.025677303 -0.10948818 -0.009926773 0.114646494 0.09170465 -0.005547609 0.027861997 -0.032583058
0.09343742 0.10238242 0.03642012 -0.0894489 -0.11193721 -0.11175937 -0.034392074 0.05158472
-0.08421587 0.04186687 0.013743266 -0.06460167 0.1093611 0.00011128187 0.10553734 0.0477244
0.09893261 -0.106466316 -0.011542112 0.11639081 0.035835445 0.080004275 0.11106624 -0.029606294
-0.03984684 0.08263734 0.079476535 -0.005904354 -0.03645549 -0.093409084 -0.030438926 -0.06058368
-0.090942115 0.01601855 -0.03510024 -0.0052369833 -0.107093245 0.032621685 0.043105848 0.040866345
-0.07791863 -0.08125951 -0.02129481 -0.09897895 0.012404394 -0.03282343 -0.0034637915 -0.071853295
0.1179951 0.061325595 0.11197648 -0.026503906 0.02788451 0.121835366 -0.085532695 -0.08645904
0.01071819 -0.06174771 0.048529226 -0.11749436 -0.055803735 -0.008983682 -0.12187192 0.094351955
-0.10538046 -0.013047323 0.053682998 -0.020989269 -0.04750195 -0.118163496 -0.088169485 -0.03188164
-0.017745923 0.04002939 0.012366101 0.06237946 0.06979188 0.081347786 0.046043545 0.011143259
0.09504216 0.0024111278 0.01896657 -0.025526501 -0.11969483 -0.10362729 -0.095032014 -0.004958853
-0.04398567 0.0114557445 0.111446634 -0.09991342 0.029185047 0.11634589 -0.03021038 -0.028587267
0.006111592 0.06171952 -0.053490356 -0.08099474 0.06472205 0.08929123 -0.059907723 0.031265132

fc3.bias f4 [32]
00000000: cca2 4bbc f13d fe3d b60e 98bc f911 e7bd
00000010: c7c4 9b3c 617a d8bd a2e3 133e c428 4bbd
00000020: 12e6 debd 20cd 1cbc 176d 813c 9d50 cbbd
00000030: 3f30 ebba 0b3b 873d b065 623c 0aef cf3d
00000040: a897 d7bc 0c7a 3d3b 7d0c 09bd 2488 f4bc
00000050: d56e 43bc 0475 c03d bd39 a5bd 8e50 243c
00000060: 0050 063d 4bb7 d3bc 842e 98bd 6438 e43d
00000070: 4477 57bd 52a1 b8bd 8177 593d 821c d63d
-0.0124289505 0.12414158 -0.018561702 -0.11282725 0.01901473 -0.10570217 0.14442304 -0.049599424
-0.10883726 -0.00957039 0.015799088 -0.09927485 -0.0017943456 0.066030584 0.0138181895 0.10153015
-0.026317433 0.0028911857 -0.033459175 -0.029850073 -0.01192828 0.09397319 -0.08067653 0.010028971
0.032791138 -0.025844237 -0.07430747 0.11143568 -0.052603975 -0.090151444 0.053092483 0.10454656

fc4.weight f4 [6, 32]
00000000: a264 f9bd e93c dc3d 076c c4bd c911 2ebe
00000010: 2056 8fbd 8865 053d 5082 0dbe 2c89 603d
00000020: 1901 323e 5e8c bc3d 8e28 313e 9c85 dc3d
00000030: 5639 933d b39d 17bd 1228 bd3d 26a5 ee3d
00000040: 04ab 6bbd d506 0ebe 2f76 313d 99ab 143e
00000050: 0f92 b1bd 78eb 4d3d 1329 573d d0a8 82bd
00000060: 473e 25be 5743 2d3e b9f7 2ebe 50df 713c
00000070: e88e 07be cd8a 86bd fc1c 15be 0e5e 953d
00000080: 04b5 94bc 9b32 cf3d febe a2bd 6173 173e
00000090: d392 d4bd b4b3 f93d 7b8b fdbd 660f 2ebe
000000a0: 40ed 523b 8408 2ebe 94b4 e8bd 8657 29be
000000b0: 4cec 38bd a1ec 31bd 618e 26be cca8 303d
000000c0: 522a 26be d753 853c cc6d 513d 9ef6 f83d
000000d0: 0032 c3bd f006 e63d d67e 11be 8a45 d0bd
000000e0: cec7 bdbd 791f c5bd a8bc bbbd a224 923d
000000f0: 523f 9f3d e60f 67bb 981f 8c3d 407d 05bd
00000100: 5795 18bd 55fa f4bd 8b54 acbd b589 07bd
00000110: cd36 babb 361e 1f3e a90d 103e b03c 733c
00000120: f741 1f3e d3b3 d3bd 8330 a4bd 9eac 9f3d
00000130: e567 b0bd 1383 29be a01d 14be 787d 4b3d
00000140: fe19 bf3d 2c01 08be 4658 c53b 2fe5 0f3a
00000150: e291 debc 891b ac3c a10e 59bd 4430 8ebd
00000160: 1ff9 c2bd e972 bc3d dcd0 3fbd c2d0 efbd
00000170: a0ca a9bd 09b9 e7bd 9ce0 fa3d 466a f13d
00000180: dc38 f2bd b7a2 0a3e 91d8 313d 0364 e03d
00000190: 0525 e23d 1dc7 a13d 77c4 0bbe 0b92 a8bd
000001a0: 1f71 f7bd 8a78 a73d c681 f63d a9dc 2abe
000001b0: dd2d aa3d 3cb2 5abd e4eb 883d f628 c23d
000001c0: 86a7 c1bd ce9f ba3d 5998 1bbe fda9 413c
000001d0: 5cd2 bd3d 25c2 1ebe 5836 5dbb 604f 0b3e
000001e0: cbd0 1c3d f0bf e23c 206e ab3c 59fd 103e
000001f0: ba96 9c3d 3313 883b 4a40 203d b6d4 fe3d
00000200: cf53 bb3d c130 02be 549e 25be 3a23 c03d
00000210: 9332 19be 6ebc 133e e49d 713d e289 dbbd
00000220: 142e 6abd 615b 1c3e aa3c f23d a0a3 bcbd
00000230: fd69 e53d 92cc b3bd 7397 273e aae8 ad3d
00000240: d40f b03d 5809 21be 727a 0dbe b0ee e83d
00000250: 55ad 283e d588 0a3d daa4 d23d 08f9 2dbe
00000260: 743a b73d a4d3 70bd 5075 283c d3c8 e0bd
00000270: 78c2 b33c a3b8 2a3d 436d 1b3e 5d08 2e3e
00000280: 0c38 3a3d 2261 2abe a6a7 64bd 84bf febb
00000290: 1f1d d03d 10ae 1dbe bdd0 34be 4656 ae3d
000002a0: 2c56 65bd 4d29 223e 3cf9 da3d 64ee d83b
000002b0: 62dc 8c3c 4dd3 4e3d d419 043d 8bb7 1fbe
000002c0: b18a 433d 2fb9 02be 82dd d83d 9668 653d
000002d0: 70bb 093e 7b0a a7bd 0a1c 46bc 9ac0 4fbb
000002e0: 39ff 403d 9a87 8b3d 17f9 233e da1c 08be
000002f0: d00b 033c 6729 edbd 2077 5d3d d0a7 7f3d
-0.12177397 0.10753805 -0.09590917 -0.16998972 -0.06998849 0.03256753 -0.13819242 0.054818317
0.17383231 0.092064604 0.17300627 0.107676715 0.0718867 -0.037015628 0.092361584 0.11652593
-0.05753614 -0.13869794 0.0433256 0.14518584 -0.086704366 0.05027339 0.052529406 -0.06379855
-0.16137038 0.1692022 -0.17086686 0.0147627145 -0.13238108 -0.06569443 -0.14561838 0.0729333
-0.018152721 0.10117074 -0.07946585 0.14790107 -0.10379567 0.12192479 -0.123801194 -0.16998062
0.003218487 -0.16995436 -0.113625675 -0.16537294 -0.045147225 -0.043438558 -0.1626525 0.043129727
-0.16227081 0.01627533 0.0511301 0.121564135 -0.09531021 0.11231792 -0.1420854 -0.101695135
-0.09266625 -0.096251436 -0.09166843 0.071358934 0.07775749 -0.003525728 0.068419635 -0.03259015
-0.037251797 -0.119618095 -0.08414563 -0.033090312 -0.0056828023 0.15538868 0.14067711 0.014846012
0.15552507 -0.10337033 -0.080170654 0.07796596 -0.08613566 -0.16553907 -0.14464426 0.049680203
0.093311295 -0.13281697 0.006022486 0.0005489168 -0.027169172 0.021009224 -0.052992467 -0.069428
-0.09520172 0.09201605 -0.046830043 -0.11709739 -0.08290601 -0.113145895 0.12249872 0.11787848
-0.11827251 0.13538633 0.043419424 0.10956576 0.11042217 0.07899306 -0.13649164 -0.082309805
-0.12082123 0.08177288 0.12036471 -0.16685738 0.08309529 -0.053392634 0.066856176 0.09480469
-0.09455781 0.091125116 -0.15194835 0.0118203135 0.092686385 -0.15503748 -0.0033754315 0.13604498
0.038285058 0.027679414 0.020926535 0.14159144 0.07645936 0.0041526794 0.03912381 0.12442915
0.091468446 -0.1271391 -0.16173679 0.09381719 -0.14960699 0.14427349 0.058988467 -0.107196584
-0.05717285 0.15269233 0.11827977 -0.092108965 0.11201856 -0.08779253 0.16366367 0.08491643
0.08596769 -0.1572622 -0.1381624 0.11373651 0.16472371 0.0338219 0.10285349 -0.16989529
0.08946696 -0.058795586 0.010281876 -0.10975804 0.021943316 0.04167999 0.15178399 0.16995378
0.045463607 -0.16638616 -0.055823945 -0.0077742953 0.101618044 -0.15398431 -0.17657752 0.08512549
-0.055990383 0.15836067 0.10692069 0.0066202153 0.01719493 0.05049448 0.032251194 -0.1559736
0.04773969 -0.12765954 0.10589124 0.056007944 0.13450408 -0.08156296 -0.012091646 -0.0031700493
0.0471184 0.06812973 0.16012989 -0.13292256 0.007998422 -0.115801625 0.054068685 0.062415898

fc4.bias f4 [6]
00000000: 555c 053e db0d 693c 55cb 063e 973e 89bd
00000010: 6231 8fbd 2689 dc3b
0.13023503 0.014224495 0.13163503 -0.06701391 -0.06991841 0.0067302166
