src/params_data/240418_005728/134param.pt (torch, 46927 bytes, 8 tensors)

fc1.weight f4 [128, 4]
000000 db 79 a7 bd 23 49 81 3e 0d e4 e4 3e bd d1 95 3e
       -0.08177539 0.2525111 0.4470524 0.2926158
000010 40 ad a9 be f2 30 f0 be be 40 c1 be 40 1f f5 3d
       -0.33139992 -0.46912342 -0.37744707 0.11968851
000020 de 4c 07 be ba 6f f5 3e 29 63 d6 be 94 46 4b be
       -0.13212916 0.47936803 -0.41872528 -0.19851142
000030 2c 35 db be 00 7a c8 ba 5a 2e a8 be 22 d2 a6 3e
       -0.42814004 -0.0015295148 -0.32847863 0.32582194
000040 70 e4 37 be 16 58 c2 be 69 24 37 3e a0 b2 17 3d
       -0.17958236 -0.3795783 0.17884983 0.037035584
000050 1c 66 4b be 57 2d 52 be 69 93 4e 3e 33 0c 95 bd
       -0.1986317 -0.20525108 0.2017342 -0.072777174
000060 0a 8c 65 be 15 f6 7d be e5 7c b2 3e fd c5 9c 3c
       -0.22416702 -0.24800904 0.34860912 0.019137377
000070 80 5c ac 3b 5c d2 f4 be ad 95 bc 3c 08 9e ab bd
       0.0052600503 -0.4781674 0.02302059 -0.083797514
000080 7e 20 9e be 39 ff b0 3e 33 96 43 be f8 c7 97 bc
       -0.30884165 0.3456972 -0.19100265 -0.01852797
000090 8c cd ef 3e a8 b2 8b 3e fa 44 d9 3e 65 42 fd be
       0.46836507 0.2728474 0.42435437 -0.49464718
0000a0 78 3d c5 3d 34 7d 23 be ea 0e c3 3d c4 43 d9 be
       0.09630865 -0.1596573 0.09524329 -0.42434514
0000b0 51 65 d8 bd 2c 0f d1 3e 5a a6 47 bc 8a 4e a9 be
       -0.105661996 0.40831888 -0.012185657 -0.33067733
0000c0 57 a7 11 3d aa aa 7a 3e 39 0f 3c be f7 45 f7 3e
       0.03555998 0.24479166 -0.18365182 0.48295566
0000d0 5f 95 1d be f3 32 69 3e a7 43 74 be b4 c3 ee 3e
       -0.15389012 0.22773342 -0.23853932 0.46633685
0000e0 0c 64 38 be 19 6f ba be 40 ca 83 3e 80 1b a7 3b
       -0.18006915 -0.36412886 0.25740242 0.005099714
0000f0 3e 77 d9 3e 60 49 cc be 00 5e 3a be b8 04 78 be
       0.42473787 -0.3989973 -0.1819992 -0.2422055
000100 0c 7b c0 3e 90 4c 1c be 08 db c4 bd f0 96 72 3e
       0.37593877 -0.15263581 -0.096120894 0.2369039
000110 c8 68 f0 be c0 20 21 bd 9f 06 a1 3e 15 2c e4 be
       -0.46954942 -0.039337873 0.31450364 -0.44564882
000120 e8 b6 ea 3d 1c 5a 40 be 98 fb aa bd 4c 85 f5 3e
       0.11460668 -0.18784374 -0.08348769 0.4795326
000130 cc 79 b9 3e 56 1f b6 be ef ef 50 3e c0 25 19 be
       0.36225736 -0.35570782 0.20404027 -0.14955807
000140 e6 4d 8a 3c 39 bc 46 3e ae e9 9d 3e 87 7e d8 be
       0.016882848 0.19407739 0.30842346 -0.42284033
000150 6b f0 da 3e cf 46 29 3d c8 a0 7b 3e ea 32 5b 3e
       0.4276155 0.041327294 0.24573052 0.21406141
000160 90 67 17 3d 56 1e f6 be 3a 10 f2 be be d6 db be
       0.036964 -0.4807002 -0.47278005 -0.42937273
000170 36 e6 c0 be 2a 86 a8 3e 59 dd 39 3e bb e5 91 be
       -0.37675637 0.3291486 0.18150844 -0.28495583
000180 24 d3 80 3e ea 23 bc 3e 49 4a 7d be 5c 1d 95 3e
       0.25161088 0.3674615 -0.24735369 0.29123962
000190 fc a4 ce be 80 5e 2e 3d 7f f5 20 bd 67 42 ea 3e
       -0.40360248 0.04257059 -0.039296623 0.45753786
0001a0 c8 6e 05 be 36 d0 4b be 07 34 81 3e 0f 9e e6 3d
       -0.13030541 -0.19903645 0.25235006 0.11260616
0001b0 0f 5e 53 3e f9 a5 94 3e b6 e8 9f be c5 3e d6 3e
       0.2064135 0.29032877 -0.31232232 0.41844764
0001c0 89 c5 f5 be e1 63 cc 3e 10 d5 0b 3d a2 a4 84 be
       -0.4800227 0.39919952 0.03413874 -0.25906855
0001d0 b4 16 02 bd f6 bf ba 3e 7d 28 cb 3e 90 6d b3 3d
       -0.031759933 0.3647458 0.39679328 0.08761132
0001e0 18 8d d2 3e 08 73 bf bd 7c 35 6c be 0e d3 b6 be
       0.4112327 -0.09348112 -0.23067278 -0.35707897
0001f0 a1 23 f4 3e aa cb 94 3e f2 7d bc 3c ea b2 8d 3e
       0.47683433 0.29061633 0.023009274 0.27675563
000200 ec 1f 6a bd 7c df ca 3e fd 1a a0 bd 26 5e 92 3e
       -0.05715935 0.3962363 -0.078176476 0.28587455
000210 77 98 d3 3e 8a e9 f9 3b 95 70 d0 3e 1d f6 95 3d
       0.4132726 0.007626717 0.40710893 0.07322333
000220 d8 c2 b3 3d ce 27 ed 3e 11 7c 79 be f4 dd 3d be
       0.08777398 0.4631943 -0.24363734 -0.185417
000230 60 1b 03 3d 52 d5 d8 be b0 68 14 be 20 5a cd 3d
       0.03200853 -0.4235025 -0.1449306 0.100269556
000240 6c 82 cf 3e ed 32 bb bc 10 7d fc 3e bb 8f 8f 3e
       0.40529191 -0.022851432 0.49314165 0.28039345
000250 9b c7 37 3e 0f 97 90 3e 99 49 d0 be b2 39 f0 3e
       0.17947237 0.2824025 -0.4068115 0.46919018
000260 a0 85 6d 3d a0 76 4b be 43 55 8e 3d 98 fc ca bd
       0.057988763 -0.1986947 0.06949856 -0.0991146
000270 7f ec b7 3d 53 16 fb 3e 56 13 19 3e f9 83 14 3e
       0.08980655 0.4904047 0.14948782 0.14503469
000280 f9 02 4e bc 9e ab aa 3e e4 c1 21 3e 02 66 e5 be
       -0.012573951 0.3333406 0.1579662 -0.44804388
000290 82 86 ae 3e 40 ef cf be 28 2f cf bd c0 da ea 3d
       0.34086996 -0.4061222 -0.10116416 0.114675045
0002a0 06 54 ad be 82 ec b6 be 4b f5 0f 3e b0 b8 fd bd
       -0.33853167 -0.35727316 0.14058416 -0.12388742
0002b0 e6 e9 c2 be e7 6f c6 3e 80 46 9b 3e b7 15 34 3e
       -0.38069075 0.3875725 0.30327225 0.17586409
0002c0 98 b5 10 3e bf 50 fd 3e 12 7b c5 be f1 9f 5e be
       0.14131773 0.49475667 -0.38570458 -0.217407
0002d0 ed 08 84 3e 5c cf 94 3d f8 ef 4d be 70 0e eb bd
       0.2578806 0.07266113 -0.20111072 -0.11477363
0002e0 60 6b ac bd 9c 41 89 3e e4 0b 45 be 83 06 06 be
       -0.08418918 0.26807868 -0.19242817 -0.13088422
0002f0 19 73 af bc d3 4d 09 3d 7a 83 22 be fc c4 10 be
       -0.021417188 0.033521485 -0.15870467 -0.14137644
000300 fa 86 8a 3e 0a d2 c0 be fc 32 db be 80 0c 36 3d
       0.27056104 -0.37660247 -0.42812335 0.044445515
000310 c7 5d ce 3e 37 e3 1f 3a dc 15 d7 be da c2 90 be
       0.4030592 0.00060992263 -0.42008865 -0.2827366
000320 d0 78 ee be 6d 79 1b 3e 19 e9 ad be 78 e3 98 be
       -0.46576548 0.15183039 -0.33966902 -0.29861045
000330 5e 27 22 be 59 d0 84 3e de 91 b6 3b c6 aa 9f 3d
       -0.1583533 0.25940207 0.005571588 0.07796244
000340 0f aa 1a 3e 07 59 0d be bb bb 96 3e 03 1f f5 be
       0.15103935 -0.13803492 0.29440102 -0.47875223
000350 cb b1 b7 3e 95 c2 c0 3e 73 a9 17 bd 88 dd 34 be
       0.35877833 0.37648454 -0.037026834 -0.17662632
000360 1e 8f c5 3e c4 91 e0 be 65 70 8b 3e 84 78 26 be
       0.38585752 -0.4386121 0.27234188 -0.1625691
000370 80 d1 17 bd 00 19 9d bd 60 b8 8e be 78 22 bd be
       -0.03706503 -0.07670784 -0.27875042 -0.3694036
000380 dc 4f 2d be 9e 56 82 be 28 c6 d5 bd 40 b8 47 3e
       -0.16924995 -0.2545671 -0.10438186 0.1950388
000390 18 d8 aa be 3c bd 1e be 62 85 4c 3d a0 e9 6c be
       -0.3336799 -0.15501875 0.04993189 -0.23135996
0003a0 cb 62 8d 3e a5 7a 6a 3e 9a f6 d2 3d fa 81 03 be
       0.27614436 0.22898348 0.10300942 -0.12842551
0003b0 d8 a4 e4 3d c0 3e 6e be 9a 1d ea 3d 52 fd c1 3e
       0.11164254 -0.23266125 0.11431427 0.3788858
0003c0 9a 7f f5 bd 0f 53 55 3e 3b 12 af 3e 7a 65 03 3f
       -0.11987229 0.20832466 0.34193596 0.51326716
0003d0 7e f3 9d be f8 59 d6 be 66 59 ad be 00 e0 79 3a
       -0.30849832 -0.41865516 -0.33857268 0.0009531975
0003e0 d7 70 dd be 50 8a 80 3e d6 60 e5 be bf 77 30 bd
       -0.43250152 0.25105524 -0.44800442 -0.04308295
0003f0 58 5c 9f be 5a ee 4d 3e 10 a4 99 3d d8 8b 84 3e
       -0.3112514 0.20110455 0.075019956 0.25887942

fc1.bias f4 [128]
000000 b6 69 c3 be b6 73 ff 3e 40 6f db be f0 47 06 bd
       -0.3816659 0.49892968 -0.42858315 -0.03278345
000010 8f 48 9d be 26 1e a1 3e d3 c6 d1 3c b2 50 21 be
       -0.3071942 0.31468314 0.025607502 -0.15753439
000020 c3 6a 9f be 75 9a 33 be 04 24 43 3d 10 3c 52 be
       -0.3113614 -0.1753939 0.04764177 -0.20530725
000030 4e 16 f7 3e 2e 2c 4e 3e a0 70 97 be a2 ce 9f be
       0.48259205 0.2013404 -0.29578114 -0.31212336
000040 ba 3f f4 be 12 2c f5 3e a0 f6 f1 3d 56 e0 e8 3e
       -0.4770487 0.47885185 0.11814618 0.45483655
000050 8a 48 6c be f4 f7 7d be e4 4c 85 be a8 88 2a 3e
       -0.23074546 -0.24801618 -0.26035225 0.16653693
000060 35 24 ee be f5 fe a1 3e af 08 18 be 29 eb 2d be
       -0.46512 0.3163983 -0.14847063 -0.16984238
000070 b5 85 f6 3e 5b e8 8a be 80 90 b1 bd dd 87 d5 3e
       0.48148885 -0.27130398 -0.08670139 0.41705218
000080 d1 30 7b 3e 95 3d 40 3e 97 1f 01 3f c8 ea 88 3d
       0.2453034 0.18773492 0.5043883 0.06685406
000090 2a ae f2 be 85 c1 d4 be 9e 7e 6e be 8b fa f4 be
       -0.47398502 -0.41553894 -0.23290488 -0.478474
0000a0 09 f7 d5 3c 28 0b 3a be d8 ae 29 be bc 65 bb 3e
       0.026118772 -0.18168318 -0.16570604 0.36601055
0000b0 ba c9 e4 be 13 14 02 3f 2a 55 53 3e 5f 88 d4 3e
       -0.44685155 0.5081188 0.20637956 0.41510293
0000c0 56 54 90 be a3 73 8a be 76 8c a3 be d7 87 fa be
       -0.28189343 -0.2704135 -0.319431 -0.48931763
0000d0 a6 61 f3 3e 73 41 97 be 48 74 96 3d 36 1b a8 be
       0.47535437 -0.2954212 0.07346398 -0.3283326
0000e0 00 bf 54 3e 52 70 17 be 1b 12 8f 3e 2a c0 50 be
       0.20775986 -0.1478894 0.279435 -0.20385805
0000f0 cd 58 d3 3e 74 e0 e6 3e b4 9d 84 be 16 0c f6 3e
       0.41278687 0.4509312 -0.25901568 0.48056096
000100 55 47 b2 be 33 6e aa 3d 28 45 10 bb 34 96 77 3e
       -0.34820047 0.083218 -0.0022013877 0.24178392
000110 30 c9 d2 3e 7a b2 bc be 0d 5e 7c be 5a 0a a6 be
       0.4116912 -0.36854917 -0.24645253 -0.32429773
000120 00 28 da 3d e8 bd 51 3e 44 27 1f be fe b9 c8 3e
       0.10652161 0.204826 -0.15542322 0.392044
000130 08 ef ba 3e f6 52 e6 3e b1 86 c5 bd 42 c4 a7 bc
       0.3651049 0.4498517 -0.09644831 -0.020479325
000140 63 3f e6 3e c9 6a 94 be e4 0b 31 3e 35 6c 33 be
       0.44970235 -0.2898772 0.17289692 -0.17521746
000150 ce 75 b9 3e 50 56 96 bc d0 61 92 3e b0 70 0d bd
       0.3622269 -0.018351704 0.2859025 -0.034531295
000160 79 31 09 3e 97 5a 5b be 73 99 6c 3d de 6f f9 3c
       0.13397779 -0.21421276 0.057763528 0.03044885
000170 ce 40 ad 3e 20 27 96 bd 4a f1 b8 be 9d cf 52 bd
       0.33838505 -0.07331681 -0.3612159 -0.051467527
000180 ac 05 96 be 48 d5 e0 3e 28 60 ad bd 60 e6 ec 3c
       -0.29301202 0.4391272 -0.08465606 0.028918445
000190 8b 3e 80 bc 9c c2 ac 3d d7 7e c2 3e b4 77 5e 3e
       -0.015654823 0.08435556 0.37987396 0.2172535
0001a0 29 11 f6 be f2 dd d7 3e 28 1d da be e9 e1 46 be
       -0.48059967 0.42161518 -0.4260037 -0.19422115
0001b0 27 ca 29 3d a1 27 99 3e d0 b4 d7 be 88 f4 91 be
       0.041452553 0.29913047 -0.42130136 -0.28506875
0001c0 5f a3 ea be e0 10 9e bc c7 b3 78 3e b9 83 42 3e
       -0.45827767 -0.019295156 0.2428733 0.1899556
0001d0 aa 0a fd be cb 6a a7 be 40 73 70 3c 76 6c d7 be
       -0.494222 -0.32698664 0.014675915 -0.42074937
0001e0 f0 09 70 3e a7 e5 60 be f0 0c e2 3e 73 59 ee bc
       0.23441291 -0.21962605 0.44150496 -0.029095387
0001f0 9b 73 ce be f1 f7 a3 3e 6d d5 c2 3e 6d fa 78 3e
       -0.40322575 0.32025102 0.38053456 0.2431428

fc2.weight f4 [64, 128]
000000 2a fb 83 bd 19 90 52 bd fb 38 28 3c 4f b9 91 3d
       -0.0644439 -0.051406953 0.010267491 0.07115423
000010 8b 3a 49 3d 1a 95 87 3d 8f e7 63 3c 6c d8 a0 bd
       0.049128097 0.06620236 0.013910188 -0.07853779
000020 2d dc 16 bb 73 85 a0 3d d2 44 e2 bc b1 a1 9d 3d
       -0.0023019419 0.078379534 -0.027620707 0.07696856
000030 3e 3f ba bd 39 4c 9b bd 99 10 76 3d 34 27 9e bd
       -0.09094094 -0.07582898 0.060074423 -0.07722321
000040 3c e5 61 bd 64 d6 18 3d ec fd 88 bd 65 22 d5 bc
       -0.055150256 0.037313834 -0.06689057 -0.026017377
000050 05 d1 89 bb 33 e5 9f 3b 44 d7 53 bd 6d 20 2c bd
       -0.0042058253 0.0048796176 -0.051718965 -0.04202311
000060 a8 da 69 bd d9 07 76 3d fa 5a 8c 3b 74 f4 2d 3c
       -0.057093292 0.060066078 0.004283306 0.010617364
000070 b7 0a b0 bc ae 20 bf bc b0 f1 be 3b 4f 22 83 bd
       -0.021489484 -0.023331013 0.0058271512 -0.06403028
000080 e9 90 b5 bd 75 79 1c bb 86 14 92 bd fb 79 8d bd
       -0.0886553 -0.0023876105 -0.07132821 -0.069080316
000090 b3 1d 83 3c 23 d3 93 3d e1 08 d8 3c b6 88 6e bc
       0.016005373 0.072180055 0.026371421 -0.014558962
0000a0 32 99 ae 3d 80 6a 11 ba 3f 15 77 bc 88 48 76 3d
       0.085253134 -0.0005547181 -0.015080749 0.060127765
0000b0 b8 32 c5 bb 60 2d 0c 3b 96 d8 8f bd b0 7d 07 bd
       -0.006018009 0.002138935 -0.07023732 -0.03307885
0000c0 24 25 18 bd d5 80 a6 3d f3 57 85 bd da 99 9d 3d
       -0.037144795 0.081300415 -0.065109156 0.076953605
0000d0 b8 a2 70 3d 2c b6 62 bd 73 f6 74 bd 53 48 a8 bd
       0.05874893 -0.055349514 -0.059805345 -0.0821692
0000e0 1c 89 ec bc de 04 10 3d cd f9 92 bd 1b 85 9a 3c
       -0.028873973 0.03516089 -0.07176552 0.018862298
0000f0 d8 f2 a4 3c 95 5e 8b 3d 80 5f c4 3b de 56 12 bb
       0.020135328 0.068051495 0.00599283 -0.002232961
000100 48 d2 8f 3d 3c 2f ac bd 1d 5b af 3d 7a a6 a4 3d
       0.0702253 -0.08407447 0.085623 0.080395654
000110 a0 93 7f bc 15 c0 3d 3d 8b cb 0c bd 78 9b 2f 3c
       -0.015599161 0.04632576 -0.0343738 0.010718219
000120 af 63 83 bd 62 88 0d bd 4a ed 09 3d c8 67 5b 3c
       -0.064154975 -0.034553893 0.033673562 0.013391443
000130 06 85 e3 bc d1 a0 aa bd 62 9d 6f bd 84 83 32 3d
       -0.027773391 -0.083314545 -0.0584997 0.043582454
000140 39 da a6 3d ff 04 8f bd 94 e0 8c bd 2d 74 61 bd
       0.081470914 -0.06983375 -0.068787724 -0.055042434
000150 28 71 37 3c 34 97 df bc 84 29 ec 3c 4f d7 85 3d
       0.011196412 -0.027293779 0.02882839 0.065352075
000160 a3 4f 3a bd 3f 1a 54 3d 33 43 60 bc 9c f2 8e bd
       -0.045486104 0.051782843 -0.013687897 -0.06979868
000170 2f f3 40 bd 50 59 ac bd 95 ab 89 3d b3 cb 8c bc
       -0.047106918 -0.084154725 0.0672218 -0.017186975
000180 23 bd 80 3d 62 7c 6b 3d 08 4d c5 3c 4d 80 b2 bd
       0.06286075 0.057491668 0.024084583 -0.08715878
000190 26 a8 77 3d 4a 49 3e 3d b4 d7 9a bd 70 1d 6f bd
       0.060463093 0.046456613 -0.07560673 -0.058377683
0001a0 c5 d9 00 bc 1e 99 a6 ba f4 6a 52 3d 96 0e 85 3b
       -0.00786442 -0.0012710427 0.05137153 0.0040605767
0001b0 18 ee 92 bd 40 9a be bb 48 04 b6 bd c4 95 dd bc
       -0.07174319 -0.005816728 -0.08887535 -0.027048953
0001c0 51 b1 ca bb 9a 63 61 3d 03 9c ab 3d 0d 2f a4 bd
       -0.0061856885 0.055026628 0.08379366 -0.08016787
0001d0 a8 39 81 bc e2 99 b4 bc e0 b0 6e bd 33 4f 5a bd
       -0.015774563 -0.022046033 -0.05827415 -0.053298187
0001e0 6b b7 27 3c fd 76 55 3c c5 01 76 bd b7 5f 5f 3d
       0.010236601 0.013028857 -0.06006028 0.05453464
0001f0 52 78 5f bd 21 87 cf 3c 90 e9 c9 bc be 78 d0 bc
       -0.054558106 0.02533299 -0.024647504 -0.0254482
000200 bd e4 61 bc c8 d4 3c bd 57 2e 6f bd 53 bf 9e 3d
       -0.013787446 -0.04610136 -0.058393802 0.07751336
000210 87 0c 5b bc 96 4e 93 bd b9 49 12 bd 37 a8 31 3b
       -0.013369686 -0.071927235 -0.03571484 0.002710832
000220 0d dc 66 3d 3c 35 9b 3d fe 20 a2 bd 57 fc 7f 3d
       0.0563622 0.07578513 -0.07916449 0.06249651
000230 d0 16 04 3b 38 e4 31 3d d0 2e a4 3d 66 a6 10 3d
       0.00201552 0.043430537 0.08016741 0.03531494
000240 e0 33 8f 3b 3c 76 3b bd ec 76 9c 3c fa 5a 8a 3d
       0.0043701977 -0.045767054 0.019099675 0.06755634
000250 42 64 55 3d a2 0f 82 3d f8 1d 77 3c 30 d2 0e 3d
       0.052097566 0.06350638 0.015082829 0.03486842
000260 61 3b 93 3d 04 35 a8 bd 7f f3 5a 3d 60 14 b1 bd
       0.0718906 -0.08213237 0.053454872 -0.08646464
000270 2e d5 99 3c 23 03 98 3d f8 3d af bc 76 a1 8f bd
       0.01877841 0.07422473 -0.021391854 -0.07013218
000280 b7 a9 40 3a 50 25 2a bc ff cf 56 bc 16 6e 32 3d
       0.0007349508 -0.010384873 -0.013111114 0.043562017
000290 10 f1 1d bd 6a 0d 53 3d f2 02 d4 bb 0e eb 66 3b
       -0.038559973 0.051526465 -0.0064700777 0.0035235318
0002a0 d8 2a 25 bd ee 24 59 3d 16 a0 18 bd 8c 8a 26 3d
       -0.040324062 0.053013735 -0.037262045 0.040659472
0002b0 ed f4 c0 bc 7c ef 58 3c ff ef 91 bd b4 d2 8c 3c
       -0.02355429 0.013240691 -0.07125854 0.017190315
0002c0 35 2a 06 bd ec 09 65 bd c9 31 ab bc 34 eb 8f 3c
       -0.032755096 -0.055917665 -0.020897763 0.017568208
0002d0 c5 a8 37 3d 4f 1a 46 3d d2 13 56 bd 75 33 88 bd
       0.044838686 0.048364934 -0.052264996 -0.0665044
0002e0 7a 71 48 3d a8 e1 d4 3b 90 71 de 3c 4f 49 18 bb
       0.048936345 0.006496627 0.02715376 -0.0023237055
0002f0 9b 7a 82 bd b2 bb 28 bd 46 4e af 3d 5e cf 52 bd
       -0.063710414 -0.041194625 0.08559851 -0.051467292
000300 b2 2b 9a 3d 79 60 2c bd 3f 0f e0 3c e3 f4 e1 bc
       0.075278655 -0.04208419 0.02735102 -0.027582591
000310 aa 9a 10 bd e7 36 75 3d 3e 55 72 bc 3f 2a 12 bd
       -0.03530375 0.059866812 -0.014790831 -0.03568482
000320 5b 4c 85 3d b3 2a 10 3b 35 8a 8f 3d 58 de a9 bd
       0.06508704 0.0021998107 0.07008783 -0.08294362
000330 e0 41 08 3b b2 38 85 bb 6b 01 8e 3d 48 81 5d 3c
       0.0020791218 -0.0040655965 0.06933864 0.013519593
000340 fd 93 6a bd 35 ac 96 3d 53 e6 93 3d 53 28 6f 3d
       -0.05727004 0.07357065 0.07221665 0.058388066
000350 98 a3 7b 3c ab 6e 6d bc 00 f7 ee 3b e6 41 1a 3d
       0.015358828 -0.014491717 0.0072926283 0.037660502
000360 87 b3 88 bc c3 4b 93 3d 96 be 95 3d ff 68 41 bc
       -0.016687168 0.07192185 0.07311742 -0.011804818
000370 e4 2f 1a bd 8c fc 94 bc aa 8c 06 3d 94 b4 bb bd
       -0.03764333 -0.01818683 0.03284899 -0.09165302
000380 9a 27 89 bc f3 2c 31 bb 04 b9 e5 3c 00 98 28 38
       -0.016742516 -0.0027034848 0.028042324 4.0195882e-05
000390 10 b6 95 bd 95 87 3f 3d 1b ec 3b bd 0e 85 19 3d
       -0.07310116 0.04676016 -0.045879465 0.037480406
0003a0 54 77 1d bd d6 9e 5c 3c af 90 a5 ba f3 9c e4 3c
       -0.03844388 0.013465604 -0.001263162 0.02790687
0003b0 98 4a 7b bd 17 6d 72 bd 6f d1 0e bc fe 77 91 bd
       -0.061350435 -0.059186067 -0.008716925 -0.07102965
0003c0 44 68 37 bd ff d5 89 3d 02 ab 85 3d 4b 57 2f 3c
       -0.04477717 0.0673027 0.06526758 0.010701965
0003d0 4a c4 77 3d 65 52 6a 3d 40 e9 81 bb cc e3 aa bd
       0.06048993 0.057207484 -0.003964573 -0.0834423
0003e0 6f fb 6f bd b0 c1 14 bd f7 9f f2 3c c4 92 41 bd
       -0.058589395 -0.036317527 0.029617293 -0.047259107
0003f0 0f d8 0c 3d 60 43 43 bd b5 67 a4 3d 41 ed 34 3d
       0.034385737 -0.047671676 0.08027593 0.044171575

fc2.bias f4 [64]
000000 40 db b2 3d f9 b5 97 b9 b0 19 54 bd aa a2 fd 3c
       0.08733225 -0.00028936545 -0.05178231 0.030961353
000010 b2 b1 1d 3c 71 e6 1c 3c 2a 9f 8a 3d 1c 9f 79 bc
       0.009624885 0.009576426 0.067686394 -0.015235689
000020 ff 18 cd bc 86 21 5d 3d 64 5f 34 bd c7 b8 a5 bd
       -0.025036333 0.05398705 -0.044036284 -0.08091884
000030 8f e6 61 3d 41 5f 95 3d 9a 47 ad 3d 19 f7 61 3d
       0.05515152 0.07293559 0.084609225 0.05516729
000040 bd fb ca 3c cf 1a 91 3d be 7c 70 bd 61 5f 8e 3d
       0.024778241 0.070851915 -0.058712713 0.06951786
000050 80 21 2b bc 4a 92 c7 3d 41 85 d4 3d 60 f6 a5 3d
       -0.010444999 0.09744699 0.10376979 0.08103633
000060 e9 24 a9 3c f9 1e 91 3d 92 e2 91 bd 50 a9 c2 3c
       0.020647483 0.07085986 -0.07123293 0.023762375
000070 c7 e2 82 3d 5a 28 90 3d 59 81 d4 bc 68 dd a4 bd
       0.063909106 0.070389464 -0.025940584 -0.080500424
000080 a1 1a c6 3b be 97 5c 3d d3 2a af 3d 08 0b b9 3d
       0.006045655 0.05385565 0.0855309 0.09035307
000090 9e 1a 0d bd bf 8b ad bc 90 f5 02 3c 9e e6 1d 3d
       -0.034449212 -0.0211848 0.007993117 0.03855001
0000a0 4d 32 10 bd 90 7f 35 3b 34 65 b4 bd 3b ab 1a 3d
       -0.03520422 0.0027694441 -0.088083655 0.037760954
0000b0 a2 4d 4f bd 34 e6 12 3d b3 46 a6 3d 46 19 6d bd
       -0.050611146 0.03586407 0.081189536 -0.05788543
0000c0 8f e0 91 bd fa ba 42 3d 7a 9a 36 3d 29 40 a0 3d
       -0.07122909 0.047541596 0.044580914 0.078247376
0000d0 b4 94 79 bd 5c 2d 4b 3d 8d fd 77 3d 90 7a 9d bc
       -0.06093283 0.049603805 0.06054454 -0.019223481
0000e0 6c 90 cf bc 88 55 91 3d f6 2d 9f bc 2e 9c 48 3d
       -0.02533742 0.07096392 -0.019431096 0.04897707
0000f0 9b 4a 14 3d 83 2a a6 3d 8a b4 6c bd af b5 cb ba
       0.03620396 0.08113577 -0.057789363 -0.0015541817

fc3.weight f4 [32, 64]
000000 dd 63 d1 3d b8 94 b9 bc 24 3d 8f 3d 9b cb de bd
       0.102241255 -0.022653922 0.069940835 -0.108786784
000010 b8 11 e2 bd 93 cc df bd 76 1c 67 3d 76 7e 73 3d
       -0.11038536 -0.10927691 0.056423627 0.059446774
000020 25 d9 ab 3d 04 2f 1a bd c1 92 98 bd 84 86 1d 3d
       0.083910264 -0.037642494 -0.07449866 0.038458362
000030 a0 48 e5 3d 20 52 b5 bb dd fc db 3d c8 ab 7e bd
       0.11195493 -0.0055334717 0.10741589 -0.062175542
000040 16 ab 8b bd 3a 19 3a 3d 1a 8c 5e 3d 84 41 d5 3d
       -0.068197414 0.045434214 0.05433283 0.10412887
000050 67 ec 8b bd d4 f6 e1 3d 58 59 e4 bd 5e f5 d7 3d
       -0.068321995 0.11033407 -0.111498535 0.10544847
000060 83 d9 f6 bc c0 78 a6 3c 21 14 9c 3c 80 1e 75 3c
       -0.030133015 0.02032125 0.019052567 0.014960885
000070 17 fe 9e bd ac 72 e6 3c 2f bd 44 bd ef 5e 0b 3d
       -0.077633075 0.028130852 -0.048031982 0.034026083
000080 94 95 d2 bd 7f ba ac 3c 15 32 c3 3d 78 54 85 3c
       -0.10282436 0.021085022 0.09531037 0.01627563
000090 e0 d9 b1 bb 0f d9 51 bd 00 cf 6d bd 7d 7d d7 3d
       -0.005427584 -0.051232394 -0.05805874 0.10521982
0000a0 cc 90 05 3d 4f 68 ea bc 60 2d 0c bc 55 20 82 3d
       0.032608792 -0.028614191 -0.00855574 0.06353823
0000b0 8e ad 9a bd b3 87 9e 3d 3f f1 7c ba 9d 11 98 3c
       -0.07552634 0.07740726 -0.00096489856 0.018563086
0000c0 b7 b9 89 bd 54 c3 73 bd 24 27 07 bd 20 2b e9 3d
       -0.067248754 -0.05951245 -0.03299631 0.113851786
0000d0 7a da c7 3d d6 2b f6 bd c2 40 1d bd b8 2a 1a 3d
       0.09758468 -0.1202008 -0.038391836 0.037638396
0000e0 58 79 9d 3d 02 8f bf bb 93 41 ad 3c e0 e5 3c bd
       0.0768916 -0.0058459053 0.021149432 -0.046117663
0000f0 7c 67 95 3b 11 07 cf bd e9 0d cb 3b a4 73 c4 3d
       0.0045594554 -0.1010877 0.0061967266 0.09592369
000100 6c 44 98 bd 3e e6 82 bd 3b c7 ff 3d 00 66 34 bd
       -0.074349254 -0.063915715 0.12489172 -0.044042587
000110 2c e7 11 bd 6c 27 a5 3d ab f5 b4 bd 38 2c 66 3d
       -0.035620853 0.0806416 -0.0883592 0.056194514
000120 39 ad b4 3d 18 e3 8f bd ec 35 47 bc 20 c3 3b bd
       0.08822102 -0.070257366 -0.012158852 -0.045840383
000130 45 1b ea 3d d8 4c da bc 5f 3b 1a bc 42 69 de 3b
       0.114309825 -0.02664797 -0.009413569 0.00678745
000140 78 8a e2 bd 6c f9 8a bd fc 23 17 bc 50 96 a2 bc
       -0.11061567 -0.06785855 -0.009224888 -0.019847065
000150 90 9e b2 3d 0b 37 aa 3d 0d 54 fa bc 9c e3 40 3c
       0.0872165 0.0831128 -0.030557657 0.011773016
000160 06 32 af 3c 94 6f 4d 3d 4d 8b 54 bd 82 20 de 3d
       0.021386158 0.050155237 -0.05189066 0.10846044
000170 04 4b 8d 3a 9f 9b 17 3b 39 cc 6d bd 78 a9 4a 3d
       0.0010779803 0.002313353 -0.05805609 0.049478024
000180 03 44 b8 bd 30 68 b7 bc 0f 19 34 bd 5b 35 05 bd
       -0.08997347 -0.022388548 -0.04396921 -0.032521587
000190 d0 bc 39 3c 2b ea 33 bd 2c 48 df bd a7 a3 98 3d
       0.01133652 -0.04392449 -0.109024376 0.07453089
0001a0 93 cd b3 3d c3 55 8e 3d e4 8c 9b 3d 13 64 7c bd
       0.087794445 0.069499515 0.07595232 -0.061618876
0001b0 78 f9 d6 3d d3 75 05 3d 44 d5 e3 3d 51 9c a0 3d
       0.10496801 0.03258307 0.111246616 0.07842315
0001c0 49 99 ca 3c 34 d6 f3 3d 18 f8 82 3d 57 ee 90 3b
       0.024731295 0.119060904 0.063949764 0.0044229436
0001d0 fa ea d3 3d 7e 54 33 3d 6a 1f b5 3d 7a 79 ed 3d
       0.103475526 0.04378175 0.088438824 0.115954354
0001e0 64 22 4f 3d e1 b0 53 3d 39 7d b0 3d d8 93 8e bd
       0.050569907 0.051682357 0.08617634 -0.06961793
0001f0 c7 87 a2 3d c2 2c 58 bd 31 79 ed 3d e6 59 99 3d
       0.07936054 -0.05277706 0.11595381 0.0748785
000200 38 6f ba bd 48 a3 bf 3d 76 b6 ef 3c 8b 14 b9 3d
       -0.091032445 0.09357315 0.029261809 0.090371214
000210 cc aa e8 bd 36 03 c5 bc 5f 17 dd 3c be 1e 91 bd
       -0.11360702 -0.024049383 0.026988683 -0.07085942
000220 80 b4 f8 3d 08 32 96 3d 67 de a6 bd f6 7b fd bd
       0.12143803 0.073337615 -0.08147889 -0.12377159
000230 f0 f4 bc 3d 58 b6 99 3d 88 f7 cc bc b4 d4 aa bd
       0.092264056 0.075054824 -0.025020376 -0.08341351
000240 35 59 d2 bc 57 3b e0 bd e7 a3 22 bc c8 cb ea 3d
       -0.025677303 -0.10948818 -0.009926773 0.114646494
000250 a6 cf bb 3d b8 c8 b5 bb d8 3e e4 3c d0 75 05 bd
       0.09170465 -0.005547609 0.027861997 -0.032583058
000260 1e 5c bf 3d e0 ad d1 3d 44 2d 15 3d fc 30 b7 bd
       0.09343742 0.10238242 0.03642012 -0.0894489
000270 56 3f e5 bd 19 e2 e4 bd b4 de 0c bd 80 4a 53 3d
       -0.11193721 -0.11175937 -0.034392074 0.05158472
000280 5f 79 ac bd 98 7c 2b 3d 70 2b 61 3c e1 4d 84 bd
       -0.08421587 0.04186687 0.013743266 -0.06460167
000290 b6 f8 df 3d 00 60 e9 38 f6 23 d8 3d a9 7a 43 3d
       0.1093611 0.00011128187 0.10553734 0.0477244
0002a0 2e 9d ca 3d 03 0b da bd 20 1b 3d bc 4e 5e ee 3d
       0.09893261 -0.106466316 -0.011542112 0.11639081
0002b0 30 c8 12 3d 48 d9 a3 3d b2 76 e3 3d e6 88 f2 bc
       0.035835445 0.080004275 0.11106624 -0.029606294
0002c0 71 36 23 bd c4 3d a9 3d 98 c4 a2 3d 50 79 c1 bb
       -0.03984684 0.08263734 0.079476535 -0.005904354
0002d0 5a 52 15 bd 43 4d bf bd 0e 5b f9 bc 98 26 78 bd
       -0.03645549 -0.093409084 -0.030438926 -0.06058368
0002e0 dc 3f ba bd 56 39 83 3c 45 c5 0f bd 00 9b ab bb
       -0.090942115 0.01601855 -0.03510024 -0.0052369833
0002f0 b4 53 db bd 51 9e 05 3d c2 8f 30 3d 78 63 27 3d
       -0.107093245 0.032621685 0.043105848 0.040866345
000300 cd 93 9f bd 63 6b a6 bd 74 72 ae bc 7a b5 ca bd
       -0.07791863 -0.08125951 -0.02129481 -0.09897895
000310 cd 3b 4b 3c dc 71 06 bd c7 00 63 bb d2 27 93 bd
       0.012404394 -0.03282343 -0.0034637915 -0.071853295
000320 6a a7 f1 3d 8c 30 7b 3d ed 53 e5 3d b8 1e d9 bc
       0.1179951 0.061325595 0.11197648 -0.026503906
000330 0e 6e e4 3c d2 84 f9 3d c4 2b af bd 70 11 b1 bd
       0.02788451 0.121835366 -0.085532695 -0.08645904
000340 59 9b 2f 3c 2b eb 7c bd 95 c6 46 3d e2 a0 f0 bd
       0.01071819 -0.06174771 0.048529226 -0.11749436
000350 75 92 64 bd 4b 30 13 bc fc 97 f9 bd 99 3b c1 3d
       -0.055803735 -0.008983682 -0.12187192 0.094351955
000360 b6 d1 d7 bd 70 c4 55 bc b4 e2 5b 3d b0 f1 ab bc
       -0.10538046 -0.013047323 0.053682998 -0.020989269
000370 68 91 42 bd b4 ff f1 bd 34 92 b4 bd 53 96 02 bd
       -0.04750195 -0.118163496 -0.088169485 -0.03188164
000380 e6 5f 91 bc dc f5 23 3d 30 9b 4a 3c 9b 81 7f 3d
       -0.017745923 0.04002939 0.012366101 0.06237946
000390 0c ef 8e 3d ab 99 a6 3d 28 98 3c 3d 37 92 36 3c
       0.06979188 0.081347786 0.046043545 0.011143259
0003a0 77 a5 c2 3d 03 04 1e 3b c8 5f 9b 3c f4 1c d1 bc
       0.09504216 0.0024111278 0.01896657 -0.025526501
0003b0 90 22 f5 bd 8b 3a d4 bd 25 a0 c2 bd e0 7d a2 bb
       -0.11969483 -0.10362729 -0.095032014 -0.004958853
0003c0 51 2a 34 bd e0 b0 3b 3c 22 3e e4 3d 68 9f cc bd
       -0.04398567 0.0114557445 0.111446634 -0.09991342
0003d0 7b 15 ef 3c c1 46 ee 3d c2 7b f7 bc d8 2f ea bc
       0.029185047 0.11634589 -0.03021038 -0.028587267
0003e0 c0 43 c8 3b 9b cd 7c 3d b4 18 5b bd 92 e0 a5 bd
       0.006111592 0.06171952 -0.053490356 -0.08099474
0003f0 ff 8c 84 3d 52 de b6 3d cd 61 75 bd de 0f 00 3d
       0.06472205 0.08929123 -0.059907723 0.031265132

fc3.bias f4 [32]
000000 3c b7 4a bc 28 ed fe 3d b6 0e 98 bc f9 11 e7 bd
       -0.012372788 0.12447578 -0.018561702 -0.11282725
000010 e6 53 9a 3c 7e 41 d8 bd 31 9b 14 3e c4 28 4b bd
       0.018838834 -0.10559367 0.14512326 -0.049599424
000020 12 e6 de bd 20 cd 1c bc 0b f6 7d 3c 42 26 ca bd
       -0.10883726 -0.00957039 0.015500556 -0.09870578
000030 bd 37 0d bb fd d1 87 3d b0 65 62 3c 0a ef cf 3d
       -0.0021548115 0.06631849 0.0138181895 0.10153015
000040 a8 97 d7 bc 8b 5b 4e 3b 6f 0e 09 bd 24 88 f4 bc
       -0.026317433 0.003148767 -0.03346103 -0.029850073
000050 15 58 44 bc ed 5f c1 3d b5 a1 a5 bd 8e 50 24 3c
       -0.011983891 0.094421245 -0.08087484 0.010028971
000060 d3 2d 05 3d e5 ed d4 bc 84 2e 98 bd 64 38 e4 3d
       0.032514405 -0.025992343 -0.07430747 0.11143568
000070 44 77 57 bd 52 a1 b8 bd 79 d0 57 3d 82 1c d6 3d
       -0.052603975 -0.090151444 0.05268905 0.10454656

fc4.weight f4 [6, 32]
000000 f5 7c f9 bd cb 27 dc 3d 07 6c c4 bd c9 11 2e be
       -0.12182037 0.107497774 -0.09590917 -0.16998972
000010 68 30 8f bd 7c e1 04 3d b5 b4 0d be 2c 89 60 3d
       -0.06991655 0.0324416 -0.13838466 0.054818317
000020 19 01 32 3e 5e 8c bc 3d 89 27 30 3e 48 49 dc 3d
       0.17383231 0.092064604 0.17202581 0.10756165
000030 02 46 93 3d 05 11 19 bd 12 28 bd 3d 26 a5 ee 3d
       0.07191087 -0.037369747 0.092361584 0.11652593
000040 04 ab 6b bd c1 f3 0d be eb 84 31 3d 99 ab 14 3e
       -0.05753614 -0.13862516 0.04333965 0.14518584
000050 6e 7b b3 bd bf c4 4d 3d 29 b6 54 3d d0 a8 82 bd
       -0.08763777 0.05023646 0.051931534 -0.06379855
000060 50 3a 25 be 1a 40 2d 3e b9 f7 2e be 50 df 71 3c
       -0.16135526 0.16918984 -0.17086686 0.0147627145
000070 e8 8e 07 be cd 8a 86 bd 3a 14 15 be 0e 5e 95 3d
       -0.13238108 -0.06569443 -0.14558497 0.0729333
000080 40 b5 94 bc 0c de ce 3d fe be a2 bd 61 73 17 3e
       -0.018152833 0.10100946 -0.07946585 0.14790107
000090 c7 e1 d4 bd ff 75 f9 3d 82 5b fd bd 66 0f 2e be
       -0.10394626 0.12180709 -0.12370969 -0.16998062
0000a0 40 ed 52 3b 84 08 2e be a8 33 ea bd de 56 29 be
       0.003218487 -0.16995436 -0.11435634 -0.16537043
0000b0 5a 4f 39 bd 6f 51 34 bd 61 8e 26 be cc a8 30 3d
       -0.04524169 -0.044022974 -0.1626525 0.043129727
0000c0 52 2a 26 be 93 1a 83 3c 18 c7 50 3d 9e f6 f8 3d
       -0.16227081 0.016003883 0.05097112 0.121564135
0000d0 74 78 c4 bd cb b0 e5 3d 7d 4a 11 be 8a 45 d0 bd
       -0.09593287 0.11215361 -0.14188571 -0.101695135
0000e0 24 f6 bd bd 61 5e c5 bd a8 bc bb bd a2 24 92 3d
       -0.09275463 -0.09637142 -0.09166843 0.071358934
0000f0 52 3f 9f 3d e6 0f 67 bb 6a da 8b 3d 40 7d 05 bd
       0.07775749 -0.003525728 0.068287686 -0.03259015
000100 d6 79 18 bd 5b 93 f4 bd 8b 54 ac bd b5 89 07 bd
       -0.037225567 -0.11942168 -0.08414563 -0.033090312
000110 20 34 b6 bb 6c 3f 1f 3e 8f 49 10 3e b0 3c 73 3c
       -0.005560413 0.15551537 0.1409056 0.014846012
000120 f7 41 1f 3e d3 b3 d3 bd 83 4f a4 bd 59 7d 9f 3d
       0.15552507 -0.10337033 -0.08022978 0.0778758
000130 05 c9 af bd ca 6d 29 be a0 1d 14 be 78 7d 4b 3d
       -0.08583263 -0.16545787 -0.14464426 0.049680203
000140 fe 19 bf 3d 12 8b 07 be 07 a1 cc 3b 2f e5 0f 3a
       0.093311295 -0.13236645 0.006244782 0.0005489168
000150 f4 f6 de bc 41 29 ae 3c 33 9d 55 bd 44 30 8e bd
       -0.027217366 0.021259906 -0.05215187 -0.069428
000160 39 8b c2 bd f2 d5 bc 3d dc d0 3f bd c2 d0 ef bd
       -0.09499211 0.09220494 -0.046830043 -0.11709739
000170 a0 ca a9 bd 09 b9 e7 bd ec 43 fb 3d 46 6a f1 3d
       -0.08290601 -0.113145895 0.122688144 0.11787848
000180 94 38 f2 bd 98 bb 0a 3e 91 d8 31 3d 03 64 e0 3d
       -0.11827198 0.13548124 0.043419424 0.10956576
000190 fb 8b e1 3d 5c 06 a2 3d f8 d0 0a be 0b 92 a8 bd
       0.11013027 0.07911369 -0.13556278 -0.082309805
0001a0 1f 71 f7 bd 8a 78 a7 3d 3d 02 f4 3d 47 b9 2a be
       -0.12082123 0.08177288 0.119144894 -0.1667224
0001b0 d2 a0 aa 3d 96 e7 5d bd e4 eb 88 3d f6 28 c2 3d
       0.08331455 -0.054175936 0.066856176 0.09480469
0001c0 86 a7 c1 bd 8f 82 ba 3d 3f 6b 1b be fd a9 41 3c
       -0.09455781 0.09106933 -0.1517763 0.0118203135
0001d0 0e be bb 3d c2 9d 1e be b7 8e 60 bb 60 4f 0b 3e
       0.091671094 -0.15489867 -0.0034264752 0.13604498
0001e0 3e 6e 1d 3d a1 ab e3 3c 20 6e ab 3c 59 fd 10 3e
       0.038435213 0.0277918 0.020926535 0.14159144
0001f0 ba 96 9c 3d 33 13 88 3b a6 f4 20 3d b6 d4 fe 3d
       0.07645936 0.0041526794 0.039295815 0.12442915
000200 93 46 bb 3d d6 79 02 be 54 9e 25 be 3a 23 c0 3d
       0.0914432 -0.12741789 -0.16173679 0.09381719
000210 07 3b 19 be c7 52 13 3e 16 b2 6c 3d e2 89 db bd
       -0.14963923 0.14387046 0.057787023 -0.107196584
000220 14 2e 6a bd 61 5b 1c 3e 0c 56 f1 3d 85 51 bd bd
       -0.05717285 0.15269233 0.1178399 -0.09244064
000230 b3 d0 e4 3d 20 88 b4 bd 73 97 27 3e aa e8 ad 3d
       0.11172619 -0.08815026 0.16366367 0.08491643
000240 d4 0f b0 3d e3 7f 21 be 50 c9 0d be b0 ee e8 3d
       0.08596769 -0.15771441 -0.13846326 0.11373651
000250 e4 4a 28 3e 26 06 09 3d 08 db d0 3d 08 f9 2d be
       0.16434819 0.03345313 0.10198027 -0.16989529
000260 f5 98 b6 3d da b9 71 bd 50 75 28 3c d3 c8 e0 bd
       0.08915893 -0.059015132 0.010281876 -0.10975804
000270 78 c2 b3 3c a3 b8 2a 3d e1 21 1b 3e 5d 08 2e 3e
       0.021943316 0.04167999 0.15149643 0.16995378
000280 0b 42 3a 3d 0f 95 2a be a6 a7 64 bd 84 bf fe bb
       0.04547314 -0.16658424 -0.055823945 -0.0077742953
000290 4d 8f cf 3d 7f cb 1d be 02 48 34 be 46 56 ae 3d
       0.10134754 -0.15409659 -0.17605594 0.08512549
0002a0 2c 56 65 bd 4d 29 22 3e 1b 85 db 3d f8 d6 da 3b
       -0.055990383 0.15836067 0.10718747 0.0066784583
0002b0 32 fc 8a 3c 35 e1 4e 3d d4 19 04 3d 8b b7 1f be
       0.01696596 0.050507743 0.032251194 -0.1559736
0002c0 b1 8a 43 3d 9d dd 02 be d8 70 d8 3d 96 68 65 3d
       0.04773969 -0.12779851 0.10568398 0.056007944
0002d0 6f fe 09 3e 81 4b a7 bd 50 f2 45 bc 9a c0 4f bb
       0.13475965 -0.08168698 -0.012081698 -0.0031700493
0002e0 14 70 40 3d b5 0a 8b 3d 17 f9 23 3e da 1c 08 be
       0.046981886 0.067891516 0.16012989 -0.13292256
0002f0 d0 0b 03 3c 67 29 ed bd 0e 84 5c 3d d0 a7 7f 3d
       0.007998422 -0.115801625 0.053836875 0.062415898

fc4.bias f4 [6]
000000 d4 5b 05 3e e7 4b 66 3c 39 d1 06 3e 0d 10 8a bd
       0.13023311 0.0140561825 0.1316575 -0.06741343
000010 7e b4 8f bd 8f c5 bd 3b
       -0.07016848 0.005791373
