src/params_data/240418_005728/139param.pt (torch, 46927 bytes, 8 tensors)

fc1.weight f4 [128, 4]
0	0xbda7c22e	-0.08191334
1	0x3e814e8c	0.2525524
2	0x3ee4fadd	0.44722643
3	0x3e95630b	0.29177126
4	0xbea9ad40	-0.33139992
5	0xbef030f2	-0.46912342
6	0xbec140be	-0.37744707
7	0x3df51f40	0.11968851
8	0xbe06e8e3	-0.13174777
9	0x3ef56866	0.47931212
10	0xbed692f7	-0.41909
11	0xbe4a5e64	-0.1976257
12	0xbedb352c	-0.42814004
13	0xbac87a00	-0.0015295148
14	0xbea82e5a	-0.32847863
15	0x3ea6d222	0.32582194
16	0xbe37e470	-0.17958236
17	0xbec25816	-0.3795783
18	0x3e375053	0.17901735
19	0x3d17b2a0	0.037035584
20	0xbe4b661c	-0.1986317
21	0xbe51716f	-0.20453428
22	0x3e4f8c4b	0.20268361
23	0xbd93d8da	-0.072190955
24	0xbe658b72	-0.22416475
25	0xbe7d5b3d	-0.24741836
26	0x3eb2cc1d	0.3492135
27	0x3ca42778	0.020038351
28	0x3bac5c80	0.0052600503
29	0xbef4d25c	-0.4781674
30	0x3cbfd598	0.02341728
31	0xbdab9e08	-0.083797514
32	0xbe9d98b9	-0.3078058
33	0x3eb0e0b9	0.3454645
34	0xbe43e80b	-0.19131486
35	0xbcab47e9	-0.020908313
36	0x3eefd17e	0.46839517
37	0x3e8b926c	0.2726015
38	0x3ed9157d	0.42399207
39	0xbefdcf60	-0.49572277
40	0x3dc53d78	0.09630865
41	0xbe239691	-0.15975405
42	0x3dc4e67e	0.096142754
43	0xbed7fe4b	-0.42186198
44	0xbdd67a0b	-0.104724966
45	0x3ed0f901	0.40814975
46	0xbc4aef67	-0.0123861795
47	0xbeaa7578	-0.33292747
48	0x3d0dbe0d	0.034605075
49	0x3e7a7860	0.24459982
50	0xbe3c451c	-0.18385738
51	0x3ef7e253	0.4841486
52	0xbe1c894f	-0.15286754
53	0x3e697de9	0.22801937
54	0xbe73aa6c	-0.2379548
55	0x3eee1859	0.4650295
56	0xbe38640c	-0.18006915
57	0xbebaa111	-0.3645101
58	0x3e83c091	0.25732854
59	0x3b24cce8	0.0025146548
60	0x3ed9773e	0.42473787
61	0xbecc4960	-0.3989973
62	0xbe3a5e00	-0.1819992
63	0xbe7804b8	-0.2422055
64	0x3ec07b0c	0.37593877
65	0xbe1c4c90	-0.15263581
66	0xbdc4db08	-0.096120894
67	0x3e7296f0	0.2369039
68	0xbef0dc90	-0.47043276
69	0xbd20ce33	-0.039259147
70	0x3ea10a5d	0.3145322
71	0xbee40edb	-0.44542584
72	0x3deab6e8	0.11460668
73	0xbe405a1c	-0.18784374
74	0xbdaafb98	-0.08348769
75	0x3ef5854c	0.4795326
76	0x3eb979cc	0.36225736
77	0xbeb5ece9	-0.3553231
78	0x3e51872c	0.2046172
79	0xbe167e7c	-0.14696687
80	0x3c88c518	0.016695544
81	0x3e46a087	0.19397174
82	0x3e9ddf42	0.30834395
83	0xbed81b18	-0.4220817
84	0x3edb325b	0.42811856
85	0x3d2a44e5	0.04156961
86	0x3e7c19a6	0.24619159
87	0x3e5b2540	0.21400928
88	0x3d176790	0.036964
89	0xbef61e56	-0.4807002
90	0xbef2103a	-0.47278005
91	0xbedbd6be	-0.42937273
92	0xbec0c27f	-0.3764839
93	0x3ea86abb	0.3289393
94	0x3e39a237	0.18128286
95	0xbe9288e3	-0.2862006
96	0x3e812aec	0.2522806
97	0x3ebc2115	0.3674399
98	0xbe7d65c3	-0.2474585
99	0x3e952a02	0.29133612
100	0xbeceecd4	-0.4041506
101	0x3d2e171d	0.04250251
102	0xbd2201c5	-0.03955247
103	0x3eeb21d0	0.45924234
104	0xbe056ec8	-0.13030541
105	0xbe4c34a7	-0.1994196
106	0x3e810d21	0.2520533
107	0x3de6cda4	0.112696916
108	0x3e52a60b	0.20571153
109	0x3e946fe6	0.28991622
110	0xbea03054	-0.3128687
111	0x3ed60431	0.41800073
112	0xbef60ba2	-0.4805575
113	0x3ecc4e98	0.39903712
114	0x3d0aa808	0.033851653
115	0xbe845dfa	-0.25852948
116	0xbd0608c4	-0.032723203
117	0x3ebaa94d	0.3645729
118	0x3ecb0de2	0.3965903
119	0x3db68e8a	0.08913906
120	0x3ed28d18	0.4112327
121	0xbdbf7308	-0.09348112
122	0xbe6c357c	-0.23067278
123	0xbeb6d30e	-0.35707897
124	0x3ef3eeaf	0.4764304
125	0x3e94cf9f	0.29064652
126	0x3cbc183a	0.02296077
127	0x3e8e7596	0.27824086
128	0xbd697092	-0.05699212
129	0x3ecaad4b	0.39585337
130	0xbda0d15a	-0.07852431
131	0x3e91e9db	0.2849873
132	0x3ed40dff	0.41416928
133	0x3bfc0828	0.007691402
134	0x3ed0959c	0.40739143
135	0x3d91a470	0.07111442
136	0x3db4120d	0.087925054
137	0x3eed0222	0.4629069
138	0xbe7a24a4	-0.2442804
139	0xbe3ddc87	-0.18541156
140	0x3d031b60	0.03200853
141	0xbed8d552	-0.4235025
142	0xbe1468b0	-0.1449306
143	0x3dcd5a20	0.100269556
144	0x3ecf505a	0.4049099
145	0xbcba7f3b	-0.022765746
146	0x3efc762a	0.49308902
147	0x3e900912	0.2813192
148	0x3e384223	0.17993979
149	0x3e90a01c	0.28247154
150	0xbed0504b	-0.4068626
151	0x3eefe056	0.46850842
152	0x3d6d85a0	0.057988763
153	0xbe4b76a0	-0.1986947
154	0x3d8e380b	0.06944283
155	0xbdcafc98	-0.0991146
156	0x3db8da9e	0.09026073
157	0x3efb214c	0.4904884
158	0x3e190233	0.14942245
159	0x3e156ec3	0.14593033
160	0xbc489059	-0.012241446
161	0x3eaace09	0.33360317
162	0x3e221f2d	0.15832205
163	0xbee503d7	-0.44729492
164	0x3eae8682	0.34086996
165	0xbecfef40	-0.4061222
166	0xbdcf2f28	-0.10116416
167	0x3deadac0	0.114675045
168	0xbead5406	-0.33853167
169	0xbeb6ec82	-0.35727316
170	0x3e107a34	0.14109117
171	0xbdfdb8b0	-0.12388742
172	0xbec2538a	-0.3795436
173	0x3ec67992	0.38764626
174	0x3e9b56ec	0.30339754
175	0x3e330a49	0.17484392
176	0x3e119918	0.14218557
177	0x3efd627d	0.49489203
178	0xbec581c5	-0.3857557
179	0xbe602819	-0.21890296
180	0x3e845276	0.25844163
181	0x3d9508f0	0.07277095
182	0xbe4dbb1a	-0.20090905
183	0xbdebefc1	-0.11520339
184	0xbdada077	-0.08477872
185	0x3e893bd1	0.2680345
186	0xbe448fae	-0.19195434
187	0xbe061a28	-0.13095915
188	0xbcb4721d	-0.02202707
189	0x3d05ba67	0.03264847
190	0xbe2380b7	-0.1596707
191	0xbe118d39	-0.14214028
192	0x3e8a86fa	0.27056104
193	0xbec0d20a	-0.37660247
194	0xbedb32fc	-0.42812335
195	0x3d360c80	0.044445515
196	0x3ece3325	0.40273395
197	0x39c59313	0.00037684347
198	0xbed7633a	-0.4206789
199	0xbe90e422	-0.28299052
200	0xbeeeb0bc	-0.46619213
201	0x3e1bdbf1	0.1522062
202	0xbead9956	-0.3390605
203	0xbe9829f3	-0.29719505
204	0xbe234f63	-0.15948252
205	0x3e84da78	0.25947928
206	0x3bc294b7	0.0059381383
207	0x3da1aefb	0.07894703
208	0x3e1b3da5	0.15160234
209	0xbe0cbf5e	-0.13744876
210	0x3e96fb86	0.29488772
211	0xbef59cef	-0.47971293
212	0x3eb7c78a	0.35894424
213	0x3ec0d422	0.37661844
214	0xbd173fbe	-0.036926024
215	0xbe333b87	-0.17503177
216	0x3ec58f1e	0.38585752
217	0xbee10ccc	-0.43955076
218	0x3e8b8ab7	0.2725427
219	0xbe291b9b	-0.16514437
220	0xbd17d180	-0.03706503
221	0xbd9d1900	-0.07670784
222	0xbe8eb860	-0.27875042
223	0xbebd2278	-0.3694036
224	0xbe2d4fdc	-0.16924995
225	0xbe82569e	-0.2545671
226	0xbdd5c628	-0.10438186
227	0x3e47b840	0.1950388
228	0xbeaad818	-0.3336799
229	0xbe1ebd3c	-0.15501875
230	0x3d4c8fd1	0.04994184
231	0xbe6ce9a0	-0.23135996
232	0x3e8ded35	0.27720037
233	0x3e6a8df6	0.22905716
234	0x3dd2d2ab	0.10294088
235	0xbe055b93	-0.13023214
236	0x3de4a4d8	0.11164254
237	0xbe6e3ec0	-0.23266125
238	0x3de8e6f0	0.11372173
239	0x3ec1fd52	0.3788858
240	0xbdf5e9a4	-0.12007454
241	0x3e5557c1	0.20834257
242	0x3eaf2e2f	0.34214923
243	0x3f03a2aa	0.5142008
244	0xbe9df37e	-0.30849832
245	0xbed659f8	-0.41865516
246	0xbead5966	-0.33857268
247	0x3a79e000	0.0009531975
248	0xbedd4cc9	-0.43222645
249	0x3e8088ea	0.25104457
250	0xbee5691a	-0.4480675
251	0xbd37a367	-0.044833567
252	0xbe9f501f	-0.31115815
253	0x3e4ddcf9	0.20103826
254	0x3d998790	0.074965596
255	0x3e847ea9	0.25877884

fc1.bias f4 [128]
0	0xbec33da7	-0.38132975
1	0x3eff73b6	0.49892968
2	0xbedbdeec	-0.42943513
3	0xbd0647f0	-0.03278345
4	0xbe9d329e	-0.3070268
5	0x3ea193a8	0.31557965
6	0x3cd41ea7	0.025893522
7	0xbe20e8b6	-0.15713772
8	0xbe9f9ffe	-0.31176752
9	0xbe33b7cb	-0.1755058
10	0x3d46bd6b	0.048520487
11	0xbe5264a3	-0.20546202
12	0x3ef77723	0.48333082
13	0x3e4e3e59	0.20140971
14	0xbe97781b	-0.2958382
15	0xbe9fcea2	-0.31212336
16	0xbef43fba	-0.4770487
17	0x3ef527fd	0.4788207
18	0x3df1f6a0	0.11814618
19	0x3ee921bb	0.45533547
20	0xbe6c8b33	-0.23099975
21	0xbe7e30f8	-0.24823368
22	0xbe854ce4	-0.26035225
23	0x3e2a2403	0.166153
24	0xbeee88ee	-0.46588844
25	0x3ea2010c	0.31641424
26	0xbe185320	-0.1487546
27	0xbe2e651b	-0.17030756
28	0x3ef666a0	0.48125172
29	0xbe8ab75e	-0.27093023
30	0xbdb19080	-0.08670139
31	0x3ed59575	0.4171559
32	0x3e7a765a	0.2445921
33	0x3e404b46	0.18778715
34	0x3f0110b7	0.5041613
35	0x3d88eac8	0.06685406
36	0xbef24d9c	-0.47324836
37	0xbed4ef18	-0.41588664
38	0xbe6e8d3c	-0.23296064
39	0xbef4de59	-0.47825888
40	0x3cd33274	0.025780894
41	0xbe3a0b28	-0.18168318
42	0xbe2929f6	-0.16519913
43	0x3ebb2efb	0.3655928
44	0xbee4d4a7	-0.4469349
45	0x3f022ba8	0.50847864
46	0x3e53a7a5	0.2066942
47	0x3ed402d5	0.4140841
48	0xbe905456	-0.28189343
49	0xbe8a8de7	-0.27061388
50	0xbea31743	-0.31853685
51	0xbefa3b9e	-0.4887361
52	0x3ef3dd39	0.47629717
53	0xbe9779ca	-0.29585105
54	0x3d968e75	0.0735139
55	0xbea81b36	-0.3283326
56	0x3e54bf00	0.20775986
57	0xbe176db8	-0.14787948
58	0x3e8ef300	0.2791977
59	0xbe515b7b	-0.20445053
60	0x3ed348c7	0.41266462
61	0x3ee6e074	0.4509312
62	0xbe84bd76	-0.25925797
63	0x3ef60286	0.480488
64	0xbeb2805c	-0.34863555
65	0x3dab3a0f	0.08360683
66	0xbb0c2aa8	-0.002138773
67	0x3e781cbd	0.24229713
68	0x3ed2c930	0.4116912
69	0xbebc86ec	-0.36821687
70	0xbe7c53a8	-0.24641287
71	0xbea60a5a	-0.32429773
72	0x3dda2800	0.10652161
73	0x3e509a00	0.20371246
74	0xbe1fd9cc	-0.15610427
75	0x3ec8b9fe	0.392044
76	0x3ebaef08	0.3651049
77	0x3ee670af	0.45007846
78	0xbdc66648	-0.09687477
79	0xbca87afd	-0.020566458
80	0x3ee6485c	0.4497708
81	0xbe9438f9	-0.28949717
82	0x3e310be4	0.17289692
83	0xbe329ead	-0.17443343
84	0x3eb975ce	0.3622269
85	0xbc91958f	-0.01777151
86	0x3e9261d0	0.2859025
87	0xbd0d70b0	-0.034531295
88	0x3e08cddf	0.13359784
89	0xbe5be167	-0.21472703
90	0x3d6e0b7e	0.05811643
91	0x3cfe927a	0.031075705
92	0x3eaceca6	0.33774298
93	0xbd962720	-0.07331681
94	0xbeb8f14a	-0.3612159
95	0xbd529bae	-0.051418
96	0xbe965e76	-0.29368943
97	0x3ee0a32a	0.43874484
98	0xbdad6028	-0.08465606
99	0x3cece660	0.028918445
100	0xbc74919f	-0.014927297
101	0x3daba00e	0.083801374
102	0x3ec2dedb	0.3806065
103	0x3e5e77b4	0.2172535
104	0xbef68efe	-0.4815597
105	0x3ed7c80a	0.42144805
106	0xbeda4439	-0.42630175
107	0xbe480f3f	-0.19537066
108	0x3d28ca76	0.041208707
109	0x3e9936e3	0.29924688
110	0xbed737a5	-0.4203464
111	0xbe91f488	-0.28506875
112	0xbeeaee35	-0.45884863
113	0xbc9e10e0	-0.019295156
114	0x3e78ba77	0.2428988
115	0x3e42bf5a	0.19018307
116	0xbefd0aaa	-0.494222
117	0xbea74aff	-0.32674405
118	0x3c707340	0.014675915
119	0xbed76c76	-0.42074937
120	0x3e702824	0.23452812
121	0xbe601b76	-0.21885476
122	0x3ee270fb	0.44226822
123	0xbceeef71	-0.029166909
124	0xbecde8c7	-0.40216658
125	0x3ea3e2b3	0.32008895
126	0x3ec2d929	0.38056305
127	0x3e796c4c	0.24357718

fc2.weight f4 [64, 128]
0	0xbd858696	-0.06519811
1	0xbd529019	-0.051406953
2	0x3c1ded17	0.009639046
3	0x3d91b94f	0.07115423
4	0x3d49175a	0.049094535
5	0x3d874488	0.06604868
6	0x3c5df0a9	0.013546147
7	0xbda0ee35	-0.078579344
8	0xbb4da2c4	-0.0031377533
9	0x3d9ef87d	0.07762239
10	0xbce2c683	-0.027682548
11	0x3d9bf294	0.076146275
12	0xbdbbd835	-0.091720976
13	0xbd9becb4	-0.07613507
14	0x3d75c56d	0.060002733
15	0xbd9e2734	-0.07722321
16	0xbd61e53c	-0.055150256
17	0x3d163685	0.036673088
18	0xbd88fdec	-0.06689057
19	0xbcd5abb4	-0.026082851
20	0xbba2a88a	-0.004963939
21	0x3b889b3f	0.0041688974
22	0xbd53d744	-0.051718965
23	0xbd2f646f	-0.04282039
24	0xbd6d34ac	-0.05791156
25	0x3d72111e	0.059098355
26	0x3b822699	0.0039718864
27	0x3c2cce2d	0.010547203
28	0xbcb6b99f	-0.022305308
29	0xbcc57a41	-0.024106147
30	0x3bbef1b0	0.0058271512
31	0xbd84cbb6	-0.06484167
32	0xbdb73e34	-0.08947411
33	0xbb4906db	-0.0030674252
34	0xbd93bd73	-0.07213869
35	0xbd8d79fb	-0.069080316
36	0x3c7b3965	0.015333508
37	0x3d93d323	0.072180055
38	0x3cd7c196	0.026337426
39	0xbc7be69b	-0.015374805
40	0x3dacf40e	0.08444987
41	0xba116a80	-0.0005547181
42	0xbc77a220	-0.015114337
43	0x3d7312dd	0.05934416
44	0xbbdc9c17	-0.0067324745
45	0x3b0c2d60	0.002138935
46	0xbd9184d8	-0.07105416
47	0xbd077db0	-0.03307885
48	0xbd182524	-0.037144795
49	0x3da680d5	0.081300415
50	0xbd8557f3	-0.065109156
51	0x3d9be741	0.076124676
52	0x3d6e84a8	0.05823198
53	0xbd6617db	-0.056175094
54	0xbd753e3d	-0.05987381
55	0xbda84853	-0.0821692
56	0xbcec891c	-0.028873973
57	0x3d0fe165	0.035127062
58	0xbd949bd6	-0.07256286
59	0x3c9a430e	0.018830802
60	0x3c9eca79	0.019383656
61	0x3d8b5e95	0.068051495
62	0x3bc45f80	0.00599283
63	0xbb46d12a	-0.0030337074
64	0x3d8e2a23	0.06941631
65	0xbdade263	-0.084904455
66	0x3daf01af	0.08545243
67	0x3da3412b	0.07971414
68	0xbc7f93a0	-0.015599161
69	0x3d3d98da	0.04628835
70	0xbd0ccb8b	-0.0343738
71	0x3c2f9b78	0.010718219
72	0xbd8363af	-0.064154975
73	0xbd0dd475	-0.034626443
74	0x3d09ed4a	0.033673562
75	0x3c5b67c8	0.013391443
76	0xbce38506	-0.027773391
77	0xbdac3797	-0.084090404
78	0xbd6fe5ce	-0.05856877
79	0x3d2fc84a	0.04291562
80	0x3da53e60	0.08068538
81	0xbd90b5b3	-0.070659064
82	0xbd8ce094	-0.068787724
83	0xbd62335e	-0.05522477
84	0x3c377128	0.011196412
85	0xbce63aa6	-0.028104138
86	0x3cec2984	0.02882839
87	0x3d85d74f	0.065352075
88	0xbd3d9620	-0.04628575
89	0x3d50cd73	0.05097718
90	0xbc6cc7f0	-0.014451966
91	0xbd908f50	-0.07058585
92	0xbd444ae1	-0.047922973
93	0xbdac5950	-0.084154725
94	0x3d89ab95	0.0672218
95	0xbc92eff5	-0.017936686
96	0x3d7e719e	0.062120073
97	0x3d6826f8	0.05667779
98	0x3cc54d08	0.024084583
99	0xbdb2804d	-0.08715878
100	0x3d747595	0.059682447
101	0x3d3b6810	0.04575354
102	0xbd9c806e	-0.076416835
103	0xbd6f1d70	-0.058377683
104	0xbc079578	-0.008275382
105	0xbb08a5f1	-0.0020850862
106	0x3d526af4	0.05137153
107	0x3b54396c	0.003238286
108	0xbd92febc	-0.07177493
109	0xbbbe9a40	-0.005816728
110	0xbdb75a7a	-0.08952804
111	0xbcdd95c4	-0.027048953
112	0xbbe18ba4	-0.0068831015
113	0x3d61639a	0.055026628
114	0x3dab9c03	0.08379366
115	0xbda5d89b	-0.08097955
116	0xbc8139a8	-0.015774563
117	0xbcba6d74	-0.02275727
118	0xbd6eb0e0	-0.05827415
119	0xbd5a4f33	-0.053298187
120	0x3c20c908	0.009813555
121	0x3c54ed7b	0.012996073
122	0xbd7601c5	-0.06006028
123	0x3d5c2388	0.053744823
124	0xbd61cec3	-0.055128824
125	0x3ccc2146	0.02491821
126	0xbccff104	-0.02538348
127	0xbcd0fcd0	-0.025511175
128	0xbc5eced3	-0.013599115
129	0xbd3cd4c8	-0.04610136
130	0xbd6de22f	-0.058077034
131	0x3d9ebf53	0.07751336
132	0xbc5de22c	-0.013542693
133	0xbd940aed	-0.072286464
134	0xbd13f99d	-0.03612672
135	0x3b23c23e	0.0024987604
136	0x3d67f393	0.056628775
137	0x3d9bb829	0.07603485
138	0xbda27c3a	-0.079338506
139	0x3d80890a	0.06276138
140	0x3b18194d	0.002320844
141	0x3d330a59	0.04371104
142	0x3da3cdd5	0.07998244
143	0x3d10a666	0.03531494
144	0x3b8f33e0	0.0043701977
145	0xbd3c4fe4	-0.045974627
146	0x3c9c76ec	0.019099675
147	0x3d8a01d4	0.0673863
148	0x3d5644a2	0.052311547
149	0x3d829543	0.06376126
150	0x3c771df8	0.015082829
151	0x3d0fab62	0.035075553
152	0x3d93ec31	0.07222784
153	0xbda8de5f	-0.08245539
154	0x3d5904cf	0.0529831
155	0xbdb059a2	-0.08610846
156	0x3c9ba6fd	0.019000525
157	0x3d987488	0.074441016
158	0xbcaf3df8	-0.021391854
159	0xbd8f0095	-0.06982533
160	0x3a83822e	0.0010033303
161	0xbc272897	-0.0102025485
162	0xbc51c324	-0.012802873
163	0x3d326e16	0.043562017
164	0xbd1d5ad5	-0.038416702
165	0x3d54a234	0.0519125
166	0xbbd99da2	-0.0066411057
167	0x3b77c571	0.0037806893
168	0xbd24280b	-0.04007725
169	0x3d5924ee	0.053013735
170	0xbd195649	-0.037435804
171	0x3d2759f0	0.040857255
172	0xbcbe3374	-0.023217894
173	0x3c66c1a1	0.014084251
174	0xbd915148	-0.07095581
175	0x3c975c47	0.018476618
176	0xbd062a35	-0.032755096
177	0xbd62a846	-0.05533626
178	0xbca8f40e	-0.020624187
179	0x3c91f1d0	0.0178155
180	0x3d36382d	0.044487167
181	0x3d475f25	0.04867472
182	0xbd56c203	-0.052431118
183	0xbd883375	-0.0665044
184	0x3d48717a	0.048936345
185	0x3bcf144c	0.0063195582
186	0x3ce0b8eb	0.027431926
187	0xbb231659	-0.0024885146
188	0xbd821d43	-0.063532375
189	0xbd28bbb2	-0.041194625
190	0x3dafd14d	0.08584843
191	0xbd520a60	-0.051279426
192	0x3d9aa096	0.075501606
193	0xbd2b02dd	-0.041750778
194	0x3cdd062b	0.02698048
195	0xbce0bae7	-0.027432872
196	0xbd109aaa	-0.03530375
197	0x3d746d34	0.059674457
198	0xbc6c59aa	-0.014425674
199	0xbd122a3f	-0.03568482
200	0x3d854c5b	0.06508704
201	0x3b05353c	0.002032592
202	0x3d904e53	0.07046189
203	0xbda9de58	-0.08294362
204	0x3b0841e0	0.0020791218
205	0xbb79e058	-0.0038128104
206	0x3d8da20f	0.06915676
207	0x3c61ae30	0.01377444
208	0xbd699382	-0.05702544
209	0x3d973a28	0.07384139
210	0x3d93e653	0.07221665
211	0x3d6d97e1	0.05800617
212	0x3c7ba398	0.015358828
213	0xbc697a57	-0.0142503595
214	0x3beef700	0.0072926283
215	0x3d1a41e6	0.037660502
216	0xbc86d27b	-0.016457787
217	0x3d93d74e	0.072188005
218	0x3d962bcf	0.073325746
219	0xbc3d384f	-0.01154907
220	0xbd18ebe1	-0.037334327
221	0xbc94fc8c	-0.01818683
222	0x3d068caa	0.03284899
223	0xbdbb6e9d	-0.09151957
224	0xbc879fea	-0.016555745
225	0xbb20424d	-0.002445358
226	0x3ce5b904	0.028042324
227	0x38289800	4.0195882e-05
228	0xbd954765	-0.07289008
229	0x3d3f0b37	0.046641555
230	0xbd3aa522	-0.04556764
231	0x3d19850e	0.037480406
232	0xbd1f0179	-0.038819764
233	0x3c611a1a	0.013739133
234	0xba67a511	-0.00088365475
235	0x3ce74ef2	0.028235886
236	0xbd7bf731	-0.061515037
237	0xbd6e7bf5	-0.058223683
238	0xbc116a48	-0.008875437
239	0xbd9177fe	-0.07102965
240	0xbd35e839	-0.044410918
241	0x3d89d5ff	0.0673027
242	0x3d862e5f	0.06551813
243	0x3c348328	0.011017598
244	0x3d77c44a	0.06048993
245	0x3d6af0e6	0.057358645
246	0xbb81e940	-0.003964573
247	0xbdaae3cc	-0.0834423
248	0xbd6df9e3	-0.05809964
249	0xbd1575f3	-0.03648944
250	0x3cf4eebd	0.029898996
251	0xbd409da2	-0.04702533
252	0x3d0bec40	0.034160852
253	0xbd420beb	-0.047374647
254	0x3da4bbd0	0.08043635
255	0x3d341d29	0.04397312

fc2.bias f4 [64]
0	0x3db1f0d3	0.08688512
1	0xb9be6764	-0.00036316656
2	0xbd539f57	-0.05166563
3	0x3cfb6187	0.030686153
4	0x3c26fcb2	0.010192083
5	0x3c21a959	0.009867036
6	0x3d891b49	0.06694657
7	0xbc7b16f8	-0.0153253
8	0xbccdae54	-0.02510754
9	0x3d5d2186	0.05398705
10	0xbd34faa2	-0.044184335
11	0xbda5b8c7	-0.08091884
12	0x3d644749	0.055732045
13	0x3d955f41	0.07293559
14	0x3daed845	0.08537344
15	0x3d610171	0.054933015
16	0x3ccb5fc2	0.024825934
17	0x3d8f5f52	0.07000603
18	0xbd706742	-0.058692224
19	0x3d8e5f61	0.06951786
20	0xbc250ee6	-0.010074353
21	0x3dc9218a	0.0982085
22	0x3dd4f382	0.10398008
23	0x3da6804c	0.081299394
24	0x3ca48a38	0.02008544
25	0x3d911ef9	0.07085986
26	0xbd92d619	-0.07169742
27	0x3cc2a950	0.023762375
28	0x3d81f70e	0.0634595
29	0x3d900746	0.07032637
30	0xbcda7b40	-0.026670098
31	0xbda51d2e	-0.08062206
32	0x3babf05a	0.005247158
33	0x3d5b3e80	0.0535264
34	0x3daf5d1d	0.08562682
35	0x3dba3342	0.09091808
36	0xbd0d1a9e	-0.034449212
37	0xbcae399b	-0.021267703
38	0x3c02f590	0.007993117
39	0x3d1ca7e7	0.03824606
40	0xbd105bef	-0.035243925
41	0x3b5afe22	0.0033415635
42	0xbdb46534	-0.088083655
43	0x3d18dc8f	0.037319716
44	0xbd4f4da2	-0.050611146
45	0x3d158624	0.03650488
46	0x3da6da90	0.08147156
47	0xbd6d8b2d	-0.057994056
48	0xbd9288f1	-0.07155026
49	0x3d42bafa	0.047541596
50	0x3d369a7a	0.044580914
51	0x3da04029	0.078247376
52	0xbd7743b9	-0.06036732
53	0x3d4bf672	0.049795575
54	0x3d77d10a	0.06050209
55	0xbc9d7a90	-0.019223481
56	0xbccf906c	-0.02533742
57	0x3d915588	0.07096392
58	0xbc98cef3	-0.018653369
59	0x3d489c2e	0.04897707
60	0x3d14e483	0.03635074
61	0x3da690ac	0.08133063
62	0xbd6d502d	-0.05793779
63	0xbae5d162	-0.0017533714

fc3.weight f4 [32, 64]
0	0x3dd163dd	0.102241255
1	0xbcb8ed82	-0.02257419
2	0x3d8f718c	0.07004079
3	0xbdde7f61	-0.10864139
4	0xbde20d1f	-0.11037659
5	0xbddfc49f	-0.10926174
6	0x3d677d73	0.056516122
7	0x3d73db3f	0.05953526
8	0x3dac198e	0.08403312
9	0xbd1a2f04	-0.037642494
10	0xbd986f06	-0.07443051
11	0x3d1d8684	0.038458362
12	0x3de56843	0.11201527
13	0xbbb55220	-0.0055334717
14	0x3ddbfcdd	0.10741589
15	0xbd7da844	-0.06192805
16	0xbd8b96b3	-0.06815853
17	0x3d3a6aa4	0.045511857
18	0x3d5edc01	0.05440903
19	0x3dd54184	0.10412887
20	0xbd8bc277	-0.068242006
21	0x3de21798	0.110396564
22	0xbde477b2	-0.111556426
23	0x3dd7f55e	0.10544847
24	0xbcf60ee1	-0.030036392
25	0x3ca678c0	0.02032125
26	0x3c9d44b4	0.0191978
27	0x3c751e80	0.014960885
28	0xbd9e28b0	-0.07722604
29	0x3ce672a5	0.028130839
30	0xbd44bd2f	-0.048031982
31	0x3d0bce15	0.034132082
32	0xbdd26774	-0.10273638
33	0x3cad5c82	0.021162275
34	0x3dc33215	0.09531037
35	0x3c85ef1e	0.016349372
36	0xbbb1d9e0	-0.005427584
37	0xbd51d90f	-0.051232394
38	0xbd6dcf00	-0.05805874
39	0x3dd7a2b3	0.10529079
40	0x3d05f141	0.03270078
41	0xbce9c1fa	-0.028534878
42	0xbc0c2d60	-0.00855574
43	0x3d822055	0.06353823
44	0xbd9aad8e	-0.07552634
45	0x3d9e87b3	0.07740726
46	0xba682717	-0.00088559225
47	0x3c9c35ed	0.019068683
48	0xbd89a00d	-0.067199804
49	0xbd73c354	-0.05951245
50	0xbd072724	-0.03299631
51	0x3de92b20	0.113851786
52	0x3dc81c57	0.097710304
53	0xbdf60d4d	-0.12014256
54	0xbd1cf147	-0.038316038
55	0x3d1a2ab8	0.037638396
56	0x3d9d7958	0.0768916
57	0xbbbf8f02	-0.0058459053
58	0x3cade1cd	0.021225834
59	0xbd3ce5e0	-0.046117663
60	0x3b99250c	0.004673606
61	0xbdced40d	-0.10099039
62	0x3bcb0dcd	0.0061967135
63	0x3dc48b1a	0.09596844
64	0xbd984071	-0.07434166
65	0xbd82d534	-0.063883215
66	0x3dffbf77	0.12487691
67	0xbd35d8b3	-0.044396114
68	0xbd1151f8	-0.035478562
69	0x3da591c6	0.08084445
70	0xbdb50afb	-0.08839985
71	0x3d65ae45	0.0560744
72	0x3db3cdf1	0.087795146
73	0xbd8fe318	-0.070257366
74	0xbc455e97	-0.012046478
75	0xbd3bc320	-0.045840383
76	0x3dea6523	0.114450715
77	0xbcda4cd8	-0.02664797
78	0xbc19d42e	-0.0093889665
79	0x3bc0fee4	0.0058897603
80	0xbde1d000	-0.11026001
81	0xbd8ad544	-0.067789584
82	0xbc170f6c	-0.009219985
83	0xbca29650	-0.019847065
84	0x3db2a4a7	0.08722811
85	0x3daa7047	0.083221965
86	0xbcf54281	-0.029938938
87	0x3c401e1c	0.011725929
88	0x3caead83	0.021322971
89	0x3d4d6f94	0.050155237
90	0xbd55dbf3	-0.052211713
91	0x3dde2082	0.10846044
92	0x39256b33	0.00015775561
93	0x3b17b7c8	0.0023150314
94	0xbd6d9eef	-0.0580129
95	0x3d4a04cc	0.04932098
96	0xbdb84ce8	-0.08999044
97	0xbcb692bb	-0.022286763
98	0xbd33ff51	-0.04394466
99	0xbd04d0f9	-0.032425854
100	0x3c39bcd0	0.01133652
101	0xbd333c52	-0.043758698
102	0xbddf482c	-0.109024376
103	0x3d994771	0.074843295
104	0x3db36e86	0.08761315
105	0x3d8e4b7d	0.06947992
106	0x3d9b8ce4	0.07595232
107	0xbd7c68a0	-0.061623216
108	0x3dd6f978	0.10496801
109	0x3d055e2a	0.032560505
110	0x3de400f8	0.11132997
111	0x3d9cbe9a	0.07653542
112	0x3ccba670	0.024859637
113	0x3df3d634	0.119060904
114	0x3d82f818	0.063949764
115	0x3b90ee57	0.0044229436
116	0x3dd3ae3b	0.10335966
117	0x3d3406c7	0.043951776
118	0x3db520ac	0.08844122
119	0x3ded797a	0.115954354
120	0x3d4f2264	0.050569907
121	0x3d53b0e1	0.051682357
122	0x3db0eedf	0.08639311
123	0xbd8e93d8	-0.06961793
124	0x3da27ff9	0.07934565
125	0xbd582cb0	-0.052776992
126	0x3ded7727	0.11594992
127	0x3d9976ae	0.074933395
128	0xbdba6f38	-0.091032445
129	0x3dbfa348	0.09357315
130	0x3cefb676	0.029261809
131	0x3db9148b	0.090371214
132	0xbde8aacc	-0.11360702
133	0xbcc50336	-0.024049383
134	0x3cdd175f	0.026988683
135	0xbd911ebe	-0.07085942
136	0x3df8b480	0.12143803
137	0x3d963208	0.073337615
138	0xbda6de67	-0.08147889
139	0xbdfd7bf6	-0.12377159
140	0x3dbcf4f0	0.092264056
141	0x3d99b658	0.075054824
142	0xbcccf788	-0.025020376
143	0xbdaad4b4	-0.08341351
144	0xbcd25935	-0.025677303
145	0xbde03b57	-0.10948818
146	0xbc22a3e7	-0.009926773
147	0x3deacbc8	0.114646494
148	0x3dbbcfa6	0.09170465
149	0xbbb5c8b8	-0.005547609
150	0x3ce43ed8	0.027861997
151	0xbd0575d0	-0.032583058
152	0x3dbf5c1e	0.09343742
153	0x3dd1ade0	0.10238242
154	0x3d152d44	0.03642012
155	0xbdb730fc	-0.0894489
156	0xbde53f56	-0.11193721
157	0xbde4e219	-0.11175937
158	0xbd0cdeb4	-0.034392074
159	0x3d534a80	0.05158472
160	0xbdac795f	-0.08421587
161	0x3d2b7c98	0.04186687
162	0x3c612b70	0.013743266
163	0xbd844de1	-0.06460167
164	0x3ddff8b6	0.1093611
165	0x38e96000	0.00011128187
166	0x3dd823f6	0.10553734
167	0x3d437aa9	0.0477244
168	0x3dca9d2e	0.09893261
169	0xbdda0b03	-0.106466316
170	0xbc3d1b20	-0.011542112
171	0x3dee5e4e	0.11639081
172	0x3d12c830	0.035835445
173	0x3da3d948	0.080004275
174	0x3de376b2	0.11106624
175	0xbcf288e6	-0.029606294
176	0xbd233671	-0.03984684
177	0x3da93dc4	0.08263734
178	0x3da2c498	0.079476535
179	0xbbc17950	-0.005904354
180	0xbd15525a	-0.03645549
181	0xbdbf4d43	-0.093409084
182	0xbcf95b0e	-0.030438926
183	0xbd782698	-0.06058368
184	0xbdba3fdc	-0.090942115
185	0x3c833956	0.01601855
186	0xbd0fc545	-0.03510024
187	0xbbab9b00	-0.0052369833
188	0xbddb53b4	-0.107093245
189	0x3d059e51	0.032621685
190	0x3d308fc2	0.043105848
191	0x3d276378	0.040866345
192	0xbd9f93cd	-0.07791863
193	0xbda66b63	-0.08125951
194	0xbcae7274	-0.02129481
195	0xbdcab57a	-0.09897895
196	0x3c4b3bcd	0.012404394
197	0xbd0671dc	-0.03282343
198	0xbb6300c7	-0.0034637915
199	0xbd9327d2	-0.071853295
200	0x3df1a76a	0.1179951
201	0x3d7b308c	0.061325595
202	0x3de553ed	0.11197648
203	0xbcd91eb8	-0.026503906
204	0x3ce46e0e	0.02788451
205	0x3df984d2	0.121835366
206	0xbdaf2bc4	-0.085532695
207	0xbdb11170	-0.08645904
208	0x3c2f9b59	0.01071819
209	0xbd7ceb2b	-0.06174771
210	0x3d46c695	0.048529226
211	0xbdf0a0e2	-0.11749436
212	0xbd649275	-0.055803735
213	0xbc13304b	-0.008983682
214	0xbdf997fc	-0.12187192
215	0x3dc13b99	0.094351955
216	0xbdd7d1b6	-0.10538046
217	0xbc55c470	-0.013047323
218	0x3d5be2b4	0.053682998
219	0xbcabf1b0	-0.020989269
220	0xbd429168	-0.04750195
221	0xbdf1ffb4	-0.118163496
222	0xbdb49234	-0.088169485
223	0xbd029653	-0.03188164
224	0xbc915fe6	-0.017745923
225	0x3d23f5dc	0.04002939
226	0x3c4a9b30	0.012366101
227	0x3d7f819b	0.06237946
228	0x3d8eef0c	0.06979188
229	0x3da699ab	0.081347786
230	0x3d3c9828	0.046043545
231	0x3c369237	0.011143259
232	0x3dc2a577	0.09504216
233	0x3b1e0403	0.0024111278
234	0x3c9b5fc8	0.01896657
235	0xbcd11cf4	-0.025526501
236	0xbdf52290	-0.11969483
237	0xbdd43a8b	-0.10362729
238	0xbdc2a025	-0.095032014
239	0xbba27de0	-0.004958853
240	0xbd342a51	-0.04398567
241	0x3c3bb0e0	0.0114557445
242	0x3de43e22	0.111446634
243	0xbdcc9f68	-0.09991342
244	0x3cef157b	0.029185047
245	0x3dee46c1	0.11634589
246	0xbcf77bc2	-0.03021038
247	0xbcea2fd8	-0.028587267
248	0x3bc843c0	0.006111592
249	0x3d7ccd9b	0.06171952
250	0xbd5b18b4	-0.053490356
251	0xbda5e092	-0.08099474
252	0x3d848cff	0.06472205
253	0x3db6de52	0.08929123
254	0xbd7561cd	-0.059907723
255	0x3d000fde	0.031265132

fc3.bias f4 [32]
0	0xbc4a1a14	-0.012335319
1	0x3dffe042	0.12493946
2	0xbc980eb6	-0.018561702
3	0xbde711f9	-0.11282725
4	0x3c95d053	0.018287813
5	0xbdd7a36b	-0.105292164
6	0x3e14ee2a	0.14543977
7	0xbd4b28c4	-0.049599424
8	0xbddee612	-0.10883726
9	0xbc1ccd20	-0.00957039
10	0x3c76af6f	0.015056475
11	0xbdca8b2f	-0.098898284
12	0xbb034827	-0.002003202
13	0x3d888605	0.06666187
14	0x3c6265b0	0.0138181895
15	0x3dcfef0a	0.10153015
16	0xbcd797a8	-0.026317433
17	0x3b69f126	0.0035696714
18	0xbd0a3c7e	-0.033749096
19	0xbcf48824	-0.029850073
20	0xbc4a1f51	-0.012336568
21	0x3dc29425	0.095009126
22	0xbda500a0	-0.0805676
23	0x3c20dac4	0.009817783
24	0x3d051bf0	0.032497346
25	0xbcda24cb	-0.026628872
26	0xbd982e84	-0.07430747
27	0x3de43864	0.11143568
28	0xbd577744	-0.052603975
29	0xbdb8a152	-0.090151444
30	0x3d572774	0.05252786
31	0x3dd61c82	0.10454656

fc4.weight f4 [6, 32]
0	0xbdf97e10	-0.12182248
1	0x3ddbeb91	0.1073829
2	0xbdc46c07	-0.09590917
3	0xbe2e11c9	-0.16998972
4	0xbd8f73e2	-0.07004525
5	0x3d044afb	0.03229807
6	0xbe0da747	-0.13833342
7	0x3d60892c	0.054818317
8	0x3e320119	0.17383231
9	0x3dbc8c5e	0.092064604
10	0x3e2f57cb	0.17123334
11	0x3ddc909c	0.107697695
12	0x3d92f855	0.07176272
13	0xbd182b18	-0.037150472
14	0x3dbd2812	0.092361584
15	0x3deea526	0.11652593
16	0xbd6bab04	-0.05753614
17	0xbe0db26b	-0.13837592
18	0x3d3111d7	0.043229904
19	0x3e14ab99	0.14518584
20	0xbdb4dad6	-0.08830802
21	0x3d4d8f7d	0.05018567
22	0x3d5472b4	0.051867202
23	0xbd807dac	-0.0627397
24	0xbe254cd7	-0.16142593
25	0x3e2d17ca	0.16903606
26	0xbe2ef7b9	-0.17086686
27	0x3c71df50	0.0147627145
28	0xbe078ee8	-0.13238108
29	0xbd868acd	-0.06569443
30	0xbe153721	-0.14571811
31	0x3d955e0e	0.0729333
32	0xbc94b540	-0.018152833
33	0x3dcf6a2c	0.101276726
34	0xbda2befe	-0.07946585
35	0x3e177361	0.14790107
36	0xbdd4bd01	-0.10387612
37	0x3df9fa47	0.1220594
38	0xbdfc6490	-0.12323868
39	0xbe2e0f66	-0.16998062
40	0x3b52ed40	0.003218487
41	0xbe2e0884	-0.16995436
42	0xbde7877e	-0.1130514
43	0xbe293111	-0.16522624
44	0xbd380bbb	-0.044933062
45	0xbd366f91	-0.04453999
46	0xbe268e61	-0.1626525
47	0x3d30a8cc	0.043129727
48	0xbe262a52	-0.16227081
49	0x3c8419d6	0.0161256
50	0x3d51f859	0.051262233
51	0x3df8f69e	0.121564135
52	0xbdc1ece0	-0.094690084
53	0x3de61d16	0.112360165
54	0xbe119ae1	-0.14219238
55	0xbdd0458a	-0.101695135
56	0xbdbd86be	-0.09254216
57	0xbdc4bea6	-0.09606676
58	0xbdbbbca8	-0.09166843
59	0x3d9224a2	0.071358934
60	0x3d9f3f52	0.07775749
61	0xbb670fe6	-0.003525728
62	0x3d8c79d4	0.06859174
63	0xbd057d40	-0.03259015
64	0xbd18687f	-0.03720903
65	0xbdf527d5	-0.11970488
66	0xbdac548b	-0.08414563
67	0xbd0789b5	-0.033090312
68	0xbbbc6c3f	-0.0057502086
69	0x3e1f032a	0.1552855
70	0x3e0fe9bd	0.14054008
71	0x3c733cb0	0.014846012
72	0x3e1f41f7	0.15552507
73	0xbdd3b3d3	-0.10337033
74	0xbda50243	-0.08057072
75	0x3d9e88c7	0.07740932
76	0xbdb03a77	-0.08604901
77	0xbe2982dc	-0.16553825
78	0xbe141da0	-0.14464426
79	0x3d4b7d78	0.049680203
80	0x3dbf19fe	0.093311295
81	0xbe0808e8	-0.13284647
82	0x3bc2f125	0.005949157
83	0x3a0fe52f	0.0005489168
84	0xbce1b7f2	-0.027553532
85	0x3cab714e	0.020928051
86	0xbd55fb95	-0.05224188
87	0xbd8e3044	-0.069428
88	0xbdc3199d	-0.0952637
89	0x3dbc5317	0.09195536
90	0xbd3fd0dc	-0.046830043
91	0xbdefd0c2	-0.11709739
92	0xbda9caa0	-0.08290601
93	0xbde7b909	-0.113145895
94	0x3dfacdef	0.1224631
95	0x3df16a46	0.11787848
96	0xbdf23894	-0.11827198
97	0x3e0ad0ce	0.13556215
98	0x3d31d891	0.043419424
99	0x3de06403	0.10956576
100	0x3de1153a	0.10990377
101	0x3da227c0	0.07917738
102	0xbe09fc6e	-0.134752
103	0xbda8920b	-0.082309805
104	0xbdf7711f	-0.12082123
105	0x3da7788a	0.08177288
106	0x3df34a2d	0.11879382
107	0xbe2a07e7	-0.16604577
108	0x3daa998f	0.0833007
109	0xbd603bb2	-0.05474443
110	0x3d88ebe4	0.066856176
111	0x3dc228f6	0.09480469
112	0xbdc1a786	-0.09455781
113	0x3dbb84c2	0.09156181
114	0xbe1b50e6	-0.15167579
115	0x3c41a9fd	0.0118203135
116	0x3dbb32d5	0.09140555
117	0xbe1e6c18	-0.15470922
118	0xbb476482	-0.0030424898
119	0x3e0b4f60	0.13604498
120	0x3d1dd911	0.03853709
121	0x3ce3b5e3	0.027796691
122	0x3cab6e20	0.020926535
123	0x3e10fd59	0.14159144
124	0x3d9c96ba	0.07645936
125	0x3b881333	0.0041526794
126	0x3d20efea	0.0392913
127	0x3dfed4b6	0.12442915
128	0x3dbb6001	0.09149171
129	0xbe0262d3	-0.12733011
130	0xbe259e54	-0.16173679
131	0x3dc0233a	0.09381719
132	0xbe193bc9	-0.14964212
133	0x3e1359cd	0.14389725
134	0x3d6cbfd4	0.05780013
135	0xbddb89e2	-0.107196584
136	0xbd6a2e14	-0.05717285
137	0x3e1c5b61	0.15269233
138	0x3dee0549	0.11622102
139	0xbdbcd6fa	-0.09220691
140	0x3de4eaeb	0.111776195
141	0xbdb5ed5c	-0.08883163
142	0x3e279773	0.16366367
143	0x3dade8aa	0.08491643
144	0x3db00fd4	0.08596769
145	0xbe2163fa	-0.15760794
146	0xbe0db171	-0.1383722
147	0x3de8eeb0	0.11373651
148	0x3e26a445	0.16273601
149	0x3d0918fa	0.033471085
150	0x3dd048b8	0.1017012
151	0xbe2df908	-0.16989529
152	0x3db6b2dc	0.089208335
153	0xbd715d82	-0.058927067
154	0x3c287550	0.010281876
155	0xbde0c8d3	-0.10975804
156	0x3cb3c278	0.021943316
157	0x3d2ab8a3	0.04167999
158	0x3e1b3536	0.15157017
159	0x3e2e085d	0.16995378
160	0x3d3a5da1	0.045499448
161	0xbe2a51fd	-0.16632839
162	0xbd64a7a6	-0.055823945
163	0xbbfebf84	-0.0077742953
164	0x3dcf949c	0.10135767
165	0xbe1d849c	-0.15382618
166	0xbe34124f	-0.17585109
167	0x3dae5646	0.08512549
168	0xbd65562c	-0.055990383
169	0x3e22294d	0.15836067
170	0x3ddd0086	0.107911155
171	0x3bda60fe	0.0066643944
172	0x3c8d8992	0.017277513
173	0x3d4f767f	0.050650116
174	0x3d0419d4	0.032251194
175	0xbe1fb78b	-0.1559736
176	0x3d438ab1	0.04773969
177	0xbe03022c	-0.12793797
178	0x3dd91189	0.10599048
179	0x3d656896	0.056007944
180	0x3e0ab68f	0.13546203
181	0xbda7078e	-0.08155738
182	0xbc50a946	-0.01273567
183	0xbb4fc09a	-0.0031700493
184	0x3d41041d	0.047123063
185	0x3d8bacf0	0.068200946
186	0x3e23f917	0.16012989
187	0xbe081cda	-0.13292256
188	0x3c030bd0	0.007998422
189	0xbded2967	-0.115801625
190	0x3d5ddd6e	0.05416625
191	0x3d7fa7d0	0.062415898

fc4.bias f4 [6]
0	0x3e0553b8	0.13020217
1	0x3c6a57a5	0.014303123
2	0x3e0668af	0.13125871
3	0xbd8a92fc	-0.06766316
4	0xbd8f441c	-0.06995413
5	0x3ba0e1ad	0.004909715
