src/params_data/240418_005728/15param.pt (torch, 46927 bytes, 8 tensors)

fc1.weight f4 [128, 4]
000000 49 b0 b3 bd 3e 83 81 3e 64 0f e5 3e 4c c9 9a 3e
       -0.08773858 0.25295442 0.44738305 0.30231702
000010 40 ad a9 be f2 30 f0 be be 40 c1 be 40 1f f5 3d
       -0.33139992 -0.46912342 -0.37744707 0.11968851
000020 2a 30 03 be 22 9f f5 3e e1 81 d5 be 17 c4 5d be
       -0.12811342 0.4797297 -0.41700652 -0.21656834
000030 2c 35 db be 00 7a c8 ba 5a 2e a8 be 22 d2 a6 3e
       -0.42814004 -0.0015295148 -0.32847863 0.32582194
000040 70 e4 37 be 16 58 c2 be e8 6e 30 3e a0 b2 17 3d
       -0.17958236 -0.3795783 0.17229807 0.037035584
000050 1c 66 4b be 87 69 69 be cd d6 40 3e 50 ef 9c bd
       -0.1986317 -0.22794162 0.1883194 -0.07662833
000060 76 70 6e be 75 c2 76 be d7 c5 b5 3e 91 e3 bb 3b
       -0.23285088 -0.24097617 0.35502502 0.005733915
000070 80 5c ac 3b 5c d2 f4 be 5b df 8b 3c 08 9e ab bd
       0.0052600503 -0.4781674 0.017074278 -0.083797514
000080 70 95 a7 be 94 0a b2 3e 16 da 40 be ef 92 1e 3d
       -0.327312 0.34773695 -0.18833193 0.038714346
000090 88 d4 eb 3e f7 35 8c 3e c2 72 da 3e 75 64 ed be
       0.46060586 0.27384922 0.42665678 -0.46365705
0000a0 78 3d c5 3d 41 06 1c be c4 32 b8 3d c4 43 d9 be
       0.09630865 -0.1523676 0.08994058 -0.42434514
0000b0 af a2 00 be 94 ab d1 3e 34 a7 20 bc f3 f1 8c be
       -0.12562059 0.40951216 -0.009805489 -0.27528343
0000c0 58 ee 33 3d 7d 1c 7b 3e 71 0a 3b be 32 02 e9 3e
       0.043928474 0.24522586 -0.18265702 0.45509487
0000d0 80 49 34 be 36 e6 69 3e 07 30 75 be ed 07 ff 3e
       -0.17606163 0.22841725 -0.23944102 0.49810734
0000e0 0c 64 38 be 74 dd af be ad 8c 86 3e 80 1b a7 3b
       -0.18006915 -0.34348643 0.26279202 0.005099714
0000f0 3e 77 d9 3e 60 49 cc be 00 5e 3a be b8 04 78 be
       0.42473787 -0.3989973 -0.1819992 -0.2422055
000100 0c 7b c0 3e 90 4c 1c be 08 db c4 bd f0 96 72 3e
       0.37593877 -0.15263581 -0.096120894 0.2369039
000110 e0 60 ea be ba ef 24 bd 0d 97 a1 3e 13 da e3 be
       -0.45777035 -0.040267684 0.31560555 -0.44502315
000120 e8 b6 ea 3d 1c 5a 40 be 98 fb aa bd 4c 85 f5 3e
       0.11460668 -0.18784374 -0.08348769 0.4795326
000130 cc 79 b9 3e ba ee b3 be 15 a4 4c 3e c0 25 19 be
       0.36225736 -0.3514307 0.19984467 -0.14955807
000140 8e 14 d3 3c aa 39 47 3e 6b 3a 9d 3e fc 3d e4 be
       0.025766637 0.19455591 0.30708632 -0.4457854
000150 a6 7c d4 3e 3e 34 2d 3d c2 19 7c 3e fc 55 51 3e
       0.4150135 0.04228615 0.24619201 0.20442957
000160 90 67 17 3d 56 1e f6 be 3a 10 f2 be be d6 db be
       0.036964 -0.4807002 -0.47278005 -0.42937273
000170 4f ae c0 be 7c d3 a8 3e b4 8d 39 3e 58 c8 7c be
       -0.37632987 0.3297385 0.18120462 -0.246858
000180 d3 00 80 3e 41 a1 bc 3e 48 4a 7c be fd 99 92 3e
       0.2500063 0.36841777 -0.24637711 0.2863311
000190 93 3a d6 be 96 8a 13 3d 7f 44 31 bd a0 3c d5 3e
       -0.41841564 0.036020838 -0.043278214 0.41647816
0001a0 c8 6e 05 be f4 ea 4e be 4d b2 80 3e 69 25 d8 3d
       -0.13030541 -0.20206815 0.25136033 0.105540104
0001b0 ee 3a 5e 3e f7 78 95 3e 3c 86 9f be 60 42 db 3e
       0.21702167 0.2919385 -0.311571 0.42824078
0001c0 21 e1 ed be 9b b0 cc 3e 73 fb 0b 3d 8c 6e 87 be
       -0.46460822 0.3997849 0.034175348 -0.26451528
0001d0 19 0e 8b bc 81 26 bb 3e 67 0a cb 3e 62 9f 81 3d
       -0.016974496 0.36552814 0.39656374 0.06329228
0001e0 18 8d d2 3e 08 73 bf bd 7c 35 6c be 0e d3 b6 be
       0.4112327 -0.09348112 -0.23067278 -0.35707897
0001f0 c6 bc f7 3e 2c 96 95 3e 76 df d8 3c bb 3c 82 3e
       0.4838621 0.29216135 0.026473742 0.2543696
000200 ce a1 74 bd 80 83 cb 3e 8a 98 a2 bd ae e0 9a 3e
       -0.05972462 0.39748764 -0.07939251 0.30249542
000210 83 8b c8 3e 31 c9 f5 3b 99 ee d0 3e f9 96 f2 3d
       0.3916894 0.0075007905 0.40807036 0.11845202
000220 d9 12 cb 3d 75 37 ed 3e 27 93 78 be b5 e5 3b be
       0.09915704 0.46331373 -0.24274884 -0.18349345
000230 60 1b 03 3d 52 d5 d8 be b0 68 14 be 20 5a cd 3d
       0.03200853 -0.4235025 -0.1449306 0.100269556
000240 d4 fb d4 3e f5 c5 b6 bc f2 7e fd 3e 7f cd 8a 3e
       0.4159838 -0.02231119 0.49510914 0.27109906
000250 d2 16 3a 3e 63 a6 90 3e 6f 3f d0 be 47 56 f6 3e
       0.18172768 0.28251943 -0.40673396 0.481127
000260 a0 85 6d 3d a0 76 4b be 3b 3f 8f 3d 98 fc ca bd
       0.057988763 -0.1986947 0.06994482 -0.0991146
000270 2e 79 b1 3d 5e 87 fb 3e 34 8c 1d 3e bf 06 02 3e
       0.08665691 0.49126714 0.15385514 0.12697886
000280 b8 dd a8 bc a6 cc aa 3e ac 01 22 3e bd 42 f3 be
       -0.020613536 0.3335926 0.1582095 -0.47511855
000290 82 86 ae 3e 40 ef cf be 28 2f cf bd c0 da ea 3d
       0.34086996 -0.4061222 -0.10116416 0.114675045
0002a0 06 54 ad be 82 ec b6 be 4d 25 09 3e b0 b8 fd bd
       -0.33853167 -0.35727316 0.13393135 -0.12388742
0002b0 b1 36 d2 be 37 bb c6 3e c8 29 9d 3e df 75 4a 3e
       -0.4105735 0.3881471 0.3069594 0.19771527
0002c0 9d 45 07 3e eb 64 fd 3e a7 de c3 be aa a1 3b be
       0.13210149 0.49491057 -0.38255808 -0.18323389
0002d0 c9 e3 80 3e ef d0 86 3d 57 4f 56 be bb ab e5 bd
       0.25173786 0.0658282 -0.20928703 -0.112143956
0002e0 4c f1 b7 bd be 6c 89 3e a6 7d 49 be 90 87 13 be
       -0.089815706 0.26840776 -0.19676837 -0.14407182
0002f0 da fb af bc d5 41 01 3d bc 83 23 be 87 52 17 be
       -0.021482397 0.031556923 -0.15968221 -0.14777575
000300 fa 86 8a 3e 0a d2 c0 be fc 32 db be 80 0c 36 3d
       0.27056104 -0.37660247 -0.42812335 0.044445515
000310 1c 56 ca 3e e9 8d 03 bc ad 0f db be 53 3c 95 be
       0.3951882 -0.0080294395 -0.42785397 -0.29147586
000320 92 08 e9 be 6d eb 11 3e e0 ff b4 be de 97 a2 be
       -0.4551435 0.14249964 -0.35351467 -0.3175649
000330 a2 98 1c be 20 f5 84 3e 7a a3 82 3b f9 22 36 3d
       -0.152926 0.25968266 0.003986773 0.044466946
000340 1e 5a 0f 3e bd d6 11 be 15 b5 94 3e c0 d2 e7 be
       0.1399922 -0.14242072 0.29044405 -0.45277977
000350 cb 7f b9 3e bb d5 c0 3e fc f1 11 bd 11 c8 5b be
       0.3623031 0.37663063 -0.035631165 -0.21463038
000360 1e 8f c5 3e 4d 1e ce be 48 d4 95 3e 84 78 26 be
       0.38585752 -0.40257493 0.2926352 -0.1625691
000370 80 d1 17 bd 00 19 9d bd 60 b8 8e be 78 22 bd be
       -0.03706503 -0.07670784 -0.27875042 -0.3694036
000380 dc 4f 2d be 9e 56 82 be 28 c6 d5 bd 40 b8 47 3e
       -0.16924995 -0.2545671 -0.10438186 0.1950388
000390 18 d8 aa be 3c bd 1e be af 36 43 3d a0 e9 6c be
       -0.3336799 -0.15501875 0.047659572 -0.23135996
0003a0 7b e1 84 3e 81 4a 6b 3e 2b 31 dc 3d 9b 2d a0 bd
       0.25953278 0.2297764 0.107515655 -0.078211986
0003b0 d8 a4 e4 3d c0 3e 6e be c2 80 f0 3d 52 fd c1 3e
       0.11164254 -0.23266125 0.117433086 0.3788858
0003c0 3c 3d ed bd 91 14 56 3e 09 f1 ad 3e a0 4d f7 3e
       -0.11583945 0.20906283 0.33972958 0.4830141
0003d0 7e f3 9d be f8 59 d6 be 66 59 ad be 00 e0 79 3a
       -0.30849832 -0.41865516 -0.33857268 0.0009531975
0003e0 ee 47 de be 0c 16 81 3e a7 2f e5 be 5d f7 28 bc
       -0.43414253 0.25212133 -0.44762918 -0.010312882
0003f0 72 86 a0 be 3f 85 4e 3e 9d 4f 9a 3d 07 aa 8a 3e
       -0.31352574 0.20168017 0.07534716 0.27082846

fc1.bias f4 [128]
000000 57 c6 c6 be b6 73 ff 3e 92 1f d5 be f0 47 06 bd
       -0.38823196 0.49892968 -0.4162565 -0.03278345
000010 24 a3 a0 be 5d f0 98 3e 8f ad 0b 3d 5e 67 27 be
       -0.31374466 0.29870883 0.034101065 -0.16348025
000020 a8 a0 9d be 43 1d 34 be 0a 46 2f 3d 86 d2 50 be
       -0.30786633 -0.17589287 0.042791404 -0.20392808
000030 b5 bc ee 3e 18 49 55 3e 25 6b 93 be a2 ce 9f be
       0.46628347 0.20828664 -0.28792682 -0.31212336
000040 ba 3f f4 be 6a 81 f8 3e a0 f6 f1 3d b9 c9 e6 3e
       -0.4770487 0.48536235 0.11814618 0.45075777
000050 52 29 6c be c0 dc 72 be e4 4c 85 be 16 9d 2e 3e
       -0.23062637 -0.23717022 -0.26035225 0.17052111
000060 25 5b e8 be 95 e5 9d 3e a8 bc 15 be b7 0b 2a be
       -0.45382038 0.3083922 -0.14622748 -0.16606031
000070 86 f9 f7 3e 59 24 8f be 80 90 b1 bd fb 28 d7 3e
       0.4843256 -0.2795742 -0.08670139 0.42023453
000080 21 ab 7e 3e 9d f1 42 3e 4b c8 fe 3e c8 ea 88 3d
       0.24869968 0.1903748 0.49762186 0.06685406
000090 ff ee f8 be 23 54 d0 be ae 09 6e be f8 d3 f6 be
       -0.4861984 -0.4068919 -0.2324588 -0.48208594
0000a0 e6 86 24 3d 28 0b 3a be 7c 7e 30 be 62 a3 c1 3e
       0.04016771 -0.18168318 -0.1723575 0.37819964
0000b0 ce 03 e3 be 05 12 fd 3e 61 07 4d 3e 09 04 d3 3e
       -0.4433884 0.4942781 0.20022346 0.41214016
0000c0 56 54 90 be d5 ff 8e be 81 48 ae be 1a 63 fe be
       -0.28189343 -0.2792956 -0.3403969 -0.49684983
0000d0 9f 93 ed 3e 1a f5 91 be de 15 c8 3d 36 1b a8 be
       0.46401688 -0.2850731 0.09769796 -0.3283326
0000e0 00 bf 54 3e de c3 19 be 09 eb 93 3e b5 8e 4d be
       0.20775986 -0.15016124 0.28890255 -0.2007397
0000f0 c6 1a d4 3e 74 e0 e6 3e 31 45 82 be 60 7b f8 3e
       0.41426677 0.4509312 -0.25443414 0.48531628
000100 c1 6c ae be c6 87 a8 3d 0b 4f ae bc 60 fd 68 3e
       -0.34067348 0.08229022 -0.021277925 0.22752905
000110 30 c9 d2 3e a3 7c bf be 19 ef 7a be 5a 0a a6 be
       0.4116912 -0.37399778 -0.24505271 -0.32429773
000120 00 28 da 3d ad 94 5f 3e 26 0d 12 be fe b9 c8 3e
       0.10652161 0.21834059 -0.14262828 0.392044
000130 08 ef ba 3e 33 ab e4 3e 81 75 cd bd 32 17 da bc
       0.3651049 0.44661865 -0.10032178 -0.026622389
000140 af 43 e4 3e 7a 78 95 be e4 0b 31 3e 47 6c 37 be
       0.44582888 -0.2919348 0.17289692 -0.17912398
000150 ce 75 b9 3e 63 aa db bc d0 61 92 3e b0 70 0d bd
       0.3622269 -0.026814645 0.2859025 -0.034531295
000160 ba 0a 0e 3e 42 f7 53 be 4d 7b 5a 3d 7d 55 cb 3c
       0.1387128 -0.2069979 0.053340245 0.024821037
000170 6c 60 b3 3e 20 27 96 bd 4a f1 b8 be 7f d6 42 bd
       0.35034502 -0.07331681 -0.3612159 -0.04756784
000180 c4 da 90 be 77 b9 e6 3e 28 60 ad bd 60 e6 ec 3c
       -0.28291905 0.45063373 -0.08465606 0.028918445
000190 dc de 00 bd d2 a8 bc 3d d1 17 ba 3e b4 77 5e 3e
       -0.031462535 0.092118874 0.36346295 0.2172535
0001a0 12 81 ec be 55 19 da 3e a6 5a d9 be c9 99 33 be
       -0.46192223 0.42597452 -0.42451972 -0.17539133
0001b0 6f 9c 40 3d 75 6c 99 3e e2 cf db be 88 f4 91 be
       0.047024187 0.2996556 -0.4293204 -0.28506875
0001c0 3e 5f e5 be e0 10 9e bc cf 7b 80 3e 88 ed 39 3e
       -0.44799227 -0.019295156 0.25094458 0.18157017
0001d0 aa 0a fd be db a0 ab be 40 73 70 3c 76 6c d7 be
       -0.494222 -0.3352116 0.014675915 -0.42074937
0001e0 fd c8 78 3e 3d 48 67 be 7a c0 d9 3e 19 23 9d bc
       0.24295421 -0.2258615 0.4252966 -0.019181775
0001f0 53 1b d7 be f5 41 a6 3e 66 43 c2 3e c2 f4 7e 3e
       -0.42013034 0.32472196 0.37942046 0.24898055

fc2.weight f4 [64, 128]
000000 ca ce 84 bd 19 90 52 bd fe 62 64 3c 4f b9 91 3d
       -0.064847544 -0.051406953 0.013939617 0.07115423
000010 b4 cf 60 3d b9 13 8d 3d 9a 1a 7f 3c 8a 19 94 bd
       0.05488558 0.068885274 0.015570307 -0.07231434
000020 5e 90 1d ba 22 80 9f 3d df 20 b3 bc 99 11 9a 3d
       -0.0006010587 0.07788111 -0.02186626 0.07522888
000030 a7 da b4 bd 7e 2c 97 bd 39 1d 84 3d 34 27 9e bd
       -0.08830767 -0.07381533 0.06450886 -0.07722321
000040 3c e5 61 bd 1b 54 1a 3d ec fd 88 bd 7c 47 a6 bc
       -0.055150256 0.037677865 -0.06689057 -0.020297758
000050 5b 18 9a bb 1e bb a0 3b 44 d7 53 bd 92 8d 30 bd
       -0.0047026104 0.0049051186 -0.051718965 -0.043103762
000060 5c b9 5f bd 52 d0 85 3d 8d 55 cd 3b 17 a9 41 3c
       -0.05462013 0.065338746 0.006266302 0.011820099
000070 7c 05 be bc 3c a2 c4 bc b0 f1 be 3b 1a 80 86 bd
       -0.023195975 -0.02400314 0.0058271512 -0.06567402
000080 71 22 b8 bd fc 19 0f bb e6 70 90 bd fb 79 8d bd
       -0.08990944 -0.0021835556 -0.07052784 -0.069080316
000090 32 22 86 3c 23 d3 93 3d 7e 78 03 3d ff 14 82 bc
       0.016373727 0.072180055 0.032097332 -0.015879152
0000a0 9e 2e ac 3d 80 6a 11 ba d3 4e 18 bc dc ba 72 3d
       0.08407329 -0.0005547181 -0.009296137 0.059260234
0000b0 de 0a 37 bb 60 2d 0c 3b 9a bd 8a bd b0 7d 07 bd
       -0.0027930061 0.002138935 -0.06774445 -0.03307885
0000c0 24 25 18 bd d5 80 a6 3d f3 57 85 bd a6 11 9a 3d
       -0.037144795 0.081300415 -0.065109156 0.075228974
0000d0 8e d6 74 3d 77 e4 68 bd b9 93 61 bd 53 48 a8 bd
       0.059774928 -0.056858506 -0.05507252 -0.0821692
0000e0 1c 89 ec bc 27 66 27 3d 20 5d 95 bd 82 a0 c8 3c
       -0.028873973 0.040868904 -0.07293153 0.024490599
0000f0 d9 2b a1 3c 95 5e 8b 3d 80 5f c4 3b 91 20 63 bb
       0.019674229 0.068051495 0.00599283 -0.0034656862
000100 83 68 8d 3d 20 7e a9 bd c9 96 b4 3d 73 19 a5 3d
       0.069047 -0.082760096 0.088178225 0.08061495
000110 a0 93 7f bc de 5e 56 3d 8b cb 0c bd 78 9b 2f 3c
       -0.015599161 0.052336566 -0.0343738 0.010718219
000120 af 63 83 bd b4 72 f4 bc 4a ed 09 3d c8 67 5b 3c
       -0.064154975 -0.029839851 0.033673562 0.013391443
000130 06 85 e3 bc 6c 3c ac bd ef c7 5a bd 0b 70 43 3d
       -0.027773391 -0.08409962 -0.053413328 0.047714274
000140 b1 09 a5 3d 41 cd 89 bd 94 e0 8c bd c5 7e 57 bd
       0.08058489 -0.06728602 -0.068787724 -0.05261113
000150 28 71 37 3c 2c d3 e9 bc 84 29 ec 3c 4f d7 85 3d
       0.011196412 -0.028543077 0.02882839 0.065352075
000160 be 1a 3f bd 54 74 4f 3d f4 4c 69 bc 89 d4 90 bd
       -0.046656363 0.05064805 -0.014239538 -0.07071788
000170 26 54 47 bd 50 59 ac bd 95 ab 89 3d 14 59 90 bc
       -0.048664235 -0.084154725 0.0672218 -0.0176206
000180 72 5c 80 3d 9a 43 66 3d 08 4d c5 3c 4d 80 b2 bd
       0.062676325 0.056216814 0.024084583 -0.08715878
000190 a5 66 74 3d 31 5d 3e 3d 85 19 9a bd 70 1d 6f bd
       0.059668202 0.046475593 -0.07524399 -0.058377683
0001a0 bd 79 cc bb dd ac 18 bb f4 6a 52 3d 35 6c 84 3b
       -0.0062400983 -0.0023296394 0.05137153 0.0040412196
0001b0 19 56 87 bd 40 9a be bb ff fa b4 bd c4 95 dd bc
       -0.06608219 -0.005816728 -0.08836936 -0.027048953
0001c0 4c 14 bf bb 9a 63 61 3d 03 9c ab 3d c4 11 a7 bd
       -0.005831277 0.055026628 0.08379366 -0.081576854
0001d0 a8 39 81 bc d6 98 b4 bc e0 b0 6e bd 33 4f 5a bd
       -0.015774563 -0.022045534 -0.05827415 -0.053298187
0001e0 c3 92 3c 3c 09 db 99 3c c5 01 76 bd 39 af 5b 3d
       0.0115096 0.018781202 -0.06006028 0.053633902
0001f0 a3 64 5b bd dc cd df 3c cd 5c cc bc e5 99 af bc
       -0.05356277 0.027319841 -0.024946595 -0.021435687
000200 c2 d5 2f bc c8 d4 3c bd 85 0e 72 bd 53 bf 9e 3d
       -0.010732116 -0.04610136 -0.05909588 0.07751336
000210 83 a6 88 bc 86 49 91 bd 4f 3b 0b bd fd 7c 73 ba
       -0.016680961 -0.070941016 -0.033992108 -0.0009288339
000220 cf 53 69 3d ca b9 9e 3d 6f fe a8 bd db 33 82 3d
       0.05696469 0.0775028 -0.08251654 0.06357547
000230 bc 8b ee 3a 37 f6 31 3d 61 ae a0 3d 66 a6 10 3d
       0.0018199603 0.0434477 0.0784576 0.03531494
000240 e0 33 8f 3b 06 ba 13 bd ec 76 9c 3c 88 92 83 3d
       0.0043701977 -0.036066078 0.019099675 0.06424433
000250 d4 4f 5f 3d 60 cf 85 3d f8 1d 77 3c eb c8 18 3d
       0.05451949 0.06533694 0.015082829 0.037300985
000260 b7 7a 91 3d 57 cc 96 bd a2 db 66 3d ed 37 b4 bd
       0.07103484 -0.073631935 0.056361802 -0.087997295
000270 00 04 aa 3c de cb 9c 3d f8 3d af bc 8a ff 8e bd
       0.02075386 0.07656072 -0.021391854 -0.06982334
000280 7b a7 d8 3a 4a dc de bb b4 56 59 bc 16 6e 32 3d
       0.0016529405 -0.006801163 -0.013265301 0.043562017
000290 a8 9a 0c bd 8c 50 47 3d 87 21 20 bc 22 b1 9f 3b
       -0.03432718 0.0486608 -0.009773619 0.004873411
0002a0 99 a9 1e bd ee 24 59 3d 32 4b 26 bd a2 d9 31 3d
       -0.03873596 0.053013735 -0.040599056 0.04342044
0002b0 ae 83 c8 bc d3 65 1a 3b ab 6e 92 bd 52 0b 34 3c
       -0.024476852 0.0023559227 -0.071500145 0.010989027
0002c0 35 2a 06 bd d1 bd 7a bd ac 1a dd bc c8 4c 9b 3c
       -0.032755096 -0.06121618 -0.026990257 0.01895751
0002d0 e5 7c 3f 3d 9a 7a 46 3d 99 cb 5e bd 75 33 88 bd
       0.046749968 0.048456766 -0.054393385 -0.0665044
0002e0 7a 71 48 3d 04 32 54 3b c2 c8 e6 3c 5c 5d b6 bb
       0.048936345 0.0032378444 0.0281719 -0.0055653285
0002f0 cf 8c 77 bd b2 bb 28 bd d6 59 ab 3d 87 1d 47 bd
       -0.06043702 -0.041194625 0.08366744 -0.048612144
000300 98 69 9e 3d 1c 1f 2f bd 6c 95 ea 3c ed 4c bf bc
       0.07734984 -0.042754278 0.028635703 -0.02335211
000310 aa 9a 10 bd 5b 27 67 3d 42 72 8b bc 3f 2a 12 bd
       -0.03530375 0.056434017 -0.017022256 -0.03568482
000320 5b 4c 85 3d 8b 34 10 39 7b 2e 8b 3d 58 de a9 bd
       0.06508704 0.00013752484 0.06795975 -0.08294362
000330 e0 41 08 3b 74 2f 20 bb 17 02 89 3d b9 f9 65 3c
       0.0020791218 -0.0024442347 0.06689852 0.014036589
000340 fa 7d 63 bd a3 7d 97 3d 53 e6 93 3d 3c d3 78 3d
       -0.055540062 0.0739701 0.07221665 0.060748324
000350 98 a3 7b 3c f2 1b 51 bc 00 f7 ee 3b e6 41 1a 3d
       0.015358828 -0.01276301 0.0072926283 0.037660502
000360 82 e7 71 bc 43 c4 95 3d bd ff 9a 3d 21 17 2a bc
       -0.014764668 0.073128246 0.075683095 -0.010381491
000370 dc c3 19 bd 8c fc 94 bc aa 8c 06 3d 6d 2c b3 bd
       -0.0375403 -0.01818683 0.03284899 -0.08748708
000380 bb 4c 65 bc 4f c2 d5 ba 04 b9 e5 3c 00 98 28 38
       -0.013995345 -0.0016308519 0.028042324 4.0195882e-05
000390 e6 bd 90 bd 5b 6b 63 3d 80 e0 3c bd 0e 85 19 3d
       -0.0706747 0.055522304 -0.046112537 0.037480406
0003a0 3d ed 15 bd 09 00 6a 3c 9a ef 72 bb 2a 99 e0 3c
       -0.0366032 0.014282235 -0.0037069083 0.027416784
0003b0 cd 4c 84 bd 0c a7 8f bd 7b 30 3a 3a fe 77 91 bd
       -0.06459961 -0.070142835 0.0007102561 -0.07102965
0003c0 08 4a 39 bd ff d5 89 3d 14 a9 84 3d 7d 5e 31 3c
       -0.045236617 0.0673027 0.064775616 0.01082575
0003d0 4a c4 77 3d ba b1 7a 3d 40 e9 81 bb cc e3 aa bd
       0.06048993 0.06120465 -0.003964573 -0.0834423
0003e0 2f 7e 98 bd d9 5f 22 bd 9d ef ec 3c 2c d9 39 bd
       -0.074459426 -0.03964219 0.02892285 -0.045373127
0003f0 c9 5e 1b 3d 2a a5 44 bd a6 f0 ab 3d c4 af 30 3d
       0.03793219 -0.048009075 0.083955094 0.043136373

fc2.bias f4 [64]
000000 a3 de af 3d c7 00 2f 3c 26 fc 42 bd aa be 07 3d
       0.085873865 0.010681338 -0.04760375 0.033140816
000010 4a 3a ae bb e0 be c2 bb 07 21 a2 3d 52 62 66 bc
       -0.005317007 -0.005943164 0.07916456 -0.014061527
000020 c2 00 07 bd 86 21 5d 3d 49 16 1a bd c7 b8 a5 bd
       -0.032959707 0.05398705 -0.03761891 -0.08091884
000030 a8 49 1b 3d 41 5f 95 3d 33 c5 a7 3d 41 02 72 3d
       0.03791204 0.07293559 0.0819191 0.05908418
000040 e9 f2 a5 3c 47 1f b3 3d 1f c6 81 bd 61 5f 8e 3d
       0.02025743 0.087462 -0.06336617 0.06951786
000050 6e 09 6b bc 9e ba 9c 3d 50 cf aa 3d e7 4f a5 3d
       -0.01434551 0.07652782 0.08340323 0.08071881
000060 50 f0 04 3d f9 1e 91 3d ee b3 86 bd 50 a9 c2 3c
       0.032455742 0.07085986 -0.065772876 0.023762375
000070 ee da 92 3d bd a3 84 3d ee 41 d2 bc a8 83 9b bd
       0.07170664 0.06476543 -0.025666203 -0.07593471
000080 37 11 b9 3c 93 67 94 3d 3f e2 ac 3d c5 bd ad 3d
       0.022591216 0.07246318 0.084415905 0.08483461
000090 9e 1a 0d bd 6d 1a 84 bc 90 f5 02 3c 0a 9a 44 3d
       -0.034449212 -0.016125882 0.007993117 0.047998466
0000a0 55 e9 2c bd a0 a1 f5 bb 34 65 b4 bd 96 8f 1c 3d
       -0.04221471 -0.007496074 -0.088083655 0.03822287
0000b0 a2 4d 4f bd 77 8a 1f 3d cc ec a3 3d b7 18 84 bd
       -0.050611146 0.03895041 0.0800415 -0.064500265
0000c0 03 23 87 bd fa ba 42 3d 7a 9a 36 3d 29 40 a0 3d
       -0.06598475 0.047541596 0.044580914 0.078247376
0000d0 af 96 97 bd 7b 38 1e 3d 20 76 5b 3d 90 7a 9d bc
       -0.074017875 0.038628083 0.05357945 -0.019223481
0000e0 6c 90 cf bc f8 0c 92 3d 18 48 ee bc 2e 9c 48 3d
       -0.02533742 0.0713138 -0.029087111 0.04897707
0000f0 ef 21 21 3d 7e d6 a1 3d 8a c2 68 bd a9 7a 5a 3b
       0.039339002 0.07902239 -0.056826152 0.0033337271

fc3.weight f4 [32, 64]
000000 d5 a3 d8 3d f2 f1 b7 bc a4 34 8f 3d 98 f1 e1 bd
       0.105781235 -0.022454236 0.06992462 -0.110324085
000010 3b e1 e0 bd 30 d9 dd bd 52 a8 65 3d 35 b8 70 3d
       -0.10980459 -0.10832441 0.056068726 0.058769424
000020 85 91 a9 3d 04 2f 1a bd 70 10 97 bd 84 86 1d 3d
       0.08279709 -0.037642494 -0.07376182 0.038458362
000030 3f a8 e5 3d 20 52 b5 bb a5 30 e4 3d 1f 33 87 bd
       0.11213731 -0.0055334717 0.11142091 -0.066015474
000040 f5 e5 87 bd f4 c8 3b 3d 76 d8 5c 3d 84 41 d5 3d
       -0.06635658 0.04584594 0.05391737 0.10412887
000050 4f 57 8c bd 39 70 e2 3d 60 b6 d9 bd b4 fa de 3d
       -0.0685259 0.11056561 -0.106304884 0.108876616
000060 b9 6c fb bc c0 78 a6 3c 41 60 8f 3c 80 1e 75 3c
       -0.030691491 0.02032125 0.017501952 0.014960885
000070 7b 73 a4 bd 57 3a 00 3d f2 ff 36 bd dc 34 09 3d
       -0.08029839 0.031305637 -0.044677682 0.033497676
000080 7b e2 d2 bd 94 98 af 3c a6 a0 ca 3d b4 e5 89 3c
       -0.10297104 0.02143506 0.098939225 0.016833164
000090 e0 d9 b1 bb 3d ac 43 bd 00 cf 6d bd 71 7f dd 3d
       -0.005427584 -0.04777168 -0.05805874 0.10815323
0000a0 86 33 06 3d 30 bc eb bc 60 2d 0c bc 20 31 8a 3d
       0.03276398 -0.028776258 -0.00855574 0.06747651
0000b0 8e ad 9a bd 80 34 a5 3d a3 f7 6c ba 90 1c 44 3c
       -0.07552634 0.08066654 -0.00090395863 0.0119697
0000c0 4d 2f 89 bd 54 c3 73 bd 24 27 07 bd 20 2b e9 3d
       -0.06698475 -0.05951245 -0.03299631 0.113851786
0000d0 e8 ab c6 3d 31 be f4 bd dd cd 1c bd b8 2a 1a 3d
       0.09700757 -0.11950339 -0.038282264 0.037638396
0000e0 58 79 9d 3d 25 86 bf bb 9f f8 b6 3c e0 e5 3c bd
       0.0768916 -0.0058448487 0.022335349 -0.046117663
0000f0 eb c2 92 3b b6 26 ce bd bf a7 13 3c 88 be c4 3d
       0.0044788024 -0.10065977 0.009012162 0.096066535
000100 2a 99 92 bd 92 76 83 bd 39 ba ff 3d 48 97 2b bd
       -0.0715812 -0.064191 0.12486691 -0.04189232
000110 d3 b6 0f bd a2 e2 a4 3d 89 a4 b5 bd 84 35 69 3d
       -0.035086464 0.08051039 -0.08869273 0.056935802
000120 a5 74 b7 3d 18 e3 8f bd 45 dd 53 bc 20 c3 3b bd
       0.08957795 -0.070257366 -0.012931173 -0.045840383
000130 2c d1 e8 3d d8 4c da bc 4e 89 22 bc 39 f6 18 3c
       0.11368021 -0.02664797 -0.009920431 0.009336048
000140 d4 5a ec bd 4a 34 8c bd a6 28 10 bc 50 96 a2 bc
       -0.115407616 -0.06845911 -0.008798754 -0.019847065
000150 9d d3 b2 3d 51 ed a8 3d 45 4f 15 bd 63 b1 71 3c
       0.08731768 0.082483895 -0.03645255 0.014751765
000160 07 4a aa 3c 94 6f 4d 3d 0c b1 4d bd 82 20 de 3d
       0.020787252 0.050155237 -0.050217673 0.10846044
000170 29 76 51 3b 71 8a 12 3b c8 81 70 bd f8 21 50 3d
       0.0031961298 0.002236035 -0.05871752 0.050813645
000180 1c 68 b9 bd 98 08 bd bc 2e 6e 36 bd c7 29 06 bd
       -0.090530604 -0.023075387 -0.04453867 -0.032754686
000190 d0 bc 39 3c d5 b8 1f bd 2c 48 df bd 81 fb 94 3d
       0.01133652 -0.03899463 -0.109024376 0.07274533
0001a0 82 3f b4 3d 7a 06 8e 3d e4 8c 9b 3d 57 41 7a bd
       0.08801176 0.06934829 0.07595232 -0.06109747
0001b0 78 f9 d6 3d 0e a5 09 3d 3b bd e2 3d 56 31 9e 3d
       0.10496801 0.033604674 0.11071249 0.07724254
0001c0 3a 5c c3 3c 34 d6 f3 3d 18 f8 82 3d 57 ee 90 3b
       0.023847688 0.119060904 0.063949764 0.0044229436
0001d0 79 09 d4 3d dd 7b 2b 3d d3 aa b4 3d 7a 79 ed 3d
       0.10353369 0.041866172 0.08821645 0.115954354
0001e0 64 22 4f 3d 6a 8a 53 3d 28 39 ad 3d d8 93 8e bd
       0.050569907 0.051645674 0.08458167 -0.06961793
0001f0 52 47 a2 3d c9 72 5b bd ae a0 ed 3d 8f 01 9c 3d
       0.079237595 -0.053576265 0.11602913 0.07617485
000200 38 6f ba bd 48 a3 bf 3d 76 b6 ef 3c 8b 14 b9 3d
       -0.091032445 0.09357315 0.029261809 0.090371214
000210 cc aa e8 bd 36 03 c5 bc 5f 17 dd 3c be 1e 91 bd
       -0.11360702 -0.024049383 0.026988683 -0.07085942
000220 80 b4 f8 3d 08 32 96 3d 67 de a6 bd f6 7b fd bd
       0.12143803 0.073337615 -0.08147889 -0.12377159
000230 f0 f4 bc 3d 58 b6 99 3d 88 f7 cc bc b4 d4 aa bd
       0.092264056 0.075054824 -0.025020376 -0.08341351
000240 35 59 d2 bc 57 3b e0 bd e7 a3 22 bc c8 cb ea 3d
       -0.025677303 -0.10948818 -0.009926773 0.114646494
000250 a6 cf bb 3d b2 c8 b5 bb d8 3e e4 3c d0 75 05 bd
       0.09170465 -0.0055476064 0.027861997 -0.032583058
000260 1e 5c bf 3d e0 ad d1 3d 44 2d 15 3d fc 30 b7 bd
       0.09343742 0.10238242 0.03642012 -0.0894489
000270 56 3f e5 bd 19 e2 e4 bd b4 de 0c bd 80 4a 53 3d
       -0.11193721 -0.11175937 -0.034392074 0.05158472
000280 5f 79 ac bd 98 7c 2b 3d 70 2b 61 3c e1 4d 84 bd
       -0.08421587 0.04186687 0.013743266 -0.06460167
000290 b6 f8 df 3d 00 60 e9 38 f6 23 d8 3d a9 7a 43 3d
       0.1093611 0.00011128187 0.10553734 0.0477244
0002a0 2e 9d ca 3d 03 0b da bd 20 1b 3d bc 4e 5e ee 3d
       0.09893261 -0.106466316 -0.011542112 0.11639081
0002b0 30 c8 12 3d 48 d9 a3 3d b2 76 e3 3d e6 88 f2 bc
       0.035835445 0.080004275 0.11106624 -0.029606294
0002c0 71 36 23 bd c4 3d a9 3d 98 c4 a2 3d 50 79 c1 bb
       -0.03984684 0.08263734 0.079476535 -0.005904354
0002d0 5a 52 15 bd 43 4d bf bd 0e 5b f9 bc 98 26 78 bd
       -0.03645549 -0.093409084 -0.030438926 -0.06058368
0002e0 dc 3f ba bd 56 39 83 3c 45 c5 0f bd 00 9b ab bb
       -0.090942115 0.01601855 -0.03510024 -0.0052369833
0002f0 b4 53 db bd 51 9e 05 3d c2 8f 30 3d 78 63 27 3d
       -0.107093245 0.032621685 0.043105848 0.040866345
000300 c8 ce 9d bd 2b 39 a6 bd 5f 46 ad bc 7a b5 ca bd
       -0.07705456 -0.08116373 -0.02115172 -0.09897895
000310 66 4f 4e 3c b9 95 05 bd df 50 61 bb 8e 23 93 bd
       0.012592172 -0.03261349 -0.0034380478 -0.07184516
000320 6a a7 f1 3d 8c 30 7b 3d 43 9c e5 3d b8 1e d9 bc
       0.1179951 0.061325595 0.11211445 -0.026503906
000330 b4 a4 e5 3c d2 84 f9 3d c4 2b af bd 70 11 b1 bd
       0.028032638 0.121835366 -0.085532695 -0.08645904
000340 0b d9 33 3c 41 36 7c bd f8 32 47 3d e2 a0 f0 bd
       0.01097704 -0.061575178 0.048632592 -0.11749436
000350 c2 4f 64 bd 87 c4 10 bc 88 2b f4 bd 1d 9e c8 3d
       -0.055740125 -0.008835918 -0.119223654 0.09795783
000360 ec cf d7 bd 70 c4 55 bc b4 e2 5b 3d b0 f1 ab bc
       -0.10537705 -0.013047323 0.053682998 -0.020989269
000370 68 91 42 bd df ec f1 bd 34 92 b4 bd b5 1b 02 bd
       -0.04750195 -0.11812758 -0.088169485 -0.031764705
000380 07 01 91 bc 52 6f 24 3d 30 9b 4a 3c 22 27 80 3d
       -0.017700685 0.040145226 0.012366101 0.06257464
000390 0c ef 8e 3d 98 93 a7 3d 28 98 3c 3d 1a d5 3b 3c
       0.06979188 0.08182448 0.046043545 0.011464382
0003a0 77 a5 c2 3d 6e 02 23 3b c8 5f 9b 3c 09 45 c0 bc
       0.09504216 0.0024873274 0.01896657 -0.023470419
0003b0 90 22 f5 bd 2d ef d3 bd f7 43 c2 bd e0 7d a2 bb
       -0.11969483 -0.103483535 -0.094856195 -0.004958853
0003c0 5b dc 33 bd e0 b0 3b 3c 22 3e e4 3d 68 9f cc bd
       -0.04391132 0.0114557445 0.111446634 -0.09991342
0003d0 e3 7a ef 3c 81 9d ee 3d 8a 8a f6 bc d8 2f ea bc
       0.029233402 0.11651135 -0.030095357 -0.028587267
0003e0 c0 43 c8 3b 9b cd 7c 3d 2a 02 5a bd 92 e0 a5 bd
       0.006111592 0.06171952 -0.05322472 -0.08099474
0003f0 41 e2 84 3d 24 0c b7 3d ae 97 74 bd f5 cb 00 3d
       0.06488467 0.089378625 -0.059714966 0.03144451

fc3.bias f4 [32]
000000 61 a7 24 bc 31 4e eb 3d b6 0e 98 bc ac 53 e6 bd
       -0.010049672 0.11489523 -0.018561702 -0.11246428
000010 c9 73 f0 3c cc a5 e6 bd 12 ef fc 3d c4 28 4b bd
       0.029352086 -0.11262092 0.123502865 -0.049599424
000020 12 e6 de bd 20 cd 1c bc fa e5 92 3c 29 a4 d4 bd
       -0.10883726 -0.00957039 0.017931927 -0.103828736
000030 58 0f 1a 3b 00 8d 8b 3d b0 65 62 3c 0a ef cf 3d
       0.002350768 0.06814003 0.0138181895 0.10153015
000040 16 97 d7 bc 71 27 a0 bb 84 09 f2 bc 37 2e f5 bc
       -0.02631716 -0.0048875143 -0.029545553 -0.029929264
000050 34 8e 45 bc 16 4e a6 3d c8 e4 ad bd 16 c6 49 3c
       -0.01205783 0.081203625 -0.08490902 0.012315294
000060 05 06 1d 3d 78 e0 9d bc 84 2e 98 bd 64 38 e4 3d
       0.03833582 -0.019272074 -0.07430747 0.11143568
000070 44 77 57 bd 52 a1 b8 bd 7d cc 73 3d 82 1c d6 3d
       -0.052603975 -0.090151444 0.059521187 0.10454656

fc4.weight f4 [6, 32]
000000 59 60 03 be 0c 1e db 3d 07 6c c4 bd 55 16 2e be
       -0.12829722 0.1069909 -0.09590917 -0.17000706
000010 7b d8 90 bd 31 97 04 3d af c4 17 be 2c 89 60 3d
       -0.070725404 0.03237075 -0.14821123 0.054818317
000020 19 01 32 3e 5e 8c bc 3d b0 f1 30 3e c7 b5 e1 3d
       0.17383231 0.092064604 0.17279696 0.110209994
000030 79 49 90 3d 3e d3 0f bd 12 28 bd 3d 26 a5 ee 3d
       0.07045264 -0.035113566 0.092361584 0.11652593
000040 04 ab 6b bd ef 7a 11 be 85 95 2c 3d 32 8d 14 3e
       -0.05753614 -0.14207052 0.04213478 0.14506987
000050 55 21 b2 bd d6 4f 4c 3d bf 3b 7c 3d b2 00 85 bd
       -0.08697764 0.049880825 0.061580416 -0.06494273
000060 a8 79 26 be 31 87 2c 3e b9 f7 2e be 50 df 71 3c
       -0.16257346 0.16848446 -0.17086686 0.0147627145
000070 e8 8e 07 be cd 8a 86 bd 26 3c 17 be 0e 5e 95 3d
       -0.13238108 -0.06569443 -0.14769039 0.0729333
000080 a4 08 a7 bc 38 30 ce 3d fe be a2 bd b6 78 17 3e
       -0.020389862 0.10067791 -0.07946585 0.14792141
000090 90 a9 d6 bd 1e 77 f8 3d 78 b1 f1 bd 66 0f 2e be
       -0.1048156 0.12132095 -0.118014276 -0.16998062
0000a0 40 ed 52 3b 84 08 2e be 86 2f f9 bd 73 51 2a be
       0.003218487 -0.16995436 -0.121672675 -0.16632633
0000b0 a6 57 44 bd 88 2a 1d bd 61 8e 26 be cc a8 30 3d
       -0.04793515 -0.03837064 -0.1626525 0.043129727
0000c0 52 2a 26 be 03 55 a9 3c 7b ab 4b 3d c6 17 f9 3d
       -0.16227081 0.02067042 0.049724083 0.121627375
0000d0 b2 5f da bd 01 87 e8 3d 6f 3b 03 be 5f 21 cd bd
       -0.10662784 0.11353875 -0.12815641 -0.10016131
0000e0 da 6d bf bd f3 ce cb bd a8 bc bb bd a2 24 92 3d
       -0.093471244 -0.09951582 -0.09166843 0.071358934
0000f0 52 3f 9f 3d e6 0f 67 bb 91 e6 86 3d 40 7d 05 bd
       0.07775749 -0.003525728 0.06586946 -0.03259015
000100 77 b7 26 bd da 7a f4 bd 8b 54 ac bd d3 87 07 bd
       -0.04070231 -0.119374946 -0.08414563 -0.033088516
000110 ef 26 a4 bb 3a ec 20 3e e2 f1 0a 3e b0 3c 73 3c
       -0.005009524 0.15715113 0.13568833 0.014846012
000120 f7 41 1f 3e d3 b3 d3 bd 2e a4 97 bd 3e 50 a1 3d
       0.15552507 -0.10337033 -0.07404362 0.07876633
000130 a7 06 b0 bd a4 c4 2a be a0 1d 14 be 78 7d 4b 3d
       -0.08595019 -0.16676575 -0.14464426 0.049680203
000140 fe 19 bf 3d eb d7 0c be 70 a9 d0 3b 95 76 9d b9
       0.093311295 -0.13754241 0.006367855 -0.00030033724
000150 0d 31 a4 bc e9 ec a7 3c 22 47 81 bd 44 30 8e bd
       -0.02004292 0.02049871 -0.06312396 -0.069428
000160 7c dc c2 bd ad 3c bf 3d dc d0 3f bd c2 d0 ef bd
       -0.0951471 0.09337745 -0.046830043 -0.11709739
000170 a0 ca a9 bd 09 b9 e7 bd 35 81 fd 3d 46 6a f1 3d
       -0.08290601 -0.113145895 0.1237816 0.11787848
000180 79 0e 01 be d7 23 0a 3e 91 d8 31 3d 83 7d e0 3d
       -0.12603177 0.13490234 0.043419424 0.109614395
000190 6a be e6 3d 37 d0 a2 3d 51 a1 16 be 0b 92 a8 bd
       0.11266787 0.0794987 -0.14709975 -0.082309805
0001a0 1f 71 f7 bd 8a 78 a7 3d 7e 96 ed 3d 8a 7e 31 be
       -0.12082123 0.08177288 0.1160097 -0.17333427
0001b0 d8 cf a9 3d dd ba 14 bd e4 eb 88 3d f6 28 c2 3d
       0.08291596 -0.03631102 0.066856176 0.09480469
0001c0 86 a7 c1 bd bd b9 b4 3d 0e 46 1d be a5 18 3e 3c
       -0.09455781 0.08824489 -0.15358755 0.011602555
0001d0 ac df ab 3d c1 33 20 be a1 89 4d 3a 29 78 0c 3e
       0.083922714 -0.15644743 0.00078406377 0.13717712
0001e0 cf 8a 17 3d d5 66 dd 3c 20 6e ab 3c 59 fd 10 3e
       0.036997613 0.027026573 0.020926535 0.14159144
0001f0 ba 96 9c 3d 33 13 88 3b 67 57 1f 3d b6 d4 fe 3d
       0.07645936 0.0041526794 0.038901713 0.12442915
000200 65 8a ac 3d c2 af 02 be 54 9e 25 be b5 1a c0 3d
       0.08424834 -0.12762359 -0.16173679 0.09380094
000210 15 0d 1a be d3 c3 14 3e ca 2d 86 3d e2 89 db bd
       -0.15044053 0.14527826 0.06551702 -0.107196584
000220 14 2e 6a bd 61 5b 1c 3e f1 51 f8 3d 6c 69 bf bd
       -0.05717285 0.15269233 0.12125004 -0.093462795
000230 75 6e e5 3d 47 3d b1 bd 73 97 27 3e aa e8 ad 3d
       0.11202709 -0.08654266 0.16366367 0.08491643
000240 d4 0f b0 3d 1e db 20 be 54 74 0e be c0 c4 e8 3d
       0.08596769 -0.15708587 -0.13911563 0.11365652
000250 6a 90 2a 3e aa 32 10 3d e8 83 e5 3d 86 07 2e be
       0.16656652 0.035204567 0.112068 -0.16995057
000260 1a 62 b7 3d 35 84 77 bd 50 75 28 3c d3 c8 e0 bd
       0.08954258 -0.060428817 0.010281876 -0.10975804
000270 78 c2 b3 3c a3 b8 2a 3d a3 bb 1a 3e 5d 08 2e 3e
       0.021943316 0.04167999 0.1511064 0.16995378
000280 54 ba 3d 3d 1f 1e 2c be a6 a7 64 bd b4 1f fe bb
       0.046320274 -0.16808365 -0.055823945 -0.007755244
000290 e2 de ce 3d 2b 9f 20 be ed d8 22 be 46 56 ae 3d
       0.10101105 -0.15685718 -0.15903063 0.08512549
0002a0 2c 56 65 bd 4d 29 22 3e 14 a5 cd 3d 82 6a 05 3c
       -0.055990383 0.15836067 0.10041252 0.008143069
0002b0 25 7a 6c 3c 88 87 72 3d d4 19 04 3d 8b b7 1f be
       0.014433418 0.059211284 0.032251194 -0.1559736
0002c0 aa 8a 43 3d 07 ff fe bd ef b5 d4 3d 2c 72 66 3d
       0.047739662 -0.12450986 0.103862636 0.056261227
0002d0 4c f1 01 3e 94 03 a6 bd 40 88 8f 3b 19 3b 4f bb
       0.12689704 -0.08106151 0.004380256 -0.0031620918
0002e0 6b 6d 3e 3d 65 8e 85 3d 17 f9 23 3e da 1c 08 be
       0.046491068 0.065213 0.16012989 -0.13292256
0002f0 d0 0b 03 3c 67 29 ed bd 58 6c 52 3d d0 a7 7f 3d
       0.007998422 -0.115801625 0.051372856 0.062415898

fc4.bias f4 [6]
000000 a2 33 03 3e a7 ef 61 3c c4 1c 08 3e d3 97 74 bd
       0.12812665 0.013790048 0.13292223 -0.059715103
000010 d5 96 8f bd 01 ba d2 3c
       -0.07011191 0.02572346
