src/params_data/240418_005728/184param.pt (torch, 46927 bytes, 8 tensors)

fc1.weight f4 [128, 4]
-0.08261089 0.2521151 0.44647062 0.28367496 -0.33139992 -0.46912342 -0.37744707 0.11968851
-0.13065462 0.47914183 -0.4190458 -0.18977237 -0.42814004 -0.0015295148 -0.32847863 0.32582194
-0.17958236 -0.3795783 0.1799036 0.037035584 -0.1986317 -0.2031186 0.2025582 -0.07549671
-0.22408788 -0.25035807 0.3469459 0.023730472 0.0052600503 -0.4781674 0.026345814 -0.083797514
-0.30417722 0.3451164 -0.19143175 -0.0406888 0.47027826 0.2727248 0.42452255 -0.5028181
0.09630865 -0.16429533 0.0970464 -0.42100328 -0.10109979 0.40811598 -0.012448544 -0.3518229
0.032182142 0.24402755 -0.18342286 0.49630722 -0.14999664 0.22752011 -0.23891842 0.45050338
-0.18006915 -0.37239555 0.25463718 0.0018592122 0.42473787 -0.3989973 -0.1819992 -0.2422055
0.37593877 -0.15263581 -0.096120894 0.2369039 -0.47424492 -0.039523896 0.31407624 -0.44288337
0.11460668 -0.18784374 -0.08348769 0.4795326 0.36225736 -0.35563958 0.20305745 -0.14621596
0.015831577 0.19382617 0.30849412 -0.41552454 0.429185 0.041032046 0.24461411 0.21040213
0.036964 -0.4807002 -0.47278005 -0.42937273 -0.37555805 0.32890984 0.18253727 -0.29577148
0.25409654 0.36715838 -0.24769948 0.29022864 -0.39975202 0.043403707 -0.03834288 0.47390267
-0.13561833 -0.19729863 0.25462836 0.11893572 0.20456572 0.28998443 -0.312763 0.41970354
-0.4832567 0.39893752 0.034424957 -0.25134075 -0.03580399 0.36414087 0.39717418 0.10254842
0.4112327 -0.09348112 -0.23067278 -0.35707897 0.47704083 0.2906317 0.023290986 0.29009274
-0.055095255 0.3953312 -0.078624964 0.27701133 0.41738096 0.007488978 0.40668616 0.051523622
0.088089354 0.46260467 -0.24435401 -0.18470278 0.03200853 -0.4235025 -0.1449306 0.100269556
0.4037189 -0.023516668 0.4922925 0.28562668 0.17832385 0.28271666 -0.4071703 0.46437383
0.057988763 -0.1986947 0.07093952 -0.0991146 0.09238654 0.48994267 0.14889409 0.15003003
-0.011347579 0.3332239 0.1568329 -0.44331533 0.34086996 -0.4061222 -0.10116416 0.114675045
-0.33853167 -0.35727316 0.14374028 -0.12388742 -0.37406418 0.38759738 0.30238158 0.16296923
0.14399941 0.49476916 -0.38647017 -0.23195523 0.26157513 0.07272927 -0.20120923 -0.120718904
-0.08543589 0.26761204 -0.19281062 -0.13142912 -0.021262664 0.033511933 -0.15935825 -0.13899082
0.27056104 -0.37660247 -0.42812335 0.044445515 0.4069943 0.0042207004 -0.41679335 -0.27825227
-0.46668088 0.15277965 -0.33790407 -0.28985506 -0.16350771 0.2591962 0.005141084 0.08905035
0.15010533 -0.138057 0.2944922 -0.4902344 0.35858968 0.376238 -0.037958603 -0.16212492
0.38585752 -0.44750765 0.27008638 -0.16589688 -0.03706503 -0.07670784 -0.27875042 -0.3694036
-0.16924995 -0.2545671 -0.10438186 0.1950388 -0.3336799 -0.15501875 0.051688693 -0.23135996
0.2818207 0.22925773 0.10301088 -0.14774187 0.11164254 -0.23266125 0.11222837 0.3788858
-0.12153771 0.20760033 0.34097177 0.52043444 -0.30849832 -0.41865516 -0.33857268 0.0009531975
-0.4339994 0.25120136 -0.4471717 -0.056574494 -0.310259 0.2008026 0.075835645 0.2589642
00000000: e62f a9bd 3b15 813e cc97 e43e d83d 913e
00000010: 40ad a9be f230 f0be be40 c1be 401f f53d
00000020: 53ca 05be 1452 f53e 2c8d d6be b053 42be
00000030: 2c35 dbbe 007a c8ba 5a2e a8be 22d2 a63e
00000040: 70e4 37be 1658 c2be a638 383e a0b2 173d
00000050: 1c66 4bbe 53fe 4fbe 6b6b 4f3e 059e 9abd
00000060: 4b77 65be ef2e 80be e5a2 b13e 6866 c23c
00000070: 805c ac3b 5cd2 f4be 2dd3 d73c 089e abbd
00000080: 1ebd 9bbe 19b3 b03e af06 44be 4da9 26bd
00000090: 50c8 f03e 96a2 8b3e 055b d93e b0b8 00bf
000000a0: 783d c53d 093d 28be 43c0 c63d be8d d7be
000000b0: 680d cfbd 94f4 d03e faf4 4bbc 2222 b4be
000000c0: 6cd1 033d 5ce2 793e 34d3 3bbe fb1b fe3e
000000d0: b898 19be 08fb 683e 08a7 74be 61a8 e63e
000000e0: 0c64 38be a1aa bebe ce5f 823e cfb0 f33a
000000f0: 3e77 d93e 6049 ccbe 005e 3abe b804 78be
00000100: 0c7b c03e 904c 1cbe 08db c4bd f096 723e
00000110: 3bd0 f2be cfe3 21bd 9ace a03e 9cc1 e2be
00000120: e8b6 ea3d 1c5a 40be 98fb aabd 4c85 f53e
00000130: cc79 b93e 6416 b6be 4bee 4f3e a3b9 15be
00000140: 39b1 813c 5e7a 463e f1f2 9d3e a2bf d4be
00000150: 23be db3e 3811 283d 1f7c 7a3e a873 573e
00000160: 9067 173d 561e f6be 3a10 f2be bed6 dbbe
00000170: 2549 c0be df66 a83e 0deb 3a3e 5c6f 97be
00000180: f118 823e 2ffc bb3e efa4 7dbe d998 943e
00000190: 4cac ccbe 16c8 313d 6c0d 1dbd 5fa3 f23e
000001a0: 88df 0abe a708 4abe a65e 823e 9294 f33d
000001b0: ad79 513e d778 943e 7922 a0be 62e3 d63e
000001c0: 6c6d f7be 8a41 cc3e 2f01 0d3d bcaf 80be
000001d0: 34a7 12bd ac70 ba3e 6a5a cb3e e804 d23d
000001e0: 188d d23e 0873 bfbd 7c35 6cbe 0ed3 b6be
000001f0: b23e f43e aecd 943e bdcc be3c 0987 943e
00000200: 90ab 61bd da68 ca3e 2006 a1bd 6ed4 8d3e
00000210: f5b2 d53e 1a66 f53b 2b39 d03e 6f0a 533d
00000220: 3168 b43d 85da ec3e f037 7abe ba22 3dbe
00000230: 601b 033d 52d5 d8be b068 14be 205a cd3d
00000240: 3eb4 ce3e 07a6 c0bc c30d fc3e a93d 923e
00000250: 879a 363e 3dc0 903e a078 d0be 68c2 ed3e
00000260: a085 6d3d a076 4bbe bd48 913d 98fc cabd
00000270: 2735 bd3d c4d9 fa3e b177 183e 79a1 193e
00000280: 32eb 39bc 539c aa3e ce98 203e 3afa e2be
00000290: 8286 ae3e 40ef cfbe 282f cfbd c0da ea3d
000002a0: 0654 adbe 82ec b6be a730 133e b0b8 fdbd
000002b0: 5785 bfbe 2a73 c63e c2d1 9a3e 68e1 263e
000002c0: 9574 133e 6252 fd3e 6bdf c5be ac85 6dbe
000002d0: 2ded 853e 15f3 943d cb09 4ebe 793b f7bd
000002e0: 03f9 aebd 7204 893e 2670 45be 5b95 06be
000002f0: 0a2f aebc cf43 093d cf2e 23be 9c53 0ebe
00000300: fa86 8a3e 0ad2 c0be fc32 dbbe 800c 363d
00000310: 8f61 d03e cd4d 8a3b f065 d5be 1577 8ebe
00000320: ccf0 eebe 4572 1c3e c301 adbe e267 94be
00000330: 916e 27be 5db5 843e 8a76 a83b 0860 b63d
00000340: 36b5 193e d05e 0dbe aec7 963e 0100 fbbe
00000350: 1199 b73e 44a2 c03e 7b7a 1bbd 1304 26be
00000360: 1e8f c53e b91f e5be c348 8a3e dfe0 29be
00000370: 80d1 17bd 0019 9dbd 60b8 8ebe 7822 bdbe
00000380: dc4f 2dbe 9e56 82be 28c6 d5bd 40b8 473e
00000390: 18d8 aabe 3cbd 1ebe 86b7 533d a0e9 6cbe
000003a0: ce4a 903e 8ac2 6a3e 5ef7 d23d a549 17be
000003b0: d8a4 e43d c03e 6ebe fdd7 e53d 52fd c13e
000003c0: c3e8 f8bd 2e95 543e da93 ae3e 313b 053f
000003d0: 7ef3 9dbe f859 d6be 6659 adbe 00e0 793a
000003e0: 2b35 debe 779d 803e b0f3 e4be a8ba 67bd
000003f0: 45da 9ebe 329f 4d3e b84f 9b3d f596 843e

fc1.bias f4 [128]
-0.37973747 0.49892968 -0.43355253 -0.03278345 -0.30614084 0.31664515 0.021828923 -0.15420954
-0.3133629 -0.17429367 0.049163107 -0.20617184 0.49119017 0.1972814 -0.29920447 -0.31212336
-0.4770487 0.47725755 0.11814618 0.4537452 -0.23169743 -0.25319138 -0.26035225 0.16541198
-0.47038838 0.3200006 -0.14851063 -0.17126614 0.48076499 -0.2661657 -0.08670139 0.4178552
0.24220578 0.1858088 0.50604635 0.06685406 -0.46933067 -0.41952363 -0.2314641 -0.47631568
0.020128902 -0.18168318 -0.16255045 0.361703 -0.44881442 0.5100558 0.20648675 0.41543475
-0.28189343 -0.266294 -0.31414977 -0.4869632 0.47871947 -0.29993847 0.06996193 -0.3283326
0.20775986 -0.14613305 0.2764942 -0.20594366 0.4107211 0.4509312 -0.26030084 0.48055145
-0.35192484 0.084177464 0.0014375852 0.2476254 0.4116912 -0.36795297 -0.24760117 -0.32429773
0.10652161 0.20271416 -0.16090152 0.392044 0.3651049 0.4511926 -0.095605254 -0.018302877
0.45218214 -0.2891933 0.17289692 -0.17446427 0.3622269 -0.013970469 0.2859025 -0.034531295
0.13399105 -0.21806407 0.058829077 0.03382834 0.33150652 -0.07331681 -0.3612159 -0.05292439
-0.29714996 0.43518963 -0.08465606 0.028918445 -0.009292802 0.08189937 0.3860595 0.2172535
-0.48388293 0.4194181 -0.42717886 -0.20403524 0.042257044 0.29935855 -0.4180117 -0.28506875
-0.46331856 -0.019295156 0.24201903 0.19332062 -0.494222 -0.32317677 0.014675915 -0.42074937
0.23074122 -0.21843667 0.44794613 -0.032338135 -0.39720726 0.31804654 0.38122705 0.24178791
00000000: f36c c2be b673 ff3e 99fa ddbe f047 06bd
00000010: 7ebe 9cbe 501f a23e 92d2 b23c 1be9 1dbe
00000020: 1a71 a0be 0a7a 32be 415f 493d b61e 53be
00000030: 477d fb3e 2304 4a3e 5431 99be a2ce 9fbe
00000040: ba3f f4be 1a5b f43e a0f6 f13d 4a51 e83e
00000050: 1742 6dbe 4da2 81be e44c 85be c261 293e
00000060: bfd6 f0be 1ed7 a33e 2c13 18be 6460 2fbe
00000070: d426 f63e df46 88be 8090 b1bd 1ef1 d53e
00000080: cb04 783e a944 3e3e 418c 013f c8ea 883d
00000090: 1c4c f0be cdcb d6be ed04 6dbe a6df f3be
000000a0: 5ee5 a43c 280b 3abe a073 26be 2331 b93e
000000b0: 01cb e5be 0493 023f 4371 533e ddb3 d43e
000000c0: 5654 90be b057 88be 3dd8 a0be 3e53 f9be
000000d0: b81a f53e 8991 99be 3348 8f3d 361b a8be
000000e0: 00bf 543e e7a3 15be a690 8d3e e5e2 52be
000000f0: 094a d23e 74e0 e63e 2746 85be d70a f63e
00000100: 7e2f b4be 3c65 ac3d 5b6d bc3a 8391 7d3e
00000110: 30c9 d23e 5564 bcbe 298b 7dbe 5a0a a6be
00000120: 0028 da3d 4d94 4f3e 5ec3 24be feb9 c83e
00000130: 08ef ba3e b702 e73e b0cc c3bd eaef 95bc
00000140: 6b84 e73e 2511 94be e40b 313e c3a6 32be
00000150: ce75 b93e 65e4 64bc d061 923e b070 0dbd
00000160: f334 093e 304c 5fbe c2f6 703d 968f 0a3d
00000170: 39bb a93e 2027 96bd 4af1 b8be 3fc7 58bd
00000180: 0a24 98be 2dd1 de3e 2860 adbd 60e6 ec3c
00000190: d640 18bc dbba a73d 97a9 c53e b477 5e3e
000001a0: 81bf f7be f8bd d63e 30b7 dabe 9dee 50be
000001b0: b915 2d3d 8645 993e a105 d6be 88f4 91be
000001c0: 1738 edbe e010 9ebc d6d3 773e d7f5 453e
000001d0: aa0a fdbe 6d77 a5be 4073 703c 766c d7be
000001e0: 6d47 6c3e ddad 5fbe 3259 e53e fe74 04bd
000001f0: c05e cbbe ffd6 a23e 3130 c33e 4097 773e

fc2.weight f4 [64, 128]
-0.064200155 -0.051406953 0.0076449155 0.07115423 0.04647012 0.06477532 0.013154098 -0.081771664
-0.0028854816 0.07865055 -0.030329572 0.077872835 -0.09204864 -0.078807436 0.05770491 -0.07722321
-0.055150256 0.037177406 -0.06689057 -0.028660102 -0.0039405697 0.004929786 -0.051718965 -0.04148029
-0.058139354 0.05897116 0.0034296862 0.008254575 -0.020630898 -0.022970697 0.0058271512 -0.06317349
-0.087930486 -0.002424259 -0.07147646 -0.069080316 0.015909676 0.072180055 0.023748321 -0.013875522
0.08583671 -0.0005547181 -0.017755598 0.060578186 -0.007833519 0.002138935 -0.07143856 -0.03307885
-0.037144795 0.081300415 -0.065109156 0.07786394 0.058292586 -0.054542806 -0.06233885 -0.0821692
-0.028873973 0.032426074 -0.0711726 0.016341804 0.020399887 0.068051495 0.00599283 -0.0016024146
0.07083978 -0.084445104 0.08427876 0.08036141 -0.015599161 0.0434424 -0.0343738 0.010718219
-0.064154975 -0.037043642 0.0334974 0.013391443 -0.027773391 -0.08290728 -0.060941055 0.04106875
0.08193241 -0.07096644 -0.068787724 -0.0563222 0.011196412 -0.02664884 0.02882839 0.065352075
-0.04490469 0.052373137 -0.013376694 -0.06933435 -0.04628737 -0.084154725 0.0672218 -0.016953735
0.06303285 0.05821168 0.024084583 -0.08715878 0.060866088 0.04651469 -0.07560246 -0.058377683
-0.008562218 -0.00063695916 0.05137153 0.0042563276 -0.07428702 -0.005816728 -0.0890351 -0.027048953
-0.006237867 0.055026628 0.08379366 -0.07944812 -0.015774563 -0.021992717 -0.05827415 -0.053298187
0.009666073 0.010386617 -0.060466655 0.055012546 -0.054945335 0.022200992 -0.024461744 -0.027613448
-0.013686365 -0.04610136 -0.05757215 0.07751336 -0.013093884 -0.07301504 -0.036891885 0.0029324065
0.056953494 0.07614668 -0.07889319 0.06300302 0.002619545 0.04400687 0.08018831 0.03531494
0.0043701977 -0.046933837 0.019099675 0.0678378 0.05235473 0.06374481 0.015082829 0.035119798
0.07270106 -0.08341289 0.051852588 -0.08558818 0.01910054 0.07445824 -0.021391854 -0.069581546
0.0012114554 -0.010467445 -0.012423679 0.043562017 -0.03880249 0.05263208 -0.006202453 0.003944661
-0.039919395 0.053013735 -0.03699324 0.04082659 -0.022693465 0.016423674 -0.07054203 0.019637264
-0.032755096 -0.05293478 -0.019271793 0.017996935 0.043769266 0.04902223 -0.052030306 -0.0665044
0.048936345 0.0067307833 0.02762543 -0.002049003 -0.063695475 -0.041194625 0.08652095 -0.051349975
0.075558305 -0.04128974 0.02614783 -0.027852168 -0.03530375 0.060116593 -0.013781247 -0.03568482
0.06508704 0.002403947 0.07108573 -0.08294362 0.0020791218 -0.0037282198 0.06941268 0.014116909
-0.05696151 0.07418582 0.07221665 0.057128895 0.015358828 -0.014155817 0.0072926283 0.037660502
-0.016339526 0.07233595 0.07326436 -0.01139466 -0.036993522 -0.01818683 0.03284899 -0.091661066
-0.016649248 -0.0022011457 0.028042324 4.0195882e-05 -0.072846934 0.045746952 -0.045129478 0.037480406
-0.03936581 0.0139843235 -0.0002212125 0.028686484 -0.061071422 -0.05657154 -0.010024533 -0.07102965
-0.044262968 0.0673027 0.06598213 0.01125277 0.06048993 0.057155985 -0.003964573 -0.0834423
-0.053736284 -0.03603926 0.03030969 -0.046977572 0.03362358 -0.04695181 0.0802507 0.04401128
00000000: 5f7b 83bd 1990 52bd 3382 fa3b 4fb9 913d
00000010: 7457 3e3d eca8 843d 4984 573c e777 a7bd
00000020: 591a 3dbb 8a13 a13d b975 f8bc cb7b 9f3d
00000030: ff83 bcbd cb65 a1bd fc5b 6c3d 3427 9ebd
00000040: 3ce5 61bd 5647 183d ecfd 88bd 97c8 eabc
00000050: e51f 81bb 0b8a a13b 44d7 53bd 3de7 29bd
00000060: 8823 6ebd be8b 713d 96c4 603b 323e 073c
00000070: 2102 a9bc 0b2d bcbc b0f1 be3b 1a61 81bd
00000080: e614 b4bd 51e0 1ebb 4062 92bd fb79 8dbd
00000090: 0255 823c 23d3 933d d78b c23c 2856 63bc
000000a0: 28cb af3d 806a 11ba 3074 91bc d520 783d
000000b0: 2958 00bc 602d 0c3b 614e 92bd b07d 07bd
000000c0: 2425 18bd d580 a63d f357 85bd 2177 9f3d
000000d0: 35c4 6e3d 4768 5fbd 0657 7fbd 5348 a8bd
000000e0: 1c89 ecbc 34d1 043d f1c2 91bd 3fdf 853c
000000f0: aa1d a73c 955e 8b3d 805f c43b 1d08 d2ba
00000100: 7214 913d 8ef1 acbd 589a ac3d 8694 a43d
00000110: a093 7fbc a8f0 313d 8bcb 0cbd 789b 2f3c
00000120: af63 83bd 13bb 17bd 9234 093d c867 5b3c
00000130: 0685 e3bc 4bcb a9bd 549d 79bd b537 283d
00000140: 2ecc a73d da56 91bd 94e0 8cbd 1bb2 66bd
00000150: 2871 373c ab4e dabc 8429 ec3c 4fd7 853d
00000160: fbed 37bd 3785 563d ec29 5bbc 2bff 8dbd
00000170: d397 3dbd 5059 acbd 95ab 893d 8fe2 8abc
00000180: 5e17 813d 5f6f 6e3d 084d c53c 4d80 b2bd
00000190: b84e 793d 3086 3e3d 76d5 9abd 701d 6fbd
000001a0: 8c48 0cbc 9bf9 26ba f46a 523d aa78 8b3b
000001b0: cb23 98bd 409a bebb 0958 b6bd c495 ddbc
000001c0: 0567 ccbb 9a63 613d 039c ab3d b2b5 a2bd
000001d0: a839 81bc 122a b4bc e0b0 6ebd 334f 5abd
000001e0: 735e 1e3c a12c 2a3c e2ab 77bd d654 613d
000001f0: 5c0e 61bd dbde b53c ff63 c8bc 9935 e2bc
00000200: c73c 60bc c8d4 3cbd c6d0 6bbd 53bf 9e3d
00000210: bb87 56bc e988 95bd f21b 17bd 9e2d 403b
00000220: 1148 693d caf2 9b3d c192 a1bd ba07 813d
00000230: acac 2b3b 8c40 343d c539 a43d 66a6 103d
00000240: e033 8f3b b23d 40bd ec76 9c3c 8bee 8a3d
00000250: ea71 563d a48c 823d f81d 773c c7d9 0f3d
00000260: 4be4 943d 61d4 aabd 6163 543d db48 afbd
00000270: bc78 9c3c 907d 983d f83d afbc c580 8ebd
00000280: b3c9 9e3a a57f 2bbc b08c 4bbc 166e 323d
00000290: 5cef 1ebd bc94 573d f23d cbbb 3742 813b
000002a0: 8582 23bd ee24 593d 3986 17bd c839 273d
000002b0: a5e7 b9bc f18a 863c 5778 90bd 54de a03c
000002c0: 352a 06bd 24d2 58bd e1df 9dbc 4f6e 933c
000002d0: 6747 333d 89cb 483d bb1d 55bd 7533 88bd
000002e0: 7a71 483d e78d dc3b ba4e e23c 9148 06bb
000002f0: c672 82bd b2bb 28bd e531 b13d 5a54 52bd
00000300: 50be 9a3d 6e1f 29bd f933 d63c 3b2a e4bc
00000310: aa9a 10bd d13c 763d bdca 61bc 3f2a 12bd
00000320: 5b4c 853d 8a8b 1d3b 6595 913d 58de a9bd
00000330: e041 083b 2655 74bb 3c28 8e3d 9c4a 673c
00000340: 7950 69bd bcee 973d 53e6 933d fdff 693d
00000350: 98a3 7b3c cded 67bc 00f7 ee3b e641 1a3d
00000360: 78da 85bc df24 943d a00b 963d abb0 3abc
00000370: 8586 17bd 8cfc 94bc aa8c 063d ccb8 bbbd
00000380: 0164 88bc 1941 10bb 04b9 e53c 0098 2838
00000390: c630 95bd 2861 3b3d b0d9 38bd 0e85 193d
000003a0: 0b3e 21bd 811e 653c 47f5 67b9 ebff ea3c
000003b0: 0726 7abd 8fb7 67bd f03d 24bc fe77 91bd
000003c0: 164d 35bd ffd5 893d a421 873d 8a5d 383c
000003d0: 4ac4 773d 651c 6a3d 40e9 81bb cce3 aabd
000003e0: 941a 5cbd e79d 13bd 074c f83c 8e6b 40bd
000003f0: e1b8 093d 8b50 40bd 7b5a a43d 2c45 343d

fc2.bias f4 [64]
0.087755956 -0.003347758 -0.053792745 0.031107733 0.015039207 0.01531598 0.06307682 -0.015775116
-0.022427235 0.05398705 -0.047325175 -0.08091884 0.06294411 0.07293559 0.08416513 0.05297694
0.026759317 0.063024364 -0.057537556 0.06951786 -0.0080720885 0.10595101 0.11001687 0.08241682
0.014550027 0.07085986 -0.073092386 0.023762375 0.061291102 0.07059413 -0.026152771 -0.0822641
-0.00025502848 0.047344036 0.08585474 0.0932157 -0.034449212 -0.023272822 0.007993117 0.034637384
-0.0327713 0.007930844 -0.088083655 0.038022768 -0.050611146 0.035241578 0.08100951 -0.057205506
-0.07420067 0.047541596 0.044580914 0.078247376 -0.056282323 0.054292005 0.06270206 -0.019223481
-0.02533742 0.07096392 -0.01355674 0.04897707 0.034528177 0.08171941 -0.05886329 -0.00407885
00000000: 65b9 b33d 0f66 5bbb c855 5cbd a5d5 fe3c
00000010: 0267 763c e0ef 7a3c 6b2e 813d d13a 81bc
00000020: 52b9 b7bc 8621 5d3d 0bd8 41bd c7b8 a5bd
00000030: d7e8 803d 415f 953d c55e ac3d 59fe 583d
00000040: 5b36 db3c eb12 813d 80ac 6bbd 615f 8e3d
00000050: cb40 04bc d8fc d83d 8650 e13d 26ca a83d
00000060: 3d63 6e3c f91e 913d 76b1 95bd 50a9 c23c
00000070: 610c 7b3d a893 903d 563e d6bc 157a a8bd
00000080: 58b5 85b9 d2eb 413d 9cd4 af3d dfe7 be3d
00000090: 9e1a 0dbd a5a6 bebc 90f5 023c eedf 0d3d
000000a0: 333b 06bd 5ff0 013c 3465 b4bd c3bd 1b3d
000000b0: a24d 4fbd 7959 103d 50e8 a53d 5250 6abd
000000c0: 85f6 97bd faba 423d 7a9a 363d 2940 a03d
000000d0: 4b88 66bd 4b61 5e3d f069 803d 907a 9dbc
000000e0: 6c90 cfbc 8855 913d 171d 5ebc 2e9c 483d
000000f0: 6b6d 0d3d 825c a73d a21a 71bd e0a7 85bb

fc3.weight f4 [32, 64]
0.101730436 -0.023371402 0.06898218 -0.10958622 -0.11084482 -0.10985097 0.05559229 0.058657162
0.082432084 -0.037642494 -0.0752764 0.038458362 0.1113603 -0.0055334717 0.10655488 -0.063104264
-0.069049224 0.044601 0.05361627 0.10412887 -0.068964176 0.10969705 -0.11212505 0.104843155
-0.031005144 0.02032125 0.018154556 0.014960885 -0.07778408 0.027447518 -0.048824094 0.03320125
-0.10359057 0.020413613 0.09455676 0.015638288 -0.005427584 -0.051913656 -0.05805874 0.104130186
0.03158226 -0.029376578 -0.00855574 0.06300316 -0.07552634 0.07653921 -0.0017388443 0.017217971
-0.06792065 -0.05951245 -0.03299631 0.113851786 0.096542455 -0.12100768 -0.039132334 0.037638396
0.0768916 -0.0058459053 0.02037913 -0.046117663 0.003643818 -0.10204229 0.005775661 0.0953925
-0.07463863 -0.06421141 0.123961285 -0.04436949 -0.035862725 0.08025601 -0.088650875 0.055808548
0.086654186 -0.070257366 -0.012548731 -0.045840383 0.11404781 -0.02664797 -0.007363973 0.006271585
-0.11066328 -0.06816535 -0.009678893 -0.019847065 0.08689892 0.082837835 -0.0304291 0.0121432515
0.021077706 0.050155237 -0.052223336 0.10846044 0.00042101817 0.0030568547 -0.05655176 0.048913337
-0.09024166 -0.02252406 -0.042473666 -0.03285722 0.01133652 -0.04575137 -0.109024376 0.073685884
0.08734446 0.06899918 0.07595232 -0.0606765 0.10496801 0.03367699 0.1107856 0.077205166
0.024375496 0.119060904 0.063949764 0.0044229436 0.10259188 0.043467134 0.0881401 0.115954354
0.050569907 0.051682357 0.08563563 -0.06961793 0.078718945 -0.05310739 0.11657332 0.07449385
-0.091032445 0.09357315 0.029261809 0.090371214 -0.11360702 -0.024049383 0.026988683 -0.07085942
0.12143803 0.073337615 -0.08147889 -0.12377159 0.092264056 0.075054824 -0.025020376 -0.08341351
-0.025677303 -0.10948818 -0.009926773 0.114646494 0.09170465 -0.005547609 0.027861997 -0.032583058
0.09343742 0.10238242 0.03642012 -0.0894489 -0.11193721 -0.11175937 -0.034392074 0.05158472
-0.08421587 0.04186687 0.013743266 -0.06460167 0.1093611 0.00011128187 0.10553734 0.0477244
0.09893261 -0.106466316 -0.011542112 0.11639081 0.035835445 0.080004275 0.11106624 -0.029606294
-0.03984684 0.08263734 0.079476535 -0.005904354 -0.03645549 -0.093409084 -0.030438926 -0.06058368
-0.090942115 0.01601855 -0.03510024 -0.0052369833 -0.107093245 0.032621685 0.043105848 0.040866345
-0.07791863 -0.08125951 -0.02129481 -0.09897895 0.012404394 -0.03282343 -0.0034637915 -0.071853295
0.1179951 0.061325595 0.11197648 -0.026503906 0.02788451 0.121835366 -0.085532695 -0.08645904
0.01071819 -0.06174771 0.048529226 -0.11749436 -0.055803735 -0.008983682 -0.12187192 0.094351955
-0.10538046 -0.013047323 0.053682998 -0.020989269 -0.04750195 -0.118163496 -0.088169485 -0.03188164
-0.017745923 0.04002939 0.012366101 0.06237946 0.06979188 0.081347786 0.046043545 0.011143259
0.09504216 0.0024111278 0.01896657 -0.025526501 -0.11969483 -0.10362729 -0.095032014 -0.004958853
-0.04398567 0.0114557445 0.111446634 -0.09991342 0.029185047 0.11634589 -0.03021038 -0.028587267
0.006111592 0.06171952 -0.053490356 -0.08099474 0.06472205 0.08929123 -0.059907723 0.031265132
00000000: 0c58 d03d 6275 bfbc 8746 8d3d bd6e e0bd
00000010: 9c02 e3bd 8cf9 e0bd beb4 633d 7e42 703d
00000020: 27d2 a83d 042f 1abd 832a 9abd 8486 1d3d
00000030: de10 e43d 2052 b5bb 7239 da3d cf3c 81bd
00000040: ae69 8dbd 8aaf 363d bc9c 5b3d 8441 d53d
00000050: 173d 8dbd d9a8 e03d d1a1 e5bd 02b8 d63d
00000060: 80fe fdbc c078 a63c ddb8 943c 801e 753c
00000070: 424d 9fbd 9ed9 e03c c6fb 47bd 09fe 073d
00000080: 4b27 d4bd 733a a73c f9a6 c13d de1b 803c
00000090: e0d9 b1bb 6aa3 54bd 00cf 6dbd 3542 d53d
000000a0: 665c 013d 26a7 f0bc 602d 0cbc cd07 813d
000000b0: 8ead 9abd 97c0 9c3d efe9 e3ba b40c 8d3c
000000c0: fb19 8bbd 54c3 73bd 2427 07bd 202b e93d
000000d0: 0db8 c53d e0d2 f7bd 3a49 20bd b82a 1a3d
000000e0: 5879 9d3d 028f bfbb 22f2 a63c e0e5 3cbd
000000f0: 1fcd 6e3b 8cfb d0bd c241 bd3b 255d c33d
00000100: 23dc 98bd 4681 83bd 6adf fd3d c8bc 35bd
00000110: cbe4 12bd 435d a43d 978e b5bd 8197 643d
00000120: c077 b13d 18e3 8fbd 3199 4dbc 20c3 3bbd
00000130: e691 e93d d84c dabc 7c4d f1bb de81 cd3b
00000140: 6ea3 e2bd 469a 8bbd 3894 1ebc 5096 a2bc
00000150: 10f8 b13d e2a6 a93d 7346 f9bc 7df4 463c
00000160: 27ab ac3c 946f 4d3d 23e8 55bd 8220 de3d
00000170: 1abc dc39 8355 483b d1a2 67bd 5a59 483d
00000180: 9fd0 b8bd 6184 b8bc def8 2dbd 4b95 06bd
00000190: d0bc 393c ca65 3bbd 2c48 dfbd a0e8 963d
000001a0: a7e1 b23d 714f 8d3d e48c 9b3d ec87 78bd
000001b0: 78f9 d63d e2f0 093d 90e3 e23d be1d 9e3d
000001c0: 1faf c73c 34d6 f33d 18f8 823d 57ee 903b
000001d0: b11b d23d 980a 323d cc82 b43d 7a79 ed3d
000001e0: 6422 4f3d e1b0 533d bc61 af3d d893 8ebd
000001f0: 6637 a13d 2287 59bd febd ee3d 3b90 983d
00000200: 386f babd 48a3 bf3d 76b6 ef3c 8b14 b93d
00000210: ccaa e8bd 3603 c5bc 5f17 dd3c be1e 91bd
00000220: 80b4 f83d 0832 963d 67de a6bd f67b fdbd
00000230: f0f4 bc3d 58b6 993d 88f7 ccbc b4d4 aabd
00000240: 3559 d2bc 573b e0bd e7a3 22bc c8cb ea3d
00000250: a6cf bb3d b8c8 b5bb d83e e43c d075 05bd
00000260: 1e5c bf3d e0ad d13d 442d 153d fc30 b7bd
00000270: 563f e5bd 19e2 e4bd b4de 0cbd 804a 533d
00000280: 5f79 acbd 987c 2b3d 702b 613c e14d 84bd
00000290: b6f8 df3d 0060 e938 f623 d83d a97a 433d
000002a0: 2e9d ca3d 030b dabd 201b 3dbc 4e5e ee3d
000002b0: 30c8 123d 48d9 a33d b276 e33d e688 f2bc
000002c0: 7136 23bd c43d a93d 98c4 a23d 5079 c1bb
000002d0: 5a52 15bd 434d bfbd 0e5b f9bc 9826 78bd
000002e0: dc3f babd 5639 833c 45c5 0fbd 009b abbb
000002f0: b453 dbbd 519e 053d c28f 303d 7863 273d
00000300: cd93 9fbd 636b a6bd 7472 aebc 7ab5 cabd
00000310: cd3b 4b3c dc71 06bd c700 63bb d227 93bd
00000320: 6aa7 f13d 8c30 7b3d ed53 e53d b81e d9bc
00000330: 0e6e e43c d284 f93d c42b afbd 7011 b1bd
00000340: 599b 2f3c 2beb 7cbd 95c6 463d e2a0 f0bd
00000350: 7592 64bd 4b30 13bc fc97 f9bd 993b c13d
00000360: b6d1 d7bd 70c4 55bc b4e2 5b3d b0f1 abbc
00000370: 6891 42bd b4ff f1bd 3492 b4bd 5396 02bd
00000380: e65f 91bc dcf5 233d 309b 4a3c 9b81 7f3d
00000390: 0cef 8e3d ab99 a63d 2898 3c3d 3792 363c
000003a0: 77a5 c23d 0304 1e3b c85f 9b3c f41c d1bc
000003b0: 9022 f5bd 8b3a d4bd 25a0 c2bd e07d a2bb
000003c0: 512a 34bd e0b0 3b3c 223e e43d 689f ccbd
000003d0: 7b15 ef3c c146 ee3d c27b f7bc d82f eabc
000003e0: c043 c83b 9bcd 7c3d b418 5bbd 92e0 a5bd
000003f0: ff8c 843d 52de b63d cd61 75bd de0f 003d

fc3.bias f4 [32]
-0.0130778495 0.12775867 -0.018561702 -0.11282725 0.013139528 -0.10290496 0.15148696 -0.049599424
-0.10883726 -0.00957039 0.013739805 -0.09742833 -0.0029866537 0.066618495 0.0138181895 0.10153015
-0.026317433 0.0053658444 -0.0348223 -0.029850073 -0.012879961 0.10101719 -0.078538276 0.008987282
0.030488193 -0.029371724 -0.07430747 0.11143568 -0.052603975 -0.090151444 0.049865127 0.10454656
00000000: 7a44 56bc 2bd3 023e b60e 98bc f911 e7bd
00000010: 2d47 573c d6bf d2bd 661f 1b3e c428 4bbd
00000020: 12e6 debd 20cd 1cbc eb1c 613c 8188 c7bd
00000030: bcbb 43bb 476f 883d b065 623c 0aef cf3d
00000040: a897 d7bc f7d3 af3b d4a1 0ebd 2488 f4bc
00000050: 7906 53bc 1ae2 ce3d add8 a0bd 653f 133c
00000060: 60c2 f93c f89c f0bc 842e 98bd 6438 e43d
00000070: 4477 57bd 52a1 b8bd 603f 4c3d 821c d63d

fc4.weight f4 [6, 32]
-0.12154755 0.10766745 -0.09590917 -0.16998972 -0.06971063 0.032769907 -0.13651098 0.054818317
0.17383231 0.092064604 0.17065257 0.10639229 0.07216983 -0.039451633 0.092361584 0.11652593
-0.05753614 -0.13693497 0.043494377 0.14518584 -0.0887132 0.050377846 0.05204271 -0.059945837
-0.1609686 0.16906078 -0.17086686 0.0147627145 -0.13238108 -0.06569443 -0.14509135 0.0729333
-0.017840207 0.101030335 -0.07946585 0.14790107 -0.10359597 0.12188905 -0.12414111 -0.16998062
0.003218487 -0.16995436 -0.10658993 -0.16428185 -0.04447615 -0.047994863 -0.1626525 0.043129727
-0.16227081 0.014225017 0.051311217 0.121564135 -0.088802464 0.11188734 -0.1438157 -0.101333
-0.092535414 -0.09549225 -0.09166843 0.071358934 0.07775749 -0.003525728 0.06891182 -0.03259015
-0.037181173 -0.119612314 -0.08414563 -0.033090312 -0.005900822 0.15457481 0.13938347 0.014846012
0.15552507 -0.10337033 -0.080844685 0.07683951 -0.0858662 -0.16838847 -0.14464426 0.049680203
0.093311295 -0.13125393 0.0060766763 0.0005489168 -0.02778769 0.021160973 -0.051332515 -0.07406573
-0.095131844 0.09176186 -0.046830043 -0.11709739 -0.08290601 -0.113145895 0.1222294 0.11787848
-0.117762096 0.13512683 0.043419424 0.10956576 0.10913354 0.07808617 -0.13567579 -0.082309805
-0.12082123 0.08177288 0.12479517 -0.1658889 0.08311775 -0.059614144 0.066856176 0.09480469
-0.09455781 0.090770334 -0.1515096 0.0118203135 0.0972159 -0.1549253 -0.0065367552 0.1355329
0.038335174 0.02775668 0.020926535 0.14159144 0.07645936 0.0041526794 0.038965918 0.12442915
0.09173981 -0.126873 -0.16173679 0.09381719 -0.14926657 0.14393851 0.05741559 -0.107196584
-0.05717285 0.15269233 0.11624346 -0.092037775 0.11185978 -0.09001057 0.16366367 0.08491643
0.08596769 -0.15683122 -0.1378674 0.11373651 0.16248277 0.033625513 0.10111577 -0.16989529
0.08932908 -0.058389474 0.010281876 -0.10975804 0.021943316 0.04167999 0.15183082 0.16995378
0.044679 -0.16554523 -0.055823945 -0.0077742953 0.10143905 -0.15257938 -0.17608836 0.08512549
-0.055990383 0.15836067 0.10959652 0.0059150755 0.01806306 0.050530095 0.032251194 -0.1559736
0.04773969 -0.12865017 0.10667019 0.056007944 0.13722517 -0.081454195 -0.014352381 -0.0070879147
0.047362067 0.069059975 0.16012989 -0.13292256 0.007998422 -0.115801625 0.055064958 0.062415898
00000000: eced f8bd c180 dc3d 076c c4bd c911 2ebe
00000010: 72c4 8ebd bd39 063d 89c9 0bbe 2c89 603d
00000020: 1901 323e 5e8c bc3d 8cbf 2e3e 33e4 d93d
00000030: c7cd 933d 0998 21bd 1228 bd3d 26a5 ee3d
00000040: 04ab 6bbd ae38 0cbe 2927 323d 99ab 143e
00000050: 44af b5bd 0059 4e3d bd2a 553d c489 75bd
00000060: f4d4 24be 451e 2d3e b9f7 2ebe 50df 713c
00000070: e88e 07be cd8a 86bd d492 14be 0e5e 953d
00000080: a025 92bc fee8 ce3d febe a2bd 6173 173e
00000090: 202a d4bd f7a0 f93d b23d febd 660f 2ebe
000000a0: 40ed 523b 8408 2ebe d24b dabd 8039 28be
000000b0: a02c 36bd 4396 44bd 618e 26be cca8 303d
000000c0: 522a 26be 0c10 693c b62b 523d 9ef6 f83d
000000d0: 11de b5bd 3125 e53d 6c44 13be ad87 cfbd
000000e0: 3583 bdbd 7191 c3bd a8bc bbbd a224 923d
000000f0: 523f 9f3d e60f 67bb a421 8d3d 407d 05bd
00000100: 494b 18bd 4df7 f4bd 8b54 acbd b589 07bd
00000110: af5b c1bb dc48 1e3e 8aba 0e3e b03c 733c
00000120: f741 1f3e d3b3 d3bd e691 a5bd 085e 9d3d
00000130: 9eda afbd 076e 2cbe a01d 14be 787d 4b3d
00000140: fe19 bf3d 6e67 06be db1e c73b 2fe5 0f3a
00000150: 02a3 e3bc c759 ad3c 0b42 52bd c6af 97bd
00000160: 7cd4 c2bd a4ed bb3d dcd0 3fbd c2d0 efbd
00000170: a0ca a9bd 09b9 e7bd 6853 fa3d 466a f13d
00000180: 412d f1bd b05e 0a3e 91d8 313d 0364 e03d
00000190: 6881 df3d a4eb 9f3d 98ee 0abe 0b92 a8bd
000001a0: 1f71 f7bd 8a78 a73d 9c94 ff3d c8de 29be
000001b0: a439 aa3d f62d 74bd e4eb 883d f628 c23d
000001c0: 86a7 c1bd cce5 b93d 5525 1bbe fda9 413c
000001d0: 2119 c73d bda4 1ebe 4732 d6bb 23c9 0a3e
000001e0: 5805 1d3d fa61 e33c 206e ab3c 59fd 103e
000001f0: ba96 9c3d 3313 883b ba9a 1f3d b6d4 fe3d
00000200: 15e2 bb3d ffea 01be 549e 25be 3a23 c03d
00000210: 56d9 18be 9e64 133e 9c2c 6b3d e289 dbbd
00000220: 142e 6abd 615b 1c3e 0d11 ee3d 4d7e bcbd
00000230: be16 e53d 7657 b8bd 7397 273e aae8 ad3d
00000240: d40f b03d 5d98 20be 1d2d 0dbe b0ee e83d
00000250: e261 263e e8ba 093d c915 cf3d 08f9 2dbe
00000260: 2af2 b63d cd29 6fbd 5075 283c d3c8 e0bd
00000270: 78c2 b33c a3b8 2a3d 8a79 1b3e 5d08 2e3e
00000280: 5401 373d b084 29be a6a7 64bd 84bf febb
00000290: 47bf cf3d c53d 1cbe 8250 34be 4656 ae3d
000002a0: 2c56 65bd 4d29 223e 2474 e03d 40d3 c13b
000002b0: fbf8 933c a5f8 4e3d d419 043d 8bb7 1fbe
000002c0: b18a 433d dfbc 03be e775 da3d 9668 653d
000002d0: c184 0c3e 75d1 a6bd 4026 6bbc bd41 e8bb
000002e0: bafe 413d 516f 8d3d 17f9 233e da1c 08be
000002f0: d00b 033c 6729 edbd cb8b 613d d0a7 7f3d

fc4.bias f4 [6]
0.1313733 0.014443754 0.12996762 -0.07179132 -0.069103934 -0.0035646437
00000000: b986 063e 7fa5 6c3c 3b16 053e 5407 93bd
00000010: 5d86 8dbd cc9c 69bb
