src/params_data/240418_005728/201param.pt (torch, 46927 bytes, 8 tensors)

fc1.weight f4 [128, 4]
0	0xbda6f15b	-0.08151504
1	0x3e8108e5	0.25202098
2	0x3ee4af9f	0.44665238
3	0x3e903793	0.281674
4	0xbea9ad40	-0.33139992
5	0xbef030f2	-0.46912342
6	0xbec140be	-0.37744707
7	0x3df51f40	0.11968851
8	0xbe0676fe	-0.1313133
9	0x3ef54d72	0.4791065
10	0xbed6a310	-0.41921282
11	0xbe3ef949	-0.18649782
12	0xbedb352c	-0.42814004
13	0xbac87a00	-0.0015295148
14	0xbea82e5a	-0.32847863
15	0x3ea6d222	0.32582194
16	0xbe37e470	-0.17958236
17	0xbec25816	-0.3795783
18	0x3e385ae9	0.1800343
19	0x3d17b2a0	0.037035584
20	0xbe4b661c	-0.1986317
21	0xbe4e2f6a	-0.20135275
22	0x3e5044ac	0.20338696
23	0xbd97ff50	-0.07421744
24	0xbe65460b	-0.2239
25	0xbe805a36	-0.25068825
26	0x3eb1a9f0	0.34699965
27	0x3cdac46d	0.026704991
28	0x3bac5c80	0.0052600503
29	0xbef4d25c	-0.4781674
30	0x3cd587b6	0.026065689
31	0xbdab9e08	-0.083797514
32	0xbe9b24f6	-0.30301636
33	0x3eb07af4	0.34468806
34	0xbe447959	-0.19186915
35	0xbd4a83a5	-0.049441952
36	0x3ef0f111	0.4705892
37	0x3e8b8412	0.272492
38	0x3ed8edcb	0.42368922
39	0xbf01f0be	-0.5075797
40	0x3dc53d78	0.09630865
41	0xbe285524	-0.16438729
42	0x3dc754fa	0.09733005
43	0xbed89518	-0.4230125
44	0xbdcc1d66	-0.09966545
45	0x3ed0caea	0.4077981
46	0xbc516ce4	-0.012782309
47	0xbeb855f5	-0.3600308
48	0x3d0231aa	0.031785645
49	0x3e79e266	0.2440277
50	0xbe3c2bde	-0.18376109
51	0x3f002e72	0.5007087
52	0xbe16caff	-0.14725874
53	0x3e68c574	0.22731572
54	0xbe744a52	-0.23856476
55	0x3ee41789	0.44549206
56	0xbe38640c	-0.18006915
57	0xbec05c4a	-0.3757041
58	0x3e821993	0.25410137
59	0xbb210b38	-0.0024573337
60	0x3ed9773e	0.42473787
61	0xbecc4960	-0.3989973
62	0xbe3a5e00	-0.1819992
63	0xbe7804b8	-0.2422055
64	0x3ec07b0c	0.37593877
65	0xbe1c4c90	-0.15263581
66	0xbdc4db08	-0.096120894
67	0x3e7296f0	0.2369039
68	0xbef39fbe	-0.4758281
69	0xbd1ff1f5	-0.039049108
70	0x3ea0c5d0	0.3140092
71	0xbee24a52	-0.44197327
72	0x3deab6e8	0.11460668
73	0xbe405a1c	-0.18784374
74	0xbdaafb98	-0.08348769
75	0x3ef5854c	0.4795326
76	0x3eb979cc	0.36225736
77	0xbeb49e70	-0.35277128
78	0x3e51ccf4	0.2048834
79	0xbe11d06d	-0.14239664
80	0x3c76ba1f	0.015059023
81	0x3e4698c4	0.19394213
82	0x3e9e1c7a	0.308811
83	0xbed34fe4	-0.4127189
84	0x3edcb375	0.43105665
85	0x3d27d789	0.040977035
86	0x3e7af63b	0.24507992
87	0x3e571c87	0.21006976
88	0x3d176790	0.036964
89	0xbef61e56	-0.4807002
90	0xbef2103a	-0.47278005
91	0xbedbd6be	-0.42937273
92	0xbec0c7da	-0.37652475
93	0x3ea86e86	0.32896823
94	0x3e3aa17b	0.18225662
95	0xbe9a3285	-0.30116668
96	0x3e828ac8	0.25496507
97	0x3ebbf7a4	0.36712372
98	0xbe7d5365	-0.24738844
99	0x3e94a978	0.29035544
100	0xbecca913	-0.39972743
101	0x3d32c1c0	0.043641806
102	0xbd1d7245	-0.038439054
103	0x3ef5e0c8	0.48023057
104	0xbe0adf88	-0.13561833
105	0xbe4a888d	-0.19778652
106	0x3e822959	0.2542217
107	0x3df5932d	0.11990962
108	0x3e4f0885	0.20218094
109	0x3e945eca	0.28978568
110	0xbea07e43	-0.3134633
111	0x3ed66207	0.41871664
112	0xbef8fa35	-0.48628393
113	0x3ecc335c	0.39882934
114	0x3d0b5e98	0.03402576
115	0xbe7f64d4	-0.24940807
116	0xbd196ecd	-0.037459183
117	0x3eba580b	0.36395296
118	0x3ecb0759	0.39654043
119	0x3ddb9a78	0.10722822
120	0x3ed28d18	0.4112327
121	0xbdbf7308	-0.09348112
122	0xbe6c357c	-0.23067278
123	0xbeb6d30e	-0.35707897
124	0x3ef43a2b	0.4770063
125	0x3e94cc1b	0.2906197
126	0x3cbbd4b6	0.022928577
127	0x3e967773	0.29388008
128	0xbd5fa9eb	-0.054605406
129	0x3eca4df0	0.39512587
130	0xbda1751f	-0.07883667
131	0x3e8c00bd	0.27344313
132	0x3ed6ffa9	0.41991928
133	0x3bf0355f	0.007330581
134	0x3ed03227	0.40663263
135	0x3d32e1c6	0.043672346
136	0x3db0dcb8	0.08635849
137	0x3eecab37	0.46224377
138	0xbe7a85b3	-0.24465065
139	0xbe3c8984	-0.18411833
140	0x3d031b60	0.03200853
141	0xbed8d552	-0.4235025
142	0xbe1468b0	-0.1449306
143	0x3dcd5a20	0.100269556
144	0x3ecdd6c1	0.40202907
145	0xbcc3df12	-0.02391008
146	0x3efbceff	0.49181363
147	0x3e93b985	0.28852478
148	0x3e351bd0	0.17686391
149	0x3e909f4d	0.28246537
150	0xbed0589c	-0.40692604
151	0x3eed5f81	0.46361926
152	0x3d6d85a0	0.057988763
153	0xbe4b76a0	-0.1986947
154	0x3d927bf0	0.071525455
155	0xbdcafc98	-0.0991146
156	0x3dc21c4c	0.094780535
157	0x3efab4d4	0.48966086
158	0x3e1816a6	0.1485239
159	0x3e1bdd86	0.15221223
160	0xbc231e90	-0.009956017
161	0x3eaa9c40	0.33322334
162	0x3e20e323	0.15711646
163	0xbee1ae81	-0.44078448
164	0x3eae8682	0.34086996
165	0xbecfef40	-0.4061222
166	0xbdcf2f28	-0.10116416
167	0x3deadac0	0.114675045
168	0xbead5406	-0.33853167
169	0xbeb6ec82	-0.35727316
170	0x3e1396f2	0.1441305
171	0xbdfdb8b0	-0.12388742
172	0xbebe0731	-0.37114862
173	0x3ec666a8	0.38750196
174	0x3e9ada2e	0.30244583
175	0x3e228f21	0.15874912
176	0x3e13f171	0.14447571
177	0x3efd2bff	0.4944763
178	0xbec5ec47	-0.38656828
179	0xbe728e5b	-0.23687117
180	0x3e86d5a3	0.26334867
181	0x3d94adea	0.07259734
182	0xbe4dfdda	-0.20116368
183	0xbdfbfa94	-0.12303653
184	0xbdac661d	-0.08417914
185	0x3e8915b9	0.26774386
186	0xbe4520af	-0.19250749
187	0xbe067566	-0.13130721
188	0xbca4d110	-0.02011922
189	0x3d092c25	0.033489365
190	0xbe23710d	-0.15961094
191	0xbe0d5211	-0.13800837
192	0x3e8a86fa	0.27056104
193	0xbec0d20a	-0.37660247
194	0xbedb32fc	-0.42812335
195	0x3d360c80	0.044445515
196	0x3ed1810f	0.40918776
197	0x3be93363	0.0071167215
198	0xbed42c86	-0.4144022
199	0xbe8d048b	-0.2754253
200	0xbeefcd4c	-0.46836317
201	0x3e1db11a	0.1539959
202	0xbeac579f	-0.336606
203	0xbe92a837	-0.28643963
204	0xbe27fba5	-0.16404589
205	0x3e84b4bf	0.25919148
206	0x3bab9682	0.005236448
207	0x3dbf5ceb	0.093438946
208	0x3e1b97c8	0.15194619
209	0xbe0e29ed	-0.13883181
210	0x3e9679f1	0.2938991
211	0xbefdbaae	-0.49556488
212	0x3eb79eda	0.35863382
213	0x3ec09f57	0.37621567
214	0xbd1a72c7	-0.037707116
215	0xbe1fadf0	-0.15593696
216	0x3ec58f1e	0.38585752
217	0xbee5ea71	-0.44905427
218	0x3e8a0c8f	0.26962706
219	0xbe2d61cc	-0.16931838
220	0xbd17d180	-0.03706503
221	0xbd9d1900	-0.07670784
222	0xbe8eb860	-0.27875042
223	0xbebd2278	-0.3694036
224	0xbe2d4fdc	-0.16924995
225	0xbe82569e	-0.2545671
226	0xbdd5c628	-0.10438186
227	0x3e47b840	0.1950388
228	0xbeaad818	-0.3336799
229	0xbe1ebd3c	-0.15501875
230	0x3d506384	0.050876155
231	0xbe6ce9a0	-0.23135996
232	0x3e91308d	0.28357354
233	0x3e6a8dd9	0.22905673
234	0x3dd21c12	0.1025926
235	0xbe1f259f	-0.15541695
236	0x3de4a4d8	0.11164254
237	0xbe6b5e03	-0.22985081
238	0x3de6e614	0.11274353
239	0x3ec36c8d	0.38168755
240	0xbdf84d42	-0.12124111
241	0x3e547fb2	0.20751837
242	0x3eaeb036	0.34118813
243	0x3f061e64	0.5239012
244	0xbe9df37e	-0.30849832
245	0xbed659f8	-0.41865516
246	0xbead5966	-0.33857268
247	0x3a79e000	0.0009531975
248	0xbedf4c79	-0.43613032
249	0x3e8082c7	0.25099775
250	0xbee4da1e	-0.4469766
251	0xbd7c5093	-0.06160028
252	0xbe9efa82	-0.31050497
253	0x3e4d746e	0.20063946
254	0x3d99cd81	0.075099
255	0x3e83d640	0.25749397

fc1.bias f4 [128]
0	0xbec1e66e	-0.37871116
1	0x3eff73b6	0.49892968
2	0xbedecab6	-0.4351403
3	0xbd0647f0	-0.03278345
4	0xbe9cad5c	-0.30601013
5	0x3ea2a520	0.31766605
6	0x3caed2f0	0.021340817
7	0xbe1e3286	-0.1544896
8	0xbea0ca8e	-0.31404537
9	0xbe3334e8	-0.17500651
10	0x3d4a8b16	0.04944905
11	0xbe536f1f	-0.20647858
12	0x3efcb38d	0.49355736
13	0x3e490f56	0.19634756
14	0xbe9986e0	-0.29985714
15	0xbe9fcea2	-0.31212336
16	0xbef43fba	-0.4770487
17	0x3ef41564	0.4767257
18	0x3df1f6a0	0.11814618
19	0x3ee92686	0.45537204
20	0xbe6d00a9	-0.23144783
21	0xbe8211de	-0.25404257
22	0xbe854ce4	-0.26035225
23	0x3e28bb4e	0.16477701
24	0xbef15f5b	-0.47143063
25	0x3ea452a0	0.32094288
26	0xbe196393	-0.14979391
27	0xbe308fea	-0.17242399
28	0x3ef5c0da	0.47998697
29	0xbe87d51a	-0.2652977
30	0xbdb19080	-0.08670139
31	0x3ed5a6cc	0.41728818
32	0x3e772fd4	0.24139339
33	0x3e3dce2a	0.18535677
34	0x3f01c210	0.5068674
35	0x3d88eac8	0.06685406
36	0xbeef983c	-0.46795833
37	0xbed74133	-0.4204193
38	0xbe6c6b59	-0.23087825
39	0xbef38147	-0.47559568
40	0x3c98f499	0.01867132
41	0xbe3a0b28	-0.18168318
42	0xbe260d57	-0.16216026
43	0x3eb8b516	0.36075658
44	0xbee5fccb	-0.44919428
45	0x3f02c57e	0.510826
46	0x3e53ac19	0.20671119
47	0x3ed4acf5	0.41538206
48	0xbe905456	-0.28189343
49	0xbe86ada5	-0.26304355
50	0xbe9faa16	-0.31184453
51	0xbef8ff90	-0.4863248
52	0x3ef533b9	0.47891024
53	0xbe9a0ef2	-0.30089527
54	0x3d8e4b29	0.069479294
55	0xbea81b36	-0.3283326
56	0x3e54bf00	0.20775986
57	0xbe1678d9	-0.14694537
58	0x3e8ce711	0.2752004
59	0xbe527938	-0.20554054
60	0x3ed23b86	0.41061038
61	0x3ee6e074	0.4509312
62	0xbe85539b	-0.26040348
63	0x3ef58df0	0.47959852
64	0xbeb4b304	-0.35292828
65	0x3dac9243	0.08426335
66	0x3b028df5	0.0019921039
67	0x3e7fcfef	0.24981664
68	0x3ed2c930	0.4116912
69	0xbebc496a	-0.3677476
70	0xbe7dc207	-0.24781047
71	0xbea60a5a	-0.32429773
72	0x3dda2800	0.10652161
73	0x3e4f3847	0.20236312
74	0xbe26f71c	-0.16305202
75	0x3ec8b9fe	0.392044
76	0x3ebaef08	0.3651049
77	0x3ee70954	0.45124304
78	0xbdc40722	-0.09571673
79	0xbc903cd3	-0.017607128
80	0x3ee77324	0.45205033
81	0xbe93e18b	-0.28883013
82	0x3e310be4	0.17289692
83	0xbe30bafb	-0.17258827
84	0x3eb975ce	0.3622269
85	0xbc501ea3	-0.012702617
86	0x3e9261d0	0.2859025
87	0xbd0d70b0	-0.034531295
88	0x3e08bffd	0.13354488
89	0xbe60740c	-0.21919268
90	0x3d73a7a9	0.059486065
91	0x3d0f6507	0.035008457
92	0x3ea8d466	0.32974547
93	0xbd962720	-0.07331681
94	0xbeb8f14a	-0.3612159
95	0xbd5863c0	-0.052829504
96	0xbe991cc8	-0.2990477
97	0x3ede0d99	0.4336975
98	0xbdad6028	-0.08465606
99	0x3cece660	0.028918445
100	0xbbfa2952	-0.0076343203
101	0x3da636de	0.08115934
102	0x3ec6a79b	0.38799748
103	0x3e5e77b4	0.2172535
104	0xbef8e98c	-0.48615682
105	0x3ed6d6ad	0.4196066
106	0xbedaf674	-0.42766154
107	0xbe541535	-0.20711215
108	0x3d2b8d9c	0.041883096
109	0x3e98d9f6	0.2985379
110	0xbed5992d	-0.41718426
111	0xbe91f488	-0.28506875
112	0xbeedbec0	-0.46434593
113	0xbc9e10e0	-0.019295156
114	0x3e76ab0e	0.2408869
115	0x3e467a37	0.19382559
116	0xbefd0aaa	-0.494222
117	0xbea4d919	-0.32196882
118	0x3c707340	0.014675915
119	0xbed76c76	-0.42074937
120	0x3e6bb5fe	0.23018643
121	0xbe5f321e	-0.21796462
122	0x3ee6006a	0.4492219
123	0xbd0892ca	-0.033343114
124	0xbecbf594	-0.398358
125	0x3ea28040	0.31738472
126	0x3ec352f7	0.38149235
127	0x3e76cbf0	0.24101233

fc2.weight f4 [64, 128]
0	0xbd85730e	-0.065160856
1	0xbd529019	-0.051406953
2	0x3be1825d	0.0068819956
3	0x3d91b94f	0.07115423
4	0x3d3b088f	0.04566246
5	0x3d839fa1	0.06426931
6	0x3c4be091	0.0124436775
7	0xbda97308	-0.082738936
8	0xbb85d304	-0.004083993
9	0x3d9f1d56	0.07769267
10	0xbcff06a6	-0.0311311
11	0x3d9daf21	0.07699419
12	0xbdbf1625	-0.093303956
13	0xbda17095	-0.078828014
14	0x3d69749a	0.056995966
15	0xbd9e2734	-0.07722321
16	0xbd61e53c	-0.055150256
17	0x3d147d23	0.036252152
18	0xbd88fdec	-0.06689057
19	0xbcf12d16	-0.029440444
20	0xbba0853d	-0.0048986957
21	0x3b8251d1	0.0039770384
22	0xbd53d744	-0.051718965
23	0xbd2dc576	-0.04242464
24	0xbd732e3a	-0.059370257
25	0x3d6b252a	0.05740849
26	0x3b333d3e	0.0027349736
27	0x3c05cf99	0.008167171
28	0xbcb0565a	-0.02152555
29	0xbcc40687	-0.023928894
30	0x3bbef1b0	0.0058271512
31	0xbd83374d	-0.06407032
32	0xbdb5fd38	-0.08886188
33	0xbb5cd4e7	-0.0033696236
34	0xbd94b4a1	-0.07261015
35	0xbd8d79fb	-0.069080316
36	0x3c7538d4	0.014967162
37	0x3d93d323	0.072180055
38	0x3cbbde73	0.02293322
39	0xbc727aee	-0.0147998165
40	0x3dade0b6	0.08490126
41	0xba116a80	-0.0005547181
42	0xbc982b8f	-0.018575458
43	0x3d743b59	0.05962691
44	0xbc12fd74	-0.008971561
45	0x3b0c2d60	0.002138935
46	0xbd94db24	-0.0726836
47	0xbd077db0	-0.03307885
48	0xbd182524	-0.037144795
49	0x3da680d5	0.081300415
50	0xbd8557f3	-0.065109156
51	0x3d9dab54	0.07698694
52	0x3d6b43be	0.05743765
53	0xbd631b0f	-0.055445727
54	0xbd813933	-0.06309738
55	0xbda84853	-0.0821692
56	0xbcec891c	-0.028873973
57	0x3d0168f2	0.031594224
58	0xbd93adc7	-0.0721088
59	0x3c7efb62	0.015562864
60	0x3c9f40c3	0.01944006
61	0x3d8b5e95	0.068051495
62	0x3bc45f80	0.00599283
63	0xbb26795a	-0.002540192
64	0x3d8f2a9c	0.06990549
65	0xbdaf5b90	-0.08562386
66	0x3dab7885	0.08372597
67	0x3da2a274	0.07941142
68	0xbc7f93a0	-0.015599161
69	0x3d2e7755	0.042594273
70	0xbd0ccb8b	-0.0343738
71	0x3c2f9b78	0.010718219
72	0xbd8363af	-0.064154975
73	0xbd1aca30	-0.037790477
74	0x3d08f445	0.03343608
75	0x3c5b67c8	0.013391443
76	0xbce38506	-0.027773391
77	0xbdabc034	-0.08386269
78	0xbd7c91b8	-0.061662406
79	0x3d24038e	0.040042453
80	0x3da5d8af	0.0809797
81	0xbd93df6b	-0.07220348
82	0xbd8ce094	-0.068787724
83	0xbd68ee7c	-0.05686806
84	0x3c377128	0.011196412
85	0xbce1f474	-0.027582385
86	0x3cec2984	0.02882839
87	0x3d85d74f	0.065352075
88	0xbd3bc2ae	-0.045839958
89	0x3d52acb0	0.05143422
90	0xbc6ae7da	-0.014337504
91	0xbd8fef6c	-0.07028088
92	0xbd4149f0	-0.047189653
93	0xbdac5950	-0.084154725
94	0x3d89ab95	0.0672218
95	0xbc92b984	-0.017910726
96	0x3d7e41f5	0.06207462
97	0x3d6a97ec	0.05727379
98	0x3cc54d08	0.024084583
99	0xbdb2804d	-0.08715878
100	0x3d756656	0.05991205
101	0x3d3a9af4	0.04555793
102	0xbd9d16ee	-0.07670389
103	0xbd6f1d70	-0.058377683
104	0xbc18bbac	-0.009322088
105	0xbad0abf5	-0.0015920388
106	0x3d526af4	0.05137153
107	0x3b521a5a	0.0032059164
108	0xbd99c28f	-0.07507812
109	0xbbbe9a40	-0.005816728
110	0xbdb841fd	-0.08996961
111	0xbcdd95c4	-0.027048953
112	0xbbeb90dd	-0.0071889
113	0x3d61639a	0.055026628
114	0x3dab9c03	0.08379366
115	0xbda49c77	-0.08037656
116	0xbc8139a8	-0.015774563
117	0xbcbbfdf5	-0.022948245
118	0xbd6eb0e0	-0.05827415
119	0xbd5a4f33	-0.053298187
120	0x3c111d7b	0.008857126
121	0x3c1d008e	0.009582652
122	0xbd77fbc3	-0.060542833
123	0x3d5d719d	0.05406343
124	0xbd64b3b3	-0.055835437
125	0x3cb512d1	0.022103699
126	0xbcd04077	-0.025421364
127	0xbce76661	-0.02824706
128	0xbc62054e	-0.01379521
129	0xbd3cd4c8	-0.04610136
130	0xbd6ce8e6	-0.057839297
131	0x3d9ebf53	0.07751336
132	0xbc53bae6	-0.012922978
133	0xbd965627	-0.07340651
134	0xbd183991	-0.037164275
135	0x3b4adc17	0.0030953938
136	0x3d684a78	0.056711644
137	0x3d9bd1a7	0.076083474
138	0xbda15046	-0.07876639
139	0x3d80add3	0.06283154
140	0x3b18644b	0.0023253139
141	0x3d32a929	0.043618355
142	0x3da4545b	0.08023902
143	0x3d10a666	0.03531494
144	0x3b8f33e0	0.0043701977
145	0xbd3f6725	-0.046729226
146	0x3c9c76ec	0.019099675
147	0x3d8b2d3f	0.067957394
148	0x3d5623bb	0.05228017
149	0x3d829353	0.06375756
150	0x3c771df8	0.015082829
151	0x3d0f3659	0.03496394
152	0x3d946ca1	0.07247282
153	0xbdac7038	-0.084198415
154	0x3d527a9b	0.051386457
155	0xbdaff8ed	-0.08592401
156	0x3c9ae467	0.018907739
157	0x3d983d09	0.074335165
158	0xbcaf3df8	-0.021391854
159	0xbd8ed5c6	-0.06974368
160	0x3a834a17	0.0010016587
161	0xbc2a87bc	-0.010408338
162	0xbc4f0b3f	-0.012636959
163	0x3d326e16	0.043562017
164	0xbd1e87c5	-0.0387037
165	0x3d55ff32	0.052245326
166	0xbbc59c60	-0.0060306042
167	0x3b78451b	0.0037882987
168	0xbd240b12	-0.04004962
169	0x3d5924ee	0.053013735
170	0xbd16d237	-0.03682157
171	0x3d26944d	0.040668774
172	0xbcbbd29f	-0.02292758
173	0x3c874256	0.016511124
174	0xbd90f899	-0.07078666
175	0x3ca109f9	0.019658076
176	0xbd062a35	-0.032755096
177	0xbd56b643	-0.052419912
178	0xbca1ed3d	-0.019766444
179	0x3c91e56a	0.017809588
180	0x3d34be03	0.04412652
181	0x3d482a98	0.048868746
182	0xbd54aaeb	-0.051920813
183	0xbd883375	-0.0665044
184	0x3d48717a	0.048936345
185	0x3be1aa41	0.006886751
186	0x3ce14230	0.027497381
187	0xbaf6885e	-0.0018808951
188	0xbd82baf9	-0.063833185
189	0xbd28bbb2	-0.041194625
190	0x3db01fff	0.08599853
191	0xbd5331cb	-0.05156116
192	0x3d9a624d	0.07538281
193	0xbd29eced	-0.041485716
194	0x3cd268ef	0.025684802
195	0xbce41842	-0.027843598
196	0xbd109aaa	-0.03530375
197	0x3d76ea12	0.06028182
198	0xbc67dfba	-0.014152462
199	0xbd122a3f	-0.03568482
200	0x3d854c5b	0.06508704
201	0x3b236662	0.002493285
202	0x3d90e1cc	0.07074317
203	0xbda9de58	-0.08294362
204	0x3b0841e0	0.0020791218
205	0xbb7c09fc	-0.00384581
206	0x3d8e4583	0.06946852
207	0x3c624136	0.013809493
208	0xbd69e389	-0.05710176
209	0x3d9761ee	0.073917255
210	0x3d93e653	0.07221665
211	0x3d681057	0.056656208
212	0x3c7ba398	0.015358828
213	0xbc6ab6ae	-0.014325781
214	0x3beef700	0.0072926283
215	0x3d1a41e6	0.037660502
216	0xbc870378	-0.016481146
217	0x3d93d7ab	0.0721887
218	0x3d95c6fd	0.07313345
219	0xbc3c7309	-0.011502036
220	0xbd182a74	-0.03714986
221	0xbc94fc8c	-0.01818683
222	0x3d068caa	0.03284899
223	0xbdbbecfd	-0.09176061
224	0xbc8935e1	-0.016749324
225	0xbb1d1915	-0.002397125
226	0x3ce5b904	0.028042324
227	0x38289800	4.0195882e-05
228	0xbd956fe4	-0.07296732
229	0x3d3aa35e	0.045565955
230	0xbd399867	-0.045311358
231	0x3d19850e	0.037480406
232	0xbd212c2d	-0.03934877
233	0x3c61c131	0.013778971
234	0xba1b6277	-0.0005927453
235	0x3ce99b7f	0.02851653
236	0xbd797054	-0.06089814
237	0xbd6600b5	-0.056153018
238	0xbc225c21	-0.009909661
239	0xbd9177fe	-0.07102965
240	0xbd34edf0	-0.044172227
241	0x3d89d5ff	0.0673027
242	0x3d862ad7	0.0655114
243	0x3c35ec59	0.011103713
244	0x3d77c44a	0.06048993
245	0x3d6a087e	0.057137005
246	0xbb81e940	-0.003964573
247	0xbdaae3cc	-0.0834423
248	0xbd56bdcf	-0.05242711
249	0xbd12e853	-0.035866093
250	0x3cf4ca4f	0.029881625
251	0xbd41083c	-0.047126994
252	0x3d0d7b78	0.034541577
253	0xbd41aee0	-0.047285914
254	0x3da4254d	0.08014927
255	0x3d3438b9	0.043999407

fc2.bias f4 [64]
0	0x3db1f4e8	0.0868929
1	0xbb872ea0	-0.004125431
2	0xbd5c006e	-0.053711347
3	0x3cfa1d12	0.03053144
4	0x3c8a5ae6	0.016889047
5	0x3c8c52cc	0.017129324
6	0x3d7ba575	0.06143709
7	0xbc814b1e	-0.015782889
8	0xbcb0fb95	-0.021604339
9	0x3d5d2186	0.05398705
10	0xbd445fc0	-0.047942877
11	0xbda5b8c7	-0.08091884
12	0x3d8446c0	0.06458807
13	0x3d955f41	0.07293559
14	0x3dac1072	0.08401574
15	0x3d56c622	0.052435048
16	0x3cddf9fc	0.02709674
17	0x3d7a339d	0.06108438
18	0xbd69bba0	-0.0570637
19	0x3d8e5f61	0.06951786
20	0xbc008514	-0.007844228
21	0x3ddcf121	0.10788179
22	0x3de4249a	0.11139794
23	0x3da616f0	0.08109844
24	0x3c61d689	0.013784059
25	0x3d911ef9	0.07085986
26	0xbd97fe89	-0.074215956
27	0x3cc2a950	0.023762375
28	0x3d791ad2	0.060816593
29	0x3d9144c3	0.070931934
30	0xbcda2bed	-0.026632274
31	0xbda879c5	-0.08226351
32	0xbb36004f	-0.002777118
33	0x3d38b0f9	0.04509065
34	0x3daefcab	0.08544286
35	0x3dbf6312	0.09345068
36	0xbd0d1a9e	-0.034449212
37	0xbcc3b9b3	-0.02389226
38	0x3c02f590	0.007993117
39	0x3d08506e	0.03327983
40	0xbd016e37	-0.03159925
41	0x3c200298	0.009766243
42	0xbdb46534	-0.088083655
43	0x3d1b6469	0.037937555
44	0xbd5b3e6e	-0.053526334
45	0x3d12b81a	0.035820104
46	0x3da64f2e	0.08120571
47	0xbd6b5b31	-0.057460014
48	0xbd991557	-0.074747734
49	0x3d42bafa	0.047541596
50	0x3d369a7a	0.044580914
51	0x3da04029	0.078247376
52	0xbd604cb5	-0.054760654
53	0x3d6417ac	0.055686638
54	0x3d819869	0.06327898
55	0xbc9d7a90	-0.019223481
56	0xbccf906c	-0.02533742
57	0x3d915588	0.07096392
58	0xbc4bdb0e	-0.012442363
59	0x3d489c2e	0.04897707
60	0x3d0cfb99	0.03441963
61	0x3da746b3	0.08167782
62	0xbd6de188	-0.05807641
63	0xbb8a811a	-0.004226816

fc3.weight f4 [32, 64]
0	0x3dd0580c	0.101730436
1	0xbcbcce13	-0.023047483
2	0x3d8ea7ae	0.06965576
3	0xbde00730	-0.10938871
4	0xbde35299	-0.11099739
5	0xbde09e7c	-0.109677285
6	0x3d65a6cb	0.05606727
7	0x3d71466b	0.058905046
8	0x3daacac9	0.083394594
9	0xbd1a2f04	-0.037642494
10	0xbd993a2e	-0.074818
11	0x3d1d8684	0.038458362
12	0x3de4bb42	0.11168529
13	0xbbb55220	-0.0055334717
14	0x3dda3972	0.10655488
15	0xbd82192d	-0.06352458
16	0xbd8b595d	-0.06804154
17	0x3d3894ba	0.04506371
18	0x3d5cde3d	0.05392288
19	0x3dd54184	0.10412887
20	0xbd8cb876	-0.06871121
21	0x3de14012	0.109985486
22	0xbde530a0	-0.11190915
23	0x3dd6b802	0.104843155
24	0xbcf9f8ba	-0.03051411
25	0x3ca678c0	0.02032125
26	0x3c96eab9	0.018422471
27	0x3c751e80	0.014960885
28	0xbda12e5f	-0.07870173
29	0x3ce0d99e	0.027447518
30	0xbd47fbc6	-0.048824094
31	0x3d092ccc	0.033489987
32	0xbdd34d9c	-0.10317537
33	0x3ca9e541	0.0207392
34	0x3dc1a6f9	0.09455676
35	0x3c81dfc2	0.015853766
36	0xbbb1d9e0	-0.005427584
37	0xbd54a36a	-0.051913656
38	0xbd6dcf00	-0.05805874
39	0x3dd8876f	0.10572707
40	0x3d0337d0	0.03203565
41	0xbcedb5a3	-0.029017275
42	0xbc0c2d60	-0.00855574
43	0x3d8121e2	0.06305291
44	0xbd94b647	-0.07261329
45	0x3d9cc097	0.07653921
46	0xbaa5f5e2	-0.001266178
47	0x3c8bbc90	0.017057687
48	0xbd8a4530	-0.06751478
49	0xbd73c354	-0.05951245
50	0xbd072724	-0.03299631
51	0x3de92b20	0.113851786
52	0x3dc7595d	0.097338416
53	0xbdf6992d	-0.12040935
54	0xbd1ef94a	-0.03881196
55	0x3d1a2ab8	0.037638396
56	0x3d9d7958	0.0768916
57	0xbbbf8f02	-0.0058459053
58	0x3cab9d35	0.020948986
59	0xbd3ce5e0	-0.046117663
60	0x3b8b505d	0.0042515234
61	0xbdcfa5b1	-0.10139025
62	0x3bbd41c2	0.005775661
63	0x3dc38360	0.09546542
64	0xbd95d93e	-0.07316826
65	0xbd834111	-0.06408895
66	0x3dfdf233	0.123997115
67	0xbd35cd9a	-0.04438553
68	0xbd137c9b	-0.036007505
69	0x3da44699	0.08021278
70	0xbdb54b72	-0.08852281
71	0x3d6456e3	0.055746924
72	0x3db14a7f	0.08656787
73	0xbd8fe318	-0.070257366
74	0xbc4c054a	-0.012452433
75	0xbd3bc320	-0.045840383
76	0x3de9d8c2	0.114182964
77	0xbcda4cd8	-0.02664797
78	0xbbf0a2d8	-0.0073436312
79	0x3bba138f	0.005678601
80	0xbde11c1f	-0.10991692
81	0xbd8b520b	-0.06802758
82	0xbc1fce4b	-0.009753774
83	0xbca29650	-0.019847065
84	0x3db1fd47	0.08690887
85	0x3da9d11b	0.08291837
86	0xbcf30ab3	-0.029668188
87	0x3c4fc0db	0.012680258
88	0x3caddd77	0.021223767
89	0x3d4d6f94	0.050155237
90	0xbd559820	-0.05214703
91	0x3dde2082	0.10846044
92	0x3a653944	0.000874419
93	0x3b4c4e99	0.0031174778
94	0xbd675e6a	-0.056486525
95	0x3d481fd6	0.048858486
96	0xbdb87f6d	-0.090086795
97	0xbcb7b1f9	-0.022423731
98	0xbd2dc0e4	-0.042420283
99	0xbd068b28	-0.032847553
100	0x3c39bcd0	0.01133652
101	0xbd395fcb	-0.04525737
102	0xbddf482c	-0.109024376
103	0x3d9872ef	0.07443797
104	0x3db2e42c	0.087349266
105	0x3d8d67a7	0.06904536
106	0x3d9b8ce4	0.07595232
107	0xbd774732	-0.06037063
108	0x3ddcf273	0.10788431
109	0x3d0b57f2	0.034019418
110	0x3de30acf	0.11086046
111	0x3d9fdc96	0.07805745
112	0x3cc7ff32	0.024413679
113	0x3df3d634	0.119060904
114	0x3d82f818	0.063949764
115	0x3b90ee57	0.0044229436
116	0x3dd254ea	0.10270102
117	0x3d334e04	0.043775573
118	0x3db4c2d8	0.08826226
119	0x3ded797a	0.115954354
120	0x3d4f2264	0.050569907
121	0x3d53b0e1	0.051682357
122	0x3dafc779	0.08582968
123	0xbd8e93d8	-0.06961793
124	0x3da16d15	0.07882134
125	0xbd588934	-0.052865222
126	0x3dee7a5a	0.116444305
127	0x3d97fd28	0.074213326
128	0xbdba6f38	-0.091032445
129	0x3dbfa348	0.09357315
130	0x3cefb676	0.029261809
131	0x3db9148b	0.090371214
132	0xbde8aacc	-0.11360702
133	0xbcc50336	-0.024049383
134	0x3cdd175f	0.026988683
135	0xbd911ebe	-0.07085942
136	0x3df8b480	0.12143803
137	0x3d963208	0.073337615
138	0xbda6de67	-0.08147889
139	0xbdfd7bf6	-0.12377159
140	0x3dbcf4f0	0.092264056
141	0x3d99b658	0.075054824
142	0xbcccf788	-0.025020376
143	0xbdaad4b4	-0.08341351
144	0xbcd25935	-0.025677303
145	0xbde03b57	-0.10948818
146	0xbc22a3e7	-0.009926773
147	0x3deacbc8	0.114646494
148	0x3dbbcfa6	0.09170465
149	0xbbb5c8b8	-0.005547609
150	0x3ce43ed8	0.027861997
151	0xbd0575d0	-0.032583058
152	0x3dbf5c1e	0.09343742
153	0x3dd1ade0	0.10238242
154	0x3d152d44	0.03642012
155	0xbdb730fc	-0.0894489
156	0xbde53f56	-0.11193721
157	0xbde4e219	-0.11175937
158	0xbd0cdeb4	-0.034392074
159	0x3d534a80	0.05158472
160	0xbdac795f	-0.08421587
161	0x3d2b7c98	0.04186687
162	0x3c612b70	0.013743266
163	0xbd844de1	-0.06460167
164	0x3ddff8b6	0.1093611
165	0x38e96000	0.00011128187
166	0x3dd823f6	0.10553734
167	0x3d437aa9	0.0477244
168	0x3dca9d2e	0.09893261
169	0xbdda0b03	-0.106466316
170	0xbc3d1b20	-0.011542112
171	0x3dee5e4e	0.11639081
172	0x3d12c830	0.035835445
173	0x3da3d948	0.080004275
174	0x3de376b2	0.11106624
175	0xbcf288e6	-0.029606294
176	0xbd233671	-0.03984684
177	0x3da93dc4	0.08263734
178	0x3da2c498	0.079476535
179	0xbbc17950	-0.005904354
180	0xbd15525a	-0.03645549
181	0xbdbf4d43	-0.093409084
182	0xbcf95b0e	-0.030438926
183	0xbd782698	-0.06058368
184	0xbdba3fdc	-0.090942115
185	0x3c833956	0.01601855
186	0xbd0fc545	-0.03510024
187	0xbbab9b00	-0.0052369833
188	0xbddb53b4	-0.107093245
189	0x3d059e51	0.032621685
190	0x3d308fc2	0.043105848
191	0x3d276378	0.040866345
192	0xbd9f93cd	-0.07791863
193	0xbda66b63	-0.08125951
194	0xbcae7274	-0.02129481
195	0xbdcab57a	-0.09897895
196	0x3c4b3bcd	0.012404394
197	0xbd0671dc	-0.03282343
198	0xbb6300c7	-0.0034637915
199	0xbd9327d2	-0.071853295
200	0x3df1a76a	0.1179951
201	0x3d7b308c	0.061325595
202	0x3de553ed	0.11197648
203	0xbcd91eb8	-0.026503906
204	0x3ce46e0e	0.02788451
205	0x3df984d2	0.121835366
206	0xbdaf2bc4	-0.085532695
207	0xbdb11170	-0.08645904
208	0x3c2f9b59	0.01071819
209	0xbd7ceb2b	-0.06174771
210	0x3d46c695	0.048529226
211	0xbdf0a0e2	-0.11749436
212	0xbd649275	-0.055803735
213	0xbc13304b	-0.008983682
214	0xbdf997fc	-0.12187192
215	0x3dc13b99	0.094351955
216	0xbdd7d1b6	-0.10538046
217	0xbc55c470	-0.013047323
218	0x3d5be2b4	0.053682998
219	0xbcabf1b0	-0.020989269
220	0xbd429168	-0.04750195
221	0xbdf1ffb4	-0.118163496
222	0xbdb49234	-0.088169485
223	0xbd029653	-0.03188164
224	0xbc915fe6	-0.017745923
225	0x3d23f5dc	0.04002939
226	0x3c4a9b30	0.012366101
227	0x3d7f819b	0.06237946
228	0x3d8eef0c	0.06979188
229	0x3da699ab	0.081347786
230	0x3d3c9828	0.046043545
231	0x3c369237	0.011143259
232	0x3dc2a577	0.09504216
233	0x3b1e0403	0.0024111278
234	0x3c9b5fc8	0.01896657
235	0xbcd11cf4	-0.025526501
236	0xbdf52290	-0.11969483
237	0xbdd43a8b	-0.10362729
238	0xbdc2a025	-0.095032014
239	0xbba27de0	-0.004958853
240	0xbd342a51	-0.04398567
241	0x3c3bb0e0	0.0114557445
242	0x3de43e22	0.111446634
243	0xbdcc9f68	-0.09991342
244	0x3cef157b	0.029185047
245	0x3dee46c1	0.11634589
246	0xbcf77bc2	-0.03021038
247	0xbcea2fd8	-0.028587267
248	0x3bc843c0	0.006111592
249	0x3d7ccd9b	0.06171952
250	0xbd5b18b4	-0.053490356
251	0xbda5e092	-0.08099474
252	0x3d848cff	0.06472205
253	0x3db6de52	0.08929123
254	0xbd7561cd	-0.059907723
255	0x3d000fde	0.031265132

fc3.bias f4 [32]
0	0xbc5246c9	-0.012834259
1	0x3e041dfa	0.1290206
2	0xbc980eb6	-0.018561702
3	0xbde711f9	-0.11282725
4	0x3c41c76b	0.01182733
5	0xbdd14cf2	-0.10219754
6	0x3e1c9b33	0.15293579
7	0xbd4b28c4	-0.049599424
8	0xbddee612	-0.10883726
9	0xbc1ccd20	-0.00957039
10	0x3c62de4f	0.013846948
11	0xbdc78e20	-0.09743905
12	0xbb86278a	-0.004094069
13	0x3d88797d	0.06663797
14	0x3c6265b0	0.0138181895
15	0x3dcfef0a	0.10153015
16	0xbcd797a8	-0.026317433
17	0x3bd9ac91	0.006642886
18	0xbd0eefd8	-0.0348967
19	0xbcf48824	-0.029850073
20	0xbc501ae8	-0.012701727
21	0x3dd27b4f	0.102774255
22	0xbda15542	-0.0787759
23	0x3c11005e	0.008850185
24	0x3cf35d33	0.029707527
25	0xbcfab24e	-0.0306026
26	0xbd982e84	-0.07430747
27	0x3de43864	0.11143568
28	0xbd577744	-0.052603975
29	0xbdb8a152	-0.090151444
30	0x3d491b9c	0.049098596
31	0x3dd61c82	0.10454656

fc4.weight f4 [6, 32]
0	0xbdf81e96	-0.12115209
1	0x3ddc7afb	0.10765644
2	0xbdc46c07	-0.09590917
3	0xbe2e11c9	-0.16998972
4	0xbd8dcdbd	-0.06924007
5	0x3d05178e	0.032493167
6	0xbe0d0523	-0.13771491
7	0x3d60892c	0.054818317
8	0x3e320119	0.17383231
9	0x3dbc8c5e	0.092064604
10	0x3e2e1355	0.16999562
11	0x3dd77d67	0.105219655
12	0x3d944bb8	0.07241005
13	0xbd20cb57	-0.03925642
14	0x3dbd2812	0.092361584
15	0x3deea526	0.11652593
16	0xbd6bab04	-0.05753614
17	0xbe0c607e	-0.13708684
18	0x3d32a44f	0.043613728
19	0x3e14ab99	0.14518584
20	0xbdb6bfab	-0.089232765
21	0x3d4d7f8c	0.050170466
22	0x3d4da45b	0.05020557
23	0xbd6d2859	-0.057899807
24	0xbe24c726	-0.16091594
25	0x3e2d4357	0.1692022
26	0xbe2ef7b9	-0.17086686
27	0x3c71df50	0.0147627145
28	0xbe078ee8	-0.13238108
29	0xbd868acd	-0.06569443
30	0xbe144eda	-0.14483204
31	0x3d955e0e	0.0729333
32	0xbc9272e7	-0.017877055
33	0x3dce96ad	0.10087333
34	0xbda2befe	-0.07946585
35	0x3e177361	0.14790107
36	0xbdd46e16	-0.1037256
37	0x3df8e938	0.12153858
38	0xbdff3215	-0.12460724
39	0xbe2e0f66	-0.16998062
40	0x3b52ed40	0.003218487
41	0xbe2e0884	-0.16995436
42	0xbddca138	-0.107729375
43	0xbe277ce6	-0.16356239
44	0xbd367c83	-0.044552337
45	0xbd49df2f	-0.04928511
46	0xbe268e61	-0.1626525
47	0x3d30a8cc	0.043129727
48	0xbe262a52	-0.16227081
49	0x3c6ca9a6	0.014444744
50	0x3d518494	0.051151827
51	0x3df8f69e	0.121564135
52	0xbdb85cbd	-0.090020634
53	0x3de4c0ef	0.11169612
54	0xbe12dd95	-0.1434234
55	0xbdcf87ad	-0.101333
56	0xbdbd8c87	-0.09255319
57	0xbdc3cba4	-0.09560326
58	0xbdbbbca8	-0.09166843
59	0x3d9224a2	0.071358934
60	0x3d9f3f52	0.07775749
61	0xbb670fe6	-0.003525728
62	0x3d8cc4d3	0.06873479
63	0xbd057d40	-0.03259015
64	0xbd1b4153	-0.037904095
65	0xbdf4bc28	-0.119499505
66	0xbdac548b	-0.08414563
67	0xbd0789b5	-0.033090312
68	0xbbb32f71	-0.005468302
69	0x3e1df689	0.15426077
70	0x3e0ded89	0.13860144
71	0x3c733cb0	0.014846012
72	0x3e1f41f7	0.15552507
73	0xbdd3b3d3	-0.10337033
74	0xbda6b513	-0.08140006
75	0x3d9cd08f	0.07656967
76	0xbdaf96b7	-0.085736685
77	0xbe2e3b63	-0.17014842
78	0xbe141da0	-0.14464426
79	0x3d4b7d78	0.049680203
80	0x3dbf19fe	0.093311295
81	0xbe053215	-0.13007386
82	0x3bcadd5f	0.0061909403
83	0x3a0fe52f	0.0005489168
84	0xbce9167e	-0.028453108
85	0x3cadac34	0.021200277
86	0xbd4f8cb7	-0.050671306
87	0xbd97afc6	-0.07406573
88	0xbdc26b1a	-0.09493084
89	0x3dbbd749	0.09171922
90	0xbd3fd0dc	-0.046830043
91	0xbdefd0c2	-0.11709739
92	0xbda9caa0	-0.08290601
93	0xbde7b909	-0.113145895
94	0x3dfa000a	0.12207039
95	0x3df16a46	0.11787848
96	0xbdf12e61	-0.11776424
97	0x3e0a5770	0.13509917
98	0x3d31d891	0.043419424
99	0x3de06403	0.10956576
100	0x3dddbd90	0.10827172
101	0x3da004b7	0.07813399
102	0xbe0a080a	-0.13479629
103	0xbda8920b	-0.082309805
104	0xbdf7711f	-0.12082123
105	0x3da7788a	0.08177288
106	0x3dff6b96	0.12471692
107	0xbe28cfca	-0.16485515
108	0x3daa1e6f	0.08306586
109	0xbd7b6647	-0.061376836
110	0x3d88ebe4	0.066856176
111	0x3dc228f6	0.09480469
112	0xbdc1a786	-0.09455781
113	0x3db9cae4	0.090719014
114	0xbe1b0111	-0.15137126
115	0x3c41a9fd	0.0118203135
116	0x3dc704fe	0.09717749
117	0xbe1e6219	-0.15467109
118	0xbbe49214	-0.0069754217
119	0x3e0ac923	0.1355329
120	0x3d1d3992	0.03838498
121	0x3ce33ee1	0.027739944
122	0x3cab6e20	0.020926535
123	0x3e10fd59	0.14159144
124	0x3d9c96ba	0.07645936
125	0x3b881333	0.0041526794
126	0x3d1fc5e8	0.039007097
127	0x3dfed4b6	0.12442915
128	0x3dbf9720	0.09354997
129	0xbe020ee9	-0.12701
130	0xbe259e54	-0.16173679
131	0x3dc0233a	0.09381719
132	0xbe18543a	-0.1487588
133	0x3e12e287	0.14344226
134	0x3d63a457	0.05557665
135	0xbddb89e2	-0.107196584
136	0xbd6a2e14	-0.05717285
137	0x3e1c5b61	0.15269233
138	0x3decf3da	0.115699485
139	0xbdbd7702	-0.092512146
140	0x3de4c21d	0.11169837
141	0xbdbba902	-0.09163095
142	0x3e279773	0.16366367
143	0x3dade8aa	0.08491643
144	0x3db00fd4	0.08596769
145	0xbe208c25	-0.15678461
146	0xbe0d54ff	-0.13801955
147	0x3de8eeb0	0.11373651
148	0x3e25e130	0.16199183
149	0x3d07b882	0.033134945
150	0x3dccc67b	0.09998795
151	0xbe2df908	-0.16989529
152	0x3db677b5	0.08909551
153	0xbd6f6f32	-0.058455653
154	0x3c287550	0.010281876
155	0xbde0c8d3	-0.10975804
156	0x3cb3c278	0.021943316
157	0x3d2ab8a3	0.04167999
158	0x3e1b45ae	0.151633
159	0x3e2e085d	0.16995378
160	0x3d329167	0.043595698
161	0xbe296929	-0.16544022
162	0xbd64a7a6	-0.055823945
163	0xbbfebf84	-0.0077742953
164	0x3dcf2640	0.101147175
165	0xbe1c0794	-0.15237266
166	0xbe342429	-0.17591919
167	0x3dae5646	0.08512549
168	0xbd65562c	-0.055990383
169	0x3e22294d	0.15836067
170	0x3ddfce34	0.10928002
171	0x3bca553f	0.006174713
172	0x3c938690	0.0180085
173	0x3d49e51f	0.049290773
174	0x3d0419d4	0.032251194
175	0xbe1fb78b	-0.1559736
176	0x3d438ab1	0.04773969
177	0xbe039be2	-0.12852433
178	0x3dda7b17	0.10668009
179	0x3d656896	0.056007944
180	0x3e0c2aa1	0.13688137
181	0xbda6cf7a	-0.08145042
182	0xbc6bf7d5	-0.0144023495
183	0xbbe841bd	-0.0070879147
184	0x3d41ecdd	0.04734503
185	0x3d8d7c88	0.06908518
186	0x3e23f917	0.16012989
187	0xbe081cda	-0.13292256
188	0x3c030bd0	0.007998422
189	0xbded2967	-0.115801625
190	0x3d61549f	0.05501234
191	0x3d7fa7d0	0.062415898

fc4.bias f4 [6]
0	0x3e064eb3	0.13115959
1	0x3c759256	0.0149885025
2	0x3e04cdc4	0.12969118
3	0xbd952fe8	-0.07284528
4	0xbd8e6819	-0.06953449
5	0xbbd11661	-0.0063808416
