src/params_data/240418_005728/229param.pt (torch, 46927 bytes, 8 tensors)

fc1.weight f4 [128, 4]
000000 45 56 a6 bd 48 17 81 3e 99 b4 e4 3e a6 5d 8e 3e
       -0.08121923 0.25213075 0.44669035 0.27805823
000010 40 ad a9 be f2 30 f0 be be 40 c1 be 40 1f f5 3d
       -0.33139992 -0.46912342 -0.37744707 0.11968851
000020 63 ec 06 be 1a 3b f5 3e e4 c5 d6 be c9 21 39 be
       -0.13176112 0.47896653 -0.41947854 -0.18079294
000030 2c 35 db be 00 7a c8 ba 5a 2e a8 be 22 d2 a6 3e
       -0.42814004 -0.0015295148 -0.32847863 0.32582194
000040 70 e4 37 be 16 58 c2 be 52 01 39 3e a0 b2 17 3d
       -0.17958236 -0.3795783 0.1806691 0.037035584
000050 1c 66 4b be f2 a8 4d be fc 39 50 3e 0e 3f 99 bd
       -0.1986317 -0.20083979 0.2033462 -0.0748273
000060 bf e6 6b be 17 fc 80 be e5 46 b1 3e 6a 82 f0 3c
       -0.23037241 -0.2519233 0.346244 0.029359061
000070 80 5c ac 3b 5c d2 f4 be 7f 3c e0 3c 08 9e ab bd
       0.0052600503 -0.4781674 0.027372597 -0.083797514
000080 c1 9c 9a be ba 61 b0 3e 90 05 45 be 20 5b 80 bd
       -0.3019772 0.3444956 -0.19240403 -0.06267381
000090 27 04 f1 3e 87 5b 8b 3e dd 15 d9 3e 43 98 03 bf
       0.4707348 0.27218267 0.42399493 -0.5140421
0000a0 78 3d c5 3d 29 ee 28 be 80 93 c8 3d cd 20 da be
       0.09630865 -0.16497101 0.097937584 -0.4260315
0000b0 cc 87 c9 bd 67 c0 d0 3e a4 6c 5b bc 7d fd be be
       -0.09840354 0.4077179 -0.013392601 -0.3730277
0000c0 61 2e f3 3c a2 4b 79 3e 8f 22 3c be c9 1a 02 3f
       0.029685201 0.24345258 -0.18372558 0.5082212
0000d0 fb c1 13 be 10 fa 68 3e cc 13 74 be 5f 11 e0 3e
       -0.14429466 0.22751641 -0.23835677 0.43763253
0000e0 0c 64 38 be 6c d3 c1 be 58 16 82 3e e1 38 6c bb
       -0.18006915 -0.37856615 0.25407672 -0.0036044645
0000f0 3e 77 d9 3e 60 49 cc be 00 5e 3a be b8 04 78 be
       0.42473787 -0.3989973 -0.1819992 -0.2422055
000100 0c 7b c0 3e 90 4c 1c be 08 db c4 bd f0 96 72 3e
       0.37593877 -0.15263581 -0.096120894 0.2369039
000110 7e e2 f3 be 0c d5 1e bd e1 01 a1 3e cb 5f e1 be
       -0.47633737 -0.038777396 0.31446746 -0.44018397
000120 e8 b6 ea 3d 1c 5a 40 be 98 fb aa bd 4c 85 f5 3e
       0.11460668 -0.18784374 -0.08348769 0.4795326
000130 cc 79 b9 3e a7 20 b6 be dc 55 51 3e 6f 8f 0f be
       0.36225736 -0.35571787 0.20442909 -0.1401956
000140 83 ba 55 3c d1 65 46 3e bd f0 9d 3e e7 1e d1 be
       0.013044956 0.19374777 0.3084773 -0.4084389
000150 e1 7a dd 3e c8 2f 28 3d e9 c8 7a 3e b2 d2 56 3e
       0.43257812 0.041061193 0.24490704 0.20978811
000160 90 67 17 3d 56 1e f6 be 3a 10 f2 be be d6 db be
       0.036964 -0.4807002 -0.47278005 -0.42937273
000170 01 e1 c1 be c7 42 a8 3e d4 03 3b 3e 8f 03 9e be
       -0.37866977 0.32863447 0.18263179 -0.3086209
000180 65 4d 82 3e 1f e5 bb 3e 9b 7d 7d be 63 96 94 3e
       0.25449672 0.36698243 -0.24754946 0.29020986
000190 70 36 cb be 47 c5 35 3d e5 e3 1b bd 19 2f fb 3e
       -0.3968997 0.04437759 -0.038059134 0.4905937
0001a0 3e aa 11 be 93 ce 49 be 5e 67 82 3e d2 34 fb 3d
       -0.14225098 -0.19707708 0.25469488 0.12265934
0001b0 78 07 4e 3e 32 4d 94 3e 0c ae a0 be 08 e8 d5 3e
       0.20120037 0.28965145 -0.31382787 0.41778588
0001c0 66 c8 f9 be 17 03 cc 3e 3f 75 09 3d e7 3b 7c be
       -0.48785704 0.39846107 0.03355908 -0.24632226
0001d0 36 a1 1b bd 79 3d ba 3e 8b f0 ca 3e 0d 5d eb 3d
       -0.03799554 0.36375025 0.39636645 0.114923574
0001e0 18 8d d2 3e 08 73 bf bd 7c 35 6c be 0e d3 b6 be
       0.4112327 -0.09348112 -0.23067278 -0.35707897
0001f0 7d 38 f4 3e 53 7f 94 3e 45 27 ba 3c 8c 9c 99 3e
       0.47699347 0.2900339 0.022723803 0.30002248
000200 a8 89 60 bd 38 63 ca 3e e6 b4 a1 bd 4b 73 89 3e
       -0.05481878 0.39528823 -0.07895832 0.26845774
000210 fb ff d7 3e 70 ad ee 3b 8c 0a d0 3e 7b ac ff 3c
       0.42187485 0.007283859 0.40633047 0.031210175
000220 df cb ae 3d e3 8e ec 3e ea 94 7b be f8 e0 3c be
       0.08534979 0.46202764 -0.24568525 -0.18445194
000230 60 1b 03 3d 52 d5 d8 be b0 68 14 be 20 5a cd 3d
       0.03200853 -0.4235025 -0.1449306 0.100269556
000240 37 09 ce 3e 6a c4 c4 bc d0 67 fb 3e 44 82 95 3e
       0.40241405 -0.024019439 0.4910264 0.29200947
000250 34 4b 34 3e bf 90 90 3e bf 9f d0 be 38 4f ec 3e
       0.17606813 0.28235433 -0.40746877 0.4615419
000260 a0 85 6d 3d a0 76 4b be 52 0f 94 3d 98 fc ca bd
       0.057988763 -0.1986947 0.072294846 -0.0991146
000270 85 88 c3 3d ad 8c fa 3e f7 88 17 3e e8 fd 1e 3e
       0.095475234 0.48935452 0.14798342 0.15526545
000280 00 67 1b bc 6d 81 aa 3e c4 08 21 3e 77 b1 df be
       -0.009485006 0.3330187 0.15726 -0.43690082
000290 82 86 ae 3e 40 ef cf be 28 2f cf bd c0 da ea 3d
       0.34086996 -0.4061222 -0.10116416 0.114675045
0002a0 06 54 ad be 82 ec b6 be 61 8b 14 3e b0 b8 fd bd
       -0.33853167 -0.35727316 0.14506294 -0.12388742
0002b0 44 71 bd be a6 4a c6 3e 45 b0 9a 3e d2 14 1c 3e
       -0.37000477 0.38728827 0.30212608 0.15242317
0002c0 8a 42 15 3e f1 1e fd 3e e8 2f c6 be d2 f4 7a be
       0.14576164 0.4943767 -0.38708425 -0.24507454
0002d0 a1 ba 86 3e fd b7 94 3d ab 67 4e be 4e e6 02 be
       0.26314262 0.072616555 -0.20156734 -0.12783167
0002e0 c2 6d ac bd be 2e 89 3e a9 9d 44 be 71 7e 05 be
       -0.08419372 0.26793474 -0.19200768 -0.13036515
0002f0 df 6a 8b bc 79 b6 13 3d 8a d3 21 be 57 fb 06 be
       -0.017018734 0.03606269 -0.15803352 -0.13181816
000300 fa 86 8a 3e 0a d2 c0 be fc 32 db be 80 0c 36 3d
       0.27056104 -0.37660247 -0.42812335 0.044445515
000310 d1 05 d1 3e d4 80 d0 3b 83 8d d4 be e8 22 8d be
       0.4082475 0.0063630138 -0.41514215 -0.27565694
000320 5d d3 ef be c6 eb 1e 3e 43 50 ab be c4 3a 90 be
       -0.46840945 0.15519628 -0.33459672 -0.28169835
000330 1b 22 28 be bb be 84 3e 38 b2 bd 3b 17 c2 ce 3d
       -0.1641926 0.25926766 0.0057890676 0.100956134
000340 79 17 1b 3e a3 38 0d be 80 24 97 3e dc 6a 00 bf
       0.15145673 -0.13791136 0.29520035 -0.50163054
000350 c2 76 b7 3e 42 7b c0 3e c1 43 1c bd 02 e9 15 be
       0.35832793 0.37594038 -0.038150553 -0.14639667
000360 1e 8f c5 3e f2 66 e6 be 8d 80 89 3e dd 37 30 be
       0.38585752 -0.45000416 0.2685589 -0.1720881
000370 80 d1 17 bd 00 19 9d bd 60 b8 8e be 78 22 bd be
       -0.03706503 -0.07670784 -0.27875042 -0.3694036
000380 dc 4f 2d be 9e 56 82 be 28 c6 d5 bd 40 b8 47 3e
       -0.16924995 -0.2545671 -0.10438186 0.1950388
000390 18 d8 aa be 3c bd 1e be 22 c5 54 3d a0 e9 6c be
       -0.3336799 -0.15501875 0.051945813 -0.23135996
0003a0 0d e7 91 3e f9 3f 6a 3e da 51 d1 3d bd 2d 2b be
       0.2849659 0.22875966 0.1022069 -0.16716667
0003b0 d8 a4 e4 3d 4e 8e 68 be a4 14 e6 3d c3 d3 c4 3e
       0.11164254 -0.22710535 0.11234406 0.3844281
0003c0 f6 b3 f7 bd 3c 98 54 3e f8 98 ae 3e b9 6c 07 3f
       -0.12094872 0.20761198 0.3410108 0.5290027
0003d0 7e f3 9d be f8 59 d6 be 66 59 ad be 00 e0 79 3a
       -0.30849832 -0.41865516 -0.33857268 0.0009531975
0003e0 e6 c5 df be 10 74 80 3e f4 0f e5 be 19 2e 8e bd
       -0.43705672 0.2508855 -0.44738734 -0.06942386
0003f0 9c b3 9e be 98 5a 4d 3e 06 3a 9a 3d 22 64 83 3e
       -0.30996406 0.2005409 0.07530598 0.25662333

fc1.bias f4 [128]
000000 ac 38 c1 be b6 73 ff 3e d8 fc df be f0 47 06 bd
       -0.3773855 0.49892968 -0.43747592 -0.03278345
000010 25 5a 9c be 2f d0 a2 3e 35 4b a3 3c ee db 1c be
       -0.30537525 0.31799456 0.019933322 -0.15318272
000020 43 8c a1 be 25 15 33 be b2 2a 4d 3d 5f 7a 54 be
       -0.31552324 -0.17488535 0.050089546 -0.20749806
000030 9b 88 fe 3e d9 ab 47 3e 39 a3 99 be a2 ce 9f be
       0.49713597 0.19499148 -0.30007342 -0.31212336
000040 ba 3f f4 be 1e 12 f4 3e a0 f6 f1 3d 3c ad e8 3e
       -0.4770487 0.47670072 0.11814618 0.45444667
000050 b6 80 6d be e5 e4 82 be e4 4c 85 be fa c6 27 3e
       -0.2319363 -0.25565258 -0.26035225 0.16384497
000060 88 71 f2 be cb 4f a5 3e 55 bc 19 be 09 b2 31 be
       -0.47352242 0.3228744 -0.15013249 -0.17353071
000070 01 39 f5 3e 34 ca 86 be 80 90 b1 bd 23 77 d5 3e
       0.47895053 -0.26326144 -0.08670139 0.41692457
000080 61 f4 75 3e 50 c3 3c 3e 31 d0 01 3f c8 ea 88 3d
       0.24019004 0.18433881 0.507083 0.06685406
000090 d5 b3 ee be 37 52 d8 be a9 a1 6b be 6f 14 f3 be
       -0.46621576 -0.42250225 -0.23010887 -0.47476527
0000a0 b3 74 8b 3c 28 0b 3a be f6 18 25 be 67 c6 b7 3e
       0.01702342 -0.18168318 -0.16122803 0.35893556
0000b0 b6 9a e6 be cb 03 03 3f 87 84 54 3e 41 06 d6 3e
       -0.4503991 0.5117766 0.2075368 0.41801646
0000c0 56 54 90 be 5f ca 86 be 71 13 9e be 72 08 f8 be
       -0.28189343 -0.26326272 -0.30874208 -0.48443943
0000d0 52 65 f6 3e 5b ee 9a be 15 ab 8c 3d 36 1b a8 be
       0.48124176 -0.30259976 0.06868569 -0.3283326
0000e0 00 bf 54 3e 7b 60 15 be d5 cc 8b 3e fe 17 53 be
       0.20775986 -0.14587586 0.27304712 -0.20614621
0000f0 76 3f d2 3e 74 e0 e6 3e a6 e8 85 be c6 5f f5 3e
       0.41064042 0.4509312 -0.2615406 0.47924632
000100 00 c9 b5 be 46 9b ac 3d 74 9b 83 3b 3e 77 81 3e
       -0.35504913 0.084280536 0.004016334 0.25286287
000110 30 c9 d2 3e 6a d4 bb be 8a 5f 7e be 5a 0a a6 be
       0.4116912 -0.36685497 -0.24841133 -0.32429773
000120 00 28 da 3d fc e8 4e 3e 45 1d 2a be fe b9 c8 3e
       0.10652161 0.20206064 -0.16612728 0.392044
000130 08 ef ba 3e 4d 25 e7 3e 77 ab bf bd 88 b4 8d bc
       0.3651049 0.45145646 -0.09358876 -0.017297998
000140 7a df e7 3e ac a0 93 be e4 0b 31 3e 29 a8 30 be
       0.45287687 -0.2883352 0.17289692 -0.17251648
000150 ce 75 b9 3e 1a 0e 33 bc d0 61 92 3e b0 70 0d bd
       0.3622269 -0.010928655 0.2859025 -0.034531295
000160 aa e1 07 3e e7 40 62 be b2 4b 78 3d 61 a6 14 3d
       0.13269678 -0.22095071 0.060619064 0.036291484
000170 9b 6e a7 3e 20 27 96 bd 4a f1 b8 be 97 92 59 bd
       0.32701573 -0.07331681 -0.3612159 -0.053118315
000180 1f 59 9a be 24 9d dc 3e 28 60 ad bd 60 e6 ec 3c
       -0.3014612 0.4308864 -0.08465606 0.028918445
000190 0e 17 93 bb a1 70 a3 3d 08 47 c8 3e b4 77 5e 3e
       -0.0044888323 0.07980467 0.39116693 0.2172535
0001a0 d2 12 fb be 24 66 d6 3e 42 bb da be 5a 71 58 be
       -0.49037796 0.41874802 -0.4272099 -0.2113699
0001b0 ff 30 27 3d cb 3d 9a 3e 8e c9 d4 be 88 f4 91 be
       0.04081821 0.3012527 -0.41560024 -0.28506875
0001c0 b9 f1 ee be e0 10 9e bc cb 6f 75 3e 43 f1 47 3e
       -0.46668795 -0.019295156 0.23968427 0.19525628
0001d0 aa 0a fd be 48 53 a4 be 40 73 70 3c 76 6c d7 be
       -0.494222 -0.3209479 0.014675915 -0.42074937
0001e0 54 cf 69 3e ca 23 5f be 4f 8a e7 3e f8 a8 0c bd
       0.22832996 -0.21790996 0.4522271 -0.03434083
0001f0 8c b0 ca be 99 09 a2 3e e6 56 c3 3e db 70 75 3e
       -0.3958782 0.31647947 0.38152236 0.23968832

fc2.weight f4 [64, 128]
000000 da df 83 bd 19 90 52 bd c3 33 ce 3b 4f b9 91 3d
       -0.06439181 -0.051406953 0.0062927916 0.07115423
000010 dc 6f 3c 3d 99 3a 86 3d 84 41 5f 3c 44 a3 a8 bd
       0.046005115 0.06554145 0.01362646 -0.082342654
000020 4a 46 98 bb 75 af a0 3d 0a e9 fb bc ae 49 9e 3d
       -0.004647051 0.07845966 -0.03075077 0.07728897
000030 26 9a c0 bd 6f 70 a1 bd fd 81 6b 3d 34 27 9e bd
       -0.094044015 -0.07882773 0.057497013 -0.07722321
000040 3c e5 61 bd 92 9d 18 3d ec fd 88 bd af 17 ee bc
       -0.055150256 0.037259646 -0.06689057 -0.029064028
000050 c8 43 87 bb d4 a3 9e 3b 44 d7 53 bd 22 3b 2b bd
       -0.004127953 0.004841307 -0.051718965 -0.04180444
000060 5f 27 76 bd 2c 93 67 3d 28 87 81 3b 99 cf 05 3c
       -0.06009614 0.05653684 0.0039528795 0.008167171
000070 25 e5 ac bc ac 3c be bc b0 f1 be 3b b2 61 82 bd
       -0.021105358 -0.02322229 0.0058271512 -0.0636629
000080 d4 9f b5 bd a0 c5 1f bb b7 65 95 bd fb 79 8d bd
       -0.088683754 -0.0024379268 -0.07294791 -0.069080316
000090 9b 48 82 3c 23 d3 93 3d 6d a7 be 3c b3 5e 6a bc
       0.015903762 0.072180055 0.023273194 -0.014304805
0000a0 9c 15 af 3d 80 6a 11 ba d0 56 95 bc b3 f7 76 3d
       0.085490435 -0.0005547181 -0.018229872 0.060294818
0000b0 42 3e 20 bc 60 2d 0c 3b 54 61 96 bd b0 7d 07 bd
       -0.009780468 0.002138935 -0.073427826 -0.03307885
0000c0 24 25 18 bd d5 80 a6 3d f3 57 85 bd 23 44 9e 3d
       -0.037144795 0.081300415 -0.065109156 0.0772784
0000d0 ae 02 70 3d 84 26 62 bd a5 78 80 bd 53 48 a8 bd
       0.058596306 -0.055212513 -0.06273011 -0.0821692
0000e0 1c 89 ec bc e9 d4 02 3d 7e 78 92 bd 9a 49 82 3c
       -0.028873973 0.03194133 -0.07151888 0.015904237
0000f0 9f 92 a5 3c 95 5e 8b 3d 80 5f c4 3b 05 0f 01 bb
       0.020211516 0.068051495 0.00599283 -0.001969279
000100 09 43 90 3d 3f 47 b0 bd a0 0c ae 3d b7 89 a4 3d
       0.07044036 -0.08607339 0.08498502 0.080340795
000110 a0 93 7f bc fe e9 2f 3d 8b cb 0c bd 78 9b 2f 3c
       -0.015599161 0.04294776 -0.0343738 0.010718219
000120 af 63 83 bd 1e 27 19 bd 45 f4 08 3d c8 67 5b 3c
       -0.064154975 -0.03739082 0.03343608 0.013391443
000130 06 85 e3 bc db 4f aa bd e1 4d 7a bd a8 e6 20 3d
       -0.027773391 -0.083160125 -0.061109427 0.03928247
000140 aa 32 a7 3d 3c 66 95 bd 94 e0 8c bd 51 dd 63 bd
       0.0816396 -0.0729489 -0.068787724 -0.055630986
000150 28 71 37 3c b8 95 dd bc 84 29 ec 3c 4f d7 85 3d
       0.011196412 -0.02704893 0.02882839 0.065352075
000160 ef 57 39 bd e2 f8 54 3d 42 cf 5e bc dd 95 8e bd
       -0.045249876 0.051995166 -0.013599219 -0.06962178
000170 1c 4c 40 bd 50 59 ac bd 95 ab 89 3d 97 36 8c bc
       -0.046947584 -0.084154725 0.0672218 -0.017115874
000180 e7 a8 80 3d 50 56 6b 3d 08 4d c5 3c 4d 80 b2 bd
       0.062822156 0.05745536 0.024084583 -0.08715878
000190 1d 41 78 3d 03 34 3e 3d 00 92 9d bd 70 1d 6f bd
       0.060608972 0.04643632 -0.07693863 -0.058377683
0001a0 d4 9d 06 bc f4 9d c0 ba f4 6a 52 3d b2 07 49 3b
       -0.00821634 -0.0014695511 0.05137153 0.0030674753
0001b0 ec 11 99 bd 40 9a be bb 8e 47 b6 bd c4 95 dd bc
       -0.074741215 -0.005816728 -0.08900367 -0.027048953
0001c0 13 69 cf bb 9a 63 61 3d 03 9c ab 3d b7 94 a3 bd
       -0.0063296645 0.055026628 0.08379366 -0.079873495
0001d0 a8 39 81 bc f0 cf b4 bc e0 b0 6e bd 33 4f 5a bd
       -0.015774563 -0.022071809 -0.05827415 -0.053298187
0001e0 5d 5d 25 3c 1a a4 22 3c c3 fb 77 bd 0e 0b 60 3d
       0.01009306 0.00992682 -0.060542833 0.054698043
0001f0 55 51 60 bd fc 12 b5 3c f1 88 c9 bc 86 92 e1 bc
       -0.054765064 0.022103779 -0.024601432 -0.027535688
000200 f2 ea 64 bc c8 d4 3c bd ec 5c 6e bd 53 bf 9e 3d
       -0.013972031 -0.04610136 -0.058194086 0.07751336
000210 57 9a 40 bc 01 6f 94 bd 2b d4 12 bd b4 20 8f 3b
       -0.0117555475 -0.07247735 -0.03584687 0.004367912
000220 2a ea 66 3d f9 8b 9b 3d 9e f6 9e bd 23 1e 80 3d
       0.05637566 0.07595057 -0.07761882 0.06255748
000230 cf 33 f6 3a 9f 96 30 3d a2 86 a6 3d 66 a6 10 3d
       0.0018783751 0.043112393 0.08131148 0.03531494
000240 e0 33 8f 3b eb 5f 3d bd ec 76 9c 3c af 7c 8d 3d
       0.0043701977 -0.046234053 0.019099675 0.06908547
000250 06 9e 55 3d 0c 76 82 3d f8 1d 77 3c c7 3e 0e 3d
       0.052152656 0.06370172 0.015082829 0.034727838
000260 99 b6 93 3d a6 0c ae bd f4 b3 56 3d e7 e0 b0 bd
       0.07212562 -0.08498506 0.05241771 -0.08636647
000270 db 7a 98 3c e4 d1 97 3d f8 3d af bc e0 76 8f bd
       0.01861327 0.0741308 -0.021391854 -0.070050955
000280 61 1e 2f 3a 75 16 2a bc 25 7d 54 bc 16 6e 32 3d
       0.0006680247 -0.010381331 -0.01296929 0.043562017
000290 b5 22 1e bd 38 55 54 3d 9b 59 9f bb a2 07 67 3b
       -0.038607318 0.051839083 -0.0048629767 0.0035252352
0002a0 3d f1 24 bd ee 24 59 3d 9a 01 12 bd c5 90 25 3d
       -0.040269125 0.053013735 -0.03564606 0.040421266
0002b0 ad 8f be bc d3 ca 8b 3c 1d b0 91 bd 79 3a a4 3c
       -0.02326187 0.017064488 -0.07113669 0.020047413
0002c0 35 2a 06 bd eb b8 54 bd 67 6d 9e bc 33 80 8f 3c
       -0.032755096 -0.051934164 -0.019339276 0.017517185
0002d0 7c 27 3f 3d 9d 0e 47 3d 46 2f 50 bd 75 33 88 bd
       0.046668515 0.04859792 -0.050826333 -0.0665044
0002e0 7a 71 48 3d 9c da 03 3c 55 4d df 3c aa 0c 43 ba
       0.048936345 0.008047726 0.027258554 -0.0007440547
0002f0 1d 31 83 bd b2 bb 28 bd d2 94 af 3d 97 83 54 bd
       -0.06405852 -0.041194625 0.08573307 -0.051883306
000300 b3 d1 99 3d 05 36 2b bd 33 71 d9 3c 9a 6c e4 bc
       0.075107 -0.041799564 0.026543235 -0.027883817
000310 aa 9a 10 bd f6 d4 7b 3d f3 bf 6e bc 3f 2a 12 bd
       -0.03530375 0.061482392 -0.014572131 -0.03568482
000320 5b 4c 85 3d 64 0e 6a 3b 88 06 90 3d 58 de a9 bd
       0.06508704 0.0035714144 0.07032496 -0.08294362
000330 e0 41 08 3b 1f 26 85 bb d9 7e 90 3d a1 f3 5b 3c
       0.0020791218 -0.0040633823 0.07055444 0.013424785
000340 58 e7 6a bd c3 a2 96 3d 53 e6 93 3d 7d 68 6b 3d
       -0.057349533 0.07355263 0.07221665 0.057472695
000350 98 a3 7b 3c a1 4b 6f bc 00 f7 ee 3b e6 41 1a 3d
       0.015358828 -0.014605434 0.0072926283 0.037660502
000360 32 e0 88 bc 45 4f 93 3d 76 52 95 3d af bc 3f bc
       -0.016708467 0.07192854 0.07291119 -0.0117027005
000370 8f 4c 19 bd 8c fc 94 bc aa 8c 06 3d 62 31 bc bd
       -0.037426528 -0.01818683 0.03284899 -0.091891065
000380 69 65 8a bc ed c0 30 bb 04 b9 e5 3c 00 98 28 38
       -0.01689406 -0.0026970461 0.028042324 4.0195882e-05
000390 33 d4 95 bd 63 17 3a 3d d0 bf 3a bd 0e 85 19 3d
       -0.073158644 0.04543246 -0.045593083 0.037480406
0003a0 af 73 1a bd 91 63 5c 3c 91 95 86 ba 43 50 e7 3c
       -0.03770798 0.013451473 -0.0010267963 0.028236514
0003b0 7a b9 74 bd 2d f2 61 bd 0b bf 1d bc fe 77 91 bd
       -0.059747197 -0.055162597 -0.009628068 -0.07102965
0003c0 0b 01 35 bd ff d5 89 3d 8f 41 85 3d ea 2a 31 3c
       -0.044190448 0.0673027 0.06506645 0.010813454
0003d0 4a c4 77 3d 0d de 69 3d 40 e9 81 bb cc e3 aa bd
       0.06048993 0.05709653 -0.003964573 -0.0834423
0003e0 e1 19 4b bd dd 1d 0e bd 80 d5 f0 3c 0e 12 42 bd
       -0.049585227 -0.03469645 0.02939868 -0.0473805
0003f0 f3 55 17 3d b5 6b 43 bd 0d d0 a3 3d ca 7e 38 3d
       0.036947202 -0.04771014 0.07998667 0.04504279

fc2.bias f4 [64]
000000 84 ec b4 3d 0b 0a bc bb bd 23 5d bd 69 4a f4 3c
       0.08834174 -0.005738502 -0.05398916 0.029820638
000010 87 a0 9f 3c 39 29 a3 3c 50 11 71 3d 71 2a 80 bc
       0.019485725 0.019917117 0.0588544 -0.015645238
000020 d4 cc a5 bc 86 21 5d 3d c4 0f 47 bd c7 b8 a5 bd
       -0.020239271 0.05398705 -0.04859902 -0.08091884
000030 ed 95 8a 3d 41 5f 95 3d 28 51 ad 3d 43 94 53 3d
       0.06766877 0.07293559 0.08462745 0.051655065
000040 88 f9 dd 3c 5c 69 6b 3d 90 8f 66 bd 61 5f 8e 3d
       0.027096525 0.057473525 -0.056289256 0.06951786
000050 7b 43 e3 bb cd 3d e3 3d 3b 4d e9 3d 3a 5c a4 3d
       -0.0069355345 0.11095772 0.11391684 0.08025403
000060 87 e3 3d 3c f9 1e 91 3d ff 9e 9b bd 50 a9 c2 3c
       0.011589891 0.07085986 -0.075986855 0.023762375
000070 f7 3c 76 3d 12 27 92 3d 24 7d d3 bc 96 67 aa bd
       0.060116734 0.07136358 -0.025816508 -0.08320539
000080 30 c3 cc bb 1c 8f 2d 3d 45 28 b0 3d 9b 7b c2 3d
       -0.006248854 0.042372808 0.08601431 0.09496232
000090 9e 1a 0d bd 0b 25 cd bc 90 f5 02 3c ad a4 00 3d
       -0.034449212 -0.025042078 0.007993117 0.031407047
0000a0 c7 4c f9 bc d0 64 41 3c 34 65 b4 bd b7 b2 24 3d
       -0.030432118 0.011803821 -0.088083655 0.0402095
0000b0 6e 3e 5b bd 47 07 0b 3d 22 5c a7 3d b2 17 65 bd
       -0.053526334 0.033942487 0.0817187 -0.0559308
0000c0 79 bd 9a bd fa ba 42 3d 7a 9a 36 3d 29 40 a0 3d
       -0.0755567 0.047541596 0.044580914 0.078247376
0000d0 3f ad 56 bd 04 d3 69 3d aa 26 82 3d 90 7a 9d bc
       -0.052411314 0.057086006 0.06355031 -0.019223481
0000e0 6c 90 cf bc 88 55 91 3d 9c b0 20 bc 2e 9c 48 3d
       -0.02533742 0.07096392 -0.009807732 0.04897707
0000f0 e7 a0 0b 3d a2 68 a8 3d f8 ab 73 bd 9a 4c a1 bb
       0.034088995 0.08223082 -0.059490174 -0.0049224617

fc3.weight f4 [32, 64]
000000 0c 58 d0 3d ad a4 c3 bc d1 73 8c 3d 69 34 e2 bd
       0.101730436 -0.023882234 0.06858028 -0.11045153
000010 fe 06 e4 bd d0 9f e1 bd 1a 96 61 3d dc 80 6d 3d
       -0.11134146 -0.1101681 0.05507479 0.057984218
000020 c0 ef a7 3d 04 2f 1a bd 98 f5 9a bd 84 86 1d 3d
       0.082000256 -0.037642494 -0.075663745 0.038458362
000030 5e 44 e3 3d 20 52 b5 bb 72 39 da 3d 23 98 84 bd
       0.110970244 -0.0055334717 0.10655488 -0.0647433
000040 f0 4a 8d bd a3 cc 34 3d ef 57 59 3d 84 41 d5 3d
       -0.06899059 0.04414047 0.053062376 0.10412887
000050 05 54 8e bd 4b bc df 3d bb 51 e5 bd 02 b8 d6 3d
       -0.06949619 0.10924586 -0.111972295 0.104843155
000060 e7 29 01 bd c0 78 a6 3c 96 ea 8d 3c 80 1e 75 3c
       -0.0315341 0.02032125 0.017323773 0.014960885
000070 aa 6d a1 bd 9e d9 e0 3c c6 fb 47 bd 5c 3e 05 3d
       -0.07882245 0.027447518 -0.048824094 0.032530174
000080 48 2f d5 bd 37 9e a3 3c f9 a6 c1 3d 0f 0e 78 3c
       -0.10409409 0.019972904 0.09455676 0.015140071
000090 e0 d9 b1 bb 6a a3 54 bd 00 cf 6d bd 20 35 d6 3d
       -0.005427584 -0.051913656 -0.05805874 0.104593515
0000a0 21 ec fd 3c 5c 35 f5 bc 60 2d 0c bc e2 21 81 3d
       0.030996384 -0.02993267 -0.00855574 0.06305291
0000b0 47 b6 94 bd 97 c0 9c 3d ee 43 0e bb 24 f8 82 3c
       -0.07261329 0.07653921 -0.002170797 0.015987463
0000c0 a1 d7 8b bd 54 c3 73 bd 24 27 07 bd 20 2b e9 3d
       -0.06828237 -0.05951245 -0.03299631 0.113851786
0000d0 bb e6 c4 3d 29 7a f8 bd ab 6b 22 bd b8 2a 1a 3d
       0.09614321 -0.12132675 -0.03965346 0.037638396
0000e0 58 79 9d 3d 02 8f bf bb 6e 84 a4 3c e0 e5 3c bd
       0.0768916 -0.0058459053 0.020082679 -0.046117663
0000f0 5b 59 50 3b 2b cf d1 bd c2 41 bd 3b f7 5a c2 3d
       0.0031791541 -0.10244592 0.005775661 0.094900064
000100 e8 7f 94 bd c5 69 82 bd f1 65 fe 3d 3c cc 33 bd
       -0.07250959 -0.0636783 0.124217875 -0.043895945
000110 aa 34 13 bd dc 85 a4 3d f3 55 b4 bd 79 c7 65 3d
       -0.035938896 0.08033344 -0.08805456 0.056098435
000120 42 c4 b1 3d 18 e3 8f bd fb 08 47 bc 20 c3 3b bd
       0.08680011 -0.070257366 -0.012148137 -0.045840383
000130 13 b7 ea 3d d8 4c da bc 06 5b 0d bc cd 48 d0 3b
       0.114607 -0.02664797 -0.008627659 0.006356335
000140 ae 7f df bd 1f 8f 8a bd 4b 04 1b bc 50 96 a2 bc
       -0.10913025 -0.067655794 -0.009461473 -0.019847065
000150 18 b6 b2 3d 05 96 aa 3d e4 26 ef bc 85 8d 46 3c
       0.08726138 0.08329395 -0.02919335 0.012118702
000160 38 e9 b1 3c 94 6f 4d 3d a8 83 53 bd 82 20 de 3d
       0.021717653 0.050155237 -0.05163923 0.10846044
000170 fd 56 c5 3a 59 bf 18 3b eb b0 6b bd 50 83 49 3d
       0.0015055832 0.0023307411 -0.05754177 0.049197495
000180 a9 72 b7 bd 4c ad b4 bc 74 38 32 bd 83 68 05 bd
       -0.089574166 -0.02205529 -0.04351087 -0.032570373
000190 d0 bc 39 3c 62 5e 3a bd 2c 48 df bd 0d df 98 3d
       0.01133652 -0.045500167 -0.109024376 0.074644186
0001a0 70 84 b3 3d ec 3c 8e 3d e4 8c 9b 3d 6a 28 7a bd
       0.08765495 0.06945214 0.07595232 -0.061073698
0001b0 73 f2 dc 3d 5d 5a 07 3d 1e ae e3 3d e3 9e a2 3d
       0.10788431 0.03304516 0.111171946 0.079404615
0001c0 01 85 ca 3c 34 d6 f3 3d 18 f8 82 3d 57 ee 90 3b
       0.024721624 0.119060904 0.063949764 0.0044229436
0001d0 47 f7 d2 3d 92 75 35 3d 5a 9e b5 3d 7a 79 ed 3d
       0.10301071 0.044301577 0.08868094 0.115954354
0001e0 64 22 4f 3d e1 b0 53 3d f8 83 b0 3d d8 93 8e bd
       0.050569907 0.051682357 0.08618921 -0.06961793
0001f0 03 18 a2 3d f3 f0 56 bd 05 23 ec 3d da ff 97 3d
       0.07914736 -0.05247588 0.11530117 0.07421847
000200 38 6f ba bd 48 a3 bf 3d 76 b6 ef 3c 8b 14 b9 3d
       -0.091032445 0.09357315 0.029261809 0.090371214
000210 cc aa e8 bd 36 03 c5 bc 5f 17 dd 3c be 1e 91 bd
       -0.11360702 -0.024049383 0.026988683 -0.07085942
000220 80 b4 f8 3d 08 32 96 3d 67 de a6 bd f6 7b fd bd
       0.12143803 0.073337615 -0.08147889 -0.12377159
000230 f0 f4 bc 3d 58 b6 99 3d 88 f7 cc bc b4 d4 aa bd
       0.092264056 0.075054824 -0.025020376 -0.08341351
000240 35 59 d2 bc 57 3b e0 bd e7 a3 22 bc c8 cb ea 3d
       -0.025677303 -0.10948818 -0.009926773 0.114646494
000250 a6 cf bb 3d b8 c8 b5 bb d8 3e e4 3c d0 75 05 bd
       0.09170465 -0.005547609 0.027861997 -0.032583058
000260 1e 5c bf 3d e0 ad d1 3d 44 2d 15 3d fc 30 b7 bd
       0.09343742 0.10238242 0.03642012 -0.0894489
000270 56 3f e5 bd 19 e2 e4 bd b4 de 0c bd 80 4a 53 3d
       -0.11193721 -0.11175937 -0.034392074 0.05158472
000280 5f 79 ac bd 98 7c 2b 3d 70 2b 61 3c e1 4d 84 bd
       -0.08421587 0.04186687 0.013743266 -0.06460167
000290 b6 f8 df 3d 00 60 e9 38 f6 23 d8 3d a9 7a 43 3d
       0.1093611 0.00011128187 0.10553734 0.0477244
0002a0 2e 9d ca 3d 03 0b da bd 20 1b 3d bc 4e 5e ee 3d
       0.09893261 -0.106466316 -0.011542112 0.11639081
0002b0 30 c8 12 3d 48 d9 a3 3d b2 76 e3 3d e6 88 f2 bc
       0.035835445 0.080004275 0.11106624 -0.029606294
0002c0 71 36 23 bd c4 3d a9 3d 98 c4 a2 3d 50 79 c1 bb
       -0.03984684 0.08263734 0.079476535 -0.005904354
0002d0 5a 52 15 bd 43 4d bf bd 0e 5b f9 bc 98 26 78 bd
       -0.03645549 -0.093409084 -0.030438926 -0.06058368
0002e0 dc 3f ba bd 56 39 83 3c 45 c5 0f bd 00 9b ab bb
       -0.090942115 0.01601855 -0.03510024 -0.0052369833
0002f0 b4 53 db bd 51 9e 05 3d c2 8f 30 3d 78 63 27 3d
       -0.107093245 0.032621685 0.043105848 0.040866345
000300 cd 93 9f bd 63 6b a6 bd 74 72 ae bc 7a b5 ca bd
       -0.07791863 -0.08125951 -0.02129481 -0.09897895
000310 cd 3b 4b 3c dc 71 06 bd c7 00 63 bb d2 27 93 bd
       0.012404394 -0.03282343 -0.0034637915 -0.071853295
000320 6a a7 f1 3d 8c 30 7b 3d ed 53 e5 3d b8 1e d9 bc
       0.1179951 0.061325595 0.11197648 -0.026503906
000330 0e 6e e4 3c d2 84 f9 3d c4 2b af bd 70 11 b1 bd
       0.02788451 0.121835366 -0.085532695 -0.08645904
000340 59 9b 2f 3c 2b eb 7c bd 95 c6 46 3d e2 a0 f0 bd
       0.01071819 -0.06174771 0.048529226 -0.11749436
000350 75 92 64 bd 4b 30 13 bc fc 97 f9 bd 99 3b c1 3d
       -0.055803735 -0.008983682 -0.12187192 0.094351955
000360 b6 d1 d7 bd 70 c4 55 bc b4 e2 5b 3d b0 f1 ab bc
       -0.10538046 -0.013047323 0.053682998 -0.020989269
000370 68 91 42 bd b4 ff f1 bd 34 92 b4 bd 53 96 02 bd
       -0.04750195 -0.118163496 -0.088169485 -0.03188164
000380 e6 5f 91 bc dc f5 23 3d 30 9b 4a 3c 9b 81 7f 3d
       -0.017745923 0.04002939 0.012366101 0.06237946
000390 0c ef 8e 3d ab 99 a6 3d 28 98 3c 3d 37 92 36 3c
       0.06979188 0.081347786 0.046043545 0.011143259
0003a0 77 a5 c2 3d 03 04 1e 3b c8 5f 9b 3c f4 1c d1 bc
       0.09504216 0.0024111278 0.01896657 -0.025526501
0003b0 90 22 f5 bd 8b 3a d4 bd 25 a0 c2 bd e0 7d a2 bb
       -0.11969483 -0.10362729 -0.095032014 -0.004958853
0003c0 51 2a 34 bd e0 b0 3b 3c 22 3e e4 3d 68 9f cc bd
       -0.04398567 0.0114557445 0.111446634 -0.09991342
0003d0 7b 15 ef 3c c1 46 ee 3d c2 7b f7 bc d8 2f ea bc
       0.029185047 0.11634589 -0.03021038 -0.028587267
0003e0 c0 43 c8 3b 9b cd 7c 3d b4 18 5b bd 92 e0 a5 bd
       0.006111592 0.06171952 -0.053490356 -0.08099474
0003f0 ff 8c 84 3d 52 de b6 3d cd 61 75 bd de 0f 00 3d
       0.06472205 0.08929123 -0.059907723 0.031265132

fc3.bias f4 [32]
000000 32 8d 5d bc 80 52 06 3e b6 0e 98 bc f9 11 e7 bd
       -0.013522433 0.13117409 -0.018561702 -0.11282725
000010 d6 a6 21 3c 62 6d cf bd 12 0e 1f 3e c4 28 4b bd
       0.009866437 -0.10128285 0.15532711 -0.049599424
000020 12 e6 de bd 20 cd 1c bc c4 ce 66 3c a2 e2 c6 bd
       -0.10883726 -0.00957039 0.014087383 -0.097111955
000030 52 ba 89 bb 52 97 87 3d b0 65 62 3c 0a ef cf 3d
       -0.0042031193 0.06620659 0.0138181895 0.10153015
000040 a8 97 d7 bc fb 59 08 3c 8d 5a 13 bd 24 88 f4 bc
       -0.026317433 0.008322234 -0.035975028 -0.029850073
000050 24 f1 40 bc 50 e2 d6 3d 94 aa 9f bd 3c 00 11 3c
       -0.011776242 0.104923844 -0.07796207 0.008850154
000060 43 3c ef 3c f7 41 04 bd 84 2e 98 bd 64 38 e4 3d
       0.02920354 -0.03228947 -0.07430747 0.11143568
000070 44 77 57 bd 52 a1 b8 bd 36 5b 42 3d 82 1c d6 3d
       -0.052603975 -0.090151444 0.047450267 0.10454656

fc4.weight f4 [6, 32]
000000 bb 1c f8 bd c2 3d dc 3d 07 6c c4 bd c9 11 2e be
       -0.12114855 0.10753967 -0.09590917 -0.16998972
000010 34 ae 8d bd 83 5f 04 3d 14 c0 0b be 2c 89 60 3d
       -0.06917992 0.03231765 -0.1364749 0.054818317
000020 19 01 32 3e 5e 8c bc 3d 6d d4 2d 3e 57 1d d6 3d
       0.17383231 0.092064604 0.16975565 0.10454815
000030 3f 1e 94 3d 15 4d 20 bd 12 28 bd 3d 26 a5 ee 3d
       0.072323315 -0.03913601 0.092361584 0.11652593
000040 04 ab 6b bd 46 39 0b be 48 e6 32 3d 99 ab 14 3e
       -0.05753614 -0.13596067 0.043676645 0.14518584
000050 ea 07 b7 bd d0 dc 4d 3d f0 b0 4c 3d d1 27 6d bd
       -0.08937056 0.05025941 0.04997343 -0.0578993
000060 f9 87 24 be b9 fc 2c 3e b9 f7 2e be 50 df 71 3c
       -0.16067494 0.16893281 -0.17086686 0.0147627145
000070 e8 8e 07 be cd 8a 86 bd 48 3a 14 be 0e 5e 95 3d
       -0.13238108 -0.06569443 -0.14475358 0.0729333
000080 28 73 92 bc 20 7c ce 3d fe be a2 bd 61 73 17 3e
       -0.017877176 0.10082269 -0.07946585 0.14790107
000090 f1 f2 d3 bd a3 4a f9 3d 8b a0 ff bd 66 0f 2e be
       -0.10349072 0.12172439 -0.12481793 -0.16998062
0000a0 40 ed 52 3b 84 08 2e be 84 4a db bd 04 06 27 be
       0.003218487 -0.16995436 -0.10707572 -0.16310889
0000b0 34 08 35 bd 06 2a 52 bd 61 8e 26 be cc a8 30 3d
       -0.044197276 -0.051309608 -0.1626525 0.043129727
0000c0 52 2a 26 be 12 0a 57 3c eb 8d 51 3d 9e f6 f8 3d
       -0.16227081 0.01312496 0.051160734 0.121564135
0000d0 56 f4 b6 bd 17 f3 e3 3d 06 4e 13 be ad 87 cf bd
       -0.08933322 0.1113035 -0.14385232 -0.101333
0000e0 8f 8e bd bd eb d9 c2 bd a8 bc bb bd a2 24 92 3d
       -0.092557065 -0.09514221 -0.09166843 0.071358934
0000f0 52 3f 9f 3d e6 0f 67 bb ab 78 8d 3d 40 7d 05 bd
       0.07775749 -0.003525728 0.06907781 -0.03259015
000100 02 31 1b bd 89 32 f5 bd 8b 54 ac bd b5 89 07 bd
       -0.037888534 -0.119725294 -0.08414563 -0.033090312
000110 03 77 b2 bb 01 84 1d 3e e6 89 0d 3e b0 3c 73 3c
       -0.005446316 0.15382387 0.13822135 0.014846012
000120 f7 41 1f 3e d3 b3 d3 bd 5a 56 a4 bd c1 a9 99 3d
       0.15552507 -0.10337033 -0.08024283 0.07503081
000130 72 a8 af bd a0 4d 30 be a0 1d 14 be 78 7d 4b 3d
       -0.0857705 -0.17217112 -0.14464426 0.049680203
000140 fe 19 bf 3d 0e 0d 05 be 32 36 c3 3b 2f e5 0f 3a
       0.093311295 -0.12993261 0.0059573883 0.0005489168
000150 ec 78 e1 bc 4c 68 ab 3c c4 1c 4d bd c6 af 97 bd
       -0.02752348 0.020923756 -0.05007626 -0.07406573
000160 a4 a8 c2 bd 8b 14 bb 3d dc d0 3f bd c2 d0 ef bd
       -0.09504822 0.09134778 -0.046830043 -0.11709739
000170 a0 ca a9 bd 09 b9 e7 bd 2e 3e f9 3d 46 6a f1 3d
       -0.08290601 -0.113145895 0.12170063 0.11787848
000180 e6 69 f0 bd d9 ae 0a 3e 91 d8 31 3d 03 64 e0 3d
       -0.117389485 0.13543262 0.043419424 0.10956576
000190 98 9f db 3d ee ce a0 3d e8 4b 09 be 0b 92 a8 bd
       0.107237995 0.07851969 -0.13407862 -0.082309805
0001a0 1f 71 f7 bd 8a 78 a7 3d 60 d2 fe 3d 35 9b 27 be
       -0.12082123 0.08177288 0.124424696 -0.163678
0001b0 6b 38 ab 3d 5e 3f 81 bd e4 eb 88 3d f6 28 c2 3d
       0.0836037 -0.063109145 0.066856176 0.09480469
0001c0 86 a7 c1 bd 91 74 b8 3d 30 72 1a be fd a9 41 3c
       -0.09455781 0.09006608 -0.15082622 0.0118203135
0001d0 40 6c c6 3d 33 e8 1d be be 6a f7 bb 23 c9 0a 3e
       0.09688616 -0.15420608 -0.0075505665 0.1355329
0001e0 4f 7b 1e 3d 88 f9 e6 3c 20 6e ab 3c 59 fd 10 3e
       0.038691815 0.028195158 0.020926535 0.14159144
0001f0 ba 96 9c 3d 33 13 88 3b 20 11 22 3d b6 d4 fe 3d
       0.07645936 0.0041526794 0.039567113 0.12442915
000200 20 97 bf 3d 7e f6 01 be 54 9e 25 be 3a 23 c0 3d
       0.09354997 -0.12691686 -0.16173679 0.09381719
000210 c7 0c 18 be c0 e0 12 3e fa 40 63 3d e2 89 db bd
       -0.14848624 0.14343548 0.05548189 -0.107196584
000220 14 2e 6a bd 61 5b 1c 3e 7d 14 ed 3d 2e 2c bc bd
       -0.05717285 0.15269233 0.115761735 -0.09188114
000230 66 47 e4 3d 53 2a b9 bd 73 97 27 3e aa e8 ad 3d
       0.11146431 -0.09041276 0.16366367 0.08491643
000240 d4 0f b0 3d 42 d4 1f be 73 43 0d be b0 ee e8 3d
       0.08596769 -0.15608314 -0.13795261 0.11373651
000250 d4 e7 25 3e 57 33 07 3d ad 47 cc 3d 08 f9 2d be
       0.16201717 0.033007946 0.099746086 -0.16989529
000260 23 47 b6 3d 4f 06 6f bd 50 75 28 3c d3 c8 e0 bd
       0.08900287 -0.058355626 0.010281876 -0.10975804
000270 78 c2 b3 3c a3 b8 2a 3d c7 44 1b 3e 5d 08 2e 3e
       0.021943316 0.04167999 0.15162955 0.16995378
000280 ed 90 32 3d 9f 8a 29 be a6 a7 64 bd 84 bf fe bb
       0.043595243 -0.16556786 -0.055823945 -0.0077742953
000290 d3 2c cf 3d 4c de 1b be 25 b7 34 be 46 56 ae 3d
       0.101159714 -0.15221518 -0.17647989 0.08512549
0002a0 2c 56 65 bd 4d 29 22 3e d2 17 e2 3d e4 d5 c1 3b
       -0.055990383 0.15836067 0.110396996 0.0059153903
0002b0 1b f5 92 3c 30 f4 3c 3d d4 19 04 3d 8b b7 1f be
       0.017939141 0.046131313 0.032251194 -0.1559736
0002c0 b1 8a 43 3d de 12 04 be b9 21 da 3d 96 68 65 3d
       0.04773969 -0.12897822 0.10650963 0.056007944
0002d0 09 7b 0d 3e c0 ac a7 bd d2 3f 77 bc bd 41 e8 bb
       0.13816465 -0.08187246 -0.0150909 -0.0070879147
0002e0 ac 46 41 3d 54 66 8d 3d 17 f9 23 3e da 1c 08 be
       0.04718654 0.06904283 0.16012989 -0.13292256
0002f0 d0 0b 03 3c 67 29 ed bd ee fa 60 3d d0 a7 7f 3d
       0.007998422 -0.115801625 0.054926805 0.062415898

fc4.bias f4 [6]
000000 25 8e 06 3e 0f 69 73 3c 0b 7a 03 3e 1c a2 97 bd
       0.13140161 0.014856591 0.12839524 -0.07403967
000010 97 3f 8e bd f1 ce 35 bc
       -0.069457226 -0.011096702
