src/params_data/240418_005728/22param.pt (torch, 46927 bytes, 8 tensors)

fc1.weight f4 [128, 4]
00000000: dc42 b2bd f3a4 813e cc1d e53e 10d2 9a3e
00000010: 40ad a9be f230 f0be be40 c1be 401f f53d
00000020: f8a3 03be 9f8e f53e 29c3 d5be 534f 5dbe
00000030: 2c35 dbbe 007a c8ba 5a2e a8be 22d2 a63e
00000040: 70e4 37be 1658 c2be 2460 313e a0b2 173d
00000050: 1c66 4bbe 7111 68be 35db 413e f4f4 9bbd
00000060: 15db 6cbe a97a 76be 6cd9 b53e c010 083c
00000070: 805c ac3b 5cd2 f4be 0160 913c 089e abbd
00000080: cd3b a7be 9def b13e 10f8 40be 2fd9 0f3d
00000090: d339 ec3e 1a1d 8c3e 274d da3e a58d eebe
000000a0: 783d c53d 4106 1cbe a9ab b83d c443 d9be
000000b0: b500 ffbd c09d d13e 4438 24bc b2e0 8ebe
000000c0: 3bf3 323d eb80 7b3e c081 3abe e1da e93e
000000d0: 075f 33be 35af 693e 6d3e 75be 5e2c fe3e
000000e0: 0c64 38be 3890 b0be f938 863e 801b a73b
000000f0: 3e77 d93e 6049 ccbe 005e 3abe b804 78be
00000100: 0c7b c03e 904c 1cbe 08db c4bd f096 723e
00000110: f939 eabe f390 27bd c11e a13e 5384 e4be
00000120: e8b6 ea3d 1c5a 40be 98fb aabd 4c85 f53e
00000130: cc79 b93e baee b3be c777 4c3e c025 19be
00000140: 30cc c93c 4f3f 473e db71 9d3e a66b e3be
00000150: 3cd8 d43e 4788 2b3d 059b 7b3e a0a3 523e
00000160: 9067 173d 561e f6be 3a10 f2be bed6 dbbe
00000170: 8f78 c0be e7df a83e 339d 393e 43d7 7fbe
00000180: eea7 7f3e 5793 bc3e c9b8 7cbe 16b7 923e
00000190: 7d9c d5be c18c 163d 6d4f 2fbd 6565 d63e
000001a0: c86e 05be 7f15 50be 9cf5 7f3e 416a d43d
000001b0: 872e 5d3e d63f 953e 256b 9fbe 12c9 da3e
000001c0: 441b eebe ceb0 cc3e 05d1 0c3d 5368 87be
000001d0: 18cf 94bc 5c20 bb3e de36 cb3e 7359 833d
000001e0: 188d d23e 0873 bfbd 7c35 6cbe 0ed3 b6be
000001f0: 0c53 f73e ce4e 953e 76d2 d23c 9c81 823e
00000200: 368a 77bd 8678 cb3e 7f61 a1bd 907c 9a3e
00000210: 5a98 c93e 86f5 ff3b 3ee6 d03e 234e ee3d
00000220: 68a6 c83d 1952 ed3e 027e 78be 8a52 3cbe
00000230: 601b 033d 52d5 d8be b068 14be 205a cd3d
00000240: a27d d43e df8d b8bc 0937 fd3e bf95 8a3e
00000250: 580e 3b3e feca 903e 9a49 d0be 0740 f63e
00000260: a085 6d3d a076 4bbe 173b 8d3d 98fc cabd
00000270: a24f af3d 0153 fb3e 7f6a 1c3e 745e 023e
00000280: 2795 a5bc 408b aa3e f85f 213e ff3f f2be
00000290: 8286 ae3e 40ef cfbe 282f cfbd c0da ea3d
000002a0: 0654 adbe 82ec b6be 9d3f 093e b0b8 fdbd
000002b0: a910 d1be 7f9d c63e 956d 9c3e a351 483e
000002c0: 2f3d 083e 8a74 fd3e 4622 c4be 5b75 3dbe
000002d0: 4fad 803e b538 893d c018 55be 0e22 e3bd
000002e0: 3ef8 b7bd f155 893e 557d 48be 94bf 11be
000002f0: 108c b7bc bea8 fa3c b15a 24be e0f6 17be
00000300: fa86 8a3e 0ad2 c0be fc32 dbbe 800c 363d
00000310: 2295 ca3e 1040 f7bb 7bd4 dabe c9fc 94be
00000320: 3a42 e9be a145 123e 10c2 b4be 6ea8 a2be
00000330: 765f 1cbe cdf2 843e 02a7 953b 86c7 413d
00000340: 4672 0f3e f43b 12be 2d74 943e ddc9 e8be
00000350: 1d91 b93e ace9 c03e 8e31 13bd fb9a 59be
00000360: 1e8f c53e 69e3 cebe ba28 953e 8478 26be
00000370: 80d1 17bd 0019 9dbd 60b8 8ebe 7822 bdbe
00000380: dc4f 2dbe 9e56 82be 28c6 d5bd 40b8 473e
00000390: 18d8 aabe 3cbd 1ebe bdd8 483d a0e9 6cbe
000003a0: 777f 853e b1e2 6a3e 6eef d93d 7db3 a7bd
000003b0: d8a4 e43d c03e 6ebe 4e1f f03d 52fd c13e
000003c0: 7631 efbd 3b1f 563e 4450 ae3e 5ec1 f83e
000003d0: 7ef3 9dbe f859 d6be 6659 adbe 00e0 793a
000003e0: 51cf ddbe 9a2f 813e 530a e5be 4323 3cbc
000003f0: c7e4 a0be 8961 4e3e 900c 9b3d ff01 8a3e
-0.08704159 0.2532116 0.44749296 0.3023839 -0.33139992 -0.46912342 -0.37744707 0.11968851
-0.12855518 0.47960374 -0.41750458 -0.21612291 -0.42814004 -0.0015295148 -0.32847863 0.32582194
-0.17958236 -0.3795783 0.17321831 0.037035584 -0.1986317 -0.22662903 0.18931277 -0.076150805
-0.23130448 -0.24070229 0.35517442 0.008304775 0.0052600503 -0.4781674 0.017745974 -0.083797514
-0.32662812 0.34753123 -0.18844628 0.03511923 0.46137866 0.27365953 0.42636988 -0.4659244
0.09630865 -0.1523676 0.090171166 -0.42434514 -0.12451307 0.40940666 -0.01002318 -0.27905804
0.043688994 0.24560897 -0.18213558 0.45674804 -0.17516719 0.22820742 -0.23949595 0.49643224
-0.18006915 -0.3448503 0.26215342 0.005099714 0.42473787 -0.3989973 -0.1819992 -0.2422055
0.37593877 -0.15263581 -0.096120894 0.2369039 -0.45747355 -0.04090972 0.31468776 -0.44632205
0.11460668 -0.18784374 -0.08348769 0.4795326 0.36225736 -0.3514307 0.19967566 -0.14955807
0.024633497 0.19457744 0.30750927 -0.44418067 0.41571224 0.04187801 0.24570854 0.2057023
0.036964 -0.4807002 -0.47278005 -0.42937273 -0.3759198 0.32983324 0.18126373 -0.2498446
0.24966404 0.3683116 -0.24679865 0.28655308 -0.41720954 0.036755327 -0.042800356 0.41874233
-0.13030541 -0.203207 0.24996036 0.10371829 0.2159978 0.29150265 -0.31136432 0.4273153
-0.46505177 0.3997864 0.034379024 -0.2644678 -0.018165156 0.36548126 0.39690298 0.064135455
0.4112327 -0.09348112 -0.23067278 -0.35707897 0.48305547 0.29161686 0.025735121 0.2548951
-0.060434543 0.3974039 -0.07879924 0.3017316 0.39374048 0.007811251 0.4080066 0.11635997
0.097973645 0.46351698 -0.24266818 -0.18390861 0.03200853 -0.4235025 -0.1449306 0.100269556
0.415021 -0.022528587 0.4945605 0.27067372 0.1826719 0.2827987 -0.40681154 0.48095724
0.057988763 -0.1986947 0.06896036 -0.0991146 0.08560111 0.49086764 0.15275 0.12731344
-0.020212723 0.33309364 0.15759265 -0.4731445 0.34086996 -0.4061222 -0.10116416 0.114675045
-0.33853167 -0.35727316 0.13403173 -0.12388742 -0.40833023 0.38792035 0.30552354 0.19562392
0.1330459 0.49502975 -0.383074 -0.18501799 0.25132224 0.06700269 -0.20810223 -0.1109048
-0.08982895 0.2682338 -0.1957906 -0.14233238 -0.022405654 0.03059804 -0.16050221 -0.14840269
0.27056104 -0.37660247 -0.42812335 0.044445515 0.39566904 -0.0075454786 -0.42740235 -0.2909911
-0.4555834 0.14284374 -0.35304308 -0.31769127 -0.1527079 0.25966492 0.004567028 0.04730942
0.14008436 -0.14280683 0.28994885 -0.4546651 0.36243525 0.37678277 -0.03593593 -0.21250527
0.38585752 -0.40407875 0.29132634 -0.1625691 -0.03706503 -0.07670784 -0.27875042 -0.3694036
-0.16924995 -0.2545671 -0.10438186 0.1950388 -0.3336799 -0.15501875 0.049034823 -0.23135996
0.2607381 0.22938038 0.10641371 -0.081885315 0.11164254 -0.23266125 0.11724721 0.3788858
-0.11679356 0.20910351 0.34045613 0.48585027 -0.30849832 -0.41865516 -0.33857268 0.0009531975
-0.43322232 0.2523163 -0.4473444 -0.011483016 -0.31424543 0.20154394 0.075707555 0.26954648

fc1.bias f4 [128]
00000000: 2785 c6be b673 ff3e 6c95 d5be f047 06bd
00000010: 8f2a a0be 887e 993e 309e 0c3d 49b7 26be
00000020: de9f 9dbe 7c60 34be cd30 303d 98e1 50be
00000030: 6338 ef3e 08f5 543e e8d4 93be a2ce 9fbe
00000040: ba3f f4be e9bf f73e a0f6 f13d f2b3 e63e
00000050: a2a5 6bbe 48e0 73be e44c 85be c846 2e3e
00000060: 06b1 e8be 8833 9e3e fa09 17be ab3a 2abe
00000070: 85ee f73e 1be2 8ebe 8090 b1bd 6ccf d63e
00000080: 8412 7f3e 9ed2 423e 0c12 ff3e c8ea 883d
00000090: 64d7 f8be 71a9 d0be be0b 6fbe 56f9 f6be
000000a0: 3239 1f3d 280b 3abe 2f64 30be f4c3 c03e
000000b0: 072d e3be 60df fd3e fb07 4e3e d496 d23e
000000c0: 5654 90be f3bf 8ebe 78dd adbe 24fe fdbe
000000d0: ee6f ed3e 9851 92be 2633 c53d 361b a8be
000000e0: 00bf 543e 705b 18be 0c49 933e 6fbf 4dbe
000000f0: d266 d43e 74e0 e63e b250 82be 296a f83e
00000100: ec87 aebe 9e93 a83d b43f abbc f80b 6a3e
00000110: 30c9 d23e 5406 bfbe 9682 7abe 5a0a a6be
00000120: 0028 da3d 0265 5e3e 1892 12be feb9 c83e
00000130: 08ef ba3e 7fc8 e43e 3aba ccbd a3c7 d5bc
00000140: f879 e43e b259 95be e40b 313e 2d82 37be
00000150: ce75 b93e de16 d9bc d061 923e b070 0dbd
00000160: 0364 0d3e 8234 54be c693 5d3d c32d cb3c
00000170: 9613 b33e 2027 96bd 4af1 b8be c23f 44bd
00000180: 33f2 90be 8d23 e63e 2860 adbd 60e6 ec3c
00000190: 97ca f6bc 81bc bb3d e1cc ba3e b477 5e3e
000001a0: 8295 edbe 2e9d d93e a4e9 d9be 9335 35be
000001b0: a5c9 3d3d a960 993e ba40 dbbe 88f4 91be
000001c0: e8c2 e5be e010 9ebc e8f9 7f3e 5c2a 3b3e
000001d0: aa0a fdbe 5169 abbe 4073 703c 766c d7be
000001e0: 3b65 783e db8f 66be f8a3 da3e d038 a1bc
000001f0: ede4 d5be a70d a63e e425 c23e 9042 7f3e
-0.38773462 0.49892968 -0.41715562 -0.03278345 -0.3128247 0.29979348 0.034330547 -0.16280855
-0.3078603 -0.17614931 0.04301529 -0.20398557 0.46722707 0.20796597 -0.28873372 -0.31212336
-0.4770487 0.48388603 0.11814618 0.45059162 -0.23012403 -0.23816025 -0.26035225 0.17019188
-0.45447558 0.3089869 -0.147499 -0.16623943 0.48424163 -0.2790688 -0.08670139 0.41955125
0.24909407 0.19025657 0.49818456 0.06685406 -0.4860183 -0.40754274 -0.23344323 -0.48237103
0.038872905 -0.18168318 -0.17225717 0.376495 -0.4437029 0.49584484 0.20120232 0.41130698
-0.28189343 -0.2788082 -0.3395803 -0.49607956 0.46374458 -0.28577876 0.096288964 -0.3283326
0.20775986 -0.1487863 0.28766668 -0.20092557 0.41484696 0.4509312 -0.2545219 0.48518494
-0.34088075 0.08231281 -0.0209044 0.22856128 0.4116912 -0.37309515 -0.24463877 -0.32429773
0.10652161 0.21718219 -0.14313543 0.392044 0.3651049 0.44684216 -0.099964574 -0.02609617
0.44624305 -0.29169995 0.17289692 -0.17920752 0.3622269 -0.026500162 0.2859025 -0.034531295
0.13807683 -0.20723155 0.054096006 0.024802094 0.3497588 -0.07331681 -0.3612159 -0.047912367
-0.28309783 0.44948998 -0.08465606 0.028918445 -0.0301259 0.09166814 0.36484435 0.2172535
-0.46403128 0.4250273 -0.42561066 -0.17696218 0.04633488 0.29956558 -0.4282282 -0.28506875
-0.44875264 -0.019295156 0.24997675 0.18277878 -0.494222 -0.33478788 0.014675915 -0.42074937
0.24257366 -0.22515814 0.42703223 -0.01968041 -0.4177622 0.3243229 0.37919533 0.24927735

fc2.weight f4 [64, 128]
00000000: c8cf 85bd 1990 52bd d677 643c 4fb9 913d
00000010: 2e38 623d ff01 8e3d 2e39 7d3c 8650 93bd
00000020: 8961 86ba 0d83 9e3d 9c59 b0bc 17fe 983d
00000030: ff65 b5bd 7e2c 97bd 140e 853d 3427 9ebd
00000040: 3ce5 61bd a0c9 183d ecfd 88bd ce7d a3bc
00000050: 54e6 a9bb 5cb4 913b 44d7 53bd bb9f 32bd
00000060: 07ee 60bd c3d3 853d 99ae cd3b 17a9 413c
00000070: 3a42 c2bc ecb9 c8bc b0f1 be3b 9d92 87bd
00000080: 0f2e b9bd 5161 2bbb 3d50 91bd fb79 8dbd
00000090: e89e 823c 23d3 933d 5ae9 043d 856d 86bc
000000a0: d822 ab3d 806a 11ba 3ab0 12bc 99a7 703d
000000b0: 55e2 3dbb 602d 0c3b ed27 8bbd b07d 07bd
000000c0: 2425 18bd d580 a63d f357 85bd dff8 983d
000000d0: 86e9 733d 4906 6bbd 77b8 5fbd 5348 a8bd
000000e0: 1c89 ecbc 46d7 283d 8968 96bd 2968 cb3c
000000f0: f92b 9d3c 955e 8b3d 805f c43b 6297 82bb
00000100: 7f53 8c3d fe57 aabd a170 b53d 8734 a43d
00000110: a093 7fbc 70ce 573d 8bcb 0cbd 789b 2f3c
00000120: af63 83bd bdcb f0bc 4aed 093d c867 5b3c
00000130: 0685 e3bc a741 adbd 3e2c 59bd 4864 433d
00000140: f0ff a33d c856 8abd 94e0 8cbd 07a3 56bd
00000150: 2871 373c d325 eebc 8429 ec3c 4fd7 853d
00000160: 7a2d 41bd 344f 4d3d f26a 71bc 31d9 91bd
00000170: 7360 49bd 5059 acbd 95ab 893d 403c 94bc
00000180: 64ae 7e3d 1446 643d 084d c53c 4d80 b2bd
00000190: 865d 723d a07d 3c3d 5ced 9abd 701d 6fbd
000001a0: 3ff4 d3bb 7c09 39bb f46a 523d a4c5 6a3b
000001b0: 03a4 86bd 409a bebb 17d4 b5bd c495 ddbc
000001c0: 7b9e cebb 9a63 613d 039c ab3d 3426 a8bd
000001d0: a839 81bc ad54 b8bc e0b0 6ebd 334f 5abd
000001e0: f8ba 3a3c 8aa2 9c3c c501 76bd 6798 593d
000001f0: d1b5 5cbd cfcd df3c e537 d0bc e0c3 abbc
00000200: 2280 3bbc c8d4 3cbd bd6e 70bd 53bf 9e3d
00000210: 1c92 85bc 3dea 90bd 9aeb 0cbd 4bb2 06ba
00000220: 1690 693d 2dc4 9d3d 5b3c a8bd c7e2 813d
00000230: 0a19 0a3b 3a95 333d 2645 a13d 66a6 103d
00000240: e033 8f3b 16d5 1dbd ec76 9c3c 9155 843d
00000250: b8d1 5c3d 698e 843d f81d 773c 0cc6 163d
00000260: 4234 923d 4e80 98bd 2af8 653d d1ed b2bd
00000270: 864f a73c 98b8 9b3d f83d afbc 2507 8fbd
00000280: 7e88 cf3a ad33 01bc f962 56bc 166e 323d
00000290: c2ea 11bd 9e57 4b3d 93db 19bc 288b 973b
000002a0: 1306 20bd ee24 593d 7ec2 24bd d383 2f3d
000002b0: 854a c5bc 689f 8e3b 05e6 91bd bb60 483c
000002c0: 352a 06bd d790 77bd 6f9b d0bc 22a2 993c
000002d0: 2fbe 3a3d fba0 463d 6297 5dbd 7533 88bd
000002e0: 7a71 483d e65c 6d3b df04 e53c f945 aabb
000002f0: f983 7abd b2bb 28bd 7a76 ad3d 7b3b 49bd
00000300: 179f 9d3d ef02 2ebd d4c1 eb3c 94e2 c8bc
00000310: aa9a 10bd 0cbb 683d c687 84bc 3f2a 12bd
00000320: 5b4c 853d 0295 e739 77c0 8c3d 58de a9bd
00000330: e041 083b 9b7e 38bb f5b7 893d 5220 693c
00000340: 55fd 64bd 61cc 973d 53e6 933d ee81 783d
00000350: 98a3 7b3c 1f49 56bc 00f7 ee3b e641 1a3d
00000360: a260 78bc 9349 953d 67d4 993d 9a99 2fbc
00000370: b798 19bd 8cfc 94bc aa8c 063d e328 b5bd
00000380: cc06 70bc 36c9 e4ba 04b9 e53c 0098 2838
00000390: 41d9 91bd 6398 5b3d 522e 3cbd 0e85 193d
000003a0: b034 19bd 3a30 693c 51e1 39bb 2133 e23c
000003b0: e78a 83bd b639 8bbd 44cc dcba fe77 91bd
000003c0: d43a 3abd ffd5 893d a2f0 853d 3772 313c
000003d0: 4ac4 773d d657 763d 40e9 81bb cce3 aabd
000003e0: a2c8 94bd 30da 20bd a8d5 f13c 736e 3bbd
000003f0: a844 133d d1f7 42bd 3628 aa3d e2b5 313d
-0.06533772 -0.051406953 0.013944587 0.07115423 0.05522936 0.069339745 0.015455527 -0.07193093
-0.0010252456 0.0773984 -0.021527104 0.07470339 -0.08857345 -0.07381533 0.06496826 -0.07722321
-0.055150256 0.03730166 -0.06689057 -0.01995745 -0.005184928 0.0044465493 -0.051718965 -0.043609362
-0.0549145 0.06534531 0.006276917 0.011820099 -0.02371322 -0.024502717 0.0058271512 -0.06619761
-0.09041988 -0.0026150534 -0.07095382 -0.069080316 0.015944913 0.072180055 0.032449104 -0.016409645
0.08356255 -0.0005547181 -0.0089531485 0.058753584 -0.0028974016 0.002138935 -0.067947246 -0.03307885
-0.037144795 0.081300415 -0.065109156 0.074693434 0.059548877 -0.05737904 -0.05461928 -0.0821692
-0.028873973 0.041220926 -0.07344157 0.02482994 0.019186007 0.068051495 0.00599283 -0.0039853314
0.06851863 -0.083175644 0.08859373 0.08017831 -0.015599161 0.05268711 -0.0343738 0.010718219
-0.064154975 -0.029394025 0.033673562 0.013391443 -0.027773391 -0.08459788 -0.05302071 0.047703058
0.080078006 -0.067548335 -0.068787724 -0.05240157 0.011196412 -0.02907077 0.02882839 0.065352075
-0.04716251 0.050124362 -0.01473497 -0.07121504 -0.049164247 -0.084154725 0.0672218 -0.018095136
0.06217803 0.055730894 0.024084583 -0.08715878 0.059171222 0.046018243 -0.07564804 -0.058377683
-0.0064683254 -0.0028234413 0.05137153 0.003582337 -0.065742515 -0.005816728 -0.088783436 -0.027048953
-0.0063055134 0.055026628 0.08379366 -0.08210412 -0.015774563 -0.022501314 -0.05827415 -0.053298187
0.011397116 0.019120473 -0.06006028 0.053123858 -0.05388433 0.027319817 -0.025417278 -0.020967424
-0.011444123 -0.04610136 -0.05869936 0.07751336 -0.016305022 -0.070759274 -0.034404375 -0.0005138262
0.057022177 0.07703433 -0.08214637 0.063420825 0.0021072053 0.043843485 0.07874517 0.03531494
0.0043701977 -0.038533293 0.019099675 0.06461633 0.05391094 0.06472475 0.015082829 0.036809966
0.07138874 -0.07446347 0.05614487 -0.08736766 0.020423662 0.07603568 -0.021391854 -0.069837846
0.0015833525 -0.007885856 -0.01308512 0.043562017 -0.035624273 0.049644105 -0.0093907295 0.004624743
-0.039068293 0.053013735 -0.040224545 0.042850327 -0.024083385 0.004352499 -0.07123951 0.012230094
-0.032755096 -0.060440864 -0.025464742 0.018754069 0.04559153 0.048493367 -0.054099448 -0.0665044
0.048936345 0.0036218702 0.027956424 -0.0051963297 -0.061161015 -0.041194625 0.08469863 -0.04912899
0.076963596 -0.042483266 0.028778948 -0.024522103 -0.03530375 0.056819007 -0.016178023 -0.03568482
0.06508704 0.00044170773 0.06872647 -0.08294362 0.0020791218 -0.0028151635 0.0672454 0.014228897
-0.05590566 0.07412029 0.07221665 0.060670786 0.015358828 -0.013078957 0.0072926283 0.037660502
-0.015159758 0.07289424 0.07511216 -0.010717774 -0.037499156 -0.01818683 0.03284899 -0.08845689
-0.014650058 -0.0017454985 0.028042324 4.0195882e-05 -0.07121516 0.053612124 -0.045942612 0.037480406
-0.037403762 0.0142326895 -0.0028363059 0.02761227 -0.06422978 -0.06798117 -0.0016845544 -0.07102965
-0.04546626 0.0673027 0.06540038 0.010830454 0.06048993 0.06014236 -0.003964573 -0.0834423
-0.0726483 -0.03927058 0.029520825 -0.04575963 0.035954148 -0.047599617 0.08308451 0.043386348

fc2.bias f4 [64]
00000000: 1794 af3d 9b0d 143c 5c9e 45bd 1cbd 073d
00000010: 6a24 7ebb 4fba 8dbb d33e a03d 3707 6dbc
00000020: b74c 04bd 8621 5d3d 2c46 1bbd c7b8 a5bd
00000030: 5edf 203d 415f 953d bb3c a93d 0791 703d
00000040: 3308 a73c 6da4 b03d f522 80bd 615f 8e3d
00000050: 066c 67bc b084 a03d 4c65 b13d b3da a43d
00000060: c807 003d f91e 913d 09cf 87bd 50a9 c23c
00000070: 2cf4 923d a434 873d e0af d5bc 22b2 9cbd
00000080: 7bc7 ac3c 135d 913d 3ad2 ad3d 67eb ae3d
00000090: 9e1a 0dbd 5f05 85bc 90f5 023c a03b 423d
000000a0: d356 28bd 10c0 e7bb 3465 b4bd 22a9 183d
000000b0: a24d 4fbd 38de 1e3d d771 a43d 6d9f 85bd
000000c0: fc6d 87bd faba 423d 7a9a 363d 2940 a03d
000000d0: 498d 94bd b5e8 1f3d 4a29 5e3d 907a 9dbc
000000e0: 6c90 cfbc 8d8f 913d e507 ebbc 2e9c 483d
000000f0: 0b76 1f3d f4a3 a23d e2d3 69bd 3168 5e3b
0.08573168 0.009036447 -0.048246726 0.033139333 -0.0038779029 -0.004325188 0.07824483 -0.014467052
-0.032299723 0.05398705 -0.037908718 -0.08091884 0.03927552 0.07293559 0.082635365 0.05873206
0.020389652 0.08625112 -0.062566675 0.06951786 -0.014124876 0.07837808 0.08661899 0.08049526
0.03125742 0.07085986 -0.06631286 0.023762375 0.07175478 0.06601837 -0.02608484 -0.07651164
0.021091213 0.070978306 0.08487363 0.08540993 -0.034449212 -0.016237913 0.007993117 0.047420144
-0.041098427 -0.007072456 -0.088083655 0.037270673 -0.050611146 0.038786143 0.08029526 -0.06524549
-0.06612775 0.047541596 0.044580914 0.078247376 -0.072535105 0.039040286 0.054238595 -0.019223481
-0.02533742 0.07107458 -0.028690288 0.04897707 0.038930934 0.07941428 -0.057086833 0.0033936615

fc3.weight f4 [32, 64]
00000000: ec89 d93d b5bf b7bc c243 8f3d 76f2 e1bd
00000010: d1bf e0bd 93bb ddbd 46a6 653d 58bd 703d
00000020: af90 a93d 042f 1abd e7f8 96bd 8486 1d3d
00000030: a6a7 e53d 2052 b5bb a6d5 e43d 1633 87bd
00000040: e6ca 87bd 69f5 3b3d 89da 5c3d 8441 d53d
00000050: 0b55 8cbd f477 e23d 99c6 d8bd 64f3 df3d
00000060: e370 fbbc c078 a63c bc5c 8f3c 801e 753c
00000070: b472 a4bd 9960 013d dc1b 35bd 9c4e 093d
00000080: 81e3 d2bd b1d0 af3c 3a95 cb3d c151 8a3c
00000090: e0d9 b1bb 2be6 41bd 00cf 6dbd 01c2 dd3d
000000a0: 8e31 063d 1696 ebbc 602d 0cbc b72f 8b3d
000000b0: 8ead 9abd 3e06 a63d 1a98 66ba 901c 443c
000000c0: 6330 89bd 54c3 73bd 2427 07bd 202b e93d
000000d0: eaaa c63d 4baf f4bd 7cb2 1cbd b82a 1a3d
000000e0: 5879 9d3d 028f bfbb 5b9e b73c e0e5 3cbd
000000f0: 4ea7 933b 0a09 cebd 28b3 1a3c 2ed3 c43d
00000100: cf3a 93bd e41d 83bd 990c 003e dc06 2ebd
00000110: a44c 0fbd cd4f a53d 3a73 b5bd 6fd4 683d
00000120: 1ebf b63d 18e3 8fbd 6ae9 4fbc 20c3 3bbd
00000130: 3064 e93d d84c dabc c48b 23bc 7753 033c
00000140: ea1e eabd 9bb8 8bbd 4b69 0fbc 5096 a2bc
00000150: 6707 b33d 0e83 a93d 1673 0fbd 24d2 6a3c
00000160: 74f0 aa3c 946f 4d3d 915c 50bd 8220 de3d
00000170: ca99 9b3a 52a6 233b bc28 71bd 9854 4f3d
00000180: e121 b9bd 48ea babc 1e0b 37bd 3e47 05bd
00000190: d0bc 393c 1c9c 21bd 2c48 dfbd 4626 963d
000001a0: 0408 b43d ae50 8e3d e48c 9b3d 205c 7bbd
000001b0: 78f9 d63d 685a 083d dd50 e33d 1a91 9d3d
000001c0: ea88 c53c 34d6 f33d 18f8 823d 57ee 903b
000001d0: cde5 d33d f2b7 2d3d cad8 b43d 7a79 ed3d
000001e0: 6422 4f3d 2225 533d 595a ae3d d893 8ebd
000001f0: 2aa1 a23d 4213 5bbd 2b48 ed3d 1924 9c3d
00000200: 386f babd 48a3 bf3d 76b6 ef3c 8b14 b93d
00000210: ccaa e8bd 3603 c5bc 5f17 dd3c be1e 91bd
00000220: 80b4 f83d 0832 963d 67de a6bd f67b fdbd
00000230: f0f4 bc3d 58b6 993d 88f7 ccbc b4d4 aabd
00000240: 3559 d2bc 573b e0bd e7a3 22bc c8cb ea3d
00000250: a6cf bb3d b8c8 b5bb d83e e43c d075 05bd
00000260: 1e5c bf3d e0ad d13d 442d 153d fc30 b7bd
00000270: 563f e5bd 19e2 e4bd b4de 0cbd 804a 533d
00000280: 5f79 acbd 987c 2b3d 702b 613c e14d 84bd
00000290: b6f8 df3d 0060 e938 f623 d83d a97a 433d
000002a0: 2e9d ca3d 030b dabd 201b 3dbc 4e5e ee3d
000002b0: 30c8 123d 48d9 a33d b276 e33d e688 f2bc
000002c0: 7136 23bd c43d a93d 98c4 a23d 5079 c1bb
000002d0: 5a52 15bd 434d bfbd 0e5b f9bc 9826 78bd
000002e0: dc3f babd 5639 833c 45c5 0fbd 009b abbb
000002f0: b453 dbbd 519e 053d c28f 303d 7863 273d
00000300: c8ce 9dbd 2b39 a6bd 6546 adbc 7ab5 cabd
00000310: 5f4f 4e3c b995 05bd f450 61bb 8e23 93bd
00000320: 6aa7 f13d 8c30 7b3d 439c e53d b81e d9bc
00000330: b3a4 e53c d284 f93d c42b afbd 7011 b1bd
00000340: f3d8 333c 4136 7cbd f832 473d e2a0 f0bd
00000350: c24f 64bd 93c4 10bc 882b f4bd 1d9e c83d
00000360: eccf d7bd 70c4 55bc b4e2 5b3d b0f1 abbc
00000370: 6891 42bd dfec f1bd 3492 b4bd b51b 02bd
00000380: 0701 91bc 526f 243d 309b 4a3c 2227 803d
00000390: 0cef 8e3d 9893 a73d 2898 3c3d 07d5 3b3c
000003a0: 77a5 c23d 3402 233b c85f 9b3c 0a45 c0bc
000003b0: 9022 f5bd 2def d3bd f743 c2bd e07d a2bb
000003c0: 5bdc 33bd e0b0 3b3c 223e e43d 689f ccbd
000003d0: e37a ef3c 819d ee3d 8e8a f6bc d82f eabc
000003e0: c043 c83b 9bcd 7c3d 2b02 5abd 92e0 a5bd
000003f0: 41e2 843d 240c b73d ae97 74bd f5cb 003d
0.1062201 -0.02243028 0.06995346 -0.11032574 -0.10974086 -0.108267926 0.056066774 0.058774322
0.08279549 -0.037642494 -0.07371693 0.038458362 0.11213617 -0.0055334717 0.11173563 -0.06601541
-0.06630497 0.04588834 0.05391935 0.10412887 -0.06852158 0.110580355 -0.105847545 0.10935095
-0.030693477 0.02032125 0.017500274 0.014960885 -0.080296904 0.031586263 -0.044216022 0.033522233
-0.10297299 0.021461817 0.09940572 0.016884686 -0.005427584 -0.047338646 -0.05805874 0.10828019
0.032762103 -0.02875809 -0.00855574 0.0679621 -0.07552634 0.08106659 -0.00087964686 0.0119697
-0.06698682 -0.05951245 -0.03299631 0.113851786 0.09700568 -0.11947497 -0.038256153 0.037638396
0.0768916 -0.0058459053 0.022414377 -0.046117663 0.0045060283 -0.10060318 0.009442128 0.09610592
-0.07188951 -0.064021856 0.12504806 -0.04248701 -0.0349852 0.080718614 -0.08859868 0.056843217
0.089231715 -0.070257366 -0.012689928 -0.045840383 0.113960624 -0.02664797 -0.009982053 0.008015505
-0.11431678 -0.0682232 -0.008753131 -0.019847065 0.08741646 0.0827695 -0.035021864 0.014332328
0.02086661 0.050155237 -0.05086953 0.10846044 0.0011871394 0.002497096 -0.058876738 0.050617784
-0.09039665 -0.022816792 -0.044688337 -0.032538645 0.01133652 -0.039455518 -0.109024376 0.07331519
0.08790591 0.06948982 0.07595232 -0.061367154 0.10496801 0.033289343 0.11099408 0.076936916
0.024113137 0.119060904 0.063949764 0.0044229436 0.103465654 0.042411752 0.08830412 0.115954354
0.050569907 0.051549084 0.08513326 -0.06961793 0.07940896 -0.053485163 0.115860306 0.076240726
-0.091032445 0.09357315 0.029261809 0.090371214 -0.11360702 -0.024049383 0.026988683 -0.07085942
0.12143803 0.073337615 -0.08147889 -0.12377159 0.092264056 0.075054824 -0.025020376 -0.08341351
-0.025677303 -0.10948818 -0.009926773 0.114646494 0.09170465 -0.005547609 0.027861997 -0.032583058
0.09343742 0.10238242 0.03642012 -0.0894489 -0.11193721 -0.11175937 -0.034392074 0.05158472
-0.08421587 0.04186687 0.013743266 -0.06460167 0.1093611 0.00011128187 0.10553734 0.0477244
0.09893261 -0.106466316 -0.011542112 0.11639081 0.035835445 0.080004275 0.11106624 -0.029606294
-0.03984684 0.08263734 0.079476535 -0.005904354 -0.03645549 -0.093409084 -0.030438926 -0.06058368
-0.090942115 0.01601855 -0.03510024 -0.0052369833 -0.107093245 0.032621685 0.043105848 0.040866345
-0.07705456 -0.08116373 -0.02115173 -0.09897895 0.012592166 -0.03261349 -0.0034380527 -0.07184516
0.1179951 0.061325595 0.11211445 -0.026503906 0.028032636 0.121835366 -0.085532695 -0.08645904
0.010977018 -0.061575178 0.048632592 -0.11749436 -0.055740125 -0.008835929 -0.119223654 0.09795783
-0.10537705 -0.013047323 0.053682998 -0.020989269 -0.04750195 -0.11812758 -0.088169485 -0.031764705
-0.017700685 0.040145226 0.012366101 0.06257464 0.06979188 0.08182448 0.046043545 0.011464364
0.09504216 0.002487314 0.01896657 -0.02347042 -0.11969483 -0.103483535 -0.094856195 -0.004958853
-0.04391132 0.0114557445 0.111446634 -0.09991342 0.029233402 0.11651135 -0.030095365 -0.028587267
0.006111592 0.06171952 -0.053224724 -0.08099474 0.06488467 0.089378625 -0.059714966 0.03144451

fc3.bias f4 [32]
00000000: c000 23bc 2c46 ed3d b60e 98bc ac53 e6bd
00000010: 1d01 ed3c 2c60 e5bd c031 023e c428 4bbd
00000020: 12e6 debd 20cd 1cbc df87 8f3c f2cc d2bd
00000030: 57d9 e03a 0c05 893d b065 623c 0aef cf3d
00000040: a897 d7bc c6e4 7bbb 6664 f6bc 30d2 f3bc
00000050: 70ec 4dbc 7094 a73d 0b99 aabd 1242 373c
00000060: 71b2 1a3d 2068 9dbc 842e 98bd 6438 e43d
00000070: 4477 57bd 52a1 b8bd fc94 703d 821c d63d
-0.009948909 0.1158565 -0.018561702 -0.11246428 0.028931195 -0.11199984 0.1271429 -0.049599424
-0.10883726 -0.00957039 0.017520843 -0.102929965 0.0017154616 0.06690416 0.0138181895 0.10153015
-0.026317433 -0.003843592 -0.03007717 -0.029763311 -0.012568578 0.08182609 -0.08329972 0.011185186
0.03776783 -0.01921469 -0.07430747 0.11143568 -0.052603975 -0.090151444 0.058735833 0.10454656

fc4.weight f4 [6, 32]
00000000: a96e 02be 0d55 db3d 076c c4bd 5516 2ebe
00000010: 02ea 90bd b6bb 043d 755f 16be 2c89 603d
00000020: 1901 323e 5e8c bc3d dc6d 323e caf0 e13d
00000030: 4aa7 903d 6c5d 0ebd 1228 bd3d 26a5 ee3d
00000040: 04ab 6bbd 4f1c 11be c35b 2d3d 8b94 143e
00000050: 35aa b0bd f82d 4d3d b20f 7b3d dec6 82bd
00000060: 745b 26be 8298 2c3e b9f7 2ebe 50df 713c
00000070: e88e 07be cd8a 86bd 3c12 17be 0e5e 953d
00000080: 1dcc 96bc 077f ce3d febe a2bd b678 173e
00000090: a71c d6bd 491e f93d e145 f5bd 660f 2ebe
000000a0: 40ed 523b 8408 2ebe 1d21 f7bd 97ac 2abe
000000b0: 0f08 42bd 5df8 22bd 618e 26be cca8 303d
000000c0: 522a 26be 8eeb 9f3c 2ba0 4c3d 2472 f93d
000000d0: da12 d4bd 3fd8 e73d 71dd 08be ac2d d0bd
000000e0: 7352 bfbd a180 cabd a8bc bbbd a224 923d
000000f0: 523f 9f3d e60f 67bb 2f04 883d 407d 05bd
00000100: 86e1 2bbd 56cc f3bd 8b54 acbd d387 07bd
00000110: a773 a3bb f02e 213e 1ed7 0f3e b03c 733c
00000120: f741 1f3e d3b3 d3bd a55f 9abd eded a13d
00000130: 0d4f afbd 9632 2abe a01d 14be 787d 4b3d
00000140: fe19 bf3d ca10 0cbe 0690 dd3b 46e3 4439
00000150: 3eb8 b2bc e8fb ab3c 07b8 75bd 4430 8ebd
00000160: 305b c2bd 7786 bf3d dcd0 3fbd c2d0 efbd
00000170: a0ca a9bd 09b9 e7bd 751a fe3d 466a f13d
00000180: 126f 00be c248 0a3e 91d8 313d 837d e03d
00000190: c08c e63d 44af a23d bece 13be 0b92 a8bd
000001a0: 1f71 f7bd 8a78 a73d 6ae1 ec3d be06 31be
000001b0: c207 aa3d fc47 19bd e4eb 883d f628 c23d
000001c0: 86a7 c1bd cb3c b63d b1fb 1cbe b5c3 3e3c
000001d0: fa1d ac3d 77e4 1fbe 938e 07b8 7482 0b3e
000001e0: 4f87 183d dfb4 dd3c 206e ab3c 59fd 103e
000001f0: ba96 9c3d 3313 883b 4c9a 1f3d b6d4 fe3d
00000200: 67e2 ac3d 1df8 02be 549e 25be b51a c03d
00000210: a827 1abe a858 143e 6230 833d e289 dbbd
00000220: 142e 6abd 615b 1c3e 66bd f63d 2092 bfbd
00000230: bca5 e43d 0fbd b1bd 7397 273e aae8 ad3d
00000240: d40f b03d eb0d 21be 68c8 0ebe 3ed1 e83d
00000250: c8d3 2a3e eb61 0e3d b8c7 e23d ee02 2ebe
00000260: d7f8 b63d 0f50 78bd 5075 283c d3c8 e0bd
00000270: 78c2 b33c a3b8 2a3d b368 1a3e 5d08 2e3e
00000280: 6268 433d d90f 2cbe a6a7 64bd c51f febb
00000290: 2b5d cf3d 8852 20be c947 29be 4656 ae3d
000002a0: 2c56 65bd 4d29 223e a0bc cf3d 1601 fc3b
000002b0: 94cf 6f3c 5ad5 6d3d d419 043d 8bb7 1fbe
000002c0: b18a 433d 368d 00be 06d1 d43d 4cfa 653d
000002d0: dd5e 033e 512d a7bd aaa3 85ba 83c0 4fbb
000002e0: 3f1d 3e3d c68a 863d 17f9 233e da1c 08be
000002f0: d00b 033c 6729 edbd 9c9e 533d d0a7 7f3d
-0.12737526 0.107095815 -0.09590917 -0.17000706 -0.070758834 0.032405578 -0.14684851 0.054818317
0.17383231 0.092064604 0.1742472 0.11032255 0.07063158 -0.034757063 0.092361584 0.11652593
-0.05753614 -0.14170955 0.04232384 0.1450979 -0.086262144 0.050092667 0.061294265 -0.06385587
-0.16245824 0.16855052 -0.17086686 0.0147627145 -0.13238108 -0.06569443 -0.1475305 0.0729333
-0.018407876 0.10082822 -0.07946585 0.14792141 -0.10454684 0.121639796 -0.11976219 -0.16998062
0.003218487 -0.16995436 -0.12066863 -0.166674 -0.047370967 -0.03978764 -0.1626525 0.043129727
-0.16227081 0.0195215 0.049957436 0.12179974 -0.10355158 0.113205425 -0.13365723 -0.10164961
-0.09341898 -0.09887815 -0.09166843 0.071358934 0.07775749 -0.003525728 0.06641423 -0.03259015
-0.041963123 -0.11904208 -0.08414563 -0.033088516 -0.004988152 0.15740561 0.14046904 0.014846012
0.15552507 -0.10337033 -0.07537774 0.07906709 -0.085599996 -0.1662086 -0.14464426 0.049680203
0.093311295 -0.1367828 0.0067615537 0.00018776683 -0.02181637 0.020994142 -0.059989955 -0.069428
-0.09490049 0.09351819 -0.046830043 -0.11709739 -0.08290601 -0.113145895 0.1240739 0.11787848
-0.1254237 0.13504317 0.043419424 0.109614395 0.11257315 0.079435855 -0.14434335 -0.082309805
-0.12082123 0.08177288 0.11566432 -0.17287728 0.08302261 -0.037422165 0.066856176 0.09480469
-0.09455781 0.08898314 -0.15330388 0.01164334 0.08404155 -0.15614496 -3.231929e-05 0.13623983
0.037238415 0.027063785 0.020926535 0.14159144 0.07645936 0.0041526794 0.03896551 0.12442915
0.0844162 -0.1278996 -0.16173679 0.09380094 -0.1505419 0.14486945 0.06405713 -0.107196584
-0.05717285 0.15269233 0.12047844 -0.09354043 0.11164424 -0.08678638 0.16366367 0.08491643
0.08596769 -0.15727966 -0.13943636 0.11368035 0.1668235 0.03476135 0.110732496 -0.16993305
0.08934181 -0.060623225 0.010281876 -0.10975804 0.021943316 0.04167999 0.15079002 0.16995378
0.04770697 -0.1680292 -0.055823945 -0.007755252 0.10125192 -0.15656483 -0.1653129 0.08512549
-0.055990383 0.15836067 0.10143399 0.007690559 0.014636893 0.058064796 0.032251194 -0.1559736
0.04773969 -0.12553868 0.103914306 0.056146905 0.12829156 -0.0816294 -0.001019587 -0.003170044
0.04641461 0.06569438 0.16012989 -0.13292256 0.007998422 -0.115801625 0.051664934 0.062415898

fc4.bias f4 [6]
00000000: d971 033e dd72 583c e784 083e 1bd5 75bd
00000010: 335a 90bd 4c6c c53c
0.12836398 0.013210979 0.13331948 -0.060017686 -0.07048454 0.024099492
