src/params_data/240418_005728/237param.pt (torch, 46927 bytes, 8 tensors)

fc1.weight f4 [128, 4]
00000000: c6d1 a6bd 06fc 803e 8289 e43e 7f04 8e3e
00000010: 40ad a9be f230 f0be be40 c1be 401f f53d
00000020: 3a91 06be 8555 f53e 90c1 d6be 649f 37be
00000030: 2c35 dbbe 007a c8ba 5a2e a8be 22d2 a63e
00000040: 70e4 37be 1658 c2be 8d00 393e a0b2 173d
00000050: 1c66 4bbe 9db0 4cbe f286 513e 8b3f 98bd
00000060: 3d20 6ebe 0c23 81be a204 b13e 7c75 ef3c
00000070: 805c ac3b 5cd2 f4be 4939 e33c 089e abbd
00000080: 5fa3 9abe 7653 b03e e861 45be 8e14 8abd
00000090: 67d1 f03e 5a4f 8b3e ae30 d93e 2e3b 04bf
000000a0: 783d c53d 29ee 28be 0731 ca3d cd20 dabe
000000b0: e921 c9bd afb6 d03e f64f 60bc 1e41 c1be
000000c0: 9c2c ef3c f947 793e f9d5 3bbe 8cc1 023f
000000d0: db82 13be 33c7 683e 766c 74be 94c5 de3e
000000e0: 0c64 38be 809f c2be 26a2 813e e138 6cbb
000000f0: 3e77 d93e 6049 ccbe 005e 3abe b804 78be
00000100: 0c7b c03e 904c 1cbe 08db c4bd f096 723e
00000110: 017d f3be f74a 1ebd 9232 a13e 2e0b e1be
00000120: e8b6 ea3d 1c5a 40be 98fb aabd 4c85 f53e
00000130: cc79 b93e b020 b6be 1978 513e 6f8f 0fbe
00000140: e5de 503c 2a87 463e 48de 9d3e 3c73 d0be
00000150: 7a6a dd3e 9854 273d ef2e 7a3e c5b7 563e
00000160: 9067 173d 561e f6be 3a10 f2be bed6 dbbe
00000170: 0d2a c2be f675 a83e 8131 3b3e bf9e 9fbe
00000180: 8f4e 823e f6f7 bb3e c8c4 7dbe 9697 943e
00000190: 5104 cbbe 1e4e 363d 4d65 1bbd 39d9 fc3e
000001a0: 57ba 12be 739a 49be 0356 823e aac1 ff3d
000001b0: c2e9 4d3e 835e 943e 058f a0be 2689 d53e
000001c0: 23c4 f9be 0c17 cc3e 83ba 0a3d 4377 7bbe
000001d0: ea2b 1cbd 5153 ba3e 2e2d cb3e 2b9f f03d
000001e0: 188d d23e 0873 bfbd 7c35 6cbe 0ed3 b6be
000001f0: c279 f43e 679a 943e 455f be3c 049b 9a3e
00000200: 75fa 62bd 1870 ca3e 947b a2bd c063 883e
00000210: bbf7 d73e 0087 e53b c0ce cf3e b05b dc3c
00000220: 4240 af3d 0170 ec3e dce3 7bbe c2fa 3cbe
00000230: 601b 033d 52d5 d8be b068 14be 205a cd3d
00000240: e54e ce3e 91e6 c5bc 085d fb3e 1b3f 963e
00000250: f6f4 343e 319b 903e 3a9a d0be 2951 ec3e
00000260: a085 6d3d a076 4bbe fca8 923d 98fc cabd
00000270: 09b3 c33d 545d fa3e 7535 173e 7a08 203e
00000280: 118c 1cbc c355 aa3e 4785 203e 88f6 debe
00000290: 8286 ae3e 40ef cfbe 282f cfbd c0da ea3d
000002a0: 0654 adbe 82ec b6be 8571 143e b0b8 fdbd
000002b0: 6c65 bdbe 9843 c63e b47c 9a3e 8d05 1a3e
000002c0: 60f0 153e f200 fd3e eb4e c6be 21c0 7dbe
000002d0: 59a8 863e d9c0 943d 40ae 4ebe 1156 04be
000002e0: 9735 aebd d911 893e e0f8 44be 8746 05be
000002f0: 10fe 7dbc af17 0f3d bd36 23be e1a1 07be
00000300: fa86 8a3e 0ad2 c0be fc32 dbbe 800c 363d
00000310: 895f d13e 490f e43b b225 d4be 45b0 8cbe
00000320: 29e5 efbe 220f 1f3e 272f abbe 4e95 8fbe
00000330: 799a 28be 6d99 843e a586 c03b 1289 d43d
00000340: e5dc 1b3e fcb4 0cbe 8875 973e f2c8 00bf
00000350: 59a6 b73e 437f c03e 98ee 1cbd 4292 12be
00000360: 1e8f c53e f266 e6be d0f9 893e dd37 30be
00000370: 80d1 17bd 0019 9dbd 60b8 8ebe 7822 bdbe
00000380: dc4f 2dbe 9e56 82be 28c6 d5bd 40b8 473e
00000390: 18d8 aabe 3cbd 1ebe 845e 563d a0e9 6cbe
000003a0: 1b31 923e 343e 6a3e a425 d13d 688f 2fbe
000003b0: d8a4 e43d 4e8e 68be 586d e53d c3d3 c43e
000003c0: ff52 f8bd bc6c 543e ce61 ae3e 83ef 073f
000003d0: 7ef3 9dbe f859 d6be 6659 adbe 00e0 793a
000003e0: 83c5 dfbe 0590 803e 8d08 e5be cb5c 93bd
000003f0: 82b0 9ebe 7a79 4d3e 65d7 9a3d 3ec3 823e
-0.0814548 0.2519228 0.4463616 0.27737805 -0.33139992 -0.46912342 -0.37744707 0.11968851
-0.13141337 0.4791681 -0.4194455 -0.17931896 -0.42814004 -0.0015295148 -0.32847863 0.32582194
-0.17958236 -0.3795783 0.18066616 0.037035584 -0.1986317 -0.19989248 0.20461634 -0.07433995
-0.23254485 -0.2522205 0.34573847 0.029230826 0.0052600503 -0.4781674 0.027737277 -0.083797514
-0.30202767 0.34438676 -0.1927563 -0.06742202 0.4703476 0.27208978 0.42419952 -0.516528
0.09630865 -0.16497101 0.098726325 -0.4260315 -0.09820921 0.40764377 -0.013690939 -0.37744993
0.029196076 0.24343862 -0.18343343 0.5107658 -0.14405386 0.22732238 -0.238695 0.43510115
-0.18006915 -0.38012314 0.25319022 -0.0036044645 0.42473787 -0.3989973 -0.1819992 -0.2422055
0.37593877 -0.15263581 -0.096120894 0.2369039 -0.47556308 -0.03864571 0.31483895 -0.43953842
0.11460668 -0.18784374 -0.08348769 0.4795326 0.36225736 -0.35571814 0.2045597 -0.1401956
0.012748455 0.19387498 0.3083365 -0.40712917 0.43245298 0.04085216 0.24431966 0.2096854
0.036964 -0.4807002 -0.47278005 -0.42937273 -0.37922707 0.32902497 0.18280603 -0.311758
0.2545056 0.36712617 -0.24782097 0.290219 -0.3965173 0.044508092 -0.037938405 0.49384478
-0.14328896 -0.19687824 0.25456247 0.1248811 0.20108703 0.28978357 -0.31359115 0.41706198
-0.48782453 0.39861333 0.033869278 -0.24557213 -0.038127817 0.3639169 0.39682907 0.11749109
0.4112327 -0.09348112 -0.23067278 -0.35707897 0.47749144 0.2902405 0.023238787 0.30196393
-0.055414636 0.39538646 -0.07933727 0.26638603 0.4218119 0.0070046186 0.40587425 0.026899189
0.08557178 0.46179202 -0.2459864 -0.18455032 0.03200853 -0.4235025 -0.1449306 0.100269556
0.40294567 -0.024157794 0.49094415 0.2934502 0.1767157 0.28243402 -0.40742666 0.4615567
0.057988763 -0.1986947 0.071611375 -0.0991146 0.095556326 0.4889933 0.14766486 0.15628234
-0.009554879 0.33268556 0.15675841 -0.43547463 0.34086996 -0.4061222 -0.10116416 0.114675045
-0.33853167 -0.35727316 0.1449643 -0.12388742 -0.3699144 0.38723445 0.30173266 0.1504118
0.14642477 0.49414784 -0.38732085 -0.24780323 0.26300314 0.07263345 -0.20183659 -0.12923457
-0.08506315 0.2677143 -0.19235563 -0.13015185 -0.015502468 0.034934696 -0.1593885 -0.13245346
0.27056104 -0.37660247 -0.42812335 0.044445515 0.408932 0.00695983 -0.4143501 -0.27478233
-0.46854523 0.15533116 -0.33434412 -0.28043598 -0.16465177 0.25898305 0.005875426 0.103777066
0.15220983 -0.13740915 0.29581857 -0.5030662 0.358691 0.37597093 -0.03831348 -0.14313605
0.38585752 -0.45000416 0.26948404 -0.1720881 -0.03706503 -0.07670784 -0.27875042 -0.3694036
-0.16924995 -0.2545671 -0.10438186 0.1950388 -0.3336799 -0.15501875 0.05233623 -0.23135996
0.2855309 0.22875291 0.102122575 -0.17144549 0.11164254 -0.22710535 0.11202496 0.3844281
-0.12125205 0.20744604 0.34058994 0.5309984 -0.30849832 -0.41865516 -0.33857268 0.0009531975
-0.43705377 0.25109878 -0.44733086 -0.07195433 -0.3099404 0.20065871 0.075606145 0.25539583

fc1.bias f4 [128]
00000000: 1d40 c1be b673 ff3e cd29 e0be f047 06bd
00000010: 865a 9cbe 7f7c a33e 20a9 9e3c 5a7c 1cbe
00000020: 45db a1be 9509 33be 405f 503d 1de9 54be
00000030: a750 ff3e b2a5 463e aa25 9abe a2ce 9fbe
00000040: ba3f f4be b80c f43e a0f6 f13d 83be e83e
00000050: d975 6dbe 7571 83be e44c 85be d7c3 273e
00000060: edb9 f2be 2cc6 a53e 5d3b 1abe 60c0 31be
00000070: 9048 f53e c11f 86be 8090 b1bd 1cc2 d53e
00000080: 9f91 753e 6ed2 3b3e 6ae3 013f c8ea 883d
00000090: 7b41 eebe b88d d8be cc54 6cbe c3dc f2be
000000a0: c501 813c 280b 3abe d032 25be cd6b b73e
000000b0: 47ef e6be fd14 033f f411 543e 4866 d53e
000000c0: 5654 90be b16a 86be aeb3 9dbe 27fa f7be
000000d0: 0cab f63e ea2a 9bbe eb73 8e3d 361b a8be
000000e0: 00bf 543e 27fa 14be 9183 8b3e 866c 53be
000000f0: eb0c d23e 74e0 e63e 7c05 86be b571 f53e
00000100: 6e1c b6be 4613 ac3d d06f 873b facb 813e
00000110: 30c9 d23e b6da bbbe 0fdb 7ebe 5a0a a6be
00000120: 0028 da3d 2712 4e3e 8522 2bbe feb9 c83e
00000130: 08ef ba3e b515 e73e a0cf bebd eccd 8cbc
00000140: 6a31 e83e 93b6 93be e40b 313e 378f 30be
00000150: ce75 b93e 21b2 2cbc d061 923e b070 0dbd
00000160: 1168 083e 8482 62be 8367 783d 271c 183d
00000170: 62d7 a63e 2027 96bd 4af1 b8be 900a 59bd
00000180: 61ad 9abe 5b4f dc3e 2860 adbd 60e6 ec3c
00000190: 23a1 80bb 3ba1 a23d f78f c83e b477 5e3e
000001a0: 6310 fbbe 7a15 d63e f1d9 dabe f10b 5abe
000001b0: 20dd 273d b969 9a3e d6be d4be 88f4 91be
000001c0: 4931 efbe e010 9ebc 781b 753e 685e 483e
000001d0: aa0a fdbe 3ee1 a3be 4073 703c 766c d7be
000001e0: 562f 693e 1933 5ebe b1d8 e73e a9ff 0dbd
000001f0: 98ca cabe e2b0 a13e fc9e c33e 0b03 753e
-0.37744227 0.49892968 -0.4378189 -0.03278345 -0.30537814 0.3193092 0.019367754 -0.15281811
-0.31612602 -0.17484124 0.050872087 -0.2079205 0.4986622 0.19399145 -0.3010686 -0.31212336
-0.4770487 0.47665954 0.11814618 0.4545785 -0.23189487 -0.25672498 -0.26035225 0.163833
-0.47407475 0.32377756 -0.15061708 -0.17358541 0.47906923 -0.261961 -0.08670139 0.41749656
0.23981331 0.18341991 0.5073763 0.06685406 -0.46534333 -0.42295623 -0.23079222 -0.47434053
0.015747914 -0.18168318 -0.16132665 0.35824433 -0.4510443 0.512039 0.20709974 0.41679597
-0.28189343 -0.26253274 -0.30801147 -0.4843304 0.48177373 -0.30306178 0.06955703 -0.3283326
0.20775986 -0.1454855 0.27248815 -0.20646867 0.4102548 0.4509312 -0.2617606 0.47938314
-0.35568565 0.084021136 0.004133202 0.25350934 0.4116912 -0.366903 -0.24888252 -0.32429773
0.10652161 0.20124112 -0.16712387 0.392044 0.3651049 0.4513375 -0.09316945 -0.017188035
0.453502 -0.2885023 0.17289692 -0.17242132 0.3622269 -0.010540516 0.2859025 -0.034531295
0.13320948 -0.221201 0.06064559 0.037136223 0.325862 -0.07331681 -0.3612159 -0.05298859
-0.30210403 0.43029293 -0.08465606 0.028918445 -0.003925459 0.079409085 0.39172336 0.2172535
-0.4903594 0.4181326 -0.427444 -0.21293618 0.040982366 0.30158785 -0.41551846 -0.28506875
-0.4671729 -0.019295156 0.2393626 0.19567263 -0.494222 -0.32007784 0.014675915 -0.42074937
0.22771963 -0.2169918 0.4528251 -0.034667645 -0.39607692 0.31580263 0.38207233 0.23926942

fc2.weight f4 [64, 128]
00000000: cfe3 83bd 1990 52bd 877a 863b 4fb9 913d
00000010: 1331 3a3d cddb 853d 1f7b 5f3c 9cf7 a9bd
00000020: 4482 aabb 1fa4 a03d 153b 00bd 0136 9e3d
00000030: a864 c2bd 49bb a5bd 3f59 693d 3427 9ebd
00000040: 3ce5 61bd f57d 183d ecfd 88bd cd88 f2bc
00000050: 3402 88bb 577f 9e3b 44d7 53bd e34d 2bbd
00000060: 9bad 79bd cad8 653d e862 823b 5315 d73b
00000070: 0b07 adbc 5d50 bebc b0f1 be3b ab5f 82bd
00000080: accc b5bd bb8e 20bb 7d51 96bd fb79 8dbd
00000090: 2a40 823c 23d3 933d 4313 ba3c 1172 6abc
000000a0: 9109 af3d 806a 11ba 45e7 99bc 10ee 763d
000000b0: 9bb4 39bc 602d 0c3b 8a7b 98bd b07d 07bd
000000c0: 2425 18bd d580 a63d f357 85bd c740 9e3d
000000d0: 8ee0 6f3d 6c6a 62bd 188d 81bd 5348 a8bd
000000e0: 1c89 ecbc af85 003d 4d81 92bd 8de3 7b3c
000000f0: 7a8f a53c 955e 8b3d 805f c43b 10ea 00bb
00000100: a443 903d d958 b1bd a0cf ad3d 6288 a43d
00000110: a093 7fbc 9783 2d3d 8bcb 0cbd 789b 2f3c
00000120: af63 83bd b44e 1bbd 45f4 083d c867 5b3c
00000130: 0685 e3bc 5f56 aabd c17b 7cbd 5dbd 183d
00000140: 5d30 a73d 9565 97bd 94e0 8cbd 7033 64bd
00000150: 2871 373c bb98 ddbc 8429 ec3c 4fd7 853d
00000160: f870 39bd 76f9 543d dad5 5ebc f7a1 8ebd
00000170: 8ca7 40bd 5059 acbd 95ab 893d da6c 8cbc
00000180: 59af 803d ebc3 6a3d 084d c53c 4d80 b2bd
00000190: 372a 783d db33 3e3d 4888 9ebd 701d 6fbd
000001a0: 197a 06bc ec00 d5ba f46a 523d 3c46 343b
000001b0: 7a29 9abd 409a bebb 6e49 b6bd c495 ddbc
000001c0: cb98 cebb 9a63 613d 039c ab3d 1a90 a3bd
000001d0: a839 81bc 73f0 b4bc e0b0 6ebd 334f 5abd
000001e0: 4798 243c 90b0 193c c3fb 77bd 5f0a 603d
000001f0: 0759 60bd 11f6 a13c 89a0 c9bc 65cb e5bc
00000200: 5c16 61bc c8d4 3cbd 3122 6dbd 53bf 9e3d
00000210: fe90 48bc 81df 95bd 690f 15bd 3382 793b
00000220: 3f01 683d 9d2c 9c3d f7f7 9fbd 1bb8 803d
00000230: 49a6 0d3b 5e8f 313d c47e a53d 66a6 103d
00000240: e033 8f3b 1b94 3dbd ec76 9c3c 4f80 8c3d
00000250: 30b3 563d 6727 833d f81d 773c 4f37 0f3d
00000260: 9069 943d 06d5 aebd b73c 543d 2534 b0bd
00000270: 3772 9a3c ea57 983d f83d afbc acc4 8ebd
00000280: a4a0 793a 9f98 25bc 5a59 4fbc 166e 323d
00000290: cd25 1dbd 1bc4 553d e88e afbb e712 7a3b
000002a0: 1dc7 23bd ee24 593d 2206 14bd 1581 263d
000002b0: 74d6 bbbc 51c5 933c de15 91bd 8c36 b63c
000002c0: 352a 06bd adf2 55bd d400 9dbc ddb8 913c
000002d0: 0ee4 3e3d e775 483d 3f1b 52bd 7533 88bd
000002e0: 7a71 483d 3f4b f73b 14ee e13c 3179 9fba
000002f0: 20c1 82bd b2bb 28bd fe01 b03d 60ae 53bd
00000300: 1255 9a3d 44c9 29bd a497 d33c de93 e2bc
00000310: aa9a 10bd 9fb4 793d 7235 69bc 3f2a 12bd
00000320: 5b4c 853d f9e2 4a3b 1cc1 903d 58de a9bd
00000330: e041 083b c6e7 76bb b56b 8f3d a78a 5f3c
00000340: 00c1 69bd cd29 973d 53e6 933d 187e 683d
00000350: 98a3 7b3c 23d8 6abc 00f7 ee3b e641 1a3d
00000360: 15bd 86bc 2cee 933d fed3 953d c8e6 3abc
00000370: dce9 17bd 8cfc 94bc aa8c 063d 7ad6 bbbd
00000380: be61 88bc 40c5 1ebb 04b9 e53c 0098 2838
00000390: 8851 95bd d9c3 393d d26c 39bd 0e85 193d
000003a0: d92f 1cbd 7d18 613c b015 30ba 2334 ea3c
000003b0: eea8 76bd e4d9 5dbd 8d0e 1ebc fe77 91bd
000003c0: 1407 33bd ffd5 893d 51a3 853d bfe8 363c
000003d0: 4ac4 773d 74c2 6a3d 40e9 81bb cce3 aabd
000003e0: e05f 46bd 4d19 10bd 4eb3 f23c 45f9 40bd
000003f0: fdaf 173d 1c57 42bd 383a a43d 313c 363d
-0.064399354 -0.051406953 0.004103962 0.07115423 0.045456957 0.06536064 0.013640194 -0.08299181
-0.005203517 0.078438036 -0.031306345 0.07725144 -0.09491855 -0.080923624 0.056969877 -0.07722321
-0.055150256 0.037229497 -0.06689057 -0.029606247 -0.0041506533 0.0048369574 -0.051718965 -0.041822325
-0.06095658 0.05611495 0.0039790757 0.0065638213 -0.021121522 -0.02323168 0.0058271512 -0.063659035
-0.08876929 -0.0024499136 -0.073397614 -0.069080316 0.015899736 0.072180055 0.022714263 -0.014309422
0.085467465 -0.0005547181 -0.018787036 0.060285628 -0.011334564 0.002138935 -0.07445438 -0.03307885
-0.037144795 0.081300415 -0.065109156 0.07727199 0.05856376 -0.055277273 -0.063257396 -0.0821692
-0.028873973 0.03137749 -0.071535684 0.015374077 0.020210017 0.068051495 0.00599283 -0.0019670762
0.070441514 -0.086595245 0.08486867 0.080338255 -0.015599161 0.042361822 -0.0343738 0.010718219
-0.064154975 -0.037916854 0.03343608 0.013391443 -0.027773391 -0.08317255 -0.06164146 0.037289966
0.081635214 -0.07392422 -0.068787724 -0.055713117 0.011196412 -0.027050367 0.02882839 0.065352075
-0.04527375 0.051995717 -0.013600791 -0.06964486 -0.047034785 -0.084154725 0.0672218 -0.017141748
0.06283445 0.05731575 0.024084583 -0.08715878 0.060587134 0.046436172 -0.07740837 -0.058377683
-0.008207821 -0.0016250885 0.05137153 0.0027507683 -0.07527442 -0.005816728 -0.08900724 -0.027048953
-0.0063048354 0.055026628 0.08379366 -0.079864696 -0.015774563 -0.022087311 -0.05827415 -0.053298187
0.010046071 0.009380475 -0.060542833 0.05469739 -0.054772403 0.019770654 -0.024612682 -0.028051088
-0.013738241 -0.04610136 -0.057893936 0.07751336 -0.0122416 -0.073180206 -0.03639165 0.003807199
0.056641813 0.07625697 -0.078109674 0.06285115 0.0021614006 0.043349616 0.08080819 0.03531494
0.0043701977 -0.046283823 0.019099675 0.068604104 0.05241698 0.06404 0.015082829 0.034964856
0.07246697 -0.08536725 0.051815715 -0.08603696 0.01885329 0.07438643 -0.021391854 -0.06971106
0.00095225335 -0.0101071885 -0.01265558 0.043562017 -0.038366128 0.052188974 -0.005357612 0.003815824
-0.03998481 0.053013735 -0.03613866 0.040650446 -0.022929408 0.018038424 -0.07084249 0.022242807
-0.032755096 -0.052233387 -0.019165434 0.017788345 0.04660421 0.048940565 -0.051295515 -0.0665044
0.048936345 0.007546812 0.027579345 -0.0012166855 -0.06384492 -0.041194625 0.0859413 -0.05167997
0.07535757 -0.041451707 0.025829144 -0.0276584 -0.03530375 0.06096327 -0.014233934 -0.03568482
0.06508704 0.003095804 0.07068083 -0.08294362 0.0020791218 -0.0037674769 0.07002965 0.013643897
-0.057068825 0.0738102 0.07221665 0.056760877 0.015358828 -0.014333758 0.0072926283 0.037660502
-0.016447583 0.07223162 0.07315825 -0.011407562 -0.03708826 -0.01818683 0.03284899 -0.091717675
-0.01664817 -0.0024226457 0.028042324 4.0195882e-05 -0.072909415 0.04535279 -0.045269795 0.037480406
-0.03813157 0.013738749 -0.0006717099 0.028589314 -0.060219698 -0.054162875 -0.009647024 -0.07102965
-0.043707922 0.0673027 0.06525291 0.011163889 0.06048993 0.05731435 -0.003964573 -0.0834423
-0.048431277 -0.03518038 0.029626515 -0.047112722 0.03703307 -0.047446355 0.08018917 0.044490997

fc2.bias f4 [64]
00000000: cecf b43d 974d c7bb 9758 5fbd 571b f33c
00000010: fc0b a93c f113 ac3c 2bc1 6f3d a97e 7ebc
00000020: 83eb a3bc 8621 5d3d 9f12 49bd c7b8 a5bd
00000030: a97e 8d3d 415f 953d e737 ae3d 6b63 513d
00000040: e236 df3c 778b 673d e543 66bd 615f 8e3d
00000050: f805 dfbb f75f e53d 8d34 eb3d aff5 a53d
00000060: a30b 2b3c f91e 913d eaaa 9cbd 50a9 c23c
00000070: 6064 753d fd59 923d 27c7 d9bc 67fb aabd
00000080: c5dd ebbb cbc7 293d d898 b03d ed94 c23d
00000090: 9e1a 0dbd 1af6 d5bc 90f5 023c 053e f93c
000000a0: 7465 f7bc 9173 4c3c 3465 b4bd de27 213d
000000b0: 6e3e 5bbd 8119 0b3d be44 a63d 280d 65bd
000000c0: 391e 9bbd faba 423d 7a9a 363d 2940 a03d
000000d0: baf2 54bd 9a4c 6d3d 2a6a 823d 907a 9dbc
000000e0: 6c90 cfbc 8855 913d dbdb 12bc 2e9c 483d
000000f0: 8b95 083d 5940 a83d 4d01 74bd f966 abbb
0.08828698 -0.0060822475 -0.054527845 0.029676123 0.020635597 0.021005603 0.05853383 -0.015533128
-0.020009762 0.05398705 -0.049090024 -0.08091884 0.06908924 0.07293559 0.08506756 0.051120203
0.02724785 0.05652949 -0.056217093 0.06951786 -0.0068061315 0.111999445 0.11484633 0.08103501
0.010439786 0.07085986 -0.07649787 0.023762375 0.05991018 0.0714607 -0.026584221 -0.083487324
-0.007198068 0.041450303 0.08622903 0.095010616 -0.034449212 -0.026118327 0.007993117 0.030425081
-0.030199744 0.012478725 -0.088083655 0.03934466 -0.053526334 0.03395987 0.0811858 -0.05592075
-0.07574124 0.047541596 0.044580914 0.078247376 -0.051989295 0.05793438 0.063679054 -0.019223481
-0.02533742 0.07096392 -0.00896355 0.04897707 0.03334574 0.08215398 -0.059571553 -0.005230781

fc3.weight f4 [32, 64]
00000000: 0c58 d03d ada4 c3bc d173 8c3d 6934 e2bd
00000010: fe06 e4bd d09f e1bd 1a96 613d dc80 6d3d
00000020: c0ef a73d 042f 1abd 98f5 9abd 8486 1d3d
00000030: 5e44 e33d 2052 b5bb 7239 da3d 2398 84bd
00000040: f04a 8dbd a3cc 343d ef57 593d 8441 d53d
00000050: 0554 8ebd 4bbc df3d bb51 e5bd 02b8 d63d
00000060: e729 01bd c078 a63c 96ea 8d3c 801e 753c
00000070: aa6d a1bd 9ed9 e03c c6fb 47bd 5c3e 053d
00000080: 482f d5bd 379e a33c f9a6 c13d 0f0e 783c
00000090: e0d9 b1bb 6aa3 54bd 00cf 6dbd 2035 d63d
000000a0: 21ec fd3c 5c35 f5bc 602d 0cbc e221 813d
000000b0: 47b6 94bd 97c0 9c3d f443 0ebb 24f8 823c
000000c0: a1d7 8bbd 54c3 73bd 2427 07bd 202b e93d
000000d0: bbe6 c43d 297a f8bd ab6b 22bd b82a 1a3d
000000e0: 5879 9d3d 028f bfbb 6e84 a43c e0e5 3cbd
000000f0: 5359 503b 2bcf d1bd c241 bd3b f75a c23d
00000100: 2018 93bd f3f8 82bd 7d63 fd3d 0a89 34bd
00000110: a86b 14bd 7eca a33d b5f4 b4bd ea9f 643d
00000120: 1956 b03d 18e3 8fbd 3fab 4cbc 20c3 3bbd
00000130: 800c ea3d d84c dabc 1b79 00bc 6b2a ce3b
00000140: cd37 e0bd 552f 8bbd 9ff3 20bc 5096 a2bc
00000150: 1f18 b23d 3bf0 a93d 64ff f0bc edfe 513c
00000160: 7f54 af3c 946f 4d3d 6120 54bd 8220 de3d
00000170: 6d5b d73a edd0 3a3b e18d 68bd 184d 483d
00000180: cdfe b7bd 4bb8 b6bc 5d40 2fbd 699d 06bd
00000190: d0bc 393c 0cd0 3abd 2c48 dfbd b50e 983d
000001a0: 96cc b23d ee6f 8d3d e48c 9b3d 1b1b 77bd
000001b0: 73f2 dc3d 3a54 0a3d 9be9 e23d 52ec a13d
000001c0: d56d c73c 34d6 f33d 18f8 823d 57ee 903b
000001d0: 6be9 d13d 53dd 333d 0602 b53d 7a79 ed3d
000001e0: 6422 4f3d e1b0 533d c2ae af3d d893 8ebd
000001f0: c847 a13d e842 58bd d4d2 ec3d 145a 973d
00000200: 386f babd 48a3 bf3d 76b6 ef3c 8b14 b93d
00000210: ccaa e8bd 3603 c5bc 5f17 dd3c be1e 91bd
00000220: 80b4 f83d 0832 963d 67de a6bd f67b fdbd
00000230: f0f4 bc3d 58b6 993d 88f7 ccbc b4d4 aabd
00000240: 3559 d2bc 573b e0bd e7a3 22bc c8cb ea3d
00000250: a6cf bb3d b8c8 b5bb d83e e43c d075 05bd
00000260: 1e5c bf3d e0ad d13d 442d 153d fc30 b7bd
00000270: 563f e5bd 19e2 e4bd b4de 0cbd 804a 533d
00000280: 5f79 acbd 987c 2b3d 702b 613c e14d 84bd
00000290: b6f8 df3d 0060 e938 f623 d83d a97a 433d
000002a0: 2e9d ca3d 030b dabd 201b 3dbc 4e5e ee3d
000002b0: 30c8 123d 48d9 a33d b276 e33d e688 f2bc
000002c0: 7136 23bd c43d a93d 98c4 a23d 5079 c1bb
000002d0: 5a52 15bd 434d bfbd 0e5b f9bc 9826 78bd
000002e0: dc3f babd 5639 833c 45c5 0fbd 009b abbb
000002f0: b453 dbbd 519e 053d c28f 303d 7863 273d
00000300: cd93 9fbd 636b a6bd 7472 aebc 7ab5 cabd
00000310: cd3b 4b3c dc71 06bd c700 63bb d227 93bd
00000320: 6aa7 f13d 8c30 7b3d ed53 e53d b81e d9bc
00000330: 0e6e e43c d284 f93d c42b afbd 7011 b1bd
00000340: 599b 2f3c 2beb 7cbd 95c6 463d e2a0 f0bd
00000350: 7592 64bd 4b30 13bc fc97 f9bd 993b c13d
00000360: b6d1 d7bd 70c4 55bc b4e2 5b3d b0f1 abbc
00000370: 6891 42bd b4ff f1bd 3492 b4bd 5396 02bd
00000380: e65f 91bc dcf5 233d 309b 4a3c 9b81 7f3d
00000390: 0cef 8e3d ab99 a63d 2898 3c3d 3792 363c
000003a0: 77a5 c23d 0304 1e3b c85f 9b3c f41c d1bc
000003b0: 9022 f5bd 8b3a d4bd 25a0 c2bd e07d a2bb
000003c0: 512a 34bd e0b0 3b3c 223e e43d 689f ccbd
000003d0: 7b15 ef3c c146 ee3d c27b f7bc d82f eabc
000003e0: c043 c83b 9bcd 7c3d b418 5bbd 92e0 a5bd
000003f0: ff8c 843d 52de b63d cd61 75bd de0f 003d
0.101730436 -0.023882234 0.06858028 -0.11045153 -0.11134146 -0.1101681 0.05507479 0.057984218
0.082000256 -0.037642494 -0.075663745 0.038458362 0.110970244 -0.0055334717 0.10655488 -0.0647433
-0.06899059 0.04414047 0.053062376 0.10412887 -0.06949619 0.10924586 -0.111972295 0.104843155
-0.0315341 0.02032125 0.017323773 0.014960885 -0.07882245 0.027447518 -0.048824094 0.032530174
-0.10409409 0.019972904 0.09455676 0.015140071 -0.005427584 -0.051913656 -0.05805874 0.104593515
0.030996384 -0.02993267 -0.00855574 0.06305291 -0.07261329 0.07653921 -0.0021707984 0.015987463
-0.06828237 -0.05951245 -0.03299631 0.113851786 0.09614321 -0.12132675 -0.03965346 0.037638396
0.0768916 -0.0058459053 0.020082679 -0.046117663 0.0031791523 -0.10244592 0.005775661 0.094900064
-0.07182336 -0.063951395 0.123724915 -0.044076003 -0.03623548 0.07997607 -0.08835737 0.05581657
0.08610172 -0.070257366 -0.012492 -0.045840383 0.114281654 -0.02664797 -0.007841374 0.0062916777
-0.10948143 -0.06796137 -0.009823709 -0.019847065 0.08696007 0.082977735 -0.029418655 0.012817127
0.021402596 0.050155237 -0.05178869 0.10846044 0.0016430445 0.0028505877 -0.05677593 0.048901647
-0.08984146 -0.022304675 -0.04278599 -0.03286496 0.01133652 -0.045608565 -0.109024376 0.0742468
0.08730428 0.069061145 0.07595232 -0.060328584 0.10788431 0.03377173 0.11079713 0.07906403
0.024344364 0.119060904 0.063949764 0.0044229436 0.10249599 0.043912243 0.088382766 0.115954354
0.050569907 0.051682357 0.08578254 -0.06961793 0.07875019 -0.05279818 0.1156365 0.07390228
-0.091032445 0.09357315 0.029261809 0.090371214 -0.11360702 -0.024049383 0.026988683 -0.07085942
0.12143803 0.073337615 -0.08147889 -0.12377159 0.092264056 0.075054824 -0.025020376 -0.08341351
-0.025677303 -0.10948818 -0.009926773 0.114646494 0.09170465 -0.005547609 0.027861997 -0.032583058
0.09343742 0.10238242 0.03642012 -0.0894489 -0.11193721 -0.11175937 -0.034392074 0.05158472
-0.08421587 0.04186687 0.013743266 -0.06460167 0.1093611 0.00011128187 0.10553734 0.0477244
0.09893261 -0.106466316 -0.011542112 0.11639081 0.035835445 0.080004275 0.11106624 -0.029606294
-0.03984684 0.08263734 0.079476535 -0.005904354 -0.03645549 -0.093409084 -0.030438926 -0.06058368
-0.090942115 0.01601855 -0.03510024 -0.0052369833 -0.107093245 0.032621685 0.043105848 0.040866345
-0.07791863 -0.08125951 -0.02129481 -0.09897895 0.012404394 -0.03282343 -0.0034637915 -0.071853295
0.1179951 0.061325595 0.11197648 -0.026503906 0.02788451 0.121835366 -0.085532695 -0.08645904
0.01071819 -0.06174771 0.048529226 -0.11749436 -0.055803735 -0.008983682 -0.12187192 0.094351955
-0.10538046 -0.013047323 0.053682998 -0.020989269 -0.04750195 -0.118163496 -0.088169485 -0.03188164
-0.017745923 0.04002939 0.012366101 0.06237946 0.06979188 0.081347786 0.046043545 0.011143259
0.09504216 0.0024111278 0.01896657 -0.025526501 -0.11969483 -0.10362729 -0.095032014 -0.004958853
-0.04398567 0.0114557445 0.111446634 -0.09991342 0.029185047 0.11634589 -0.03021038 -0.028587267
0.006111592 0.06171952 -0.053490356 -0.08099474 0.06472205 0.08929123 -0.059907723 0.031265132

fc3.bias f4 [32]
00000000: 328d 5dbc 4d79 063e b60e 98bc f911 e7bd
00000010: 63dd 173c 40a6 cfbd 3727 203e c428 4bbd
00000020: 12e6 debd 20cd 1cbc 5e2d 623c d16d c6bd
00000030: 0d4e 9ebb 5e55 883d b065 623c 0aef cf3d
00000040: a897 d7bc 15a9 0b3c 61eb 11bd 2488 f4bc
00000050: 2681 51bc 1b10 d93d 1d7a 9ebd 3c00 113c
00000060: ea4f ed3c c88a 06bd 842e 98bd 6438 e43d
00000070: 4477 57bd 52a1 b8bd 0204 403d 821c d63d
-0.013522433 0.1313221 -0.018561702 -0.11282725 0.009269091 -0.101391315 0.1563996 -0.049599424
-0.10883726 -0.00957039 0.013804762 -0.096889146 -0.0048310817 0.066569075 0.0138181895 0.10153015
-0.026317433 0.008524199 -0.035624865 -0.029850073 -0.012787139 0.10598775 -0.07738135 0.008850154
0.02896877 -0.032847196 -0.07430747 0.11143568 -0.052603975 -0.090151444 0.046878822 0.10454656

fc4.weight f4 [6, 32]
00000000: bb1c f8bd 3dd6 db3d 076c c4bd c911 2ebe
00000010: a07d 8dbd 067a 033d 0634 0bbe 2c89 603d
00000020: 1901 323e 5e8c bc3d 8431 2e3e dee2 d43d
00000030: 33d4 933d 46b1 23bd 1228 bd3d 26a5 ee3d
00000040: 04ab 6bbd 9239 0bbe 8f57 323d 99ab 143e
00000050: 8d2a b6bd ef35 4d3d 606d 4b3d d127 6dbd
00000060: b098 24be 9ccd 2c3e b9f7 2ebe 50df 713c
00000070: e88e 07be cd8a 86bd 8c5f 14be 0e5e 953d
00000080: 2873 92bc 90f1 cd3d febe a2bd 6173 173e
00000090: 4a46 d4bd ea23 f93d 965e 00be 660f 2ebe
000000a0: 40ed 523b 8408 2ebe 24e2 d7bd 58da 26be
000000b0: b048 35bd 8c58 55bd 618e 26be cca8 303d
000000c0: 522a 26be 5a7a 4a3c 32b3 503d 9ef6 f83d
000000d0: 2c02 b3bd 7c4b e33d 79d9 13be ad87 cfbd
000000e0: fafa bdbd f201 c3bd a8bc bbbd a224 923d
000000f0: 523f 9f3d e60f 67bb d267 8d3d 407d 05bd
00000100: 0231 1bbd a97e f4bd 8b54 acbd b589 07bd
00000110: 7118 a6bb 91b9 1d3e c79d 0d3e b03c 733c
00000120: f741 1f3e d3b3 d3bd b1fe a4bd a096 983d
00000130: 07f0 aebd 21b8 31be a01d 14be 787d 4b3d
00000140: fe19 bf3d fc09 05be a439 ce3b 2fe5 0f3a
00000150: 5ab5 e4bc a4f7 ac3c abd7 4fbd c6af 97bd
00000160: 9a31 c2bd 38c2 bb3d dcd0 3fbd c2d0 efbd
00000170: a0ca a9bd 09b9 e7bd d0e9 f93d 466a f13d
00000180: e669 f0bd b85e 0a3e 91d8 313d 0364 e03d
00000190: b10d db3d a60a a03d 0f95 09be 0b92 a8bd
000001a0: 1f71 f7bd 8a78 a73d 7ab0 ff3d 42d8 27be
000001b0: 7ba0 aa3d 2b9b 83bd e4eb 883d f628 c23d
000001c0: 86a7 c1bd 90e6 b73d c7ae 1abe fda9 413c
000001d0: af6f c73d 1e32 1ebe 5079 06bc 23c9 0a3e
000001e0: e967 1d3d 8608 e53c 206e ab3c 59fd 103e
000001f0: ba96 9c3d 3313 883b fdc8 203d b6d4 fe3d
00000200: 2097 bf3d 5a1e 02be 549e 25be 3a23 c03d
00000210: 0f70 18be 9f9c 123e 8f33 643d e289 dbbd
00000220: 142e 6abd 615b 1c3e f443 eb3d 0abb bbbd
00000230: 298a e33d 69b1 b8bd 7397 273e aae8 ad3d
00000240: d40f b03d c64b 1fbe d977 0dbe b0ee e83d
00000250: 06d5 243e c2a2 063d bfd8 cc3d 08f9 2dbe
00000260: d7e4 b53d db1c 70bd 5075 283c d3c8 e0bd
00000270: 78c2 b33c a3b8 2a3d 1fe7 1a3e 5d08 2e3e
00000280: ed90 323d 313e 29be a6a7 64bd 84bf febb
00000290: 2c4b cf3d 7a81 1bbe af75 34be 4656 ae3d
000002a0: 2c56 65bd 4d29 223e 3386 e23d e669 bb3b
000002b0: 01a4 943c ae24 393d d419 043d 8bb7 1fbe
000002c0: b18a 433d bd33 04be 9096 da3d 9668 653d
000002d0: d4c3 0d3e 8491 a7bd 07eb 7ebc bd41 e8bb
000002e0: 638d 413d cdfa 8d3d 17f9 233e da1c 08be
000002f0: d00b 033c 6729 edbd 9f04 623d d0a7 7f3d
-0.12114855 0.10734222 -0.09590917 -0.16998972 -0.06908727 0.032098792 -0.13594064 0.054818317
0.17383231 0.092064604 0.17011076 0.10394834 0.07218208 -0.039963983 0.092361584 0.11652593
-0.05753614 -0.1359618 0.043540534 0.14518584 -0.08894835 0.050100263 0.049664855 -0.0578993
-0.1607387 0.16875309 -0.17086686 0.0147627145 -0.13238108 -0.06569443 -0.14489573 0.0729333
-0.017877176 0.1005584 -0.07946585 0.14790107 -0.10364969 0.12165053 -0.12536082 -0.16998062
0.003218487 -0.16995436 -0.1054118 -0.16294229 -0.044258773 -0.052086398 -0.1626525 0.043129727
-0.16227081 0.012358272 0.050952144 0.121564135 -0.087406486 0.11098382 -0.14438428 -0.101333
-0.092763856 -0.095218554 -0.09166843 0.071358934 0.07775749 -0.003525728 0.06904568 -0.03259015
-0.037888534 -0.11938221 -0.08414563 -0.033090312 -0.0050688316 0.15402819 0.13829719 0.014846012
0.15552507 -0.10337033 -0.08056391 0.074506044 -0.08541875 -0.17355396 -0.14464426 0.049680203
0.093311295 -0.1299209 0.0062934924 0.0005489168 -0.027918506 0.021114178 -0.050742786 -0.07406573
-0.09482117 0.09167904 -0.046830043 -0.11709739 -0.08290601 -0.113145895 0.12202799 0.11787848
-0.117389485 0.13512695 0.043419424 0.10956576 0.10695971 0.07814531 -0.13435768 -0.082309805
-0.12082123 0.08177288 0.12484832 -0.1639109 0.083313905 -0.0642608 0.066856176 0.09480469
-0.09455781 0.08979523 -0.15105735 0.0118203135 0.09738099 -0.15448806 -0.008207634 0.1355329
0.038429175 0.027958166 0.020926535 0.14159144 0.07645936 0.0041526794 0.039254177 0.12442915
0.09354997 -0.1270689 -0.16173679 0.09381719 -0.14886497 0.14317559 0.055713233 -0.107196584
-0.05717285 0.15269233 0.114875704 -0.09166534 0.11110336 -0.09018213 0.16366367 0.08491643
0.08596769 -0.15556249 -0.1381525 0.11373651 0.16096887 0.03287006 0.100022785 -0.16989529
0.08881538 -0.05862127 0.010281876 -0.10975804 0.021943316 0.04167999 0.15127228 0.16995378
0.043595243 -0.1652763 -0.055823945 -0.0077742953 0.1012176 -0.1518611 -0.17623018 0.08512549
-0.055990383 0.15836067 0.11060753 0.005719411 0.01814461 0.045200996 0.032251194 -0.1559736
0.04773969 -0.12910362 0.10673249 0.056007944 0.13844234 -0.08182052 -0.015558965 -0.0070879147
0.047253978 0.06932602 0.16012989 -0.13292256 0.007998422 -0.115801625 0.05518019 0.062415898

fc4.bias f4 [6]
00000000: c168 063e 3780 713c e335 033e 411f 9abd
00000010: c6ad 8ebd d641 4abc
0.13125898 0.014740041 0.12813525 -0.075254925 -0.069667384 -0.012344798
