src/params_data/240418_005728/241param.pt (torch, 46927 bytes, 8 tensors)

fc1.weight f4 [128, 4]
000000 57 38 a6 bd cf 1c 81 3e d4 90 e4 3e 15 e4 8d 3e
       -0.08116215 0.25217292 0.44641745 0.27713075
000010 40 ad a9 be f2 30 f0 be be 40 c1 be 40 1f f5 3d
       -0.33139992 -0.46912342 -0.37744707 0.11968851
000020 db b9 06 be 23 3b f5 3e ec cb d6 be 19 44 37 be
       -0.13156836 0.4789668 -0.41952455 -0.17897071
000030 2c 35 db be 00 7a c8 ba 5a 2e a8 be 22 d2 a6 3e
       -0.42814004 -0.0015295148 -0.32847863 0.32582194
000040 70 e4 37 be 16 58 c2 be 73 ef 38 3e a0 b2 17 3d
       -0.17958236 -0.3795783 0.18060093 0.037035584
000050 1c 66 4b be f9 14 4d be cc 28 51 3e 65 b3 99 bd
       -0.1986317 -0.20027532 0.20425719 -0.0750492
000060 71 20 6e be 20 14 81 be 9f 32 b1 3e d2 5f f8 3c
       -0.23254563 -0.25210667 0.34608933 0.030319128
000070 80 5c ac 3b 5c d2 f4 be 46 5f e3 3c 08 9e ab bd
       0.0052600503 -0.4781674 0.02775539 -0.083797514
000080 63 db 9a be 78 63 b0 3e b3 41 45 be 34 5f 8d bd
       -0.30245504 0.3445089 -0.19263344 -0.06902924
000090 b8 b7 f0 3e 30 40 8b 3e 73 36 d9 3e db 6d 04 bf
       0.47015166 0.2719741 0.42424354 -0.51730126
0000a0 78 3d c5 3d 29 ee 28 be c7 d8 c9 3d cd 20 da be
       0.09630865 -0.16497101 0.098558 -0.4260315
0000b0 27 c3 c9 bd 55 c6 d0 3e a9 df 5f bc 70 0e c2 be
       -0.098516755 0.40776315 -0.013664165 -0.3790164
0000c0 17 97 f1 3c 5f 45 79 3e 58 ca 3b be c1 19 03 3f
       0.02949099 0.24342869 -0.18338907 0.5121117
0000d0 3d 90 13 be d5 e9 68 3e c7 24 74 be 33 5a de 3e
       -0.14410491 0.2274545 -0.23842154 0.43428192
0000e0 0c 64 38 be 28 b9 c2 be 46 8a 81 3e e1 38 6c bb
       -0.18006915 -0.38031888 0.25300807 -0.0036044645
0000f0 3e 77 d9 3e 60 49 cc be 00 5e 3a be b8 04 78 be
       0.42473787 -0.3989973 -0.1819992 -0.2422055
000100 0c 7b c0 3e 90 4c 1c be 08 db c4 bd f0 96 72 3e
       0.37593877 -0.15263581 -0.096120894 0.2369039
000110 c6 81 f3 be d1 ae 1d bd 54 34 a1 3e b7 07 e1 be
       -0.47559947 -0.038496796 0.31485236 -0.43951198
000120 e8 b6 ea 3d 1c 5a 40 be 98 fb aa bd 4c 85 f5 3e
       0.11460668 -0.18784374 -0.08348769 0.4795326
000130 cc 79 b9 3e b0 20 b6 be f9 3e 51 3e 6f 8f 0f be
       0.36225736 -0.35571814 0.20434178 -0.1401956
000140 3b 05 50 3c d9 78 46 3e e2 d6 9d 3e a9 2d d0 be
       0.01269656 0.19382037 0.30828005 -0.40659836
000150 5d 81 dd 3e d2 b1 27 3d a1 5a 7a 3e 45 d9 56 3e
       0.4326276 0.040941067 0.24448635 0.20981319
000160 90 67 17 3d 56 1e f6 be 3a 10 f2 be be d6 db be
       0.036964 -0.4807002 -0.47278005 -0.42937273
000170 4e 67 c2 be de 85 a8 3e 77 80 3b 3e ee 08 a0 be
       -0.3796944 0.32914633 0.18310724 -0.31256813
000180 91 51 82 3e a9 f0 bb 3e 39 b6 7d be 8f 9c 94 3e
       0.25452855 0.36707047 -0.24776544 0.29025695
000190 a7 d2 ca be c6 9d 35 3d c5 c5 1b bd 21 82 fd 3e
       -0.3961384 0.044339918 -0.038030405 0.49513343
0001a0 67 ba 12 be 7c c9 49 be 9e 3f 82 3e ab 36 01 3e
       -0.1432892 -0.19705766 0.2543916 0.1261851
0001b0 32 50 4d 3e 2c 4c 94 3e 9e af a0 be 46 50 d5 3e
       0.20050123 0.28964365 -0.31383985 0.41662806
0001c0 50 ec f9 be 72 06 cc 3e 06 1c 0a 3d 2a 50 7b be
       -0.48813105 0.39848667 0.03371813 -0.24542299
0001d0 00 c1 1b bd e5 38 ba 3e f1 14 cb 3e 79 e3 f2 3d
       -0.038025856 0.36371532 0.39664415 0.11859793
0001e0 18 8d d2 3e 08 73 bf bd 7c 35 6c be 0e d3 b6 be
       0.4112327 -0.09348112 -0.23067278 -0.35707897
0001f0 a5 82 f4 3e 01 7a 94 3e 2a ad be 3c 20 10 9b 3e
       0.47755924 0.28999332 0.02327593 0.3028574
000200 87 d1 63 bd b1 75 ca 3e b9 75 a2 bd 0f 1a 88 3e
       -0.055619743 0.39542916 -0.0793261 0.2658238
000210 e4 05 d8 3e c5 c6 ed 3b 31 e9 cf 3e 11 9e d0 3c
       0.42191994 0.007256361 0.40607598 0.025465997
000220 50 eb ae 3d e2 5e ec 3e 5e 3b 7c be 7c 5b 3d be
       0.08540976 0.4616614 -0.24632022 -0.1849193
000230 60 1b 03 3d 52 d5 d8 be b0 68 14 be 20 5a cd 3d
       0.03200853 -0.4235025 -0.1449306 0.100269556
000240 03 44 ce 3e 5b a1 c6 bc 18 45 fb 3e eb 73 96 3e
       0.40286264 -0.024246862 0.49076152 0.29385313
000250 51 be 34 3e 62 a9 90 3e 44 a0 d0 be f3 1b ec 3e
       0.17650725 0.2825423 -0.40747273 0.46115074
000260 a0 85 6d 3d a0 76 4b be c4 7e 92 3d 98 fc ca bd
       0.057988763 -0.1986947 0.07153085 -0.0991146
000270 10 56 c4 3d 7e 4a fa 3e ee 34 17 3e 69 95 20 3e
       0.095867276 0.48884958 0.14766285 0.15681995
000280 35 85 18 bc d5 3c aa 3e 0b 6a 20 3e 4d d3 de be
       -0.009309103 0.33249536 0.15665452 -0.43520585
000290 82 86 ae 3e 40 ef cf be 28 2f cf bd c0 da ea 3d
       0.34086996 -0.4061222 -0.10116416 0.114675045
0002a0 06 54 ad be 82 ec b6 be ca 59 14 3e b0 b8 fd bd
       -0.33853167 -0.35727316 0.14487377 -0.12388742
0002b0 82 54 bd be 1a 41 c6 3e f9 8b 9a 3e 4a 60 19 3e
       -0.36978537 0.38721544 0.30184916 0.14978138
0002c0 88 b8 15 3e 0d 11 fd 3e 09 4e c6 be 2f 24 7f be
       0.14621174 0.4942707 -0.3873141 -0.24916147
0002d0 1b a9 86 3e 19 f9 94 3d 6b a7 4e be ae 58 04 be
       0.26300892 0.07274074 -0.20181052 -0.12924454
0002e0 51 d2 ad bd 82 28 89 3e f5 d1 44 be 5d ea 04 be
       -0.0848738 0.26788718 -0.19220717 -0.12980027
0002f0 c8 46 84 bc 50 63 0c 3d 98 f7 23 be 2a 44 08 be
       -0.016147032 0.0342744 -0.16012418 -0.13307253
000300 fa 86 8a 3e 0a d2 c0 be fc 32 db be 80 0c 36 3d
       0.27056104 -0.37660247 -0.42812335 0.044445515
000310 1f 65 d1 3e 88 aa e4 3b fd 1d d4 be 5a aa 8c be
       0.40897462 0.0069783367 -0.4142913 -0.27473718
000320 c8 d4 ef be eb 28 1f 3e 18 1e ab be 93 3c 8f be
       -0.46842027 0.15542953 -0.33421397 -0.27975902
000330 77 3a 28 be 8c a1 84 3e 3f fc bd 3b e6 82 d6 3d
       -0.16428553 0.259045 0.0057978923 0.10474186
000340 10 1e 1c 3e 83 93 0c be c6 79 97 3e a3 04 01 bf
       0.15245843 -0.13728146 0.29585093 -0.503977
000350 bd cf b7 3e ed 6d c0 3e 87 14 1d bd 15 6b 11 be
       0.3590068 0.37583867 -0.038349655 -0.14201005
000360 1e 8f c5 3e f2 66 e6 be 04 e4 89 3e dd 37 30 be
       0.38585752 -0.45000416 0.26931775 -0.1720881
000370 80 d1 17 bd 00 19 9d bd 60 b8 8e be 78 22 bd be
       -0.03706503 -0.07670784 -0.27875042 -0.3694036
000380 dc 4f 2d be 9e 56 82 be 28 c6 d5 bd 40 b8 47 3e
       -0.16924995 -0.2545671 -0.10438186 0.1950388
000390 18 d8 aa be 3c bd 1e be d0 93 57 3d a0 e9 6c be
       -0.3336799 -0.15501875 0.0526312 -0.23135996
0003a0 ce 0b 92 3e 28 4c 6a 3e 90 9a d1 3d db 14 31 be
       0.2852463 0.22880614 0.102345586 -0.17293112
0003b0 d8 a4 e4 3d 4e 8e 68 be c2 f1 e5 3d c3 d3 c4 3e
       0.11164254 -0.22710535 0.11227752 0.3844281
0003c0 94 ab f7 bd c0 53 54 3e d7 4b ae 3e 7d 1f 08 3f
       -0.12093273 0.20735073 0.34042236 0.5317305
0003d0 7e f3 9d be f8 59 d6 be 66 59 ad be 00 e0 79 3a
       -0.30849832 -0.41865516 -0.33857268 0.0009531975
0003e0 10 05 e0 be 86 c6 80 3e 86 e1 e4 be 86 24 95 bd
       -0.43753862 0.2515146 -0.4470331 -0.07282357
0003f0 47 e4 9e be 0d 6a 4d 3e 5d 2f 9b 3d fe ad 82 3e
       -0.31033537 0.20059986 0.07577393 0.2552337

fc1.bias f4 [128]
000000 c6 0f c1 be b6 73 ff 3e 80 6a e0 be f0 47 06 bd
       -0.37707347 0.49892968 -0.43831253 -0.03278345
000010 13 63 9c be f9 5c a3 3e 99 30 9f 3c 9a 77 1c be
       -0.30544338 0.3190687 0.019432353 -0.1528
000020 0d c6 a1 be f4 eb 32 be 14 b0 4f 3d be c2 54 be
       -0.31596413 -0.17472821 0.05070503 -0.20777413
000030 81 b2 ff 3e 1b 9d 46 3e 24 3f 9a be a2 ce 9f be
       0.49940875 0.19395868 -0.30126297 -0.31212336
000040 ba 3f f4 be ac f9 f3 3e a0 f6 f1 3d b7 a1 e8 3e
       -0.4770487 0.47651422 0.11814618 0.4543588
000050 07 93 6d be fb 91 83 be e4 4c 85 be 84 07 28 3e
       -0.23200618 -0.25697312 -0.26035225 0.16409117
000060 7c e0 f2 be 5d d8 a5 3e e9 bb 1a be 0d 26 32 be
       -0.47436893 0.32391635 -0.15110745 -0.17397328
000070 24 1f f5 3e ff 07 86 be 80 90 b1 bd 37 b5 d5 3e
       0.4787532 -0.26177976 -0.08670139 0.41739818
000080 6e 7d 75 3e 07 06 3c 3e 18 e4 01 3f c8 ea 88 3d
       0.23973629 0.18361674 0.5073867 0.06685406
000090 cc 18 ee be b4 b5 d8 be e6 69 6c be 8e b7 f2 be
       -0.46503294 -0.42326128 -0.23087272 -0.47405666
0000a0 0f 2f 78 3c 28 0b 3a be 8c 4a 25 be 0b 5f b7 3e
       0.015147938 -0.18168318 -0.16141719 0.358147
0000b0 6e f0 e6 be 6f 2d 03 3f cd 26 54 3e d7 01 d5 3e
       -0.45105308 0.512412 0.20717926 0.41602966
0000c0 56 54 90 be 8f 67 86 be eb 7c 9d be b6 fe f7 be
       -0.28189343 -0.26250884 -0.30759367 -0.48436517
0000d0 12 dd f6 3e 05 6a 9b be ab 21 8e 3d 36 1b a8 be
       0.48215538 -0.30354324 0.069400154 -0.3283326
0000e0 00 bf 54 3e da ac 14 be dc 90 8b 3e ad 29 53 be
       0.20775986 -0.14519063 0.27258956 -0.20621367
0000f0 fc e5 d1 3e 74 e0 e6 3e 35 e2 85 be 53 7f f5 3e
       0.40995777 0.4509312 -0.26149145 0.47948703
000100 51 7a b6 be e2 ab ac 3d 17 3c 9a 3b 0f 10 82 3e
       -0.35640195 0.084312215 0.0047068703 0.25402877
000110 30 c9 d2 3e 71 e8 bb be d6 d4 7e be 5a 0a a6 be
       0.4116912 -0.36700776 -0.24885878 -0.32429773
000120 00 28 da 3d e8 41 4e 3e 76 45 2b be fe b9 c8 3e
       0.10652161 0.20142329 -0.16725716 0.392044
000130 08 ef ba 3e 41 33 e7 3e 8a 18 be bd 40 7c 8d bc
       0.3651049 0.4515629 -0.09282024 -0.017271161
000140 e5 2e e8 3e 5c 8a 93 be e4 0b 31 3e 36 9b 30 be
       0.45348278 -0.28816497 0.17289692 -0.17246708
000150 ce 75 b9 3e 2c 27 23 bc d0 61 92 3e b0 70 0d bd
       0.3622269 -0.00995807 0.2859025 -0.034531295
000160 0d 2a 08 3e 65 e0 62 be d5 49 78 3d df 3d 18 3d
       0.13297291 -0.22155912 0.060617287 0.03716838
000170 6c 79 a6 3e 20 27 96 bd 4a f1 b8 be d8 a4 59 bd
       0.32514513 -0.07331681 -0.3612159 -0.053135723
000180 88 e0 9a be 81 34 dc 3e 28 60 ad bd 60 e6 ec 3c
       -0.3024943 0.43008807 -0.08465606 0.028918445
000190 dc 2c 6d bb 14 62 a2 3d 58 ce c8 3e b4 77 5e 3e
       -0.0036190068 0.07928863 0.39219928 0.2172535
0001a0 46 ed fa be bb 1c d6 3e 38 d3 da be b8 b7 5a be
       -0.4900915 0.41818795 -0.42739272 -0.21359146
0001b0 6f 17 28 3d 09 96 9a 3e 22 c3 d4 be 88 f4 91 be
       0.041037973 0.30192593 -0.41555125 -0.28506875
0001c0 67 68 ef be e0 10 9e bc 16 4e 75 3e 19 4d 48 3e
       -0.4675934 -0.019295156 0.23955569 0.1956066
0001d0 aa 0a fd be 8a aa a3 be 40 73 70 3c 76 6c d7 be
       -0.494222 -0.31966048 0.014675915 -0.42074937
0001e0 a8 9a 68 3e f0 42 5e be 05 f2 e7 3e e1 4a 0f bd
       0.22715247 -0.21705222 0.45301834 -0.03498352
0001f0 29 60 ca be c7 d1 a1 3e 1d 73 c3 3e 6b e1 74 3e
       -0.3952649 0.3160536 0.38173762 0.23914115

fc2.weight f4 [64, 128]
000000 6c 8b 85 bd 19 90 52 bd 99 59 63 3b 4f b9 91 3d
       -0.06520733 -0.051406953 0.0034690856 0.07115423
000010 ef 5c 39 3d 45 46 85 3d 12 f4 57 3c 56 75 aa bd
       0.045254644 0.065075435 0.0131807495 -0.08323161
000020 67 44 c6 bb 49 fb 9e 3d 1d 13 01 bd 89 88 9c 3d
       -0.0060506347 0.077627726 -0.03151237 0.076432295
000030 f5 f6 c3 bd 57 9d a6 bd 52 99 68 3d 34 27 9e bd
       -0.09568588 -0.08135479 0.056786843 -0.07722321
000040 3c e5 61 bd 88 7c 15 3d ec fd 88 bd d2 2c f4 bc
       -0.055150256 0.036495715 -0.06689057 -0.029806528
000050 0f 9c a2 bb 12 ff 84 3b 44 d7 53 bd ec b3 2e bd
       -0.0049624513 0.004058727 -0.051718965 -0.042652056
000060 34 f8 7c bd 5a 17 62 3d c0 34 68 3b ab f6 d0 3b
       -0.061760142 0.05519805 0.0035431832 0.0063770614
000070 dc c5 b3 bc 2c 07 c5 bc b0 f1 be 3b 05 0e 84 bd
       -0.021944933 -0.024051271 0.0058271512 -0.064479865
000080 6b 7c b7 bd b0 30 52 bb 5e 0a 98 bd fb 79 8d bd
       -0.08959278 -0.0032072477 -0.074238524 -0.069080316
000090 65 34 78 3c 23 d3 93 3d 58 65 b8 3c 1d 0b 78 bc
       0.015149211 0.072180055 0.022509262 -0.015139368
0000a0 db 56 ad 3d 80 6a 11 ba 3f 96 9b bc a9 90 73 3d
       0.08463832 -0.0005547181 -0.018992541 0.05946413
0000b0 5d e6 44 bc 60 2d 0c 3b b3 1a 9a bd b0 7d 07 bd
       -0.0120178135 0.002138935 -0.07524624 -0.03307885
0000c0 24 25 18 bd d5 80 a6 3d f3 57 85 bd 63 90 9c 3d
       -0.037144795 0.081300415 -0.065109156 0.07644727
0000d0 e3 49 6d 3d 82 cb 65 bd ae f3 81 bd 53 48 a8 bd
       0.057931792 -0.056102283 -0.06345306 -0.0821692
0000e0 1c 89 ec bc 0b 55 ff 3c 83 31 94 bd cd af 78 3c
       -0.028873973 0.031168481 -0.07236006 0.015178633
0000f0 5d f7 9e 3c 95 5e 8b 3d 80 5f c4 3b fd 04 37 bb
       0.019405061 0.068051495 0.00599283 -0.0027926557
000100 d9 91 8e 3d a2 19 b3 bd d5 30 ad 3d 8f f9 a2 3d
       0.06961412 -0.087451234 0.084565796 0.07957756
000110 a0 93 7f bc 78 a2 2c 3d 8b cb 0c bd 78 9b 2f 3c
       -0.015599161 0.04214713 -0.0343738 0.010718219
000120 af 63 83 bd 4d 18 1c bd 45 f4 08 3d c8 67 5b 3c
       -0.064154975 -0.038109113 0.03343608 0.013391443
000130 06 85 e3 bc ce 03 ac bd d0 36 7d bd 49 17 16 3d
       -0.027773391 -0.08399163 -0.06181985 0.0366433
000140 f2 80 a5 3d dd 05 99 bd 94 e0 8c bd e6 78 65 bd
       0.08081235 -0.074718215 -0.068787724 -0.0560235
000150 28 71 37 3c e0 64 e4 bc 84 29 ec 3c 4f d7 85 3d
       0.011196412 -0.027880132 0.02882839 0.065352075
000160 4c d3 3c bd c1 93 51 3d 1e 2b 6c bc b5 51 90 bd
       -0.046099946 0.0511663 -0.014414577 -0.070468344
000170 f2 02 44 bd 50 59 ac bd 95 ab 89 3d 89 09 93 bc
       -0.04785437 -0.084154725 0.0672218 -0.017948883
000180 e6 15 7e 3d bc 5e 67 3d 08 4d c5 3c 4d 80 b2 bd
       0.062032603 0.05648683 0.024084583 -0.08715878
000190 8e cb 74 3d e9 03 3b 3d c3 42 a0 bd 70 1d 6f bd
       0.059764437 0.045658026 -0.07825234 -0.058377683
0001a0 2f b8 0e bc 6a 52 20 bb f4 6a 52 3d bf 41 fa 3a
       -0.008710905 -0.0024463185 0.05137153 0.001909308
0001b0 fa 90 9a bd 40 9a be bb 84 cb b7 bd c4 95 dd bc
       -0.07547183 -0.005816728 -0.089743644 -0.027048953
0001c0 ad 9e e7 bb 9a 63 61 3d 03 9c ab 3d 6c 43 a5 bd
       -0.007068476 0.055026628 0.08379366 -0.080695
0001d0 a8 39 81 bc ae 57 bb bc e0 b0 6e bd 33 4f 5a bd
       -0.015774563 -0.022868957 -0.05827415 -0.053298187
0001e0 35 df 1a 3c 2e 5f 16 3c c3 fb 77 bd dd a9 5c 3d
       0.009452631 0.009177966 -0.060542833 0.05387293
0001f0 55 11 63 bd 16 c0 9d 3c f1 28 d0 bc 76 1b e7 bc
       -0.05543645 0.019256633 -0.025410147 -0.028211337
000200 ab 6c 5f bc c8 d4 3c bd 82 bb 6c bd 53 bf 9e 3d
       -0.013636748 -0.04610136 -0.05779601 0.07751336
000210 00 3e 47 bc 76 0a 96 bd 80 f3 15 bd 3c 64 7f 3b
       -0.012160778 -0.07326214 -0.036609173 0.0038969656
000220 22 76 68 3d a4 59 9c 3d c0 cc 9f bd 6b ed 80 3d
       0.056753285 0.07634285 -0.07802725 0.06295284
000230 f3 a3 12 3b 37 e5 31 3d 59 a8 a5 3d 66 a6 10 3d
       0.0022375553 0.043431487 0.080887504 0.03531494
000240 e0 33 8f 3b 21 cb 3c bd ec 76 9c 3c 8b aa 8c 3d
       0.0043701977 -0.046092156 0.019099675 0.06868466
000250 b5 21 57 3d 9d 3f 83 3d f8 1d 77 3c ab b0 0f 3d
       0.05252238 0.06408618 0.015082829 0.035080593
000260 19 91 94 3d 03 6b ae bd 66 52 53 3d 8c 1a b0 bd
       0.07254238 -0.085165046 0.051592253 -0.085988134
000270 43 64 9b 3c f5 8b 98 3d f8 3d af bc ee a2 8e bd
       0.018968707 0.0744857 -0.021391854 -0.0696467
000280 e6 06 89 3a fc 9b 24 bc 9a e3 4d bc 16 6e 32 3d
       0.0010454326 -0.010046955 -0.0125664715 0.043562017
000290 2f e8 1c bd 46 d5 55 3d e8 f5 ac bb 1c 10 80 3b
       -0.038307365 0.052205347 -0.0052783377 0.0039081704
0002a0 e6 5c 23 bd ee 24 59 3d 2a b1 13 bd ec f2 26 3d
       -0.039883517 0.053013735 -0.03605763 0.040759012
0002b0 03 1e bb bc 4d b2 91 3c 32 e1 90 bd 8c 79 b6 3c
       -0.02284146 0.017785216 -0.070742026 0.022274755
0002c0 35 2a 06 bd e6 e6 55 bd 76 22 9c bc 12 94 92 3c
       -0.032755096 -0.052222155 -0.019059401 0.017892871
0002d0 e8 24 3e 3d f6 c9 48 3d b0 c8 51 bd 75 33 88 bd
       0.046421915 0.04902073 -0.05121678 -0.0665044
0002e0 7a 71 48 3d 5c 05 fa 3b be 95 e2 3c f7 09 95 ba
       0.048936345 0.0076300334 0.027659293 -0.0011370768
0002f0 18 8d 82 bd b2 bb 28 bd f8 2a b0 3d 91 38 53 bd
       -0.06374568 -0.041194625 0.08601946 -0.051567618
000300 97 8a 9a 3d 2c 76 29 bd fb c0 d2 3c 92 0f e2 bc
       0.07545965 -0.041372463 0.025726786 -0.027595315
000310 aa 9a 10 bd a8 0c 7a 3d 66 a4 68 bc 3f 2a 12 bd
       -0.03530375 0.061047226 -0.014199352 -0.03568482
000320 5b 4c 85 3d ca f7 4f 3b 49 d4 90 3d 58 de a9 bd
       0.06508704 0.0031733387 0.0707174 -0.08294362
000330 e0 41 08 3b 3b 84 71 bb 85 96 8f 3d c6 a7 61 3c
       0.0020791218 -0.0036852497 0.07011131 0.01377291
000340 66 67 69 bd 1e 65 97 3d 53 e6 93 3d 04 06 68 3d
       -0.056983374 0.073923334 0.07221665 0.056646362
000350 98 a3 7b 3c 19 4c 69 bc 00 f7 ee 3b e6 41 1a 3d
       0.015358828 -0.0142393345 0.0072926283 0.037660502
000360 ea d7 85 bc d5 18 94 3d 15 04 96 3d b8 66 39 bc
       -0.016338307 0.07231299 0.07324997 -0.011315994
000370 f6 93 17 bd 8c fc 94 bc aa 8c 06 3d 6f 8d bb bd
       -0.03700634 -0.01818683 0.03284899 -0.09157836
000380 15 ac 87 bc 5f 90 17 bb 04 b9 e5 3c 00 98 28 38
       -0.016561547 -0.0023126823 0.028042324 4.0195882e-05
000390 a5 17 95 bd 83 80 3a 3d e7 04 39 bd 0e 85 19 3d
       -0.072799005 0.045532715 -0.04517069 0.037480406
0003a0 e7 fb 1c bd 22 ad 62 3c d6 b5 28 ba 2a de ea 3c
       -0.03832617 0.013835223 -0.0006435787 0.02867039
0003b0 ae 55 76 bd 47 d6 5e bd d0 cf 1b bc fe 77 91 bd
       -0.060140304 -0.05440357 -0.009509996 -0.07102965
0003c0 4b 35 33 bd ff d5 89 3d d1 d5 85 3d 4b d3 37 3c
       -0.043751996 0.0673027 0.06534923 0.01121981
0003d0 4a c4 77 3d 73 30 6b 3d 40 e9 81 bb cc e3 aa bd
       0.06048993 0.05741925 -0.003964573 -0.0834423
0003e0 ee 0e 48 bd ef c3 0f bd 1d 62 f3 3c a7 9a 40 bd
       -0.048842363 -0.035098966 0.02970987 -0.047022488
0003f0 cd 46 17 3d 6e f4 41 bd 25 73 a4 3d 5c 92 36 3d
       0.036932755 -0.047352247 0.080297746 0.044573173

fc2.bias f4 [64]
000000 84 96 b3 3d e2 1b c8 bb 0e c4 5f bd f6 c5 f3 3c
       0.08768943 -0.0061068395 -0.05463033 0.029757481
000010 f9 7f a8 3c 85 07 ad 3c df 78 6e 3d aa 8f 81 bc
       0.020568835 0.02112175 0.05822074 -0.015815575
000020 3a a1 a1 bc 86 21 5d 3d 6a 02 4b bd c7 b8 a5 bd
       -0.0197302 0.05398705 -0.04956285 -0.08091884
000030 81 a1 8e 3d 41 5f 95 3d 1d 88 ad 3d d3 a9 51 3d
       0.06964398 0.07293559 0.08473227 0.051187348
000040 a2 99 e0 3c dc d8 64 3d b9 d3 65 bd 61 5f 8e 3d
       0.027417008 0.055870876 -0.056110118 0.06951786
000050 a1 86 d2 bb 83 a0 e6 3d 17 30 ec 3d bc bd a4 3d
       -0.0064247404 0.11261084 0.1153261 0.080440015
000060 cc 83 23 3c f9 1e 91 3d 1f 1e 9d bd 50 a9 c2 3c
       0.009980153 0.07085986 -0.07671761 0.023762375
000070 c0 ce 74 3d b5 9e 92 3d 06 81 d8 bc 59 93 aa bd
       0.059767485 0.07159177 -0.02642871 -0.083288856
000080 83 45 f4 bb db 81 27 3d 41 39 b1 3d 67 f4 c2 3d
       -0.0074545755 0.040895324 0.086534984 0.09519272
000090 9e 1a 0d bd ef e0 d1 bc 90 f5 02 3c ae 6f fa 3c
       -0.034449212 -0.025619952 0.007993117 0.030570831
0000a0 b5 ee f5 bc e1 24 56 3c 34 65 b4 bd f3 e8 20 3d
       -0.030021051 0.013070316 -0.088083655 0.039284658
0000b0 6e 3e 5b bd 04 e3 0b 3d 1c 06 a6 3d 7b 6c 64 bd
       -0.053526334 0.034152046 0.08106634 -0.055767518
0000c0 a0 06 9c bd fa ba 42 3d 7a 9a 36 3d 29 40 a0 3d
       -0.07618451 0.047541596 0.044580914 0.078247376
0000d0 cd 31 53 bd 1a 06 6f 3d 75 19 83 3d 90 7a 9d bc
       -0.051561166 0.05835543 0.0640134 -0.019223481
0000e0 6c 90 cf bc 88 55 91 3d 5a 70 07 bc 2e 9c 48 3d
       -0.02533742 0.07096392 -0.008266533 0.04897707
0000f0 70 c5 08 3d c7 b9 a7 3d 01 65 74 bd 89 57 ad bb
       0.033391416 0.08189731 -0.059666637 -0.005289976

fc3.weight f4 [32, 64]
000000 0c 58 d0 3d ad a4 c3 bc d1 73 8c 3d 69 34 e2 bd
       0.101730436 -0.023882234 0.06858028 -0.11045153
000010 fe 06 e4 bd d0 9f e1 bd 1a 96 61 3d dc 80 6d 3d
       -0.11134146 -0.1101681 0.05507479 0.057984218
000020 c0 ef a7 3d 04 2f 1a bd 98 f5 9a bd 84 86 1d 3d
       0.082000256 -0.037642494 -0.075663745 0.038458362
000030 5e 44 e3 3d 20 52 b5 bb 72 39 da 3d 23 98 84 bd
       0.110970244 -0.0055334717 0.10655488 -0.0647433
000040 f0 4a 8d bd a3 cc 34 3d ef 57 59 3d 84 41 d5 3d
       -0.06899059 0.04414047 0.053062376 0.10412887
000050 05 54 8e bd 4b bc df 3d bb 51 e5 bd 02 b8 d6 3d
       -0.06949619 0.10924586 -0.111972295 0.104843155
000060 e7 29 01 bd c0 78 a6 3c 96 ea 8d 3c 80 1e 75 3c
       -0.0315341 0.02032125 0.017323773 0.014960885
000070 aa 6d a1 bd 9e d9 e0 3c c6 fb 47 bd 5c 3e 05 3d
       -0.07882245 0.027447518 -0.048824094 0.032530174
000080 48 2f d5 bd 37 9e a3 3c f9 a6 c1 3d 0f 0e 78 3c
       -0.10409409 0.019972904 0.09455676 0.015140071
000090 e0 d9 b1 bb 6a a3 54 bd 00 cf 6d bd 20 35 d6 3d
       -0.005427584 -0.051913656 -0.05805874 0.104593515
0000a0 21 ec fd 3c 5c 35 f5 bc 60 2d 0c bc e2 21 81 3d
       0.030996384 -0.02993267 -0.00855574 0.06305291
0000b0 47 b6 94 bd 97 c0 9c 3d f4 43 0e bb 24 f8 82 3c
       -0.07261329 0.07653921 -0.0021707984 0.015987463
0000c0 a1 d7 8b bd 54 c3 73 bd 24 27 07 bd 20 2b e9 3d
       -0.06828237 -0.05951245 -0.03299631 0.113851786
0000d0 bb e6 c4 3d 29 7a f8 bd ab 6b 22 bd b8 2a 1a 3d
       0.09614321 -0.12132675 -0.03965346 0.037638396
0000e0 58 79 9d 3d 02 8f bf bb 6e 84 a4 3c e0 e5 3c bd
       0.0768916 -0.0058459053 0.020082679 -0.046117663
0000f0 53 59 50 3b 2b cf d1 bd c2 41 bd 3b f7 5a c2 3d
       0.0031791523 -0.10244592 0.005775661 0.094900064
000100 9e 2f 93 bd ac 9f 82 bd ec b0 fd 3d da a3 33 bd
       -0.07186817 -0.06378111 0.12387261 -0.043857433
000110 fb ed 13 bd a6 fc a3 3d ce 99 b4 bd fa 3a 65 3d
       -0.036115628 0.08007173 -0.088183984 0.055964448
000120 2f 9a b0 3d 18 e3 8f bd 1f 3f 4a bc 20 c3 3b bd
       0.08623158 -0.070257366 -0.012344151 -0.045840383
000130 c2 56 ea 3d d8 4c da bc 9c a1 fb bb be 75 d7 3b
       0.11442329 -0.02664797 -0.0076791774 0.0065753153
000140 00 c8 df bd d5 dc 8a bd 0c ef 1e bc 50 96 a2 bc
       -0.10926819 -0.067804016 -0.009700548 -0.019847065
000150 58 68 b2 3d a1 3d aa 3d 7e 35 ef bc 76 75 52 3c
       0.08711308 0.08312536 -0.029200312 0.012845388
000160 3a d8 b0 3c 94 6f 4d 3d df 3f 53 bd 82 20 de 3d
       0.02158748 0.050155237 -0.051574584 0.10846044
000170 05 ad df 3a 78 70 41 3b 7f f0 67 bd 80 ef 48 3d
       0.0017065114 0.00295165 -0.05662584 0.04905653
000180 c0 a3 b7 bd 68 76 b5 bc 0f a5 2e bd b0 00 06 bd
       -0.0896678 -0.022151187 -0.04263788 -0.0327155
000190 d0 bc 39 3c 85 2d 3a bd 2c 48 df bd 74 75 98 3d
       0.01133652 -0.045453567 -0.109024376 0.074442774
0001a0 ef 1e b3 3d 05 c6 8d 3d e4 8c 9b 3d 48 ac 76 bd
       0.087461345 0.06922535 0.07595232 -0.060222894
0001b0 73 f2 dc 3d 3d 86 0a 3d 4d 35 e3 3d 4e 90 a2 3d
       0.10788431 0.033819426 0.11094151 0.0793768
0001c0 cd 77 c8 3c 34 d6 f3 3d 18 f8 82 3d 57 ee 90 3b
       0.024471188 0.119060904 0.063949764 0.0044229436
0001d0 67 4a d2 3d 26 9b 34 3d 2a 59 b5 3d 7a 79 ed 3d
       0.10268097 0.044093274 0.08854897 0.115954354
0001e0 64 22 4f 3d e1 b0 53 3d 52 09 b0 3d d8 93 8e bd
       0.050569907 0.051682357 0.08595528 -0.06961793
0001f0 b7 9f a1 3d 92 6b 57 bd d5 f2 ec 3d bf 76 97 3d
       0.07891791 -0.05259282 0.11569754 0.07395696
000200 38 6f ba bd 48 a3 bf 3d 76 b6 ef 3c 8b 14 b9 3d
       -0.091032445 0.09357315 0.029261809 0.090371214
000210 cc aa e8 bd 36 03 c5 bc 5f 17 dd 3c be 1e 91 bd
       -0.11360702 -0.024049383 0.026988683 -0.07085942
000220 80 b4 f8 3d 08 32 96 3d 67 de a6 bd f6 7b fd bd
       0.12143803 0.073337615 -0.08147889 -0.12377159
000230 f0 f4 bc 3d 58 b6 99 3d 88 f7 cc bc b4 d4 aa bd
       0.092264056 0.075054824 -0.025020376 -0.08341351
000240 35 59 d2 bc 57 3b e0 bd e7 a3 22 bc c8 cb ea 3d
       -0.025677303 -0.10948818 -0.009926773 0.114646494
000250 a6 cf bb 3d b8 c8 b5 bb d8 3e e4 3c d0 75 05 bd
       0.09170465 -0.005547609 0.027861997 -0.032583058
000260 1e 5c bf 3d e0 ad d1 3d 44 2d 15 3d fc 30 b7 bd
       0.09343742 0.10238242 0.03642012 -0.0894489
000270 56 3f e5 bd 19 e2 e4 bd b4 de 0c bd 80 4a 53 3d
       -0.11193721 -0.11175937 -0.034392074 0.05158472
000280 5f 79 ac bd 98 7c 2b 3d 70 2b 61 3c e1 4d 84 bd
       -0.08421587 0.04186687 0.013743266 -0.06460167
000290 b6 f8 df 3d 00 60 e9 38 f6 23 d8 3d a9 7a 43 3d
       0.1093611 0.00011128187 0.10553734 0.0477244
0002a0 2e 9d ca 3d 03 0b da bd 20 1b 3d bc 4e 5e ee 3d
       0.09893261 -0.106466316 -0.011542112 0.11639081
0002b0 30 c8 12 3d 48 d9 a3 3d b2 76 e3 3d e6 88 f2 bc
       0.035835445 0.080004275 0.11106624 -0.029606294
0002c0 71 36 23 bd c4 3d a9 3d 98 c4 a2 3d 50 79 c1 bb
       -0.03984684 0.08263734 0.079476535 -0.005904354
0002d0 5a 52 15 bd 43 4d bf bd 0e 5b f9 bc 98 26 78 bd
       -0.03645549 -0.093409084 -0.030438926 -0.06058368
0002e0 dc 3f ba bd 56 39 83 3c 45 c5 0f bd 00 9b ab bb
       -0.090942115 0.01601855 -0.03510024 -0.0052369833
0002f0 b4 53 db bd 51 9e 05 3d c2 8f 30 3d 78 63 27 3d
       -0.107093245 0.032621685 0.043105848 0.040866345
000300 cd 93 9f bd 63 6b a6 bd 74 72 ae bc 7a b5 ca bd
       -0.07791863 -0.08125951 -0.02129481 -0.09897895
000310 cd 3b 4b 3c dc 71 06 bd c7 00 63 bb d2 27 93 bd
       0.012404394 -0.03282343 -0.0034637915 -0.071853295
000320 6a a7 f1 3d 8c 30 7b 3d ed 53 e5 3d b8 1e d9 bc
       0.1179951 0.061325595 0.11197648 -0.026503906
000330 0e 6e e4 3c d2 84 f9 3d c4 2b af bd 70 11 b1 bd
       0.02788451 0.121835366 -0.085532695 -0.08645904
000340 59 9b 2f 3c 2b eb 7c bd 95 c6 46 3d e2 a0 f0 bd
       0.01071819 -0.06174771 0.048529226 -0.11749436
000350 75 92 64 bd 4b 30 13 bc fc 97 f9 bd 99 3b c1 3d
       -0.055803735 -0.008983682 -0.12187192 0.094351955
000360 b6 d1 d7 bd 70 c4 55 bc b4 e2 5b 3d b0 f1 ab bc
       -0.10538046 -0.013047323 0.053682998 -0.020989269
000370 68 91 42 bd b4 ff f1 bd 34 92 b4 bd 53 96 02 bd
       -0.04750195 -0.118163496 -0.088169485 -0.03188164
000380 e6 5f 91 bc dc f5 23 3d 30 9b 4a 3c 9b 81 7f 3d
       -0.017745923 0.04002939 0.012366101 0.06237946
000390 0c ef 8e 3d ab 99 a6 3d 28 98 3c 3d 37 92 36 3c
       0.06979188 0.081347786 0.046043545 0.011143259
0003a0 77 a5 c2 3d 03 04 1e 3b c8 5f 9b 3c f4 1c d1 bc
       0.09504216 0.0024111278 0.01896657 -0.025526501
0003b0 90 22 f5 bd 8b 3a d4 bd 25 a0 c2 bd e0 7d a2 bb
       -0.11969483 -0.10362729 -0.095032014 -0.004958853
0003c0 51 2a 34 bd e0 b0 3b 3c 22 3e e4 3d 68 9f cc bd
       -0.04398567 0.0114557445 0.111446634 -0.09991342
0003d0 7b 15 ef 3c c1 46 ee 3d c2 7b f7 bc d8 2f ea bc
       0.029185047 0.11634589 -0.03021038 -0.028587267
0003e0 c0 43 c8 3b 9b cd 7c 3d b4 18 5b bd 92 e0 a5 bd
       0.006111592 0.06171952 -0.053490356 -0.08099474
0003f0 ff 8c 84 3d 52 de b6 3d cd 61 75 bd de 0f 00 3d
       0.06472205 0.08929123 -0.059907723 0.031265132

fc3.bias f4 [32]
000000 32 8d 5d bc 00 d5 06 3e b6 0e 98 bc f9 11 e7 bd
       -0.013522433 0.1316719 -0.018561702 -0.11282725
000010 2e 0d 0d 3c e9 ea ce bd ab 55 20 3e c4 28 4b bd
       0.008609099 -0.10103399 0.1565768 -0.049599424
000020 12 e6 de bd 20 cd 1c bc 62 e5 65 3c b2 68 c6 bd
       -0.10883726 -0.00957039 0.01403174 -0.09687938
000030 15 97 9c bb 3f ce 88 3d b0 65 62 3c 0a ef cf 3d
       -0.0047787526 0.06679963 0.0138181895 0.10153015
000040 a8 97 d7 bc 12 96 07 3c 75 08 12 bd 24 88 f4 bc
       -0.026317433 0.008275526 -0.035652597 -0.029850073
000050 3d 8a 50 bc 7c 65 da 3d c6 18 9e bd 3c 00 11 3c
       -0.012728271 0.10663888 -0.07719569 0.008850154
000060 84 14 ea 3c 68 21 07 bd 84 2e 98 bd 64 38 e4 3d
       0.028574236 -0.032990843 -0.07430747 0.11143568
000070 44 77 57 bd 52 a1 b8 bd a6 33 3f 3d 82 1c d6 3d
       -0.052603975 -0.090151444 0.046680115 0.10454656

fc4.weight f4 [6, 32]
000000 bb 1c f8 bd 14 f5 db 3d 07 6c c4 bd c9 11 2e be
       -0.12114855 0.10740104 -0.09590917 -0.16998972
000010 2b 4b 8d bd d1 bf 03 3d 26 ce 0a be 2c 89 60 3d
       -0.06899103 0.032165352 -0.13555202 0.054818317
000020 19 01 32 3e 5e 8c bc 3d 47 96 2e 3e 5c 5f d5 3d
       0.17383231 0.092064604 0.17049514 0.10418579
000030 16 d1 93 3d 04 84 22 bd 12 28 bd 3d 26 a5 ee 3d
       0.07217614 -0.03967668 0.092361584 0.11652593
000040 04 ab 6b bd b2 9f 0a be 31 86 32 3d 99 ab 14 3e
       -0.05753614 -0.13537481 0.043585006 0.14518584
000050 0d 4c b5 bd 09 b7 4d 3d 63 9a 4e 3d d1 27 6d bd
       -0.08852396 0.050223384 0.050440203 -0.0578993
000060 47 78 24 be 60 c8 2c 3e b9 f7 2e be 50 df 71 3c
       -0.16061507 0.16873312 -0.17086686 0.0147627145
000070 e8 8e 07 be cd 8a 86 bd cf 60 14 be 0e 5e 95 3d
       -0.13238108 -0.06569443 -0.14490055 0.0729333
000080 28 73 92 bc 88 4f ce 3d fe be a2 bd 61 73 17 3e
       -0.017877176 0.10073763 -0.07946585 0.14790107
000090 12 b3 d3 bd 58 83 f9 3d cb 48 00 be 66 0f 2e be
       -0.10336889 0.12183255 -0.12527768 -0.16998062
0000a0 40 ed 52 3b 84 08 2e be bf 51 d7 bd 1c a9 26 be
       0.003218487 -0.16995436 -0.10513639 -0.16275448
0000b0 c1 6c 34 bd d1 4e 5b bd 61 8e 26 be cc a8 30 3d
       -0.04404903 -0.053541962 -0.1626525 0.043129727
0000c0 52 2a 26 be 93 09 4b 3c b3 87 51 3d 9e f6 f8 3d
       -0.16227081 0.012392419 0.051154803 0.121564135
0000d0 2f 61 b2 bd ce 8f e3 3d df e0 13 be ad 87 cf bd
       -0.087099425 0.11111413 -0.1444125 -0.101333
0000e0 20 a1 bd bd d2 86 c2 bd a8 bc bb bd a2 24 92 3d
       -0.09259248 -0.09498371 -0.09166843 0.071358934
0000f0 52 3f 9f 3d e6 0f 67 bb 27 da 8d 3d 40 7d 05 bd
       0.07775749 -0.003525728 0.06926375 -0.03259015
000100 02 31 1b bd b2 73 f4 bd 8b 54 ac bd b5 89 07 bd
       -0.037888534 -0.1193613 -0.08414563 -0.033090312
000110 f5 79 9f bb 3f c1 1d 3e 21 78 0d 3e b0 3c 73 3c
       -0.0048668333 0.15405749 0.13815357 0.014846012
000120 f7 41 1f 3e d3 b3 d3 bd c9 ff a4 bd 12 f3 97 3d
       0.15552507 -0.10337033 -0.080566 0.07419409
000130 27 dc ae bd 01 b5 31 be a0 1d 14 be 78 7d 4b 3d
       -0.085380845 -0.17354204 -0.14464426 0.049680203
000140 fe 19 bf 3d 53 32 05 be 90 90 ce 3b 2f e5 0f 3a
       0.093311295 -0.13007478 0.0063038543 0.0005489168
000150 5b 17 e5 bc 9e 5d ac 3c 44 96 50 bd c6 af 97 bd
       -0.027965238 0.021040734 -0.050924554 -0.07406573
000160 69 3c c2 bd 3d d2 bb 3d dc d0 3f bd c2 d0 ef bd
       -0.094841786 0.09170959 -0.046830043 -0.11709739
000170 a0 ca a9 bd 09 b9 e7 bd ff f9 f9 3d 46 6a f1 3d
       -0.08290601 -0.113145895 0.12205886 0.11787848
000180 e6 69 f0 bd 9b 8b 0a 3e 91 d8 31 3d 03 64 e0 3d
       -0.117389485 0.13529818 0.043419424 0.10956576
000190 a6 43 db 3d 6c 87 a0 3d 7c 4a 09 be 0b 92 a8 bd
       0.10706262 0.0783833 -0.1340732 -0.082309805
0001a0 1f 71 f7 bd 8a 78 a7 3d c8 25 00 3e 74 e1 27 be
       -0.12082123 0.08177288 0.12514412 -0.16394597
0001b0 12 14 ab 3d 83 de 83 bd e4 eb 88 3d f6 28 c2 3d
       0.083534375 -0.06438925 0.066856176 0.09480469
0001c0 86 a7 c1 bd 6d a3 b7 3d 5c 7d 1a be fd a9 41 3c
       -0.09455781 0.08966718 -0.15086883 0.0118203135
0001d0 77 0c c8 3d 09 05 1e be d3 e2 05 bc 23 c9 0a 3e
       0.097680025 -0.15431608 -0.008171755 0.1355329
0001e0 88 09 1e 3d f0 83 e6 3c 20 6e ab 3c 59 fd 10 3e
       0.03858331 0.028139085 0.020926535 0.14159144
0001f0 ba 96 9c 3d 33 13 88 3b 27 b8 21 3d b6 d4 fe 3d
       0.07645936 0.0041526794 0.039482262 0.12442915
000200 20 97 bf 3d cd 12 02 be 54 9e 25 be 3a 23 c0 3d
       0.09354997 -0.12702484 -0.16173679 0.09381719
000210 1c 47 18 be 4b 8b 12 3e 8d 55 63 3d e2 89 db bd
       -0.14870876 0.14310949 0.05550151 -0.107196584
000220 14 2e 6a bd 61 5b 1c 3e 6f 23 ec 3d 6e 79 bb bd
       -0.05717285 0.15269233 0.11530196 -0.0915402
000230 32 6e e3 3d ca 0d ba bd 73 97 27 3e aa e8 ad 3d
       0.111050025 -0.09084661 0.16366367 0.08491643
000240 d4 0f b0 3d 97 ec 1e be 19 6e 0d be b0 ee e8 3d
       0.08596769 -0.1551994 -0.1381153 0.11373651
000250 74 40 25 3e 90 c1 06 3d a4 13 cd 3d 08 f9 2d be
       0.16137868 0.03289944 0.10013512 -0.16989529
000260 6d ee b5 3d 5a 02 70 bd 50 75 28 3c d3 c8 e0 bd
       0.08883367 -0.058595993 0.010281876 -0.10975804
000270 78 c2 b3 3c a3 b8 2a 3d 36 d6 1a 3e 5d 08 2e 3e
       0.021943316 0.04167999 0.15120777 0.16995378
000280 ed 90 32 3d 1d 36 29 be a6 a7 64 bd 84 bf fe bb
       0.043595243 -0.16524549 -0.055823945 -0.0077742953
000290 85 2f cf 3d bd 72 1b be d0 33 34 be 46 56 ae 3d
       0.101164855 -0.15180488 -0.1759789 0.08512549
0002a0 2c 56 65 bd 4d 29 22 3e d2 6b e2 3d 04 9f be 3b
       -0.055990383 0.15836067 0.11055721 0.005817296
0002b0 2a 74 94 3c 31 19 3b 3d d4 19 04 3d 8b b7 1f be
       0.018121798 0.04567832 0.032251194 -0.1559736
0002c0 b1 8a 43 3d 5b ef 03 be bf 9a da 3d 96 68 65 3d
       0.04773969 -0.12884276 0.10674047 0.056007944
0002d0 5c b5 0d 3e fe 6d a7 bd 16 20 76 bc bd 41 e8 bb
       0.13838714 -0.08175276 -0.015022298 -0.0070879147
0002e0 0a be 41 3d cb e8 8d 3d 17 f9 23 3e da 1c 08 be
       0.047300376 0.06929167 0.16012989 -0.13292256
0002f0 d0 0b 03 3c 67 29 ed bd 7d de 61 3d d0 a7 7f 3d
       0.007998422 -0.115801625 0.055143822 0.062415898

fc4.bias f4 [6]
000000 b3 cd 06 3e da db 76 3c b6 13 03 3e 9d b4 9a bd
       0.13164406 0.015067065 0.12800488 -0.075539805
000010 18 4b 8e bd 0e cb 53 bc
       -0.06947917 -0.01292683
