src/params_data/240418_005728/274param.pt (torch, 46927 bytes, 8 tensors)

fc1.weight f4 [128, 4]
0	0xbda97bd5	-0.08275572
1	0x3e810ab7	0.25203487
2	0x3ee48617	0.44633552
3	0x3e8ad7e2	0.2711783
4	0xbea9ad40	-0.33139992
5	0xbef030f2	-0.46912342
6	0xbec140be	-0.37744707
7	0x3df51f40	0.11968851
8	0xbe0536e3	-0.13009219
9	0x3ef52e30	0.478868
10	0xbed6b766	-0.41936797
11	0xbe303843	-0.17208962
12	0xbedb352c	-0.42814004
13	0xbac87a00	-0.0015295148
14	0xbea82e5a	-0.32847863
15	0x3ea6d222	0.32582194
16	0xbe37e470	-0.17958236
17	0xbec25816	-0.3795783
18	0x3e3a9ca5	0.18223818
19	0x3d17b2a0	0.037035584
20	0xbe4b661c	-0.1986317
21	0xbe4b6cee	-0.19865772
22	0x3e52efe5	0.20599325
23	0xbd9cf5b2	-0.0766405
24	0xbe6e0445	-0.23243816
25	0xbe81b66b	-0.25334486
26	0x3eb0cf3d	0.3453311
27	0x3d03ce88	0.032179385
28	0x3bac5c80	0.0052600503
29	0xbef4d25c	-0.4781674
30	0x3cee6563	0.02910108
31	0xbdab9e08	-0.083797514
32	0xbe9bc3cd	-0.30422822
33	0x3eb04a14	0.34431517
34	0xbe454e0e	-0.19268057
35	0xbdaae782	-0.08344938
36	0x3ef0f8f3	0.47064933
37	0x3e8b2b0d	0.27181283
38	0x3ed909e4	0.42390358
39	0xbf0607f9	-0.52355915
40	0x3dc53d78	0.09630865
41	0xbe2ab4fc	-0.16670603
42	0x3dcbaaaa	0.09944661
43	0xbedadefd	-0.42748252
44	0xbdcc9c6b	-0.09990772
45	0x3ed0b4c0	0.407629
46	0xbc611a2f	-0.013739153
47	0xbec902b2	-0.3925987
48	0x3cff36d3	0.031154072
49	0x3e789b05	0.24277885
50	0xbe3cbecb	-0.18432157
51	0x3f05455a	0.5205895
52	0xbe15f88e	-0.14645597
53	0x3e68ca20	0.22733355
54	0xbe741931	-0.23837735
55	0x3ed89ede	0.42308706
56	0xbe38640c	-0.18006915
57	0xbec71c95	-0.38888994
58	0x3e80b40a	0.2513736
59	0xbbb6f5bc	-0.005583493
60	0x3ed9773e	0.42473787
61	0xbecc4960	-0.3989973
62	0xbe3a5e00	-0.1819992
63	0xbe7804b8	-0.2422055
64	0x3ec07b0c	0.37593877
65	0xbe1c4c90	-0.15263581
66	0xbdc4db08	-0.096120894
67	0x3e7296f0	0.2369039
68	0xbef40750	-0.4766183
69	0xbd1dc11a	-0.038514234
70	0x3ea0d638	0.31413436
71	0xbee09c75	-0.43869367
72	0x3deab6e8	0.11460668
73	0xbe405a1c	-0.18784374
74	0xbdaafb98	-0.08348769
75	0x3ef5854c	0.4795326
76	0x3eb979cc	0.36225736
77	0xbeb69e57	-0.3566768
78	0x3e51a20a	0.20471969
79	0xbe0da8a5	-0.13833864
80	0x3c640aa9	0.013918557
81	0x3e465609	0.19368757
82	0x3e9df167	0.30848238
83	0xbecd2673	-0.40068397
84	0x3edcd37b	0.43130097
85	0x3d275fb9	0.040862773
86	0x3e7a6e1c	0.24456066
87	0x3e551fbb	0.20812885
88	0x3d176790	0.036964
89	0xbef61e56	-0.4807002
90	0xbef2103a	-0.47278005
91	0xbedbd6be	-0.42937273
92	0xbec29555	-0.38004556
93	0x3ea854b8	0.32877135
94	0x3e3b7f09	0.18310179
95	0xbea3c220	-0.31984043
96	0x3e826f78	0.2547567
97	0x3ebbfa1c	0.36714256
98	0xbe7d01cf	-0.24707721
99	0x3e94dfb5	0.29076925
100	0xbec7b98a	-0.39008743
101	0x3d36fcea	0.04467479
102	0xbd1b9da1	-0.037992124
103	0x3f01eca3	0.50751704
104	0xbe12b64a	-0.1432735
105	0xbe49090d	-0.19632359
106	0x3e82a58a	0.2551692
107	0x3e0ac587	0.13551913
108	0x3e4e5f24	0.20153481
109	0x3e942dcd	0.28941193
110	0xbea0fdbb	-0.3144358
111	0x3ed61270	0.41810942
112	0xbef9bca8	-0.48776746
113	0x3ecbd7b1	0.39812997
114	0x3d08a17c	0.03335713
115	0xbe75d1cb	-0.24005811
116	0xbd17a7b9	-0.037025187
117	0x3eba009f	0.363286
118	0x3ecad1d9	0.39613226
119	0x3e046ad9	0.12931384
120	0x3ed28d18	0.4112327
121	0xbdbf7308	-0.09348112
122	0xbe6c357c	-0.23067278
123	0xbeb6d30e	-0.35707897
124	0x3ef51db7	0.47874233
125	0x3e944719	0.28960493
126	0x3cb8e738	0.022571191
127	0x3e9edac9	0.31026295
128	0xbd63638e	-0.055514865
129	0x3eca7404	0.39541638
130	0xbda1a832	-0.07893409
131	0x3e86200e	0.2619633
132	0x3ed6c828	0.41949582
133	0x3be56e6b	0.0070016882
134	0x3ecfba8e	0.40572017
135	0x3c27f76c	0.010251861
136	0x3db1df9f	0.086852305
137	0x3eec5a79	0.46162775
138	0xbe7c40bd	-0.2463407
139	0xbe3bdf43	-0.18346886
140	0x3d031b60	0.03200853
141	0xbed8d552	-0.4235025
142	0xbe1468b0	-0.1449306
143	0x3dcd5a20	0.100269556
144	0x3ece6fc3	0.40319642
145	0xbccbf59a	-0.024897385
146	0x3efacd29	0.4898465
147	0x3e986ecf	0.2977204
148	0x3e337231	0.1752403
149	0x3e90c79f	0.282773
150	0xbed05bc1	-0.40695003
151	0x3eea8daf	0.4581122
152	0x3d6d85a0	0.057988763
153	0xbe4b76a0	-0.1986947
154	0x3d90f3c7	0.07077747
155	0xbdcafc98	-0.0991146
156	0x3dc6dc07	0.09709936
157	0x3efa2dce	0.4886307
158	0x3e16c19b	0.14722292
159	0x3e235c04	0.1595307
160	0xbc139b04	-0.009009127
161	0x3eaa382d	0.33245984
162	0x3e201a13	0.15634947
163	0xbedd8e45	-0.43272606
164	0x3eae8682	0.34086996
165	0xbecfef40	-0.4061222
166	0xbdcf2f28	-0.10116416
167	0x3deadac0	0.114675045
168	0xbead5406	-0.33853167
169	0xbeb6ec82	-0.35727316
170	0x3e15450c	0.1457712
171	0xbdfdb8b0	-0.12388742
172	0xbebd6606	-0.369919
173	0x3ec64460	0.3872404
174	0x3e9ab958	0.3021953
175	0x3e11ba5b	0.14231245
176	0x3e13be1e	0.14427993
177	0x3efcfce6	0.49411696
178	0xbec68a4e	-0.38777393
179	0xbe857c93	-0.26071605
180	0x3e870133	0.26368102
181	0x3d941bbe	0.07231854
182	0xbe4f3d90	-0.20238328
183	0xbe072f29	-0.13201584
184	0xbdae4f9a	-0.085112765
185	0x3e8922d4	0.26784384
186	0xbe44f675	-0.19234641
187	0xbe04bbf5	-0.12962325
188	0xbc819c43	-0.015821582
189	0x3d12df3d	0.035857428
190	0xbe2289d1	-0.15872885
191	0xbe05bb81	-0.13059808
192	0x3e8a86fa	0.27056104
193	0xbec0d20a	-0.37660247
194	0xbedb32fc	-0.42812335
195	0x3d360c80	0.044445515
196	0x3ed30df1	0.41221574
197	0x3c332fda	0.010936702
198	0xbed2223e	-0.4104175
199	0xbe8a39f5	-0.26997343
200	0xbeeebf75	-0.46630445
201	0x3e1fa8f1	0.1559179
202	0xbeaaae9c	-0.3333634
203	0xbe8bfc46	-0.27340907
204	0xbe288541	-0.16457082
205	0x3e8490b1	0.2589164
206	0x3bb147ca	0.0054101693
207	0x3de531e8	0.111911595
208	0x3e1a73a0	0.1508317
209	0xbe0c6fc6	-0.13714513
210	0x3e977edf	0.29588982
211	0xbf039aad	-0.5140789
212	0x3eb870bb	0.36023507
213	0x3ec04fdb	0.37560925
214	0xbd1e15bc	-0.038594946
215	0xbe06c3a7	-0.13160573
216	0x3ec58f1e	0.38585752
217	0xbee6f1d8	-0.45106387
218	0x3e89d425	0.26919666
219	0xbe327767	-0.17428361
220	0xbd17d180	-0.03706503
221	0xbd9d1900	-0.07670784
222	0xbe8eb860	-0.27875042
223	0xbebd2278	-0.3694036
224	0xbe2d4fdc	-0.16924995
225	0xbe82569e	-0.2545671
226	0xbdd5c628	-0.10438186
227	0x3e47b840	0.1950388
228	0xbeaad818	-0.3336799
229	0xbe1ebd3c	-0.15501875
230	0x3d5a9595	0.05336531
231	0xbe6ce9a0	-0.23135996
232	0x3e914d0e	0.283791
233	0x3e6a0dc8	0.2285682
234	0x3dd0aa81	0.10188771
235	0xbe3fb76d	-0.18722315
236	0x3de4a4d8	0.11164254
237	0xbe67e1e1	-0.2264476
238	0x3de4ec64	0.111779004
239	0x3ec529cd	0.38508454
240	0xbdf6b3fb	-0.12046047
241	0x3e544740	0.20730305
242	0x3eae52e0	0.34047604
243	0x3f09c9d4	0.5382359
244	0xbe9df37e	-0.30849832
245	0xbed659f8	-0.41865516
246	0xbead5966	-0.33857268
247	0x3a79e000	0.0009531975
248	0xbee1b3b8	-0.44082427
249	0x3e80ad6d	0.25132313
250	0xbee491f0	-0.4464259
251	0xbda8e390	-0.08246529
252	0xbe9e88de	-0.30963796
253	0x3e4cf85d	0.20016618
254	0x3d996919	0.07490749
255	0x3e81f13a	0.25379354

fc1.bias f4 [128]
0	0xbec00f56	-0.375117
1	0x3eff73b6	0.49892968
2	0xbee1fcf1	-0.4413829
3	0xbd0647f0	-0.03278345
4	0xbe9b8c90	-0.30380678
5	0x3ea4e50d	0.32206002
6	0x3c918ad9	0.017766403
7	0xbe1b16e9	-0.15145458
8	0xbea1fcec	-0.31638277
9	0xbe32f47e	-0.17476079
10	0x3d53240f	0.05154806
11	0xbe54aa4d	-0.2076809
12	0x3f00d20b	0.503205
13	0x3e45208d	0.19250698
14	0xbe9b5ffa	-0.30346662
15	0xbe9fcea2	-0.31212336
16	0xbef43fba	-0.4770487
17	0x3ef30b66	0.47469634
18	0x3df1f6a0	0.11814618
19	0x3ee8a5ad	0.454389
20	0xbe6dd76b	-0.23226707
21	0xbe8471c4	-0.25868046
22	0xbe854ce4	-0.26035225
23	0x3e26a904	0.16275412
24	0xbef3c23c	-0.47609127
25	0x3ea6abaa	0.32552844
26	0xbe1d7004	-0.15374762
27	0xbe33d4bd	-0.17561622
28	0x3ef43638	0.47697616
29	0xbe852535	-0.2600495
30	0xbdb19080	-0.08670139
31	0x3ed50c36	0.4161088
32	0x3e74da09	0.23911299
33	0x3e3b7be1	0.18308975
34	0x3f02414a	0.50880873
35	0x3d88eac8	0.06685406
36	0xbeed50f9	-0.4635084
37	0xbed98284	-0.42482388
38	0xbe6d2f5d	-0.23162599
39	0xbef20193	-0.47266826
40	0x3c4a2d69	0.012339928
41	0xbe3a0b28	-0.18168318
42	0xbe245f62	-0.1605201
43	0x3eb6f49f	0.35733506
44	0xbee776d1	-0.45207837
45	0x3f03927a	0.5139538
46	0x3e54c711	0.20779063
47	0x3ed5a539	0.41727617
48	0xbe905456	-0.28189343
49	0xbe83fc3b	-0.25778374
50	0xbe9c8177	-0.30567524
51	0xbef77450	-0.48330927
52	0x3ef7bbeb	0.48385558
53	0xbe9cab66	-0.30599517
54	0x3d8e4823	0.06947353
55	0xbea81b36	-0.3283326
56	0x3e54bf00	0.20775986
57	0xbe13ec69	-0.14445652
58	0x3e8a71cf	0.27039954
59	0xbe53b95e	-0.2067618
60	0x3ed1e6c9	0.40996388
61	0x3ee6e074	0.4509312
62	0xbe860dab	-0.26182303
63	0x3ef4b348	0.4779303
64	0xbeb7aea5	-0.3587543
65	0x3dac0b88	0.08400637
66	0x3c0548d5	0.00813504
67	0x3e84573e	0.2584781
68	0x3ed2c930	0.4116912
69	0xbebb9e26	-0.36644095
70	0xbe7e5c51	-0.24839903
71	0xbea60a5a	-0.32429773
72	0x3dda2800	0.10652161
73	0x3e4ce3d1	0.2000878
74	0xbe2f1ce1	-0.1710086
75	0x3ec8b9fe	0.392044
76	0x3ebaef08	0.3651049
77	0x3ee75252	0.45179993
78	0xbdb8eee1	-0.090299375
79	0xbc86408e	-0.016388204
80	0x3ee83780	0.45354843
81	0xbe9310b1	-0.28723672
82	0x3e310be4	0.17289692
83	0xbe2fe143	-0.17175774
84	0x3eb975ce	0.3622269
85	0xbbe90c42	-0.007112057
86	0x3e9261d0	0.2859025
87	0xbd0d70b0	-0.034531295
88	0x3e079f86	0.13244447
89	0xbe64e736	-0.22353825
90	0x3d7b4f42	0.061354883
91	0x3d1c7718	0.038199514
92	0x3ea4652e	0.32108444
93	0xbd962720	-0.07331681
94	0xbeb8f14a	-0.3612159
95	0xbd5bad0c	-0.053631827
96	0xbe9c4fd7	-0.30529663
97	0x3edac5c1	0.42729
98	0xbdad6028	-0.08465606
99	0x3cece660	0.028918445
100	0xb9801a61	-0.00024433716
101	0x3d9f877f	0.07789516
102	0x3ecaec30	0.39633322
103	0x3e5e77b4	0.2172535
104	0xbefbc82f	-0.49176165
105	0x3ed609d8	0.41804385
106	0xbedb039e	-0.42776197
107	0xbe600c95	-0.218798
108	0x3d25e82e	0.040504627
109	0x3e9ada98	0.302449
110	0xbed465ad	-0.41483822
111	0xbe91f488	-0.28506875
112	0xbef095ff	-0.46989438
113	0xbc9e10e0	-0.019295156
114	0x3e73be32	0.23803023
115	0x3e48e0e1	0.19617034
116	0xbefd0aaa	-0.494222
117	0xbea2561f	-0.3170633
118	0x3c707340	0.014675915
119	0xbed76c76	-0.42074937
120	0x3e62da66	0.22153625
121	0xbe5dc042	-0.21655372
122	0x3ee92cc4	0.45541966
123	0xbd1a6375	-0.037692506
124	0xbeca3e8f	-0.39500853
125	0x3ea19616	0.3155982
126	0x3ec35644	0.38151753
127	0x3e72f87c	0.23727602

fc2.weight f4 [64, 128]
0	0xbd819b12	-0.063284054
1	0xbd529019	-0.051406953
2	0x3989727a	0.00026215968
3	0x3d91b94f	0.07115423
4	0x3d318a71	0.04334492
5	0x3d85411f	0.065065615
6	0x3c665f9e	0.014060883
7	0xbdaf1456	-0.08548801
8	0xbbbf1767	-0.005831647
9	0x3da2e37c	0.079535455
10	0xbd08ef0b	-0.033431094
11	0x3da08263	0.07837369
12	0xbdc4b8f6	-0.09605591
13	0xbdadeb81	-0.084921844
14	0x3d618cc3	0.05506588
15	0xbd9e2734	-0.07722321
16	0xbd61e53c	-0.055150256
17	0x3d1c5c33	0.038173866
18	0xbd88fdec	-0.06689057
19	0xbd01baa6	-0.031672142
20	0xbb4851d6	-0.0030566356
21	0x3bc0ecf2	0.005887621
22	0xbd53d744	-0.051718965
23	0xbd267ede	-0.040648334
24	0xbd7e955b	-0.062154155
25	0x3d66314d	0.05619936
26	0x3b8e105b	0.004335446
27	0x3b358874	0.002769974
28	0xbca30aa9	-0.019902544
29	0xbcb4f240	-0.02208817
30	0x3bbef1b0	0.0058271512
31	0xbd7f9702	-0.06239987
32	0xbdb3d49b	-0.08780786
33	0xbabc3cb8	-0.0014361357
34	0xbd96a4c4	-0.07355645
35	0xbd8d79fb	-0.069080316
36	0x3c8a461e	0.016879138
37	0x3d93d323	0.072180055
38	0x3ca8d707	0.020610346
39	0xbc56e471	-0.013115988
40	0x3db16b8b	0.0866309
41	0xba116a80	-0.0005547181
42	0xbcab63d3	-0.020921623
43	0x3d7bc280	0.061464787
44	0xbc630ad0	-0.013857558
45	0x3b0c2d60	0.002138935
46	0xbd9b7fe9	-0.07592756
47	0xbd077db0	-0.03307885
48	0xbd182524	-0.037144795
49	0x3da680d5	0.081300415
50	0xbd8557f3	-0.065109156
51	0x3da0a3dd	0.078437544
52	0x3d72dfb8	0.059295386
53	0xbd5e40d6	-0.05426105
54	0xbd85b105	-0.065279044
55	0xbda84853	-0.0821692
56	0xbcec891c	-0.028873973
57	0x3cef055a	0.029177357
58	0xbd901145	-0.07034544
59	0x3c5a9d75	0.013343205
60	0x3caf033b	0.021363845
61	0x3d8b5e95	0.068051495
62	0x3bc45f80	0.00599283
63	0xba3d0bb6	-0.0007211523
64	0x3d92b7e2	0.07163979
65	0xbdb23214	-0.08700958
66	0x3dad6ab6	0.08467619
67	0x3da6a93f	0.0813775
68	0xbc7f93a0	-0.015599161
69	0x3d244df1	0.040113393
70	0xbd0ccb8b	-0.0343738
71	0x3c2f9b78	0.010718219
72	0xbd8363af	-0.064154975
73	0xbd237c3a	-0.039913394
74	0x3d070179	0.03296039
75	0x3c5b67c8	0.013391443
76	0xbce38506	-0.027773391
77	0xbda7f1d3	-0.08200421
78	0xbd81fde1	-0.06347252
79	0x3d0b09d9	0.03394494
80	0x3da9a05a	0.08282538
81	0xbd9a456d	-0.07532773
82	0xbd8ce094	-0.068787724
83	0xbd64a60c	-0.055822417
84	0x3c377128	0.011196412
85	0xbcd3ac39	-0.025838958
86	0x3cec2984	0.02882839
87	0x3d85d74f	0.065352075
88	0xbd34ab04	-0.044108406
89	0x3d59e6ef	0.05319875
90	0xbc4be825	-0.012445484
91	0xbd8c49f3	-0.06850042
92	0xbd3c8eb4	-0.04603453
93	0xbdac5950	-0.084154725
94	0x3d89ab95	0.0672218
95	0xbc8389b6	-0.016056877
96	0x3d82e076	0.06390469
97	0x3d6e53ac	0.058185264
98	0x3cc54d08	0.024084583
99	0xbdb2804d	-0.08715878
100	0x3d7ccfc8	0.061721593
101	0x3d42a401	0.047519688
102	0xbd9ec601	-0.0775261
103	0xbd6f1d70	-0.058377683
104	0xbbfe502a	-0.007761021
105	0xba5aeca6	-0.00083513034
106	0x3d526af4	0.05137153
107	0x3b427406	0.0029671206
108	0xbd9e5aa3	-0.07732131
109	0xbbbe9a40	-0.005816728
110	0xbdb45c58	-0.08806676
111	0xbcdd95c4	-0.027048953
112	0xbbacdea4	-0.0052755643
113	0x3d61639a	0.055026628
114	0x3dab9c03	0.08379366
115	0xbda10127	-0.07861548
116	0xbc8139a8	-0.015774563
117	0xbcac71ab	-0.021050295
118	0xbd6eb0e0	-0.05827415
119	0xbd5a4f33	-0.053298187
120	0x3c2c72d8	0.010525428
121	0x3bee6c37	0.007276084
122	0xbd78f473	-0.06078
123	0x3d64e539	0.055882666
124	0xbd5d3724	-0.054007664
125	0x3c7b80d7	0.015350542
126	0xbcc08fcf	-0.023506073
127	0xbcf30b60	-0.02966851
128	0xbc61c9c1	-0.013781012
129	0xbd3cd4c8	-0.04610136
130	0xbd6dacc1	-0.05802608
131	0x3d9ebf53	0.07751336
132	0xbc47a4fc	-0.012185331
133	0xbd976958	-0.073931396
134	0xbd159e73	-0.036528062
135	0x3b7c09cc	0.0038457988
136	0x3d67e485	0.056614418
137	0x3d9bfa2f	0.07616078
138	0xbd9ffb4b	-0.07811602
139	0x3d80a0cd	0.0628067
140	0x3af0ecb9	0.0018381096
141	0x3d3058de	0.0430535
142	0x3da55055	0.08071963
143	0x3d10a666	0.03531494
144	0x3b8f33e0	0.0043701977
145	0xbd397ee1	-0.045287017
146	0x3c9c76ec	0.019099675
147	0x3d8c7a40	0.06859255
148	0x3d56c296	0.052431665
149	0x3d827d66	0.06371574
150	0x3c771df8	0.015082829
151	0x3d0f5aae	0.03499859
152	0x3d93e0c1	0.07220603
153	0xbdae151c	-0.0850012
154	0x3d526024	0.051361218
155	0xbdb1154b	-0.086466394
156	0x3c9a8ffa	0.018867481
157	0x3d98390e	0.07432757
158	0xbcaf3df8	-0.021391854
159	0xbd8f5f39	-0.07000584
160	0x3a54b35c	0.0008113885
161	0xbc291b82	-0.0103215
162	0xbc51f08b	-0.012813698
163	0x3d326e16	0.043562017
164	0xbd1df0fe	-0.038559906
165	0x3d54103a	0.051773287
166	0xbbadad41	-0.0053001945
167	0x3b72e80f	0.0037064587
168	0xbd23ed69	-0.040021334
169	0x3d5924ee	0.053013735
170	0xbd13ca31	-0.036081497
171	0x3d26650c	0.04062371
172	0xbcbd4c82	-0.02310777
173	0x3c8eb80d	0.017421747
174	0xbd915262	-0.070957914
175	0x3cb7dcd2	0.022444163
176	0xbd062a35	-0.032755096
177	0xbd58689b	-0.052834135
178	0xbc95811f	-0.018250046
179	0x3c91614b	0.017746588
180	0x3d41e66a	0.04733888
181	0x3d47c185	0.04876854
182	0xbd522fd7	-0.051315155
183	0xbd883375	-0.0665044
184	0x3d48717a	0.048936345
185	0x3bf88739	0.007584479
186	0x3ce08a8e	0.027409818
187	0xba990312	-0.0011673889
188	0xbd82f1ac	-0.063937515
189	0xbd28bbb2	-0.041194625
190	0x3db044e9	0.086068936
191	0xbd53d747	-0.051718976
192	0x3d9a333d	0.07529304
193	0xbd2a9b25	-0.041651864
194	0x3cccd080	0.025001764
195	0xbce49fc6	-0.027908217
196	0xbd109aaa	-0.03530375
197	0x3d79e62f	0.061010536
198	0xbc6f5862	-0.014608474
199	0xbd122a3f	-0.03568482
200	0x3d854c5b	0.06508704
201	0x3b488c41	0.0030601176
202	0x3d8fe5ef	0.07026278
203	0xbda9de58	-0.08294362
204	0x3b0841e0	0.0020791218
205	0xbb80bb85	-0.003928604
206	0x3d8f1657	0.06986683
207	0x3c600072	0.013671981
208	0xbd6a68f0	-0.057228982
209	0x3d97101f	0.07376122
210	0x3d93e653	0.07221665
211	0x3d6511a2	0.05592502
212	0x3c7ba398	0.015358828
213	0xbc6cad14	-0.014445562
214	0x3beef700	0.0072926283
215	0x3d1a41e6	0.037660502
216	0xbc86ab36	-0.016439062
217	0x3d938ecf	0.07204973
218	0x3d959287	0.073033385
219	0xbc3c4cd0	-0.011492923
220	0xbd189617	-0.03725251
221	0xbc94fc8c	-0.01818683
222	0x3d068caa	0.03284899
223	0xbdbb6acb	-0.091512285
224	0xbc894d94	-0.016760625
225	0xbb1fcdc3	-0.0024384118
226	0x3ce5b904	0.028042324
227	0x38289800	4.0195882e-05
228	0xbd954577	-0.0728864
229	0x3d3b9109	0.045792613
230	0xbd39aab8	-0.045328826
231	0x3d19850e	0.037480406
232	0xbd1aad29	-0.037762795
233	0x3c5f484a	0.013628075
234	0xba91bdb7	-0.0011119161
235	0x3ce8d474	0.028421618
236	0xbd76677e	-0.06015729
237	0xbd5aa056	-0.053375565
238	0xbc17d89e	-0.009267954
239	0xbd9177fe	-0.07102965
240	0xbd3680ba	-0.044556357
241	0x3d89d5ff	0.0673027
242	0x3d85b180	0.06527996
243	0x3c315c51	0.010825233
244	0x3d77c44a	0.06048993
245	0x3d6ae07a	0.057342984
246	0xbb81e940	-0.003964573
247	0xbdaae3cc	-0.0834423
248	0xbd4762f5	-0.048678357
249	0xbd0fd91a	-0.035119154
250	0x3cf13f36	0.029449087
251	0xbd418408	-0.047245055
252	0x3d1d14f1	0.03835005
253	0xbd430753	-0.047614407
254	0x3da437b5	0.08018438
255	0x3d353dfc	0.044248566

fc2.bias f4 [64]
0	0x3db89495	0.09012715
1	0xbc02b806	-0.007978445
2	0xbd603a85	-0.05474331
3	0x3ced637b	0.0289781
4	0x3cbcb7a0	0.023036778
5	0x3cc94c7b	0.024572602
6	0x3d62329a	0.05522404
7	0xbc83b501	-0.01607752
8	0xbc8c717c	-0.017143957
9	0x3d5d2186	0.05398705
10	0xbd5174e4	-0.051136866
11	0xbda5b8c7	-0.08091884
12	0x3d956410	0.07294476
13	0x3d955f41	0.07293559
14	0x3dae3687	0.08506494
15	0x3d4a2769	0.04935399
16	0x3ce6f942	0.028195027
17	0x3d541349	0.051776204
18	0xbd60d20a	-0.05488781
19	0x3d8e5f61	0.06951786
20	0xbbb4526d	-0.00550299
21	0x3deec3b2	0.1165842
22	0x3df3355c	0.11875412
23	0x3da48f22	0.08035113
24	0x3c01610a	0.007896671
25	0x3d911ef9	0.07085986
26	0xbda00355	-0.078131355
27	0x3cc2a950	0.023762375
28	0x3d735747	0.059409406
29	0x3d950c85	0.072777785
30	0xbcd6fba0	-0.026243031
31	0xbdaa370b	-0.0831128
32	0xbc3c4158	-0.011490189
33	0x3d153137	0.036423888
34	0x3db02609	0.08601005
35	0x3dc43b40	0.095816135
36	0xbd0d1a9e	-0.034449212
37	0xbce2fdfd	-0.027709002
38	0x3c02f590	0.007993117
39	0x3ceb237e	0.028703447
40	0xbce420ba	-0.027847636
41	0x3c86e6af	0.01646742
42	0xbdb46534	-0.088083655
43	0x3d262fcf	0.040572938
44	0xbd5b3e6e	-0.053526334
45	0x3d045151	0.032304112
46	0x3da6962b	0.08134111
47	0xbd5f4f8c	-0.05451922
48	0xbd9efa8a	-0.0776263
49	0x3d42bafa	0.047541596
50	0x3d369a7a	0.044580914
51	0x3da04029	0.078247376
52	0xbd4728b2	-0.048622794
53	0x3d79ecaa	0.061016716
54	0x3d864ce8	0.065576375
55	0xbc9d7a90	-0.019223481
56	0xbccf906c	-0.02533742
57	0x3d915588	0.07096392
58	0xbbb95d48	-0.005656872
59	0x3d489c2e	0.04897707
60	0x3d079b3b	0.033107024
61	0x3da72861	0.081619985
62	0xbd74e257	-0.059786167
63	0xbbb938e9	-0.005652536

fc3.weight f4 [32, 64]
0	0x3dcca08e	0.09991561
1	0xbcc46b10	-0.023976833
2	0x3d8c3be3	0.0684736
3	0xbde23375	-0.11044971
4	0xbde47e49	-0.111568995
5	0xbde21a96	-0.11040227
6	0x3d619802	0.055076607
7	0x3d6d5d0e	0.057950072
8	0x3da7f13c	0.08200309
9	0xbd1a2f04	-0.037642494
10	0xbd9b4c3d	-0.07582901
11	0x3d1d8684	0.038458362
12	0x3de34511	0.11097158
13	0xbbb55220	-0.0055334717
14	0x3dd68b9b	0.104758464
15	0xbd849770	-0.06474197
16	0xbd8da021	-0.06915308
17	0x3d341ac6	0.043970846
18	0x3d595952	0.053063698
19	0x3dd54184	0.10412887
20	0xbd8e5573	-0.06949892
21	0x3ddf9f97	0.10919111
22	0xbde7bb24	-0.11314991
23	0x3dd363e0	0.10321784
24	0xbd0127e3	-0.03153218
25	0x3ca678c0	0.02032125
26	0x3c8dedd5	0.017325321
27	0x3c751e80	0.014960885
28	0xbda16daa	-0.07882245
29	0x3cd36199	0.025803374
30	0xbd4eeb27	-0.050517228
31	0x3d05013d	0.032471884
32	0xbdd52e78	-0.10409254
33	0x3ca2d4d4	0.019876875
34	0x3dbe2f77	0.09286397
35	0x3c7589b6	0.014986446
36	0xbbb1d9e0	-0.005427584
37	0xbd5b5dc5	-0.053556222
38	0xbd6dcf00	-0.05805874
39	0x3dd4d45c	0.10392067
40	0x3cfdf0c4	0.030998595
41	0xbcf56ed3	-0.029960072
42	0xbc0c2d60	-0.00855574
43	0x3d7d393c	0.06182216
44	0xbd94b647	-0.07261329
45	0x3d9937bc	0.074813336
46	0xbb12c8ff	-0.0022397635
47	0x3c82fef6	0.015990715
48	0xbd8bd6ee	-0.06828104
49	0xbd73c354	-0.05951245
50	0xbd072724	-0.03299631
51	0x3de92b20	0.113851786
52	0x3dc4e80d	0.09614573
53	0xbdf8c39e	-0.12146686
54	0xbd22cd33	-0.039746474
55	0x3d1a2ab8	0.037638396
56	0x3d9d7958	0.0768916
57	0xbbbf8f02	-0.0058459053
58	0x3ca2a52b	0.019854149
59	0xbd3ce5e0	-0.046117663
60	0x3b4a40d4	0.0030861394
61	0xbdd21880	-0.10258579
62	0x3baef072	0.005338722
63	0x3dc219f3	0.09477606
64	0xbd935f41	-0.071959026
65	0xbd8276b4	-0.06370297
66	0x3dfca817	0.12336748
67	0xbd32449a	-0.043522455
68	0xbd1310d8	-0.035904735
69	0x3da3d030	0.07998693
70	0xbdb44e46	-0.08803992
71	0x3d6594c3	0.056050073
72	0x3dadc823	0.08485439
73	0xbd8fe318	-0.070257366
74	0xbc4b2b01	-0.01240039
75	0xbd3bc320	-0.045840383
76	0x3dea8012	0.11450209
77	0xbcda4cd8	-0.02664797
78	0xbbe6ce6e	-0.0070436513
79	0x3bdf5b6f	0.0068163197
80	0xbddfa0f9	-0.10919375
81	0xbd8abef7	-0.06774705
82	0xbc201533	-0.009770679
83	0xbca29650	-0.019847065
84	0x3db28f7e	0.08718775
85	0x3daa51d7	0.08316391
86	0xbceec19b	-0.029145053
87	0x3c56d2e2	0.013111802
88	0x3cb12892	0.02162579
89	0x3d4d6f94	0.050155237
90	0xbd5206ab	-0.05127589
91	0x3dde2082	0.10846044
92	0x3afbe048	0.0019216621
93	0x3b69e021	0.003568657
94	0xbd651cb4	-0.055935577
95	0x3d486978	0.048928708
96	0xbdb75804	-0.089523345
97	0xbcb3ae36	-0.021933656
98	0xbd2babcc	-0.041911885
99	0xbd05d7e5	-0.032676596
100	0x3c39bcd0	0.01133652
101	0xbd405e9d	-0.04696523
102	0xbddf482c	-0.109024376
103	0x3d9750b4	0.0738844
104	0x3db22a5b	0.08699485
105	0x3d8d6887	0.06904703
106	0x3d9b8ce4	0.07595232
107	0xbd73a8b9	-0.05948708
108	0x3ddcf273	0.10788431
109	0x3d0a78b4	0.033806518
110	0x3de3022a	0.11084397
111	0x3da43e38	0.0801968
112	0x3cc81af9	0.024426924
113	0x3df3d634	0.119060904
114	0x3d82f818	0.063949764
115	0x3b90ee57	0.0044229436
116	0x3dd17f42	0.102293506
117	0x3d3471cc	0.044053838
118	0x3db5658f	0.088572614
119	0x3ded797a	0.115954354
120	0x3d4f2264	0.050569907
121	0x3d53b0e1	0.051682357
122	0x3dafa7d1	0.0857693
123	0xbd8e93d8	-0.06961793
124	0x3da103f5	0.07862083
125	0xbd56d9b3	-0.052453708
126	0x3decef9d	0.1156914
127	0x3d97409a	0.07385369
128	0xbdba6f38	-0.091032445
129	0x3dbf7f4a	0.0935045
130	0x3cee7d9c	0.02911263
131	0x3db8b51b	0.09018918
132	0xbde8cc75	-0.11367122
133	0xbcc555f3	-0.024088835
134	0x3cdc7c87	0.026914848
135	0xbd91545b	-0.07096168
136	0x3df89e25	0.12139539
137	0x3d963208	0.073337615
138	0xbda6f673	-0.08152475
139	0xbdfd7bf6	-0.12377159
140	0x3dbcdc1e	0.092216715
141	0x3d99b658	0.075054824
142	0xbcccf788	-0.025020376
143	0xbdab530e	-0.08365451
144	0xbcd26160	-0.025681198
145	0xbde06aa1	-0.10957838
146	0xbc246365	-0.010033463
147	0x3deacbc8	0.114646494
148	0x3dbba4e4	0.0916231
149	0xbbb8db34	-0.0056413654
150	0x3cf39a00	0.029736519
151	0xbd0575d0	-0.032583058
152	0x3dbf231f	0.09332871
153	0x3dd1ade0	0.10238242
154	0x3d0fd0f9	0.0351114
155	0xbdb730fc	-0.0894489
156	0xbde5776c	-0.112044185
157	0xbde4e219	-0.11175937
158	0xbd0cdeb4	-0.034392074
159	0x3d52b00e	0.05143743
160	0xbdac99d0	-0.08427775
161	0x3d2b36f6	0.04180046
162	0x3c612b70	0.013743266
163	0xbd847bea	-0.06468947
164	0x3ddff8b6	0.1093611
165	0x38e96000	0.00011128187
166	0x3dd823f6	0.10553734
167	0x3d437c0c	0.047725722
168	0x3dca88a8	0.09889346
169	0xbdda5287	-0.10660272
170	0xbc3d1b20	-0.011542112
171	0x3dee5e4e	0.11639081
172	0x3d12c830	0.035835445
173	0x3da3d948	0.080004275
174	0x3de33d04	0.11095622
175	0xbd04b9cb	-0.03240375
176	0xbd236771	-0.03989357
177	0x3da93dc4	0.08263734
178	0x3da2c498	0.079476535
179	0xbbc17950	-0.005904354
180	0xbd15979a	-0.03652153
181	0xbdbf80a4	-0.09350708
182	0xbcfa2270	-0.030534
183	0xbd782698	-0.06058368
184	0xbdba3fdc	-0.090942115
185	0x3c833956	0.01601855
186	0xbd101aa6	-0.035181664
187	0xbbab9b00	-0.0052369833
188	0xbddba3ae	-0.10724579
189	0x3d057075	0.03257795
190	0x3d308fc2	0.043105848
191	0x3d26ed14	0.04075344
192	0xbd9f93cd	-0.07791863
193	0xbda66b63	-0.08125951
194	0xbcae7274	-0.02129481
195	0xbdcab57a	-0.09897895
196	0x3c4b3bcd	0.012404394
197	0xbd0671dc	-0.03282343
198	0xbb6300c7	-0.0034637915
199	0xbd9327d2	-0.071853295
200	0x3df1a76a	0.1179951
201	0x3d7b308c	0.061325595
202	0x3de553ed	0.11197648
203	0xbcd91eb8	-0.026503906
204	0x3ce46e0e	0.02788451
205	0x3df984d2	0.121835366
206	0xbdaf2bc4	-0.085532695
207	0xbdb11170	-0.08645904
208	0x3c2f9b59	0.01071819
209	0xbd7ceb2b	-0.06174771
210	0x3d46c695	0.048529226
211	0xbdf0a0e2	-0.11749436
212	0xbd649275	-0.055803735
213	0xbc13304b	-0.008983682
214	0xbdf997fc	-0.12187192
215	0x3dc13b99	0.094351955
216	0xbdd7d1b6	-0.10538046
217	0xbc55c470	-0.013047323
218	0x3d5be2b4	0.053682998
219	0xbcabf1b0	-0.020989269
220	0xbd429168	-0.04750195
221	0xbdf1ffb4	-0.118163496
222	0xbdb49234	-0.088169485
223	0xbd029653	-0.03188164
224	0xbc915fe6	-0.017745923
225	0x3d23f5dc	0.04002939
226	0x3c4a9b30	0.012366101
227	0x3d7f819b	0.06237946
228	0x3d8eef0c	0.06979188
229	0x3da699ab	0.081347786
230	0x3d3c9828	0.046043545
231	0x3c369237	0.011143259
232	0x3dc2a577	0.09504216
233	0x3b1e0403	0.0024111278
234	0x3c9b5fc8	0.01896657
235	0xbcd11cf4	-0.025526501
236	0xbdf52290	-0.11969483
237	0xbdd43a8b	-0.10362729
238	0xbdc2a025	-0.095032014
239	0xbba27de0	-0.004958853
240	0xbd342a51	-0.04398567
241	0x3c3bb0e0	0.0114557445
242	0x3de43e22	0.111446634
243	0xbdcc9f68	-0.09991342
244	0x3cef157b	0.029185047
245	0x3dee46c1	0.11634589
246	0xbcf77bc2	-0.03021038
247	0xbcea2fd8	-0.028587267
248	0x3bc843c0	0.006111592
249	0x3d7ccd9b	0.06171952
250	0xbd5b18b4	-0.053490356
251	0xbda5e092	-0.08099474
252	0x3d848cff	0.06472205
253	0x3db6de52	0.08929123
254	0xbd7561cd	-0.059907723
255	0x3d000fde	0.031265132

fc3.bias f4 [32]
0	0xbc642070	-0.013923749
1	0x3e096989	0.13419165
2	0xbc98d0e1	-0.018654289
3	0xbde711f9	-0.11282725
4	0x3bc56422	0.0060238997
5	0xbdcb3bf4	-0.099235445
6	0x3e23235c	0.15931457
7	0xbd4b28c4	-0.049599424
8	0xbddee612	-0.10883726
9	0xbc1ccd20	-0.00957039
10	0x3c6dd08d	0.014515054
11	0xbdc54ad9	-0.09633417
12	0xbbc61d08	-0.0060459413
13	0x3d89d8f2	0.06730832
14	0x3c6265b0	0.0138181895
15	0x3dcfef0a	0.10153015
16	0xbcd797a8	-0.026317433
17	0x3c22b24a	0.009930203
18	0xbd13d873	-0.036095094
19	0xbcf627e2	-0.030048314
20	0xbc5076f2	-0.012723671
21	0x3de18c63	0.11013105
22	0xbd9eec7b	-0.07759949
23	0x3bd42768	0.006474424
24	0x3cd9896e	0.02655479
25	0xbd0d5c10	-0.034511626
26	0xbd982e84	-0.07430747
27	0x3de43864	0.11143568
28	0xbd577744	-0.052603975
29	0xbdb8a152	-0.090151444
30	0x3d382ac1	0.04496265
31	0x3dd61c82	0.10454656

fc4.weight f4 [6, 32]
0	0xbdf807dc	-0.12110874
1	0x3ddbc6d5	0.107312836
2	0xbdc46ba9	-0.09590847
3	0xbe2e11c9	-0.16998972
4	0xbd8c9e64	-0.06866148
5	0x3d03c56e	0.032170705
6	0xbe09b7d2	-0.13449028
7	0x3d60892c	0.054818317
8	0x3e320119	0.17383231
9	0x3dbc8c5e	0.092064604
10	0x3e2ec598	0.17067564
11	0x3dd32835	0.10310403
12	0x3d94127b	0.07230087
13	0xbd2b349a	-0.04179821
14	0x3dbd2812	0.092361584
15	0x3deea526	0.11652593
16	0xbd6bab04	-0.05753614
17	0xbe0988ed	-0.1343114
18	0x3d32ac60	0.04362142
19	0x3e14c7cf	0.14529346
20	0xbdb4ae81	-0.088223465
21	0x3d4d4ea0	0.05012381
22	0x3d4efbfa	0.050533272
23	0xbd6932ad	-0.056933094
24	0xbe243c9a	-0.16038743
25	0x3e2ca204	0.16858679
26	0xbe2ef7b9	-0.17086686
27	0x3c71df50	0.0147627145
28	0xbe078ee8	-0.13238108
29	0xbd868acd	-0.06569443
30	0xbe142355	-0.14466603
31	0x3d955e0e	0.0729333
32	0xbc9173d5	-0.017755428
33	0x3dcddd9d	0.10052035
34	0xbda2befe	-0.07946585
35	0x3e177361	0.14790107
36	0xbdd2eefe	-0.102994904
37	0x3df9bbaf	0.12194001
38	0xbdfd4fdc	-0.123687476
39	0xbe2e0f66	-0.16998062
40	0x3b52ed40	0.003218487
41	0xbe2e0884	-0.16995436
42	0xbdd51339	-0.10404057
43	0xbe252804	-0.16128546
44	0xbd3339d7	-0.043756332
45	0xbd619040	-0.05506921
46	0xbe268e61	-0.1626525
47	0x3d30a8cc	0.043129727
48	0xbe262a52	-0.16227081
49	0x3c4ef197	0.012630842
50	0x3d514fa8	0.051101357
51	0x3df8c83c	0.12147567
52	0xbdb042a9	-0.086064644
53	0x3de30d78	0.11086553
54	0xbe112964	-0.14175946
55	0xbdc62c91	-0.09676469
56	0xbdbd0e65	-0.09231261
57	0xbdc250a9	-0.09488041
58	0xbdbbbca8	-0.09166843
59	0x3d9224a2	0.071358934
60	0x3d9f3f52	0.07775749
61	0xbb670fe6	-0.003525728
62	0x3d8e0c14	0.069358975
63	0xbd057d40	-0.03259015
64	0xbd1a402f	-0.037658866
65	0xbdf3e305	-0.11908535
66	0xbdac553a	-0.08414693
67	0xbd0789b5	-0.033090312
68	0xbba236ae	-0.004950366
69	0x3e1d9c43	0.1539164
70	0x3e0d966f	0.13826917
71	0x3c733cb0	0.014846012
72	0x3e1f41f7	0.15552507
73	0xbdd3b3d3	-0.10337033
74	0xbda65bf9	-0.08123011
75	0x3d9611d1	0.07327617
76	0xbdae6fd0	-0.0851742
77	0xbe340c28	-0.17582762
78	0xbe141da0	-0.14464426
79	0x3d4b7d78	0.049680203
80	0x3dbf19fe	0.093311295
81	0xbe03fcb5	-0.12889369
82	0x3bd4d9bf	0.006495684
83	0x39f96be9	0.0004757338
84	0xbcef4ab3	-0.029210424
85	0x3cae5f6f	0.02128574
86	0xbd4cc258	-0.04999003
87	0xbd99788d	-0.07493696
88	0xbdc1b25f	-0.0945785
89	0x3dbbbdb4	0.091670424
90	0xbd3fd0dc	-0.046830043
91	0xbdefd0c2	-0.11709739
92	0xbda9caa0	-0.08290601
93	0xbde7b909	-0.113145895
94	0x3df9ce2e	0.12197529
95	0x3df16a46	0.11787848
96	0xbdf05b53	-0.11736169
97	0x3e0a800a	0.13525406
98	0x3d31d891	0.043419424
99	0x3de06403	0.10956576
100	0x3ddab592	0.10679163
101	0x3da04b9b	0.078269206
102	0xbe08f9e8	-0.13376582
103	0xbda8920b	-0.082309805
104	0xbdf7711f	-0.12082123
105	0x3da7788a	0.08177288
106	0x3e02889f	0.1274743
107	0xbe275c11	-0.16343714
108	0x3dab9cbf	0.08379506
109	0xbd93b914	-0.07213035
110	0x3d88ebe4	0.066856176
111	0x3dc228f6	0.09480469
112	0xbdc1a786	-0.09455781
113	0x3db72ad0	0.08943713
114	0xbe1a392b	-0.1506087
115	0x3c41a9fd	0.0118203135
116	0x3dccbdd7	0.099971466
117	0xbe1dd2fa	-0.15412512
118	0xbc0e28d4	-0.008676726
119	0x3e05f37a	0.1308116
120	0x3d1f1441	0.038837675
121	0x3ce71adf	0.028211055
122	0x3cab6e20	0.020926535
123	0x3e10fd59	0.14159144
124	0x3d9c96ba	0.07645936
125	0x3b881333	0.0041526794
126	0x3d222714	0.03958805
127	0x3dfed4b6	0.12442915
128	0x3dbf698f	0.093463056
129	0xbe01ecd6	-0.12688002
130	0xbe259e54	-0.16173679
131	0x3dc0233a	0.09381719
132	0xbe18047b	-0.14845459
133	0x3e1295f5	0.14315017
134	0x3d61191f	0.054955598
135	0xbddb89e2	-0.107196584
136	0xbd6a2e14	-0.05717285
137	0x3e1c5b61	0.15269233
138	0x3dea41ca	0.114383295
139	0xbdbbe4c2	-0.091744915
140	0x3de311db	0.1108739
141	0xbdb7ec3d	-0.08980606
142	0x3e279773	0.16366367
143	0x3dade8aa	0.08491643
144	0x3db00fd4	0.08596769
145	0xbe1ecafd	-0.15507121
146	0xbe0d649b	-0.13807909
147	0x3de8eea3	0.11373641
148	0x3e2456a8	0.16048682
149	0x3d055fb9	0.03256199
150	0x3dcb83a2	0.09937216
151	0xbe2bf8d2	-0.16794136
152	0x3db54482	0.088509575
153	0xbd6fbdde	-0.05853068
154	0x3c287550	0.010281876
155	0xbde0c8d3	-0.10975804
156	0x3cb3c278	0.021943316
157	0x3d2ab8a3	0.04167999
158	0x3e1adf7c	0.15124315
159	0x3e2e085d	0.16995378
160	0x3d3257d9	0.04354081
161	0xbe28e308	-0.16492856
162	0xbd64a7a6	-0.055823945
163	0xbbfebf84	-0.0077742953
164	0x3dcebac2	0.10094215
165	0xbe1a80a5	-0.15088136
166	0xbe334d15	-0.17509873
167	0x3dae5646	0.08512549
168	0xbd65562c	-0.055990383
169	0x3e22294d	0.15836067
170	0x3de3d002	0.11123659
171	0x3bd17e33	0.006393218
172	0x3c950379	0.018190132
173	0x3d33ba21	0.04387868
174	0x3d0419d4	0.032251194
175	0xbe1fb78b	-0.1559736
176	0x3d438ab1	0.04773969
177	0xbe035092	-0.12823704
178	0x3ddad0e3	0.10684373
179	0x3d657b06	0.056025527
180	0x3e0e8804	0.13919073
181	0xbda770cd	-0.08175812
182	0xbc64f400	-0.01397419
183	0xbc25662e	-0.010095162
184	0x3d41d218	0.0473195
185	0x3d8e19bc	0.06938502
186	0x3e23f917	0.16012989
187	0xbe081cda	-0.13292256
188	0x3c030bd0	0.007998422
189	0xbded2967	-0.115801625
190	0x3d62b5f5	0.05534931
191	0x3d7fa7d0	0.062415898

fc4.bias f4 [6]
0	0x3e0786e9	0.13235058
1	0x3c828923	0.015934533
2	0x3e029b75	0.12754615
3	0xbd9e7e3a	-0.077389196
4	0xbd8ee9da	-0.069781974
5	0xbc983ee8	-0.018584684
