src/params_data/240418_005728/281param.pt (torch, 46927 bytes, 8 tensors)

fc1.weight f4 [128, 4]
000000 95 0b a9 bd 6c cc 80 3e b5 31 e4 3e 5b d6 89 3e
       -0.08254162 0.25155962 0.44569173 0.26921353
000010 40 ad a9 be f2 30 f0 be be 40 c1 be 40 1f f5 3d
       -0.33139992 -0.46912342 -0.37744707 0.11968851
000020 44 c5 04 be 73 30 f5 3e 4c aa d6 be 62 61 2e be
       -0.12965876 0.47888526 -0.419268 -0.17029336
000030 2c 35 db be 00 7a c8 ba 5a 2e a8 be 22 d2 a6 3e
       -0.42814004 -0.0015295148 -0.32847863 0.32582194
000040 70 e4 37 be 16 58 c2 be 9f 2c 3b 3e a0 b2 17 3d
       -0.17958236 -0.3795783 0.1827874 0.037035584
000050 1c 66 4b be ee 25 49 be b0 f8 53 3e e0 68 99 bd
       -0.1986317 -0.19643375 0.20700336 -0.074907064
000060 a1 71 6c be 5a 0c 82 be 3d ab b0 3e 12 72 05 3d
       -0.23090221 -0.25400048 0.34505644 0.03257949
000070 80 5c ac 3b 5c d2 f4 be b8 9c f5 3c 08 9e ab bd
       0.0052600503 -0.4781674 0.029981956 -0.083797514
000080 88 a9 9b be 02 35 b0 3e 66 fe 44 be 3a 41 b1 bd
       -0.3040278 0.34415442 -0.1923767 -0.08655019
000090 6b c3 f0 3e d9 33 8b 3e 1e 2d d9 3e 60 5c 06 bf
       0.47024092 0.27187994 0.42417234 -0.52484703
0000a0 78 3d c5 3d 91 f0 2b be 4e a2 cd 3d 85 5c da be
       0.09630865 -0.16790988 0.10040723 -0.42648712
0000b0 d7 02 cc bd 70 b4 d0 3e 20 d0 5a bc 09 71 ca be
       -0.09961479 0.40762663 -0.013355285 -0.39539364
0000c0 4d 9c f6 3c 4f 78 78 3e af dd 3c be 90 b0 05 3f
       0.030103827 0.24264644 -0.1844394 0.5222254
0000d0 5a 77 14 be a9 ab 68 3e df 58 74 be 94 49 d7 3e
       -0.14498654 0.22721733 -0.23862027 0.42048323
0000e0 0c 64 38 be 39 e0 c7 be 6b cd 80 3e f9 0b dd bb
       -0.18006915 -0.39038256 0.2515672 -0.006745812
0000f0 3e 77 d9 3e 60 49 cc be 00 5e 3a be b8 04 78 be
       0.42473787 -0.3989973 -0.1819992 -0.2422055
000100 0c 7b c0 3e 90 4c 1c be 08 db c4 bd f0 96 72 3e
       0.37593877 -0.15263581 -0.096120894 0.2369039
000110 e0 40 f4 be 38 00 1c bd 58 ea a0 3e 46 6d e0 be
       -0.47705746 -0.038086146 0.3142879 -0.4383337
000120 e8 b6 ea 3d 1c 5a 40 be 98 fb aa bd 4c 85 f5 3e
       0.11460668 -0.18784374 -0.08348769 0.4795326
000130 cc 79 b9 3e 30 8d b6 be 3e 81 52 3e 02 89 0c be
       0.36225736 -0.35654593 0.20557114 -0.1372414
000140 58 85 6b 3c 07 04 46 3e d6 e8 9d 3e b2 83 cc be
       0.014375053 0.19337474 0.30841702 -0.39944226
000150 f7 ec dd 3e b2 8c 26 3d cc f4 79 3e 45 7d 54 3e
       0.43344852 0.04066152 0.24409789 0.20750912
000160 90 67 17 3d 56 1e f6 be 3a 10 f2 be be d6 db be
       0.036964 -0.4807002 -0.47278005 -0.42937273
000170 53 eb c2 be b5 21 a8 3e 53 0e 3c 3e ab 89 a4 be
       -0.38070163 0.32838216 0.1836484 -0.32136282
000180 8f 1c 83 3e a9 d7 bb 3e 3e 21 7d be 5f dc 94 3e
       0.25607726 0.36687973 -0.24719712 0.2907438
000190 34 d0 c7 be 6e a8 38 3d 52 93 1a bd 67 af 02 3f
       -0.39026034 0.045082502 -0.03773815 0.5104889
0001a0 cb b7 12 be 62 4b 4a be 20 30 82 3e af 69 0b 3e
       -0.14327924 -0.19755319 0.2542734 0.13614534
0001b0 13 01 4d 3e d0 1c 94 3e 9c df a0 be 89 79 d6 3e
       0.20019941 0.28928232 -0.314206 0.418896
0001c0 83 48 fa be b0 db cb 3e fd 5d 09 3d 02 35 74 be
       -0.48883447 0.39816046 0.0335369 -0.23848346
0001d0 61 b7 1d bd 04 33 ba 3e 40 f6 ca 3e 7c 32 07 3e
       -0.038504962 0.36367047 0.39641 0.13202852
0001e0 18 8d d2 3e 08 73 bf bd 7c 35 6c be 0e d3 b6 be
       0.4112327 -0.09348112 -0.23067278 -0.35707897
0001f0 f9 d1 f4 3e 66 7d 94 3e 18 b6 ba 3c 53 f3 9f 3e
       0.47816446 0.2900192 0.022791907 0.3124033
000200 7c 5b 61 bd 70 24 ca 3e b5 d7 a1 bd 3c 8f 85 3e
       -0.055018887 0.39480925 -0.07902471 0.26085842
000210 9d 82 d7 3e b9 fd e3 3b 5b c0 cf 3e 6a a7 e4 3b
       0.42091838 0.0069577363 0.40576443 0.006977965
000220 c1 98 af 3d 67 67 ec 3e 36 da 7b be 63 2d 3b be
       0.08574057 0.4617264 -0.2459496 -0.18279032
000230 60 1b 03 3d 52 d5 d8 be b0 68 14 be 20 5a cd 3d
       0.03200853 -0.4235025 -0.1449306 0.100269556
000240 94 92 cd 3e b8 8f ca bc 13 d7 fa 3e c2 08 99 3e
       0.40150893 -0.024726734 0.48992214 0.29889494
000250 e2 d4 32 3e 49 72 90 3e d0 bf d0 be f8 f0 e9 3e
       0.17464021 0.28212193 -0.4077134 0.45691657
000260 a0 85 6d 3d a0 76 4b be e6 7a 92 3d 98 fc ca bd
       0.057988763 -0.1986947 0.07152347 -0.0991146
000270 df 50 c8 3d 76 6b fa 3e d2 e3 16 3e bd 0a 24 3e
       0.0978105 0.4891011 0.14735344 0.16019721
000280 ec 18 e9 bb 80 2b aa 3e 9b 6e 1f 3e 64 74 dd be
       -0.0071135666 0.33236313 0.15569536 -0.43252861
000290 82 86 ae 3e 40 ef cf be 28 2f cf bd c0 da ea 3d
       0.34086996 -0.4061222 -0.10116416 0.114675045
0002a0 06 54 ad be 82 ec b6 be 59 21 16 3e b0 b8 fd bd
       -0.33853167 -0.35727316 0.14661159 -0.12388742
0002b0 2a 91 bc be 4b 30 c6 3e 54 a4 9a 3e f6 f3 0f 3e
       -0.368295 0.3870872 0.30203497 0.14057907
0002c0 47 55 13 3e ae fd fc 3e 4e 83 c6 be f8 b7 86 be
       0.14388 0.49412292 -0.38772053 -0.26312232
0002d0 68 3e 87 3e d0 05 94 3d 88 40 4f be f2 3f 08 be
       0.264148 0.07227671 -0.2023946 -0.13305643
0002e0 52 27 ac bd e4 db 88 3e 63 b0 45 be 9b 48 05 be
       -0.08405937 0.26730263 -0.19305567 -0.13015978
0002f0 a2 86 76 bc 07 c5 1e 3d b0 25 1f be 0c a9 01 be
       -0.015046747 0.03876212 -0.1554172 -0.12662143
000300 fa 86 8a 3e 0a d2 c0 be fc 32 db be 80 0c 36 3d
       0.27056104 -0.37660247 -0.42812335 0.044445515
000310 15 8f d2 3e ee e5 22 3c 95 b6 d2 be 88 ad 8a be
       0.41124788 0.009942515 -0.41154924 -0.2708552
000320 da c7 ef be f7 18 20 3e 49 4b aa be 42 fb 8a be
       -0.46832162 0.15634523 -0.33260563 -0.2714482
000330 45 c1 28 be b2 70 84 3e 8b af 98 3b 31 5e e7 3d
       -0.16479976 0.2586723 0.004659598 0.112972625
000340 50 52 1a 3e 4e 24 0c be 73 84 97 3e 1d 32 04 bf
       0.15070462 -0.13685724 0.29593238 -0.51638967
000350 29 01 b9 3e e8 43 c0 3e 17 ab 1f bd 78 3f 04 be
       0.36133698 0.37551808 -0.038981523 -0.12914836
000360 1e 8f c5 3e 15 3d e7 be 46 df 89 3e 92 95 33 be
       0.38585752 -0.4516379 0.26928157 -0.17537525
000370 80 d1 17 bd 00 19 9d bd 60 b8 8e be 78 22 bd be
       -0.03706503 -0.07670784 -0.27875042 -0.3694036
000380 dc 4f 2d be 9e 56 82 be 28 c6 d5 bd 40 b8 47 3e
       -0.16924995 -0.2545671 -0.10438186 0.1950388
000390 18 d8 aa be 3c bd 1e be 04 7c 5d 3d a0 e9 6c be
       -0.3336799 -0.15501875 0.05407335 -0.23135996
0003a0 db 5a 91 3e 51 55 6a 3e 4a b1 d1 3d db 9d 42 be
       0.2838963 0.22884108 0.10238893 -0.1900553
0003b0 d8 a4 e4 3d e1 e1 67 be c6 ed e4 3d cd 29 c5 3e
       0.11164254 -0.2264476 0.11178164 0.38508454
0003c0 b1 96 f3 bd 9a 2a 54 3e 63 15 ae 3e 6a 16 0a 3f
       -0.118939765 0.20719376 0.34000692 0.5394045
0003d0 7e f3 9d be f8 59 d6 be 66 59 ad be 00 e0 79 3a
       -0.30849832 -0.41865516 -0.33857268 0.0009531975
0003e0 42 56 e2 be b3 3c 80 3e 6a d8 e4 be c1 a4 ae bd
       -0.44206434 0.2504631 -0.4469636 -0.08527518
0003f0 76 de 9e be 3f 48 4d 3e 8b 63 9a 3d 97 0a 82 3e
       -0.310291 0.20047091 0.075385176 0.25398704

fc1.bias f4 [128]
000000 fc 3c c0 be b6 73 ff 3e b4 37 e2 be f0 47 06 bd
       -0.37546527 0.49892968 -0.44183123 -0.03278345
000010 98 44 9b be 4b 70 a5 3e 9b 22 8e 3c 05 30 1a be
       -0.3032577 0.32312235 0.017350486 -0.1505738
000020 ec fd a1 be a7 9e 32 be 32 bc 56 3d 09 79 54 be
       -0.3163904 -0.17443334 0.05242557 -0.20749296
000030 8d 06 01 3f b3 8e 44 3e eb 4f 9b be a2 ce 9f be
       0.5040062 0.1919506 -0.3033441 -0.31212336
000040 ba 3f f4 be f7 12 f3 3e a0 f6 f1 3d 2f 04 e9 3e
       -0.4770487 0.47475407 0.11814618 0.45511004
000050 6a 14 6e be 5f d6 84 be e4 4c 85 be 14 bb 26 3e
       -0.23249975 -0.25944802 -0.26035225 0.16282302
000060 9b 16 f4 be 0c 09 a7 3e 02 2a 1f be 91 d7 33 be
       -0.47673497 0.3262409 -0.15543368 -0.17562701
000070 30 30 f4 3e 71 b1 84 be 80 90 b1 bd 09 30 d5 3e
       0.47693014 -0.25916627 -0.08670139 0.4163821
000080 08 60 74 3e 11 5c 3b 3e d0 65 02 3f c8 ea 88 3d
       0.23864758 0.1829684 0.50936604 0.06685406
000090 2f 00 ed be 53 2a da be da 6b 6c be 6d b4 f1 be
       -0.46289203 -0.42610416 -0.23088017 -0.47207966
0000a0 9b 19 3b 3c 28 0b 3a be 1d 83 23 be 23 b6 b6 3e
       0.011419679 -0.18168318 -0.15967984 0.35685834
0000b0 cf 93 e7 be a5 a3 03 3f e7 31 54 3e 1b 4f d7 3e
       -0.45229957 0.51421577 0.20722161 0.4205254
0000c0 56 54 90 be 4b 77 84 be 61 fb 9b be 0f 9e f7 be
       -0.28189343 -0.25872263 -0.30465224 -0.48362777
0000d0 81 e9 f7 3e 36 0d 9d be d3 a4 8e 3d 36 1b a8 be
       0.48420337 -0.30674142 0.069650315 -0.3283326
0000e0 00 bf 54 3e d5 32 13 be b8 79 8a 3e a1 b8 53 be
       0.20775986 -0.1437486 0.2704599 -0.20675899
0000f0 f8 ba d1 3e 74 e0 e6 3e a5 8f 86 be 3f e9 f4 3e
       0.40962958 0.4509312 -0.26281467 0.47834203
000100 d0 ca b7 be 1e 7e ab 3d 33 05 1b 3c ab a5 84 3e
       -0.3589692 0.08373664 0.009461689 0.25907645
000110 30 c9 d2 3e 45 5e bb be cc 45 7f be 5a 0a a6 be
       0.4116912 -0.3659536 -0.24928969 -0.32429773
000120 00 28 da 3d 68 20 4d 3e 34 ec 2f be fe b9 c8 3e
       0.10652161 0.20031893 -0.17179948 0.392044
000130 08 ef ba 3e e9 7a e7 3e b1 5e b6 bd ea 02 82 bc
       0.3651049 0.4521096 -0.0890478 -0.01587053
000140 26 95 e8 3e 67 2e 93 be e4 0b 31 3e 97 90 2d be
       0.4542629 -0.2874634 0.17289692 -0.16949688
000150 ce 75 b9 3e 45 b2 d4 bb d0 61 92 3e b0 70 0d bd
       0.3622269 -0.006490978 0.2859025 -0.034531295
000160 60 39 08 3e 9b 5c 65 be ef 9c 78 3d 27 f7 1d 3d
       0.13303137 -0.22398607 0.06069654 0.03856578
000170 c1 d0 a3 3e 20 27 96 bd 4a f1 b8 be c0 26 5d bd
       0.31995204 -0.07331681 -0.3612159 -0.053992033
000180 4c d3 9c be e2 51 da 3e 28 60 ad bd 60 e6 ec 3c
       -0.30629957 0.42640597 -0.08465606 0.028918445
000190 4a b2 57 39 d5 07 9f 3d e9 47 cb 3e b4 77 5e 3e
       0.00020570416 0.07765166 0.397033 0.2172535
0001a0 eb b1 fb be 6d c9 d5 3e 60 f4 da be e1 c2 61 be
       -0.49159178 0.41755238 -0.42764568 -0.22046997
0001b0 fa 06 23 3d ec f6 9a 3e 0f 41 d4 be 88 f4 91 be
       0.039801575 0.3026651 -0.41455886 -0.28506875
0001c0 38 d5 f0 be e0 10 9e bc f7 c2 73 3e 95 fb 48 3e
       -0.47037673 -0.019295156 0.23804842 0.19627221
0001d0 aa 0a fd be 4f ed a1 be 40 73 70 3c 76 6c d7 be
       -0.494222 -0.31626365 0.014675915 -0.42074937
0001e0 04 8c 62 3e 24 47 5d be cc 76 e9 3e 39 37 1d bd
       0.22123724 -0.21609169 0.45598447 -0.038382743
0001f0 87 14 ca be 2b 76 a1 3e 33 6e c3 3e 76 cb 72 3e
       -0.39468786 0.31535468 0.38170013 0.23710427

fc2.weight f4 [64, 128]
000000 53 cf 83 bd 19 90 52 bd c3 0a 2e ba 4f b9 91 3d
       -0.06436028 -0.051406953 -0.0006639177 0.07115423
000010 c7 d0 2b 3d 1e fd 81 3d a4 0d 4e 3c a8 5b b2 bd
       0.041947152 0.063471064 0.012576494 -0.08708888
000020 90 80 d3 bb d4 b5 a0 3d 35 fb 0e bd 52 30 9f 3d
       -0.006454535 0.07847181 -0.03490754 0.07772888
000030 a7 e5 c5 bd ec 96 af bd 9c a1 5b 3d 34 27 9e bd
       -0.09662943 -0.08573708 0.05362092 -0.07722321
000040 3c e5 61 bd 15 15 17 3d ec fd 88 bd a8 a9 07 bd
       -0.055150256 0.03688534 -0.06689057 -0.03312078
000050 c0 0d 87 bb c9 38 9a 3b 44 d7 53 bd a9 36 2a bd
       -0.004121512 0.0047064763 -0.051718965 -0.041556034
000060 8c 92 80 bd 81 32 64 3d da 1f 37 3b cd 95 cc 3a
       -0.062779516 0.055712227 0.002794257 0.0015608609
000070 d0 db a8 bc 47 39 bd bc b0 f1 be 3b 41 40 81 bd
       -0.020612627 -0.023098601 0.0058271512 -0.063110836
000080 32 1b b5 bd bb d4 2e bb 2a ce 97 bd fb 79 8d bd
       -0.08843078 -0.002667709 -0.074123695 -0.069080316
000090 80 e8 7f 3c 23 d3 93 3d d2 84 9d 3c 38 3e 64 bc
       0.015619397 0.072180055 0.019228373 -0.01393085
0000a0 f4 9d af 3d 80 6a 11 ba a7 eb b6 bc 81 d4 77 3d
       0.08575049 -0.0005547181 -0.022329165 0.060505394
0000b0 12 e6 6d bc 60 2d 0c 3b ae b8 9c bd b0 7d 07 bd
       -0.014520185 0.002138935 -0.07652412 -0.03307885
0000c0 24 25 18 bd d5 80 a6 3d f3 57 85 bd e4 4b 9f 3d
       -0.037144795 0.081300415 -0.065109156 0.07778147
0000d0 ef ee 6c 3d d3 e0 60 bd 76 9d 88 bd 53 48 a8 bd
       0.057845052 -0.05490191 -0.06670658 -0.0821692
0000e0 1c 89 ec bc f5 3d e3 3c df dc 91 bd be 60 44 3c
       -0.028873973 0.027739504 -0.07122206 0.011985956
0000f0 00 4f a6 3c 95 5e 8b 3d 80 5f c4 3b 2a 86 ce ba
       0.020301342 0.068051495 0.00599283 -0.0015756537
000100 a8 f7 90 3d fb 6c b3 bd ca 20 aa 3d 3c 24 a4 3d
       0.07078487 -0.08761021 0.08307035 0.08014724
000110 a0 93 7f bc d4 59 1e 3d 3a c6 15 bd 78 9b 2f 3c
       -0.015599161 0.038659886 -0.036565997 0.010718219
000120 af 63 83 bd 58 54 29 bd 63 67 06 3d c8 67 5b 3c
       -0.064154975 -0.041340202 0.03281344 0.013391443
000130 06 85 e3 bc 55 f7 a9 bd c2 05 85 bd be d6 07 3d
       -0.027773391 -0.08299128 -0.06495239 0.03316378
000140 be ac a7 3d 47 90 9b bd 94 e0 8c bd 0d 2a 6b bd
       0.08187245 -0.07595878 -0.068787724 -0.05741315
000150 28 71 37 3c 58 94 da bc 84 29 ec 3c 4f d7 85 3d
       0.011196412 -0.026682064 0.02882839 0.065352075
000160 cc 45 38 bd f0 52 56 3d bc ed 5c bc 29 3c 8e bd
       -0.04498844 0.05232519 -0.013484415 -0.069450684
000170 c0 1a 3f bd 50 59 ac bd 95 ab 89 3d ab 6c 8c bc
       -0.04665637 -0.084154725 0.0672218 -0.01714166
000180 e9 96 80 3d 05 c7 6b 3d 08 4d c5 3c 4d 80 b2 bd
       0.06278784 0.057562847 0.024084583 -0.08715878
000190 95 c3 78 3d 3b cd 3d 3d 04 eb 9f bd 70 1d 6f bd
       0.060733397 0.0463383 -0.078084975 -0.058377683
0001a0 03 6a 18 bc 18 f3 bc ba 93 36 49 3d 58 f8 1a 3b
       -0.009302619 -0.0014415709 0.04912431 0.002364656
0001b0 a0 25 a1 bd 40 9a be bb 7a 03 b7 bd c4 95 dd bc
       -0.078685045 -0.005816728 -0.0893621 -0.027048953
0001c0 2d 1b d5 bb 9a 63 61 3d 03 9c ab 3d 1b a4 a2 bd
       -0.0065034837 0.055026628 0.08379366 -0.07941457
0001d0 a8 39 81 bc 7a 25 b6 bc e0 b0 6e bd 33 4f 5a bd
       -0.015774563 -0.022234667 -0.05827415 -0.053298187
0001e0 34 30 15 3c 6c b4 c0 3b f7 c1 76 bd f4 0a 61 3d
       0.009105731 0.005880883 -0.060243573 0.054942086
0001f0 4a f3 62 bd cb 91 6e 3c 49 a7 c9 bc 5e ea fe bc
       -0.0554078 0.014561127 -0.0246159 -0.031117614
000200 74 c8 65 bc c8 d4 3c bd 63 1d 6f bd 53 bf 9e 3d
       -0.0140248425 -0.04610136 -0.058377635 0.07751336
000210 0f e5 3e bc 3f 37 97 bd bb 84 15 bd 12 0e 92 3b
       -0.0116512915 -0.07383584 -0.036503535 0.0044572437
000220 0e ac 66 3d fe 65 9b 3d cb de 9e bd e2 02 80 3d
       0.056316428 0.07587813 -0.07757338 0.0625055
000230 2a 26 be 3a d1 ba 2e 3d 1a 59 a6 3d 66 a6 10 3d
       0.0014507223 0.04265863 0.081224635 0.03531494
000240 e0 33 8f 3b 25 e2 38 bd ec 76 9c 3c 98 8d 8d 3d
       0.0043701977 -0.045137543 0.019099675 0.069117725
000250 f5 c7 55 3d d2 d6 81 3d f8 1d 77 3c d2 56 0e 3d
       0.052192647 0.06339802 0.015082829 0.034750767
000260 40 18 93 3d 3a 46 ae bd bb 36 52 3d 13 05 b2 bd
       0.0718236 -0.085094884 0.051321726 -0.08692374
000270 dd 5d 98 3c c5 ad 97 3d f8 3d af bc 79 25 90 bd
       0.018599445 0.07406191 -0.021391854 -0.07038397
000280 4c fb fd 39 ee 1c 2d bc e7 9e 57 bc 16 6e 32 3d
       0.0004844315 -0.010565979 -0.013160444 0.043562017
000290 e0 c2 1e bd 77 f7 51 3d 2d 39 9c bb 56 c2 5e 3b
       -0.038760066 0.05126139 -0.004767558 0.0033990345
0002a0 89 15 25 bd ee 24 59 3d d9 94 11 bd 38 57 25 3d
       -0.04030374 0.053013735 -0.035542343 0.04036638
0002b0 45 48 c0 bc 89 37 88 3c cd 01 92 bd ec e0 ab 3c
       -0.02347196 0.016628044 -0.0712925 0.020981275
0002c0 35 2a 06 bd de 46 58 bd 65 de 96 bc e4 fa 8e 3c
       -0.032755096 -0.05280196 -0.018416593 0.017453618
0002d0 e9 86 43 3d ac 53 46 3d 25 13 50 bd 75 33 88 bd
       0.047736082 0.04841964 -0.050799508 -0.0665044
0002e0 7a 71 48 3d b3 39 05 3c 5e d8 dd 3c 8d aa 29 ba
       0.048936345 0.008131432 0.027080711 -0.00064722524
0002f0 12 77 83 bd b2 bb 28 bd 1d 90 af 3d 1b ec 54 bd
       -0.06419195 -0.041194625 0.08572409 -0.05198298
000300 ae 9f 99 3d 8c 1d 2c bd 2e 3b cd 3c 87 97 e6 bc
       0.075011596 -0.042020366 0.025052633 -0.028148426
000310 aa 9a 10 bd 83 2b 7c 3d 60 33 77 bc 3f 2a 12 bd
       -0.03530375 0.061564934 -0.015087932 -0.03568482
000320 5b 4c 85 3d 19 d3 69 3b 58 e9 8e 3d 58 de a9 bd
       0.06508704 0.0035678803 0.069781005 -0.08294362
000330 e0 41 08 3b 0b df 8a bb 43 1c 90 3d ec 56 5b 3c
       0.0020791218 -0.0042380146 0.070366405 0.013387423
000340 fd ab 6b bd 91 6f 96 3d 53 e6 93 3d 8a 48 65 3d
       -0.057537068 0.07345498 0.07221665 0.05597738
000350 98 a3 7b 3c a4 a0 71 bc 00 f7 ee 3b e6 41 1a 3d
       0.015358828 -0.014747772 0.0072926283 0.037660502
000360 aa d3 88 bc cc e3 92 3d 1f 01 95 3d 41 15 41 bc
       -0.016702492 0.07172355 0.072756045 -0.0117848525
000370 89 02 1a bd 8c fc 94 bc aa 8c 06 3d 0b be bb bd
       -0.037600074 -0.01818683 0.03284899 -0.09167107
000380 5a 5b 8b bc 39 22 33 bb 04 b9 e5 3c 00 98 28 38
       -0.017011333 -0.002733363 0.028042324 4.0195882e-05
000390 82 c6 95 bd 03 92 3b 3d 45 fe 3a bd 0e 85 19 3d
       -0.07313253 0.045793545 -0.045652647 0.037480406
0003a0 31 48 1a bd 1e fd 59 3c f7 f9 d2 ba 32 ea e5 3c
       -0.037666503 0.013304977 -0.0016096224 0.028065775
0003b0 67 43 74 bd aa 7d 5e bd a6 c4 16 bc fe 77 91 bd
       -0.059634592 -0.05431906 -0.009202158 -0.07102965
0003c0 2c 6b 38 bd ff d5 89 3d fe f5 84 3d 32 04 2b 3c
       -0.045024082 0.0673027 0.06492232 0.010438012
0003d0 4a c4 77 3d 0d 1a 6a 3d 40 e9 81 bb cc e3 aa bd
       0.06048993 0.05715375 -0.003964573 -0.0834423
0003e0 43 22 49 bd 3b a8 0d bd d0 02 ee 3c f7 bb 42 bd
       -0.04910494 -0.034584265 0.029054075 -0.04754254
0003f0 72 cd 1e 3d 7b 88 44 bd 79 c5 a3 3d ca 2d 37 3d
       0.038770147 -0.04798172 0.07996649 0.044721402

fc2.bias f4 [64]
000000 f0 a4 b6 3d 20 c2 0d bc c5 67 63 bd f0 97 ef 3c
       0.08918178 -0.00865224 -0.055518884 0.029247254
000010 f9 aa bd 3c 36 e4 ce 3c 2d ba 60 3d cb 81 84 bc
       0.023152815 0.025255304 0.05486505 -0.016175171
000020 ca 0f 8a bc 86 21 5d 3d 89 b8 53 bd c7 b8 a5 bd
       -0.016853232 0.05398705 -0.05168966 -0.08091884
000030 4b a2 98 3d 41 5f 95 3d 38 98 ae 3d 9c 66 46 3d
       0.0745283 0.07293559 0.08525127 0.0484377
000040 08 4f ea 3c 27 f6 50 3d 3e 1a 60 bd 61 5f 8e 3d
       0.028602138 0.051016 -0.054712527 0.06951786
000050 e6 40 b6 bb b0 a4 f1 3d 4e ce f5 3d 47 d0 a4 3d
       -0.0055619357 0.1179899 0.1200224 0.08047538
000060 cf 6b ee 3b f9 1e 91 3d 3a c0 9f bd 50 a9 c2 3c
       0.0072760354 0.07085986 -0.07800336 0.023762375
000070 15 4a 73 3d e2 63 95 3d 04 65 d3 bc 6a b7 aa bd
       0.059396822 0.07294442 -0.025805004 -0.08335765
000080 4f b1 42 bc 47 fa 11 3d d7 ae b1 3d 24 f2 c4 3d
       -0.011883094 0.035639074 0.08675926 0.09616497
000090 9e 1a 0d bd ec 4b e4 bc 90 f5 02 3c 3c de e8 3c
       -0.034449212 -0.027868234 0.007993117 0.028426282
0000a0 0c 50 e2 bc 63 43 8b 3c 34 65 b4 bd 56 4c 29 3d
       -0.02762606 0.016999906 -0.088083655 0.041332565
0000b0 6e 3e 5b bd 49 f5 04 3d 74 74 a5 3d 93 70 5e bd
       -0.053526334 0.032460485 0.08078852 -0.054306578
0000c0 42 0f a0 bd fa ba 42 3d 7a 9a 36 3d 29 40 a0 3d
       -0.0781541 0.047541596 0.044580914 0.078247376
0000d0 eb a1 47 bd 31 77 7d 3d ca 15 87 3d 90 7a 9d bc
       -0.0487384 0.061881248 0.06595953 -0.019223481
0000e0 6c 90 cf bc 88 55 91 3d 4c 88 a8 bb 2e 9c 48 3d
       -0.02533742 0.07096392 -0.005143201 0.04897707
0000f0 4e 93 05 3d 3b 4d a6 3d 08 7c 76 bd ca c9 cb bb
       0.032611184 0.08120199 -0.06017688 -0.0062191235

fc3.weight f4 [32, 64]
000000 8e a0 cc 3d 58 a0 c2 bc 10 e4 8c 3d e6 a2 e1 bd
       0.09991561 -0.023758098 0.06879437 -0.110173985
000010 aa 5f e4 bd a3 d6 e1 bd ea bb 62 3d 4d 56 6e 3d
       -0.11151059 -0.11027267 0.05535499 0.05818777
000020 a8 d3 a8 3d 04 2f 1a bd 0a cb 9a bd 84 86 1d 3d
       0.08243495 -0.037642494 -0.07558258 0.038458362
000030 e8 ac e3 3d 20 52 b5 bb 9b 8b d6 3d f4 41 84 bd
       0.111169636 -0.0055334717 0.104758464 -0.06457892
000040 4c 15 8d bd 0d 2a 35 3d e4 4c 5a 3d 84 41 d5 3d
       -0.06888828 0.044229556 0.053295985 0.10412887
000050 f6 e7 8d bd 7e 06 e0 3d c5 94 e7 bd e0 63 d3 3d
       -0.06929009 0.10938738 -0.113076724 0.10321784
000060 1e ec ff bc c0 78 a6 3c 2e 01 90 3c 80 1e 75 3c
       -0.03124052 0.02032125 0.017578688 0.014960885
000070 aa 6d a1 bd 99 61 d3 3c 27 eb 4e bd bf 0f 06 3d
       -0.07882245 0.025803374 -0.050517228 0.03272986
000080 ea ae d4 bd 04 7f a4 3c 77 2f be 3d 36 93 78 3c
       -0.10384925 0.020080097 0.09286397 0.015171817
000090 e0 d9 b1 bb c5 5d 5b bd 00 cf 6d bd 36 ab d5 3d
       -0.005427584 -0.053556222 -0.05805874 0.104330465
0000a0 27 5d 00 3d 16 5e f3 bc 60 2d 0c bc 3c 39 7d 3d
       0.031338837 -0.02970795 -0.00855574 0.06182216
0000b0 47 b6 94 bd bc 37 99 3d d1 30 02 bb 39 26 86 3c
       -0.07261329 0.074813336 -0.0019865523 0.016375648
0000c0 4d 5e 8b bd 54 c3 73 bd 24 27 07 bd 20 2b e9 3d
       -0.06805096 -0.05951245 -0.03299631 0.113851786
0000d0 0c a2 c5 3d aa 32 f8 bd e0 e4 21 bd b8 2a 1a 3d
       0.096500486 -0.121190384 -0.039524913 0.037638396
0000e0 58 79 9d 3d 02 8f bf bb 7c df a4 3c e0 e5 3c bd
       0.0768916 -0.0058459053 0.020126097 -0.046117663
0000f0 af f1 5e 3b 1f 7f d1 bd 72 f0 ae 3b a7 66 c2 3d
       0.0034018566 -0.102293245 0.005338722 0.09492236
000100 d9 05 8f bd 72 7c 82 bd 26 a2 fc 3d d2 67 30 bd
       -0.06983537 -0.06371392 0.12335615 -0.04306776
000110 8a fc 13 bd 7c 0b a3 3d 77 23 b4 bd e1 44 66 3d
       -0.036129512 0.07961175 -0.08795827 0.05621803
000120 55 67 ae 3d 18 e3 8f bd 68 88 4d bc 20 c3 3b bd
       0.08515803 -0.070257366 -0.012544729 -0.045840383
000130 7d 28 ea 3d d8 4c da bc 1f 05 f5 bb fa 50 f6 3b
       0.11433504 -0.02664797 -0.007477417 0.0075169774
000140 56 40 e0 bd bf f3 8a bd 3f 0d 21 bc 50 96 a2 bc
       -0.10949771 -0.06784772 -0.009829818 -0.019847065
000150 b8 82 b2 3d f2 0a aa 3d 01 56 f4 bc 18 ba 59 3c
       0.08716339 0.08302869 -0.029826166 0.013288997
000160 31 70 b2 3c 94 6f 4d 3d b9 f0 4f bd 82 20 de 3d
       0.021782013 0.050155237 -0.05076668 0.10846044
000170 00 e0 fc 3a d9 78 5a 3b 40 81 66 bd d5 09 49 3d
       0.0019292831 0.003333619 -0.056275606 0.049081642
000180 44 2f b7 bd 8a 6a b4 bc 9b 31 2d bd 6d 56 06 bd
       -0.08944562 -0.022023458 -0.042283636 -0.032797266
000190 d0 bc 39 3c e7 57 41 bd 2c 48 df bd 98 82 96 3d
       0.01133652 -0.04720297 -0.109024376 0.073491275
0001a0 ac da b2 3d 2c 6f 8d 3d e4 8c 9b 3d 9e 77 74 bd
       0.087331146 0.0690597 0.07595232 -0.05968439
0001b0 73 f2 dc 3d 9e c2 09 3d df cd e2 3d 52 c4 a4 3d
       0.10788431 0.033632867 0.11074423 0.08045258
0001c0 26 e9 c6 3c 34 d6 f3 3d 18 f8 82 3d 57 ee 90 3b
       0.024281096 0.119060904 0.063949764 0.0044229436
0001d0 6c a5 d1 3d 88 a3 33 3d eb 54 b5 3d 7a 79 ed 3d
       0.1023663 0.043857127 0.088540874 0.115954354
0001e0 64 22 4f 3d e1 b0 53 3d b4 17 af 3d d8 93 8e bd
       0.050569907 0.051682357 0.08549443 -0.06961793
0001f0 b9 10 a1 3d 39 76 56 bd 4e 4e ec 3d 2e c5 96 3d
       0.07864518 -0.05235884 0.11538373 0.07361828
000200 38 6f ba bd a3 83 bf 3d 5d a2 ee 3c 75 bf b8 3d
       -0.091032445 0.093512796 0.029130155 0.090208925
000210 a4 c8 e8 bd 0f 4d c5 bc fc 8d dc 3c d7 4e 91 bd
       -0.11366394 -0.024084596 0.026923172 -0.07095116
000220 a4 a0 f8 3d 08 32 96 3d c4 f3 a6 bd f6 7b fd bd
       0.12140015 0.073337615 -0.08151963 -0.12377159
000230 d7 de bc 3d 58 b6 99 3d 88 f7 cc bc 64 45 ab bd
       0.09222191 0.075054824 -0.025020376 -0.083628446
000240 df 3d d2 bc 50 65 e0 bd 9d 31 24 bc c8 cb ea 3d
       -0.025664268 -0.10956824 -0.010021594 0.114646494
000250 e4 a9 bb 3d 20 82 b8 bb 34 62 fd 3c d0 75 05 bd
       0.091632634 -0.0056307465 0.030930616 -0.032583058
000260 0c 29 bf 3d e0 ad d1 3d ff 5c 10 3d fc 30 b7 bd
       0.09334001 0.10238242 0.035244938 -0.0894489
000270 6c 77 e5 bd 19 e2 e4 bd b4 de 0c bd a6 c0 52 3d
       -0.112044185 -0.11175937 -0.034392074 0.051453255
000280 2b 96 ac bd d0 3e 2b 3d 70 2b 61 3c cb 76 84 bd
       -0.0842708 0.04180795 0.013743266 -0.064679705
000290 b6 f8 df 3d 00 60 e9 38 f6 23 d8 3d e9 7c 43 3d
       0.1093611 0.00011128187 0.10553734 0.047726545
0002a0 7d 8a ca 3d 4c 4a da bd 20 1b 3d bc 4e 5e ee 3d
       0.09889696 -0.10658702 -0.011542112 0.11639081
0002b0 30 c8 12 3d 48 d9 a3 3d bb 43 e3 3d c3 13 04 bd
       0.035835445 0.080004275 0.11096903 -0.03224541
0002c0 f1 61 23 bd c4 3d a9 3d 98 c4 a2 3d 50 79 c1 bb
       -0.039888326 0.08263734 0.079476535 -0.005904354
0002d0 04 8f 15 bd 0f 7a bf bd b4 0b fa bc 98 26 78 bd
       -0.036513343 -0.09349453 -0.030523159 -0.06058368
0002e0 dc 3f ba bd 56 39 83 3c 69 0e 10 bd 00 9b ab bb
       -0.090942115 0.01601855 -0.035169993 -0.0052369833
0002f0 a8 9a db bd fa 75 05 3d c2 8f 30 3d 36 fb 26 3d
       -0.10722858 0.032583214 0.043105848 0.040766917
000300 cd 93 9f bd 63 6b a6 bd 74 72 ae bc 7a b5 ca bd
       -0.07791863 -0.08125951 -0.02129481 -0.09897895
000310 cd 3b 4b 3c dc 71 06 bd c7 00 63 bb d2 27 93 bd
       0.012404394 -0.03282343 -0.0034637915 -0.071853295
000320 6a a7 f1 3d 8c 30 7b 3d ed 53 e5 3d b8 1e d9 bc
       0.1179951 0.061325595 0.11197648 -0.026503906
000330 0e 6e e4 3c d2 84 f9 3d c4 2b af bd 70 11 b1 bd
       0.02788451 0.121835366 -0.085532695 -0.08645904
000340 59 9b 2f 3c 2b eb 7c bd 95 c6 46 3d e2 a0 f0 bd
       0.01071819 -0.06174771 0.048529226 -0.11749436
000350 75 92 64 bd 4b 30 13 bc fc 97 f9 bd 99 3b c1 3d
       -0.055803735 -0.008983682 -0.12187192 0.094351955
000360 b6 d1 d7 bd 70 c4 55 bc b4 e2 5b 3d b0 f1 ab bc
       -0.10538046 -0.013047323 0.053682998 -0.020989269
000370 68 91 42 bd b4 ff f1 bd 34 92 b4 bd 53 96 02 bd
       -0.04750195 -0.118163496 -0.088169485 -0.03188164
000380 e6 5f 91 bc dc f5 23 3d 30 9b 4a 3c 9b 81 7f 3d
       -0.017745923 0.04002939 0.012366101 0.06237946
000390 0c ef 8e 3d ab 99 a6 3d 28 98 3c 3d 37 92 36 3c
       0.06979188 0.081347786 0.046043545 0.011143259
0003a0 77 a5 c2 3d 03 04 1e 3b c8 5f 9b 3c f4 1c d1 bc
       0.09504216 0.0024111278 0.01896657 -0.025526501
0003b0 90 22 f5 bd 8b 3a d4 bd 25 a0 c2 bd e0 7d a2 bb
       -0.11969483 -0.10362729 -0.095032014 -0.004958853
0003c0 51 2a 34 bd e0 b0 3b 3c 22 3e e4 3d 68 9f cc bd
       -0.04398567 0.0114557445 0.111446634 -0.09991342
0003d0 7b 15 ef 3c c1 46 ee 3d c2 7b f7 bc d8 2f ea bc
       0.029185047 0.11634589 -0.03021038 -0.028587267
0003e0 c0 43 c8 3b 9b cd 7c 3d b4 18 5b bd 92 e0 a5 bd
       0.006111592 0.06171952 -0.053490356 -0.08099474
0003f0 ff 8c 84 3d 52 de b6 3d cd 61 75 bd de 0f 00 3d
       0.06472205 0.08929123 -0.059907723 0.031265132

fc3.bias f4 [32]
000000 dd d1 61 bc 1b 8f 09 3e ab bc 98 bc f9 11 e7 bd
       -0.013782945 0.13433497 -0.018644651 -0.11282725
000010 b5 85 a3 3b ec 60 ca bd d7 c6 23 3e c4 28 4b bd
       0.0049903044 -0.09881768 0.1599382 -0.049599424
000020 12 e6 de bd 20 cd 1c bc 37 af 74 3c ab 4f c3 bd
       -0.10883726 -0.00957039 0.014934353 -0.0953668
000030 56 53 c5 bb 42 0c 89 3d b0 65 62 3c 0a ef cf 3d
       -0.0060218973 0.06691791 0.0138181895 0.10153015
000040 a8 97 d7 bc 82 ab 20 3c 53 10 14 bd b0 6a f5 bc
       -0.026317433 0.009806516 -0.03614838 -0.0299581
000050 db 7c 4a bc 85 a3 e3 3d 32 03 9e bd 68 27 d4 3b
       -0.012358869 0.11115173 -0.07715453 0.006474424
000060 bb 58 d6 3c 74 7e 0e bd 84 2e 98 bd 64 38 e4 3d
       0.026165357 -0.034788564 -0.07430747 0.11143568
000070 44 77 57 bd 52 a1 b8 bd 1b 27 37 3d 82 1c d6 3d
       -0.052603975 -0.090151444 0.04471503 0.10454656

fc4.weight f4 [6, 32]
000000 5f 44 f8 bd 1a d9 db 3d a9 6b c4 bd c9 11 2e be
       -0.12122416 0.10734768 -0.09590847 -0.16998972
000010 f7 9b 8c bd f0 2c 03 3d ca 99 09 be 2c 89 60 3d
       -0.068656854 0.032025278 -0.13437572 0.054818317
000020 19 01 32 3e 5e 8c bc 3d ff f6 2e 3e 4f f6 d3 3d
       0.17383231 0.092064604 0.17086409 0.10349714
000030 22 5c 94 3d 0c c0 2a bd 12 28 bd 3d 26 a5 ee 3d
       0.072441354 -0.041687056 0.092361584 0.11652593
000040 04 ab 6b bd 54 ed 08 be 16 2f 33 3d 95 ce 14 3e
       -0.05753614 -0.13371783 0.043746077 0.1453193
000050 61 1c b4 bd 7d cc 4d 3d 67 8b 4f 3d ad 32 69 bd
       -0.08794475 0.050243843 0.050670054 -0.056933094
000060 5d 05 24 be cd ab 2c 3e b9 f7 2e be 50 df 71 3c
       -0.16017671 0.16862412 -0.17086686 0.0147627145
000070 e8 8e 07 be cd 8a 86 bd a8 04 14 be 0e 5e 95 3d
       -0.13238108 -0.06569443 -0.14454901 0.0729333
000080 d5 73 91 bc b8 47 ce 3d fe be a2 bd 61 73 17 3e
       -0.017755428 0.10072273 -0.07946585 0.14790107
000090 8c 29 d2 bd 6a 3b fa 3d db 1b fc bd 66 0f 2e be
       -0.10261831 0.122183636 -0.123100005 -0.16998062
0000a0 40 ed 52 3b 84 08 2e be af 4b d6 bd e6 90 24 be
       0.003218487 -0.16995436 -0.10463654 -0.160709
0000b0 4c fe 31 bd db c6 5f bd 61 8e 26 be cc a8 30 3d
       -0.043455407 -0.054633003 -0.1626525 0.043129727
0000c0 52 2a 26 be eb 59 4f 3c 18 4b 52 3d 3c c8 f8 3d
       -0.16227081 0.012655715 0.051341146 0.12147567
0000d0 9a 80 b1 bd eb 49 e3 3d 23 26 11 be 91 2c c6 bd
       -0.08667107 0.11098083 -0.14174704 -0.09676469
0000e0 73 7e bc bd d1 9c c1 bd a8 bc bb bd a2 24 92 3d
       -0.09203806 -0.094537385 -0.09166843 0.071358934
0000f0 52 3f 9f 3d e6 0f 67 bb 2c b0 8e 3d 40 7d 05 bd
       0.07775749 -0.003525728 0.06967196 -0.03259015
000100 2f 40 1a bd 62 b6 f4 bd a6 55 ac bd b5 89 07 bd
       -0.037658866 -0.11948849 -0.08414774 -0.033090312
000110 10 f5 bb bb 70 26 1d 3e 6a aa 0d 3e b0 3c 73 3c
       -0.005736001 0.15346694 0.13834539 0.014846012
000120 f7 41 1f 3e d3 b3 d3 bd 2c d8 a4 bd e2 89 97 3d
       0.15552507 -0.10337033 -0.08049044 0.07399346
000130 60 89 af bd d3 93 33 be a0 1d 14 be 78 7d 4b 3d
       -0.08571124 -0.17536859 -0.14464426 0.049680203
000140 fe 19 bf 3d 72 2a 03 be a5 c6 c7 3b e0 6b f9 39
       0.093311295 -0.1280916 0.0060966783 0.00047573354
000150 ef e6 e9 bc 3f 8c ad 3c fd b7 48 bd 8d 78 99 bd
       -0.0285525 0.021185039 -0.04900359 -0.07493696
000160 d9 2c c2 bd fd 83 ba 3d dc d0 3f bd c2 d0 ef bd
       -0.0948121 0.09107206 -0.046830043 -0.11709739
000170 a0 ca a9 bd 09 b9 e7 bd 14 82 f8 3d 46 6a f1 3d
       -0.08290601 -0.113145895 0.121341854 0.11787848
000180 53 5b f0 bd 4d 2f 0a 3e 91 d8 31 3d 03 64 e0 3d
       -0.11736169 0.13494606 0.043419424 0.10956576
000190 6a bc d9 3d 05 95 9f 3d 0a 00 0a be 0b 92 a8 bd
       0.1063164 0.07792095 -0.13476577 -0.082309805
0001a0 1f 71 f7 bd 8a 78 a7 3d 04 62 03 3e 8b 93 27 be
       -0.12082123 0.08177288 0.12830359 -0.16364877
0001b0 d0 60 ab 3d 88 17 97 bd e4 eb 88 3d f6 28 c2 3d
       0.08368075 -0.07377535 0.066856176 0.09480469
0001c0 86 a7 c1 bd 31 7c b5 3d e9 79 1a be 7f 5c 41 3c
       -0.09455781 0.08861578 -0.15085568 0.011801838
0001d0 ff 61 ce 3d e1 2b 1e be b5 d4 24 bc 7a f3 05 3e
       0.10077285 -0.15446426 -0.010060479 0.1308116
0001e0 2c d6 1d 3d 11 8d e5 3c 20 6e ab 3c 59 fd 10 3e
       0.03853433 0.028021367 0.020926535 0.14159144
0001f0 ba 96 9c 3d 33 13 88 3b 76 9d 21 3d b6 d4 fe 3d
       0.07645936 0.0041526794 0.039456807 0.12442915
000200 8f 69 bf 3d 97 7a 01 be 54 9e 25 be 3a 23 c0 3d
       0.093463056 -0.1264442 -0.16173679 0.09381719
000210 df 71 17 be dc bd 12 3e 26 6f 62 3d e2 89 db bd
       -0.14789532 0.14330238 0.05528178 -0.107196584
000220 14 2e 6a bd 61 5b 1c 3e b0 ce e9 3d 69 17 bb bd
       -0.05717285 0.15269233 0.11416376 -0.091353245
000230 a4 a8 e3 3d bd a4 bd bd 73 97 27 3e aa e8 ad 3d
       0.1111615 -0.09259937 0.16366367 0.08491643
000240 d4 0f b0 3d a6 28 1e be d4 e8 0c be 93 ed e8 3d
       0.08596769 -0.15445194 -0.13760692 0.11373439
000250 88 26 24 3e 91 e2 06 3d 06 3b cb 3d d2 f8 2b be
       0.16030324 0.032930914 0.09923367 -0.16794136
000260 96 0d b6 3d dc 17 6e bd 50 75 28 3c d3 c8 e0 bd
       0.0888931 -0.058128223 0.010281876 -0.10975804
000270 78 c2 b3 3c a3 b8 2a 3d 42 33 1b 3e 5d 08 2e 3e
       0.021943316 0.04167999 0.15156272 0.16995378
000280 d9 57 32 3d 23 a6 28 be a6 a7 64 bd 84 bf fe bb
       0.04354081 -0.16469626 -0.055823945 -0.0077742953
000290 37 de ce 3d 85 43 1a be 74 7f 33 be 46 56 ae 3d
       0.10100978 -0.15064819 -0.17529088 0.08512549
0002a0 2c 56 65 bd 4d 29 22 3e ae c3 e4 3d 39 52 d2 3b
       -0.055990383 0.15836067 0.111701354 0.006418493
0002b0 d8 7f 96 3c 84 fc 2e 3d d4 19 04 3d 8b b7 1f be
       0.018371508 0.042721286 0.032251194 -0.1559736
0002c0 b1 8a 43 3d a2 3c 03 be bb 37 db 3d d6 7b 65 3d
       0.04773969 -0.12816098 0.10703989 0.056026302
0002d0 ed fb 0e 3e 40 30 a7 bd 16 0c 66 bc 2e 66 25 bc
       0.1396329 -0.081635 -0.014040967 -0.010095162
0002e0 62 3a 42 3d bf 98 8e 3d 17 f9 23 3e da 1c 08 be
       0.04741896 0.06962728 0.16012989 -0.13292256
0002f0 d0 0b 03 3c 67 29 ed bd 7c 94 63 3d d0 a7 7f 3d
       0.007998422 -0.115801625 0.055561528 0.062415898

fc4.bias f4 [6]
000000 41 e8 07 3e 0a c5 83 3c 97 72 02 3e 19 0c a0 bd
       0.13272192 0.016085166 0.12739025 -0.078148074
000010 84 10 8e bd 0e 18 a0 bc
       -0.06936744 -0.01954272
