src/params_data/240418_005728/28param.pt (torch, 46927 bytes, 8 tensors)

fc1.weight f4 [128, 4]
0	0xbdb1f96d	-0.08690152
1	0x3e819867	0.25311586
2	0x3ee51a28	0.44746518
3	0x3e9a8309	0.30178097
4	0xbea9ad40	-0.33139992
5	0xbef030f2	-0.46912342
6	0xbec140be	-0.37744707
7	0x3df51f40	0.11968851
8	0xbe042b22	-0.12907079
9	0x3ef57feb	0.47949156
10	0xbed5e0ab	-0.4177297
11	0xbe5c3c9c	-0.21507496
12	0xbedb352c	-0.42814004
13	0xbac87a00	-0.0015295148
14	0xbea82e5a	-0.32847863
15	0x3ea6d222	0.32582194
16	0xbe37e470	-0.17958236
17	0xbec25816	-0.3795783
18	0x3e319f0d	0.1734583
19	0x3d17b2a0	0.037035584
20	0xbe4b661c	-0.1986317
21	0xbe660754	-0.22463733
22	0x3e433908	0.19064724
23	0xbd9b21b1	-0.075747855
24	0xbe6be7a2	-0.2303758
25	0xbe75c265	-0.23999937
26	0x3eb625ff	0.35575864
27	0x3c28ca33	0.010302114
28	0x3bac5c80	0.0052600503
29	0xbef4d25c	-0.4781674
30	0x3c93b7cb	0.018031975
31	0xbdab9e08	-0.083797514
32	0xbea63e2a	-0.32469302
33	0x3eb1c5b9	0.34721163
34	0xbe416e0f	-0.1888964
35	0x3d02c1a4	0.03192295
36	0x3eecea99	0.46272734
37	0x3e8c2df4	0.2737881
38	0x3eda454d	0.42630997
39	0xbeef929d	-0.46791545
40	0x3dc53d78	0.09630865
41	0xbe1c0641	-0.1523676
42	0x3db8af55	0.09017817
43	0xbed943c4	-0.42434514
44	0xbdfacad0	-0.12245715
45	0x3ed18000	0.4091797
46	0xbc2b1e65	-0.010444258
47	0xbe9088ee	-0.2822947
48	0x3d2e8607	0.042608287
49	0x3e7b781a	0.24557534
50	0xbe3a65bd	-0.18202873
51	0x3eea468c	0.45756948
52	0xbe315fe0	-0.1732173
53	0x3e69a91b	0.22818415
54	0xbe755d26	-0.23961315
55	0x3efd8321	0.49514106
56	0xbe38640c	-0.18006915
57	0xbeb14f71	-0.3463092
58	0x3e85cec7	0.2613432
59	0x3ba71b80	0.005099714
60	0x3ed9773e	0.42473787
61	0xbecc4960	-0.3989973
62	0xbe3a5e00	-0.1819992
63	0xbe7804b8	-0.2422055
64	0x3ec07b0c	0.37593877
65	0xbe1c4c90	-0.15263581
66	0xbdc4db08	-0.096120894
67	0x3e7296f0	0.2369039
68	0xbeea4f48	-0.45763612
69	0xbd295986	-0.04134514
70	0x3ea0d6fa	0.31414014
71	0xbee4c45b	-0.44681057
72	0x3deab6e8	0.11460668
73	0xbe405a1c	-0.18784374
74	0xbdaafb98	-0.08348769
75	0x3ef5854c	0.4795326
76	0x3eb979cc	0.36225736
77	0xbeb3eeba	-0.3514307
78	0x3e4bfcf0	0.19920707
79	0xbe1925c0	-0.14955807
80	0x3cbea514	0.023272075
81	0x3e47106c	0.19439858
82	0x3e9d811e	0.3076257
83	0xbee2aa58	-0.44270587
84	0x3ed5333c	0.4164065
85	0x3d2b0eef	0.04176229
86	0x3e7b9b7d	0.24571033
87	0x3e542617	0.20717655
88	0x3d176790	0.036964
89	0xbef61e56	-0.4807002
90	0xbef2103a	-0.47278005
91	0xbedbd6be	-0.42937273
92	0xbec059e4	-0.3756858
93	0x3ea8b0fb	0.32947525
94	0x3e39373c	0.18087476
95	0xbe8102ed	-0.25197545
96	0x3e7f2cf2	0.24919489
97	0x3ebc7c85	0.3681375
98	0xbe7cfe91	-0.24706484
99	0x3e931f4c	0.28734815
100	0xbed525af	-0.41630313
101	0x3d1aafb7	0.03776523
102	0xbd2c98fe	-0.042138092
103	0x3ed7d049	0.42151096
104	0xbe056ec8	-0.13030541
105	0xbe514124	-0.20435005
106	0x3e7ec150	0.2487843
107	0x3dd362f0	0.10321605
108	0x3e5cfd74	0.2158106
109	0x3e952eff	0.29137418
110	0xbe9f4011	-0.31103566
111	0x3eda5615	0.426438
112	0xbeee6051	-0.4655786
113	0x3eccaef3	0.39977226
114	0x3d0e23cf	0.03470212
115	0xbe875ada	-0.26436502
116	0xbc9eef8e	-0.019401338
117	0x3ebb2da1	0.3655825
118	0x3ecb69ca	0.39729148
119	0x3d8525bc	0.06501338
120	0x3ed28d18	0.4112327
121	0xbdbf7308	-0.09348112
122	0xbe6c357c	-0.23067278
123	0xbeb6d30e	-0.35707897
124	0x3ef7554b	0.4830726
125	0x3e958347	0.2920172
126	0x3cd37a15	0.02581505
127	0x3e8314dd	0.25601855
128	0xbd7951c0	-0.06086898
129	0x3ecb5416	0.3971259
130	0xbda1129a	-0.07864876
131	0x3e9a34d5	0.30118433
132	0x3eca8185	0.3955194
133	0x3bfcf850	0.007720031
134	0x3ed0bfdc	0.40771377
135	0x3de9feba	0.11425538
136	0x3dc5dbca	0.09661062
137	0x3eed45ca	0.46342307
138	0xbe78ac90	-0.24284577
139	0xbe3ce545	-0.18446834
140	0x3d031b60	0.03200853
141	0xbed8d552	-0.4235025
142	0xbe1468b0	-0.1449306
143	0x3dcd5a20	0.100269556
144	0x3ed4101e	0.41418546
145	0xbcb68b6b	-0.022283277
146	0x3efd2eca	0.4944976
147	0x3e8aacc1	0.27084926
148	0x3e3b80bb	0.18310826
149	0x3e90bdef	0.28269908
150	0xbed04ffe	-0.4068603
151	0x3ef60551	0.4805093
152	0x3d6d85a0	0.057988763
153	0xbe4b76a0	-0.1986947
154	0x3d8e2094	0.069398075
155	0xbdcafc98	-0.0991146
156	0x3dadde3e	0.08489655
157	0x3efb69dc	0.49104202
158	0x3e1bd090	0.15216279
159	0x3e03844d	0.12843437
160	0xbc9ed931	-0.019390674
161	0x3eaab008	0.33337426
162	0x3e217964	0.15768963
163	0xbef103bc	-0.47073162
164	0x3eae8682	0.34086996
165	0xbecfef40	-0.4061222
166	0xbdcf2f28	-0.10116416
167	0x3deadac0	0.114675045
168	0xbead5406	-0.33853167
169	0xbeb6ec82	-0.35727316
170	0x3e09f52b	0.1347243
171	0xbdfdb8b0	-0.12388742
172	0xbecffb6e	-0.40621513
173	0x3ec69aa4	0.38789856
174	0x3e9bffc8	0.30468583
175	0x3e477295	0.19477303
176	0x3e09801c	0.13427776
177	0x3efd695c	0.49494445
178	0xbec47fdc	-0.383788
179	0xbe3f76f9	-0.18697728
180	0x3e804142	0.25049788
181	0x3d8a9686	0.06766991
182	0xbe544665	-0.20729978
183	0xbde20088	-0.110352576
184	0xbdb7e72b	-0.08979639
185	0x3e895011	0.26818898
186	0xbe47a07a	-0.1949481
187	0xbe10a939	-0.14127053
188	0xbcba57d7	-0.022746963
189	0x3cfba8f1	0.030720206
190	0xbe242a0b	-0.16031663
191	0xbe17e4b0	-0.14833331
192	0x3e8a86fa	0.27056104
193	0xbec0d20a	-0.37660247
194	0xbedb32fc	-0.42812335
195	0x3d360c80	0.044445515
196	0x3eca9b84	0.39571774
197	0xbbf5a266	-0.007496166
198	0xbedaccb6	-0.42734307
199	0xbe94f63e	-0.29094118
200	0xbee9a314	-0.4563223
201	0x3e12fbad	0.14353819
202	0xbeb43f17	-0.35204384
203	0xbea22d28	-0.31675076
204	0xbe1c9645	-0.15291698
205	0x3e84fe2b	0.25975165
206	0x3ba4ffc4	0.0050353725
207	0x3d48d7c1	0.049033884
208	0x3e1072cd	0.14106293
209	0xbe11d1fe	-0.14240262
210	0x3e949ae4	0.29024422
211	0xbee94786	-0.4556238
212	0x3eb934a5	0.36172977
213	0x3ec0e002	0.37670904
214	0xbd139b35	-0.03603669
215	0xbe577d6d	-0.2104394
216	0x3ec58f1e	0.38585752
217	0xbed0583f	-0.40692326
218	0x3e94bb13	0.29048976
219	0xbe267884	-0.1625691
220	0xbd17d180	-0.03706503
221	0xbd9d1900	-0.07670784
222	0xbe8eb860	-0.27875042
223	0xbebd2278	-0.3694036
224	0xbe2d4fdc	-0.16924995
225	0xbe82569e	-0.2545671
226	0xbdd5c628	-0.10438186
227	0x3e47b840	0.1950388
228	0xbeaad818	-0.3336799
229	0xbe1ebd3c	-0.15501875
230	0x3d45049a	0.04810009
231	0xbe6ce9a0	-0.23135996
232	0x3e868e9e	0.26280683
233	0x3e6b0225	0.22950037
234	0x3dd85fd6	0.10565154
235	0xbdacb9c0	-0.084338665
236	0x3de4a4d8	0.11164254
237	0xbe6e3ec0	-0.23266125
238	0x3dee65ac	0.11640486
239	0x3ec1fd52	0.3788858
240	0xbdf19c7a	-0.11797424
241	0x3e560d6f	0.20903562
242	0x3eae9e47	0.3410513
243	0x3ef9e784	0.48809445
244	0xbe9df37e	-0.30849832
245	0xbed659f8	-0.41865516
246	0xbead5966	-0.33857268
247	0x3a79e000	0.0009531975
248	0xbedd6f9c	-0.43249214
249	0x3e80f828	0.25189328
250	0xbee535a8	-0.447675
251	0xbc576401	-0.013146401
252	0xbea09526	-0.3136379
253	0x3e4e4e70	0.20147109
254	0x3d9b5739	0.07584996
255	0x3e89a202	0.26881415

fc1.bias f4 [128]
0	0xbec656d6	-0.38738126
1	0x3eff73b6	0.49892968
2	0xbed5ef44	-0.41784108
3	0xbd0647f0	-0.03278345
4	0xbea00b1d	-0.3125848
5	0x3e9a4628	0.3013165
6	0x3d0e96f6	0.034811936
7	0xbe266c4f	-0.16252254
8	0xbe9dcfc3	-0.30822572
9	0xbe344d1b	-0.17607538
10	0x3d3037d2	0.043021984
11	0xbe514416	-0.20436129
12	0x3eef96cc	0.46794736
13	0x3e54679c	0.20742649
14	0xbe9454a8	-0.28970838
15	0xbe9fcea2	-0.31212336
16	0xbef43fba	-0.4770487
17	0x3ef734a1	0.4828234
18	0x3df1f6a0	0.11814618
19	0x3ee67779	0.45013025
20	0xbe6b6e2f	-0.2299125
21	0xbe749c9c	-0.23887867
22	0xbe854ce4	-0.26035225
23	0x3e2daf87	0.1696149
24	0xbee8fb05	-0.45504013
25	0x3e9eb5a0	0.30997944
26	0xbe18392f	-0.14865564
27	0xbe2a4b1f	-0.16630219
28	0x3ef7f79a	0.48431093
29	0xbe8e8891	-0.27838567
30	0xbdb19080	-0.08670139
31	0x3ed6ee20	0.4197855
32	0x3e7f1a3d	0.24912353
33	0x3e426662	0.18984368
34	0x3eff4b6d	0.49862233
35	0x3d88eac8	0.06685406
36	0xbef872d6	-0.48525113
37	0xbed10b7d	-0.40829077
38	0xbe6e9901	-0.23300554
39	0xbef6dd81	-0.4821587
40	0x3d1c89f7	0.03821751
41	0xbe3a0b28	-0.18168318
42	0xbe2faea9	-0.17156471
43	0x3ec0209c	0.3752488
44	0xbee377cc	-0.44427335
45	0x3efe7355	0.49697366
46	0x3e4ee86b	0.20205848
47	0x3ed2bccd	0.4115967
48	0xbe905456	-0.28189343
49	0xbe8eb975	-0.27875867
50	0xbead23e5	-0.33816448
51	0xbefda62f	-0.4954085
52	0x3eedbe68	0.4643433
53	0xbe929df9	-0.2863615
54	0x3dc2c0b1	0.09509409
55	0xbea81b36	-0.3283326
56	0x3e54bf00	0.20775986
57	0xbe19506b	-0.14972083
58	0x3e92d435	0.28677526
59	0xbe4e9c3b	-0.20176785
60	0x3ed498c1	0.41522792
61	0x3ee6e074	0.4509312
62	0xbe82af87	-0.25524542
63	0x3ef8409a	0.48486787
64	0xbeaec82a	-0.34137088
65	0x3da86d3f	0.08223962
66	0xbc97c9d9	-0.018528866
67	0x3e6ab24c	0.22919577
68	0x3ed2c930	0.4116912
69	0xbebf2dab	-0.3733953
70	0xbe7a8899	-0.2446617
71	0xbea60a5a	-0.32429773
72	0x3dda2800	0.10652161
73	0x3e5dc0eb	0.21655624
74	0xbe1383cb	-0.14405744
75	0x3ec8b9fe	0.392044
76	0x3ebaef08	0.3651049
77	0x3ee4d159	0.4469097
78	0xbdcc8868	-0.09986955
79	0xbcd30595	-0.025759498
80	0x3ee4cba8	0.44686627
81	0xbe95614b	-0.2917579
82	0x3e310be4	0.17289692
83	0xbe3720c3	-0.17883591
84	0x3eb975ce	0.3622269
85	0xbcd7695c	-0.026295356
86	0x3e9261d0	0.2859025
87	0xbd0d70b0	-0.034531295
88	0x3e0d1ff9	0.13781728
89	0xbe544909	-0.20730986
90	0x3d5f3bc8	0.05450037
91	0x3ccca78e	0.02498224
92	0x3eb2e47c	0.34939945
93	0xbd962720	-0.07331681
94	0xbeb8f14a	-0.3612159
95	0xbd44ea01	-0.048074726
96	0xbe91099d	-0.28327647
97	0x3ee5b4f3	0.44864616
98	0xbdad6028	-0.08465606
99	0x3cece660	0.028918445
100	0xbceebe6c	-0.029143535
101	0x3dba260d	0.09089289
102	0x3ebb3f87	0.36571905
103	0x3e5e77b4	0.2172535
104	0xbeeeb0d6	-0.4661929
105	0x3ed92ddf	0.4241781
106	0xbeda3313	-0.42617092
107	0xbe366015	-0.1781009
108	0x3d3f53be	0.046710722
109	0x3e993a0d	0.29927102
110	0xbedac348	-0.42727113
111	0xbe91f488	-0.28506875
112	0xbee5f5e4	-0.44914162
113	0xbc9e10e0	-0.019295156
114	0x3e7f0e81	0.24907877
115	0x3e3c2694	0.18374091
116	0xbefd0aaa	-0.494222
117	0xbeab27fb	-0.3342894
118	0x3c707340	0.014675915
119	0xbed76c76	-0.42074937
120	0x3e777d2f	0.24168848
121	0xbe66f956	-0.22556052
122	0x3edb49e4	0.42829812
123	0xbca5256b	-0.020159444
124	0xbed470e4	-0.4149238
125	0x3ea5c9dd	0.32380572
126	0x3ec2399e	0.37934583
127	0x3e7e0ad3	0.24808817

fc2.weight f4 [64, 128]
0	0xbd86aa66	-0.0657547
1	0xbd529019	-0.051406953
2	0x3c6478e8	0.013944842
3	0x3d91b94f	0.07115423
4	0x3d60e08d	0.05490165
5	0x3d8d82ef	0.06909739
6	0x3c75f561	0.015012116
7	0xbd940b5d	-0.0722873
8	0xbaa81230	-0.0012822803
9	0x3d9dae03	0.07699206
10	0xbcb30489	-0.021852748
11	0x3d9861b1	0.07440508
12	0xbdb5b6ca	-0.08872755
13	0xbd972c7e	-0.07381533
14	0x3d84963d	0.06473968
15	0xbd9e2734	-0.07722321
16	0xbd61e53c	-0.055150256
17	0x3d16feab	0.036863964
18	0xbd88fdec	-0.06689057
19	0xbca626bd	-0.020282144
20	0xbbb73e6a	-0.005592157
21	0x3b8355b4	0.0040080193
22	0xbd53d744	-0.051718965
23	0xbd342051	-0.04397613
24	0xbd61a064	-0.0550846
25	0x3d85d3ed	0.06534562
26	0x3bc0a817	0.005879413
27	0x3c41a917	0.011820099
28	0xbcc4d580	-0.024027586
29	0xbccbfbc9	-0.024900334
30	0x3bbef1b0	0.0058271512
31	0xbd883a0e	-0.06651698
32	0xbdb9c82e	-0.09071384
33	0xbb48b3e8	-0.003062481
34	0xbd91d4bb	-0.07120653
35	0xbd8d79fb	-0.069080316
36	0x3c7dc29e	0.015488295
37	0x3d93d323	0.072180055
38	0x3d039417	0.03212365
39	0xbc89503e	-0.016761895
40	0x3daa6528	0.08320075
41	0xba116a80	-0.0005547181
42	0xbc180a1d	-0.009279755
43	0x3d6f1254	0.05836709
44	0xbb40d18d	-0.0029421777
45	0x3b0c2d60	0.002138935
46	0xbd8b62a0	-0.068059206
47	0xbd077db0	-0.03307885
48	0xbd182524	-0.037144795
49	0x3da680d5	0.081300415
50	0xbd8557f3	-0.065109156
51	0x3d985892	0.074387684
52	0x3d721ca2	0.059109338
53	0xbd6c3de4	-0.05767621
54	0xbd60ae85	-0.054853935
55	0xbda84853	-0.0821692
56	0xbcec891c	-0.028873973
57	0x3d277185	0.040879745
58	0xbd97263b	-0.07380339
59	0x3cc8c2d4	0.024506964
60	0x3c99c96c	0.018772803
61	0x3d8b5e95	0.068051495
62	0x3bc45f80	0.00599283
63	0xbb8e64f2	-0.0043455297
64	0x3d8b9486	0.06815438
65	0xbdaada65	-0.08342437
66	0x3db4e4f6	0.08832733
67	0x3da34870	0.07972801
68	0xbc7f93a0	-0.015599161
69	0x3d566408	0.05234149
70	0xbd0ccb8b	-0.0343738
71	0x3c2f9b78	0.010718219
72	0xbd8363af	-0.064154975
73	0xbcf2cadd	-0.029637748
74	0x3d09ed4a	0.033673562
75	0x3c5b67c8	0.013391443
76	0xbce38506	-0.027773391
77	0xbdae0e5c	-0.084988326
78	0xbd5a5d3c	-0.05331157
79	0x3d435a45	0.04769351
80	0x3da336bb	0.079694234
81	0xbd8aa414	-0.06769577
82	0xbd8ce094	-0.068787724
83	0xbd580aab	-0.05274455
84	0x3c377128	0.011196412
85	0xbcf1178e	-0.029430177
86	0x3cec2984	0.02882839
87	0x3d85d74f	0.065352075
88	0xbd42a64c	-0.047521874
89	0x3d4bcecc	0.049757764
90	0xbc78133c	-0.015141305
91	0xbd929ea4	-0.071591645
92	0xbd4a8a8b	-0.04944853
93	0xbdac5950	-0.084154725
94	0x3d89ab95	0.0672218
95	0xbc979964	-0.01850576
96	0x3d7cef62	0.06175173
97	0x3d6323aa	0.055453934
98	0x3cc54d08	0.024084583
99	0xbdb2804d	-0.08715878
100	0x3d70c665	0.058782954
101	0x3d3ab1c6	0.045579694
102	0xbd9b6969	-0.07588465
103	0xbd6f1d70	-0.058377683
104	0xbbe3091f	-0.0069285776
105	0xbb4b83e6	-0.003105396
106	0x3d526af4	0.05137153
107	0x3b5926ca	0.0033134692
108	0xbd874d36	-0.06606524
109	0xbbbe9a40	-0.005816728
110	0xbdb6c780	-0.0892477
111	0xbcdd95c4	-0.027048953
112	0xbbde01b9	-0.0067751077
113	0x3d61639a	0.055026628
114	0x3dab9c03	0.08379366
115	0xbda8dae6	-0.082448766
116	0xbc8139a8	-0.015774563
117	0xbcbbeb5a	-0.022939373
118	0xbd6eb0e0	-0.05827415
119	0xbd5a4f33	-0.053298187
120	0x3c33e590	0.010980025
121	0x3c99f603	0.018794065
122	0xbd7601c5	-0.06006028
123	0x3d580984	0.05274345
124	0xbd5eac27	-0.054363396
125	0x3cdfcdcf	0.027319817
126	0xbcd3a776	-0.025836688
127	0xbcad933e	-0.021188375
128	0xbc466797	-0.012109659
129	0xbd3cd4c8	-0.04610136
130	0xbd6ef080	-0.058334827
131	0x3d9ebf53	0.07751336
132	0xbc885eb4	-0.01664672
133	0xbd9285c0	-0.07154417
134	0xbd136d55	-0.03599294
135	0xba70cb60	-0.00091855787
136	0x3d69c8ec	0.05707638
137	0x3d9ced61	0.07662464
138	0xbda8ecfc	-0.08248326
139	0x3d81a3dc	0.06330082
140	0x3b1d153a	0.002396895
141	0x3d34fa06	0.044183753
142	0x3da0242e	0.07819401
143	0x3d10a666	0.03531494
144	0x3b8f33e0	0.0043701977
145	0xbd27be61	-0.040953044
146	0x3c9c76ec	0.019099675
147	0x3d83a5a2	0.06428076
148	0x3d5a8114	0.053345755
149	0x3d837e62	0.0642059
150	0x3c771df8	0.015082829
151	0x3d14e07a	0.03634689
152	0x3d92f598	0.071757495
153	0xbd9abff8	-0.075561464
154	0x3d60b463	0.05485953
155	0xbdb1b004	-0.086761504
156	0x3ca4c99a	0.020115662
157	0x3d9abc6a	0.075554684
158	0xbcaf3df8	-0.021391854
159	0xbd8eee92	-0.069790974
160	0x3aca3cab	0.0015429457
161	0xbc118252	-0.008881168
162	0xbc532b1e	-0.012888698
163	0x3d326e16	0.043562017
164	0xbd16d6bf	-0.03682589
165	0x3d4ee234	0.050508693
166	0xbc1f709f	-0.009731441
167	0x3b90e497	0.0044217813
168	0xbd213947	-0.039361265
169	0x3d5924ee	0.053013735
170	0xbd262671	-0.040564004
171	0x3d2d52ee	0.042315416
172	0xbcc2207b	-0.023697129
173	0x3bd3e690	0.006466694
174	0xbd916599	-0.07099456
175	0x3c5e2fd1	0.013561205
176	0xbd062a35	-0.032755096
177	0xbd761162	-0.06007517
178	0xbcc7290d	-0.024311567
179	0x3c9839b2	0.018582199
180	0x3d33b2ca	0.04387168
181	0x3d46f9c1	0.048578028
182	0xbd5fc6e2	-0.05463303
183	0xbd883375	-0.0665044
184	0x3d48717a	0.048936345
185	0x3b559d29	0.0032594895
186	0x3ce3b6d5	0.027797142
187	0xbbb52b5a	-0.0055288495
188	0xbd7d4ee3	-0.06184281
189	0xbd28bbb2	-0.041194625
190	0x3daeed6d	0.08541379
191	0xbd4b3ff1	-0.049621526
192	0x3d9ce87e	0.07661532
193	0xbd2ccce7	-0.042187598
194	0x3ce50705	0.027957449
195	0xbcd1ca5b	-0.025609186
196	0xbd109aaa	-0.03530375
197	0x3d673862	0.056450255
198	0xbc7ced42	-0.015437426
199	0xbd122a3f	-0.03568482
200	0x3d854c5b	0.06508704
201	0xb8978584	-7.22511e-05
202	0x3d8e3669	0.06943972
203	0xbda9de58	-0.08294362
204	0x3b0841e0	0.0020791218
205	0xbb4d2b46	-0.003130631
206	0x3d88d80a	0.06681831
207	0x3c6b4c5d	0.014361468
208	0xbd66477a	-0.05622051
209	0x3d980f24	0.07424763
210	0x3d93e653	0.07221665
211	0x3d745e16	0.05966004
212	0x3c7ba398	0.015358828
213	0xbc5ac2e8	-0.013352133
214	0x3beef700	0.0072926283
215	0x3d1a41e6	0.037660502
216	0xbc7e4f87	-0.0155218905
217	0x3d94eb2d	0.07271419
218	0x3d98c2dc	0.074590415
219	0xbc344c18	-0.01100447
220	0xbd194058	-0.03741488
221	0xbc94fc8c	-0.01818683
222	0x3d068caa	0.03284899
223	0xbdb71bff	-0.08940887
224	0xbc79c5ee	-0.015244944
225	0xbaf18b28	-0.0018428313
226	0x3ce5b904	0.028042324
227	0x38289800	4.0195882e-05
228	0xbd92e261	-0.071720846
229	0x3d53d313	0.051714968
230	0xbd3b72c9	-0.045763765
231	0x3d19850e	0.037480406
232	0xbd1fcf58	-0.039016098
233	0x3c68cdc8	0.014209218
234	0xbb06e68f	-0.00205842
235	0x3ce412ca	0.02784099
236	0xbd8438e7	-0.06456166
237	0xbd873aca	-0.0660301
238	0xbb83cf81	-0.004022539
239	0xbd9177fe	-0.07102965
240	0xbd3a8352	-0.045535393
241	0x3d89d5ff	0.0673027
242	0x3d86c7b5	0.0658106
243	0x3c32a263	0.010902974
244	0x3d77c44a	0.06048993
245	0x3d72360a	0.059133567
246	0xbb81e940	-0.003964573
247	0xbdaae3cc	-0.0834423
248	0xbd91850d	-0.071054555
249	0xbd223b9d	-0.039607633
250	0x3cf59e97	0.029982848
251	0xbd3cd1ca	-0.046098508
252	0x3d0aabbe	0.033855192
253	0xbd4187cb	-0.047248643
254	0x3da87511	0.08225454
255	0x3d2f187d	0.042747963

fc2.bias f4 [64]
0	0x3daf0c40	0.085472584
1	0x3befaefc	0.007314561
2	0xbd479fe1	-0.048736457
3	0x3d0633dd	0.032764304
4	0xbb3442c1	-0.0027505609
5	0xbb3f13d6	-0.002915611
6	0x3d9f27b0	0.07771242
7	0xbc6ed266	-0.01457653
8	0xbd029ad0	-0.031885922
9	0x3d5d2186	0.05398705
10	0xbd1aeff0	-0.03782648
11	0xbda5b8c7	-0.08091884
12	0x3d25d238	0.040483683
13	0x3d955f41	0.07293559
14	0x3da9073f	0.08253335
15	0x3d6cdaa2	0.057825692
16	0x3ca803df	0.020509658
17	0x3dae9f9f	0.08526539
18	0xbd7d2bd8	-0.06180939
19	0x3d8e5f61	0.06951786
20	0xbc6676be	-0.014066396
21	0x3da384b9	0.07984299
22	0x3db54b29	0.08852226
23	0x3da56dce	0.08077584
24	0x3cf6665e	0.03007811
25	0x3d911ef9	0.07085986
26	0xbd88844f	-0.06665861
27	0x3cc2a950	0.023762375
28	0x3d90ea79	0.07075972
29	0x3d892329	0.066961594
30	0xbcd656fd	-0.026164526
31	0xbd9e0ba3	-0.07717063
32	0x3ca57205	0.02019597
33	0x3d8eda9c	0.0697529
34	0x3dac4c15	0.08412949
35	0x3db02385	0.08600525
36	0xbd0d1a9e	-0.034449212
37	0xbc87995c	-0.01655262
38	0x3c02f590	0.007993117
39	0x3d3ef5f6	0.046621285
40	0xbd26c6fb	-0.040717106
41	0xbbdd14eb	-0.0067468784
42	0xbdb46534	-0.088083655
43	0x3d1d1d03	0.038357746
44	0xbd4f4da2	-0.050611146
45	0x3d1ddfac	0.03854339
46	0x3da46359	0.080267616
47	0xbd85ca64	-0.065327436
48	0xbd8783b7	-0.066169195
49	0x3d42bafa	0.047541596
50	0x3d369a7a	0.044580914
51	0x3da04029	0.078247376
52	0xbd928f3a	-0.071562245
53	0x3d2160da	0.039399005
54	0x3d5f89c1	0.05457473
55	0xbc9d7a90	-0.019223481
56	0xbccf906c	-0.02533742
57	0x3d91a6df	0.07111906
58	0xbce723fa	-0.028215397
59	0x3d489c2e	0.04897707
60	0x3d1d8046	0.03845241
61	0x3da36795	0.07978741
62	0xbd693bd3	-0.05694182
63	0x3b4bfcae	0.003112595

fc3.weight f4 [32, 64]
0	0x3dd82bf4	0.105552584
1	0xbcb83bd6	-0.02248947
2	0x3d8f26fc	0.069898576
3	0xbde1f276	-0.11032574
4	0xbde1102e	-0.10989414
5	0xbdde073f	-0.10841226
6	0x3d65a646	0.056066774
7	0x3d70ac11	0.058757845
8	0x3da990af	0.08279549
9	0xbd1a2f04	-0.037642494
10	0xbd972f8e	-0.07382117
11	0x3d1d8684	0.038458362
12	0x3de5a107	0.11212354
13	0xbbb55220	-0.0055334717
14	0x3de3571e	0.11100601
15	0xbd873316	-0.06601541
16	0xbd881187	-0.06643968
17	0x3d3b840b	0.045780223
18	0x3d5cd11d	0.053910363
19	0x3dd54184	0.10412887
20	0xbd8c5ae1	-0.06853271
21	0x3de2607e	0.11053561
22	0xbdda35b5	-0.10654775
23	0x3ddea901	0.10872079
24	0xbcfb70e3	-0.030693477
25	0x3ca678c0	0.02032125
26	0x3c8f5cbc	0.017500274
27	0x3c751e80	0.014960885
28	0xbda472b4	-0.080296904
29	0x3cfe7b94	0.031064786
30	0xbd37bf22	-0.044860013
31	0x3d09163a	0.033468463
32	0xbdd2e381	-0.10297299
33	0x3caf4288	0.02139403
34	0x3dca2987	0.09871202
35	0x3c895432	0.01676378
36	0xbbb1d9e0	-0.005427584
37	0xbd44816e	-0.047974996
38	0xbd6dcf00	-0.05805874
39	0x3ddd2be9	0.10799391
40	0x3d06318e	0.032762103
41	0xbcebe6b4	-0.028796531
42	0xbc0c2d60	-0.00855574
43	0x3d89dcb8	0.06731552
44	0xbd9aad8e	-0.07552634
45	0x3da4c626	0.08045606
46	0xba751bef	-0.0009350171
47	0x3c441c90	0.0119697
48	0xbd893063	-0.06698682
49	0xbd73c354	-0.05951245
50	0xbd072724	-0.03299631
51	0x3de92b20	0.113851786
52	0x3dc6aaea	0.09700568
53	0xbdf4d8b2	-0.11955394
54	0xbd1cfa3d	-0.038324583
55	0x3d1a2ab8	0.037638396
56	0x3d9d7958	0.0768916
57	0xbbbf8f02	-0.0058459053
58	0x3cb622ea	0.022233445
59	0xbd3ce5e0	-0.046117663
60	0x3b91f8da	0.0044547142
61	0xbdce4b23	-0.10072925
62	0x3c116a7e	0.008875487
63	0x3dc4a610	0.096019864
64	0xbd931cc9	-0.07183225
65	0xbd830a3c	-0.063984364
66	0x3dffebf0	0.124961734
67	0xbd2fd5c9	-0.04292849
68	0xbd0edef0	-0.03488058
69	0x3da5a73c	0.08088538
70	0xbdb58ec3	-0.0886512
71	0x3d682cda	0.0566834
72	0x3db613d0	0.08890498
73	0xbd8fe318	-0.070257366
74	0xbc4e0204	-0.012573723
75	0xbd3bc320	-0.045840383
76	0x3de9ad61	0.114100225
77	0xbcda4cd8	-0.02664797
78	0xbc1b4ac3	-0.009478274
79	0x3bf29df6	0.0074040843
80	0xbde8ebf5	-0.1137313
81	0xbd8b872c	-0.06812891
82	0xbc102a50	-0.008799151
83	0xbca29650	-0.019847065
84	0x3db303fe	0.08740996
85	0x3da9c5c2	0.082896724
86	0xbd0a6bf2	-0.03379435
87	0x3c6e6637	0.014550737
88	0x3caa4372	0.020784114
89	0x3d4d6f94	0.050155237
90	0xbd524437	-0.051334586
91	0x3dde2082	0.10846044
92	0x397bff11	0.00024032245
93	0x3b29a65e	0.0025886516
94	0xbd6f1bd7	-0.05837616
95	0x3d4e4751	0.05036098
96	0xbdb9247c	-0.09040162
97	0xbcb9ebc8	-0.022695437
98	0xbd34befd	-0.044127453
99	0xbd04c616	-0.032415472
100	0x3c39bcd0	0.01133652
101	0xbd219bf4	-0.03945537
102	0xbddf482c	-0.109024376
103	0x3d96b311	0.07358373
104	0x3db3b83f	0.087753765
105	0x3d8e38fc	0.06944463
106	0x3d9b8ce4	0.07595232
107	0xbd79d653	-0.06099541
108	0x3dd6f978	0.10496801
109	0x3d094917	0.03351697
110	0x3de378f4	0.11107054
111	0x3d9d7356	0.07688014
112	0x3cc6733b	0.024224868
113	0x3df3d634	0.119060904
114	0x3d82f818	0.063949764
115	0x3b90ee57	0.0044229436
116	0x3dd3767b	0.10325333
117	0x3d2eb83d	0.042656172
118	0x3db4d6ae	0.088300094
119	0x3ded797a	0.115954354
120	0x3d4f2264	0.050569907
121	0x3d532ddb	0.051557403
122	0x3daef712	0.08543219
123	0xbd8e93d8	-0.06961793
124	0x3da27bf2	0.07933797
125	0xbd5b0c67	-0.053478625
126	0x3dee0fa4	0.11624077
127	0x3d9c17c9	0.07621724
128	0xbdba6f38	-0.091032445
129	0x3dbfa348	0.09357315
130	0x3cefb676	0.029261809
131	0x3db9148b	0.090371214
132	0xbde8aacc	-0.11360702
133	0xbcc50336	-0.024049383
134	0x3cdd175f	0.026988683
135	0xbd911ebe	-0.07085942
136	0x3df8b480	0.12143803
137	0x3d963208	0.073337615
138	0xbda6de67	-0.08147889
139	0xbdfd7bf6	-0.12377159
140	0x3dbcf4f0	0.092264056
141	0x3d99b658	0.075054824
142	0xbcccf788	-0.025020376
143	0xbdaad4b4	-0.08341351
144	0xbcd25935	-0.025677303
145	0xbde03b57	-0.10948818
146	0xbc22a3e7	-0.009926773
147	0x3deacbc8	0.114646494
148	0x3dbbcfa6	0.09170465
149	0xbbb5c8b8	-0.005547609
150	0x3ce43ed8	0.027861997
151	0xbd0575d0	-0.032583058
152	0x3dbf5c1e	0.09343742
153	0x3dd1ade0	0.10238242
154	0x3d152d44	0.03642012
155	0xbdb730fc	-0.0894489
156	0xbde53f56	-0.11193721
157	0xbde4e219	-0.11175937
158	0xbd0cdeb4	-0.034392074
159	0x3d534a80	0.05158472
160	0xbdac795f	-0.08421587
161	0x3d2b7c98	0.04186687
162	0x3c612b70	0.013743266
163	0xbd844de1	-0.06460167
164	0x3ddff8b6	0.1093611
165	0x38e96000	0.00011128187
166	0x3dd823f6	0.10553734
167	0x3d437aa9	0.0477244
168	0x3dca9d2e	0.09893261
169	0xbdda0b03	-0.106466316
170	0xbc3d1b20	-0.011542112
171	0x3dee5e4e	0.11639081
172	0x3d12c830	0.035835445
173	0x3da3d948	0.080004275
174	0x3de376b2	0.11106624
175	0xbcf288e6	-0.029606294
176	0xbd233671	-0.03984684
177	0x3da93dc4	0.08263734
178	0x3da2c498	0.079476535
179	0xbbc17950	-0.005904354
180	0xbd15525a	-0.03645549
181	0xbdbf4d43	-0.093409084
182	0xbcf95b0e	-0.030438926
183	0xbd782698	-0.06058368
184	0xbdba3fdc	-0.090942115
185	0x3c833956	0.01601855
186	0xbd0fc545	-0.03510024
187	0xbbab9b00	-0.0052369833
188	0xbddb53b4	-0.107093245
189	0x3d059e51	0.032621685
190	0x3d308fc2	0.043105848
191	0x3d276378	0.040866345
192	0xbd9dcec8	-0.07705456
193	0xbda6392b	-0.08116373
194	0xbcad4665	-0.02115173
195	0xbdcab57a	-0.09897895
196	0x3c4e4f5f	0.012592166
197	0xbd0595b9	-0.03261349
198	0xbb6150f4	-0.0034380527
199	0xbd93238e	-0.07184516
200	0x3df1a76a	0.1179951
201	0x3d7b308c	0.061325595
202	0x3de59c43	0.11211445
203	0xbcd91eb8	-0.026503906
204	0x3ce5a4b3	0.028032636
205	0x3df984d2	0.121835366
206	0xbdaf2bc4	-0.085532695
207	0xbdb11170	-0.08645904
208	0x3c33d8f3	0.010977018
209	0xbd7c3641	-0.061575178
210	0x3d4732f8	0.048632592
211	0xbdf0a0e2	-0.11749436
212	0xbd644fc2	-0.055740125
213	0xbc10c493	-0.008835929
214	0xbdf42b88	-0.119223654
215	0x3dc89e1d	0.09795783
216	0xbdd7cfec	-0.10537705
217	0xbc55c470	-0.013047323
218	0x3d5be2b4	0.053682998
219	0xbcabf1b0	-0.020989269
220	0xbd429168	-0.04750195
221	0xbdf1ecdf	-0.11812758
222	0xbdb49234	-0.088169485
223	0xbd021bb5	-0.031764705
224	0xbc910107	-0.017700685
225	0x3d246f52	0.040145226
226	0x3c4a9b30	0.012366101
227	0x3d802722	0.06257464
228	0x3d8eef0c	0.06979188
229	0x3da79398	0.08182448
230	0x3d3c9828	0.046043545
231	0x3c3bd507	0.011464364
232	0x3dc2a577	0.09504216
233	0x3b230234	0.002487314
234	0x3c9b5fc8	0.01896657
235	0xbcc0450a	-0.02347042
236	0xbdf52290	-0.11969483
237	0xbdd3ef2d	-0.103483535
238	0xbdc243f7	-0.094856195
239	0xbba27de0	-0.004958853
240	0xbd33dc5b	-0.04391132
241	0x3c3bb0e0	0.0114557445
242	0x3de43e22	0.111446634
243	0xbdcc9f68	-0.09991342
244	0x3cef7ae3	0.029233402
245	0x3dee9d81	0.11651135
246	0xbcf68a8e	-0.030095365
247	0xbcea2fd8	-0.028587267
248	0x3bc843c0	0.006111592
249	0x3d7ccd9b	0.06171952
250	0xbd5a022b	-0.053224724
251	0xbda5e092	-0.08099474
252	0x3d84e241	0.06488467
253	0x3db70c24	0.089378625
254	0xbd7497ae	-0.059714966
255	0x3d00cbf5	0.03144451

fc3.bias f4 [32]
0	0xbc26d4af	-0.010182544
1	0x3deed149	0.11661012
2	0xbc980eb6	-0.018561702
3	0xbde653ac	-0.11246428
4	0x3ce988f2	0.028507683
5	0xbde4b052	-0.11166443
6	0x3e048242	0.12940314
7	0xbd4b28c4	-0.049599424
8	0xbddee612	-0.10883726
9	0xbc1ccd20	-0.00957039
10	0x3c849ed2	0.016189013
11	0xbdd11a7e	-0.10210131
12	0x3ac93231	0.0015350041
13	0x3d89625a	0.06708212
14	0x3c6265b0	0.0138181895
15	0x3dcfef0a	0.10153015
16	0xbcd797a8	-0.026317433
17	0xbb3fe4b5	-0.0029280607
18	0xbcfa0ac5	-0.030522713
19	0xbcf454f1	-0.02982566
20	0xbc538bc5	-0.012911742
21	0x3da8ae06	0.08236317
22	0xbda964d7	-0.08271187
23	0x3c34a996	0.011026761
24	0x3d1983c0	0.037479162
25	0xbc9e5728	-0.019328669
26	0xbd982e84	-0.07430747
27	0x3de43864	0.11143568
28	0xbd577744	-0.052603975
29	0xbdb8a152	-0.090151444
30	0x3d6d2e84	0.05790569
31	0x3dd61c82	0.10454656

fc4.weight f4 [6, 32]
0	0xbe030d10	-0.12797952
1	0x3ddb7e7e	0.10717486
2	0xbdc46c07	-0.09590917
3	0xbe2e1655	-0.17000706
4	0xbd90ee50	-0.070767045
5	0x3d04fef6	0.032469712
6	0xbe124b8c	-0.14286631
7	0x3d60892c	0.054818317
8	0x3e320119	0.17383231
9	0x3dbc8c5e	0.092064604
10	0x3e314040	0.17309666
11	0x3de28238	0.110599935
12	0x3d90ed59	0.070765205
13	0xbd0e0d0c	-0.03468041
14	0x3dbd2812	0.092361584
15	0x3deea526	0.11652593
16	0xbd6bab04	-0.05753614
17	0xbe10b145	-0.14130123
18	0x3d2e19de	0.042505138
19	0x3e14a988	0.14517796
20	0xbdb31bd6	-0.08745544
21	0x3d4dd727	0.050254013
22	0x3d799723	0.06093515
23	0xbd82a8dc	-0.063798636
24	0xbe2631bf	-0.16229914
25	0x3e2cb30f	0.1686518
26	0xbe2ef7b9	-0.17086686
27	0x3c71df50	0.0147627145
28	0xbe078ee8	-0.13238108
29	0xbd868acd	-0.06569443
30	0xbe16e01f	-0.14733933
31	0x3d955e0e	0.0729333
32	0xbc944fea	-0.018104512
33	0x3dce3265	0.10068206
34	0xbda2befe	-0.07946585
35	0x3e1778b6	0.14792141
36	0xbdd5ef13	-0.104459904
37	0x3df8f0f1	0.12155331
38	0xbdf94459	-0.121712394
39	0xbe2e0f66	-0.16998062
40	0x3b52ed40	0.003218487
41	0xbe2e0884	-0.16995436
42	0xbdf75f5a	-0.12078734
43	0xbe2aeb32	-0.16691282
44	0xbd41a838	-0.047279567
45	0xbd254a8c	-0.040354297
46	0xbe268e61	-0.1626525
47	0x3d30a8cc	0.043129727
48	0xbe262a52	-0.16227081
49	0x3c982b98	0.018575475
50	0x3d4c48db	0.049874168
51	0x3df908b7	0.12159865
52	0xbdd32edd	-0.10311673
53	0x3de6f599	0.11277313
54	0xbe0b8fdb	-0.13629095
55	0xbdd03b8a	-0.10167606
56	0xbdbf8029	-0.093506165
57	0xbdca1b57	-0.09868496
58	0xbdbbbca8	-0.09166843
59	0x3d9224a2	0.071358934
60	0x3d9f3f52	0.07775749
61	0xbb670fe6	-0.003525728
62	0x3d884061	0.06652904
63	0xbd057d40	-0.03259015
64	0xbd2b914a	-0.041886605
65	0xbdf4304b	-0.11923274
66	0xbdac548b	-0.08414563
67	0xbd0787d3	-0.033088516
68	0xbbab410f	-0.0052262614
69	0x3e20d1f8	0.15705097
70	0x3e10bb30	0.14133906
71	0x3c733cb0	0.014846012
72	0x3e1f41f7	0.15552507
73	0xbdd3b3d3	-0.10337033
74	0xbd9a06e6	-0.07520847
75	0x3da22466	0.07917099
76	0xbdaff17f	-0.085909836
77	0xbe2a3768	-0.16622698
78	0xbe141da0	-0.14464426
79	0x3d4b7d78	0.049680203
80	0x3dbf19fe	0.093311295
81	0xbe0ba166	-0.13635787
82	0x3bd40e6d	0.0064714462
83	0x3a0360ae	0.000501166
84	0xbcb2a484	-0.021806963
85	0x3cabdd4d	0.020979548
86	0xbd705dbc	-0.058683142
87	0xbd8e3044	-0.069428
88	0xbdc29d4d	-0.09502659
89	0x3dbeacf7	0.09310334
90	0xbd3fd0dc	-0.046830043
91	0xbdefd0c2	-0.11709739
92	0xbda9caa0	-0.08290601
93	0xbde7b909	-0.113145895
94	0x3dfd4289	0.12366206
95	0x3df16a46	0.11787848
96	0xbdfec430	-0.124397635
97	0x3e0a2561	0.13490821
98	0x3d31d891	0.043419424
99	0x3de07d83	0.109614395
100	0x3de604a0	0.11231351
101	0x3da225c4	0.079173595
102	0xbe1115fc	-0.14168543
103	0xbda8920b	-0.082309805
104	0xbdf7711f	-0.12082123
105	0x3da7788a	0.08177288
106	0x3dec187c	0.115281075
107	0xbe306f11	-0.17229868
108	0x3da9abdc	0.08284733
109	0xbd1e1557	-0.03859457
110	0x3d88ebe4	0.066856176
111	0x3dc228f6	0.09480469
112	0xbdc1a786	-0.09455781
113	0x3db79fc5	0.089660205
114	0xbe1d0697	-0.15334545
115	0x3c40be3d	0.011764106
116	0x3dae5898	0.08512992
117	0xbe1fc67f	-0.15603064
118	0xb79b5084	-1.8514933e-05
119	0x3e0b7132	0.136174
120	0x3d18e309	0.037325893
121	0x3cdbf1e4	0.02684874
122	0x3cab6e20	0.020926535
123	0x3e10fd59	0.14159144
124	0x3d9c96ba	0.07645936
125	0x3b881333	0.0041526794
126	0x3d1ec3f5	0.038761098
127	0x3dfed4b6	0.12442915
128	0x3dac0166	0.08398704
129	0xbe02c8e5	-0.12771948
130	0xbe259e54	-0.16173679
131	0x3dc01ab5	0.09380094
132	0xbe19feac	-0.15038556
133	0x3e148a63	0.14505915
134	0x3d83337f	0.064063065
135	0xbddb89e2	-0.107196584
136	0xbd6a2e14	-0.05717285
137	0x3e1c5b61	0.15269233
138	0x3df520fb	0.11969181
139	0xbdbfa01c	-0.0935671
140	0x3de533a1	0.11191488
141	0xbdb263e7	-0.08710461
142	0x3e279773	0.16366367
143	0x3dade8aa	0.08491643
144	0x3db00fd4	0.08596769
145	0xbe215d04	-0.15758139
146	0xbe0e7ee6	-0.13915595
147	0x3de8e658	0.113720596
148	0x3e2a6b81	0.16642572
149	0x3d0e0d24	0.0346805
150	0x3ddfd3b7	0.10929053
151	0xbe2e0431	-0.16993786
152	0x3db73a8e	0.08946715
153	0xbd76aeed	-0.060225416
154	0x3c287550	0.010281876
155	0xbde0c8d3	-0.10975804
156	0x3cb3c278	0.021943316
157	0x3d2ab8a3	0.04167999
158	0x3e1ad483	0.1512013
159	0x3e2e085d	0.16995378
160	0x3d4272c7	0.04747274
161	0xbe2c24ec	-0.1681096
162	0xbd64a7a6	-0.055823945
163	0xbbfe1fc5	-0.007755252
164	0x3dcf879d	0.10133288
165	0xbe2064e7	-0.15663491
166	0xbe2f1e47	-0.17101394
167	0x3dae5646	0.08512549
168	0xbd65562c	-0.055990383
169	0x3e22294d	0.15836067
170	0x3dce048e	0.100594625
171	0x3bf381eb	0.007431259
172	0x3c700a6e	0.014650924
173	0x3d6af717	0.05736455
174	0x3d0419d4	0.032251194
175	0xbe1fb78b	-0.1559736
176	0x3d438ab1	0.04773969
177	0xbe0141c0	-0.12622738
178	0x3dd4b60b	0.103862844
179	0x3d6577aa	0.056022324
180	0x3e03121c	0.12799877
181	0xbda7fba5	-0.08202294
182	0xbb9ead78	-0.0048424564
183	0xbb4fc09a	-0.0031700493
184	0x3d3dc168	0.046327025
185	0x3d86ddca	0.06585272
186	0x3e23f917	0.16012989
187	0xbe081cda	-0.13292256
188	0x3c030bd0	0.007998422
189	0xbded2967	-0.115801625
190	0x3d53d8ba	0.05172036
191	0x3d7fa7d0	0.062415898

fc4.bias f4 [6]
0	0x3e03afde	0.12860057
1	0x3c4f7f01	0.012664557
2	0x3e0876b6	0.13326535
3	0xbd77650b	-0.060399096
4	0xbd90bb7a	-0.07067008
5	0x3cba60ff	0.02275133
