src/params_data/240418_005728/30param.pt (torch, 46927 bytes, 8 tensors)

fc1.weight f4 [128, 4]
0	0xbdb206fe	-0.0869274
1	0x3e819f09	0.25316647
2	0x3ee5229f	0.44752976
3	0x3e9a75d6	0.30168027
4	0xbea9ad40	-0.33139992
5	0xbef030f2	-0.46912342
6	0xbec140be	-0.37744707
7	0x3df51f40	0.11968851
8	0xbe045886	-0.12924394
9	0x3ef577c2	0.4794293
10	0xbed5f3f8	-0.41787696
11	0xbe5bf47a	-0.21479979
12	0xbedb352c	-0.42814004
13	0xbac87a00	-0.0015295148
14	0xbea82e5a	-0.32847863
15	0x3ea6d222	0.32582194
16	0xbe37e470	-0.17958236
17	0xbec25816	-0.3795783
18	0x3e31ccef	0.17363332
19	0x3d17b2a0	0.037035584
20	0xbe4b661c	-0.1986317
21	0xbe657e9b	-0.22411577
22	0x3e4372f5	0.19086821
23	0xbd9ab748	-0.075544894
24	0xbe6be1c9	-0.23035349
25	0xbe75a6b0	-0.23989367
26	0x3eb63dba	0.3559397
27	0x3c35ff75	0.011108269
28	0x3bac5c80	0.0052600503
29	0xbef4d25c	-0.4781674
30	0x3c951dd8	0.018202707
31	0xbdab9e08	-0.083797514
32	0xbea5e619	-0.32402113
33	0x3eb1cc9a	0.3472641
34	0xbe415cfb	-0.18883125
35	0x3cfd2fba	0.030906547
36	0x3eed2dde	0.46324056
37	0x3e8c2001	0.27368167
38	0x3eda2f6c	0.42614305
39	0xbeefff58	-0.468745
40	0x3dc53d78	0.09630865
41	0xbe1c0641	-0.1523676
42	0x3db8a558	0.09015912
43	0xbed943c4	-0.42434514
44	0xbdf9635a	-0.12177153
45	0x3ed19323	0.4093257
46	0xbc27b21d	-0.010235337
47	0xbe90fb07	-0.2831652
48	0x3d2ce9e7	0.042215254
49	0x3e7b3d07	0.24534999
50	0xbe3ab6bf	-0.18233775
51	0x3eea3e2f	0.45750567
52	0xbe30db41	-0.17271139
53	0x3e69cb46	0.22831449
54	0xbe751bd3	-0.23936395
55	0x3efd6484	0.4949075
56	0xbe38640c	-0.18006915
57	0xbeb175bc	-0.34660137
58	0x3e85c911	0.26129964
59	0x3ba71b80	0.005099714
60	0x3ed9773e	0.42473787
61	0xbecc4960	-0.3989973
62	0xbe3a5e00	-0.1819992
63	0xbe7804b8	-0.2422055
64	0x3ec07b0c	0.37593877
65	0xbe1c4c90	-0.15263581
66	0xbdc4db08	-0.096120894
67	0x3e7296f0	0.2369039
68	0xbeea644d	-0.45779648
69	0xbd2a12f7	-0.041521993
70	0x3ea0c718	0.31401896
71	0xbee4de48	-0.44700837
72	0x3deab6e8	0.11460668
73	0xbe405a1c	-0.18784374
74	0xbdaafb98	-0.08348769
75	0x3ef5854c	0.4795326
76	0x3eb979cc	0.36225736
77	0xbeb3eeba	-0.3514307
78	0x3e4bd860	0.1990676
79	0xbe1925c0	-0.14955807
80	0x3cba67c7	0.022754563
81	0x3e46fc30	0.1943214
82	0x3e9d7fca	0.30761558
83	0xbee27327	-0.4422848
84	0x3ed52901	0.41632846
85	0x3d2be5f8	0.041967362
86	0x3e7bf7a8	0.24606192
87	0x3e5516c8	0.20809472
88	0x3d176790	0.036964
89	0xbef61e56	-0.4807002
90	0xbef2103a	-0.47278005
91	0xbedbd6be	-0.42937273
92	0xbec049a7	-0.37556192
93	0x3ea8a7d4	0.32940543
94	0x3e3935a9	0.18086876
95	0xbe817d8e	-0.25291103
96	0x3e7f0510	0.24904275
97	0x3ebc854e	0.36820453
98	0xbe7cef77	-0.24700724
99	0x3e93541b	0.28775105
100	0xbed53d6f	-0.41648433
101	0x3d1b34a9	0.037892018
102	0xbd2cc2cb	-0.042177957
103	0x3ed828dc	0.42218673
104	0xbe056ec8	-0.13030541
105	0xbe50da8a	-0.20395866
106	0x3e7f3566	0.24922714
107	0x3dd5adfb	0.10433575
108	0x3e5d156e	0.21590206
109	0x3e952e8d	0.29137078
110	0xbe9f3626	-0.31096
111	0x3eda3963	0.42621908
112	0xbeee6b2d	-0.46566144
113	0x3eccb1d7	0.3997943
114	0x3d0e984d	0.034813214
115	0xbe8750e8	-0.26428914
116	0xbca1624a	-0.019700188
117	0x3ebb230e	0.36550182
118	0x3ecb622a	0.3972333
119	0x3d856e6b	0.06515201
120	0x3ed28d18	0.4112327
121	0xbdbf7308	-0.09348112
122	0xbe6c357c	-0.23067278
123	0xbeb6d30e	-0.35707897
124	0x3ef75d97	0.4831359
125	0x3e95654a	0.2917884
126	0x3cd08b67	0.025457097
127	0x3e831d7b	0.2560843
128	0xbd79cf8d	-0.06098895
129	0x3ecb5b23	0.3971797
130	0xbda0bfc7	-0.078490786
131	0x3e9a1c78	0.30099845
132	0x3ecabdbb	0.39597878
133	0x3c016cc5	0.007899468
134	0x3ed0de39	0.40794542
135	0x3de8f66c	0.11375126
136	0x3dc56516	0.09638421
137	0x3eed44d9	0.4634159
138	0xbe78d4c0	-0.24299908
139	0xbe3d3077	-0.18475519
140	0x3d031b60	0.03200853
141	0xbed8d552	-0.4235025
142	0xbe1468b0	-0.1449306
143	0x3dcd5a20	0.100269556
144	0x3ed3f80e	0.41400188
145	0xbcb7b8ec	-0.022427045
146	0x3efd0a73	0.49422035
147	0x3e8a8935	0.27057806
148	0x3e3bd4e5	0.18342932
149	0x3e90e994	0.28303206
150	0xbed01673	-0.40642127
151	0x3ef63c49	0.4809287
152	0x3d6d85a0	0.057988763
153	0xbe4b76a0	-0.1986947
154	0x3d8e8be6	0.06960277
155	0xbdcafc98	-0.0991146
156	0x3dad4d37	0.08461993
157	0x3efb50a8	0.49084973
158	0x3e1b5ce7	0.15172158
159	0x3e03a308	0.1285516
160	0xbc9f192c	-0.019421183
161	0x3eaabece	0.33348697
162	0x3e219fe0	0.15783644
163	0xbef08842	-0.46978956
164	0x3eae8682	0.34086996
165	0xbecfef40	-0.4061222
166	0xbdcf2f28	-0.10116416
167	0x3deadac0	0.114675045
168	0xbead5406	-0.33853167
169	0xbeb6ec82	-0.35727316
170	0x3e0a4619	0.13503303
171	0xbdfdb8b0	-0.12388742
172	0xbecfc8dd	-0.40582934
173	0x3ec6a006	0.38793963
174	0x3e9bf387	0.30459234
175	0x3e474b25	0.19462259
176	0x3e09f6cc	0.13473052
177	0x3efd66f3	0.49492607
178	0xbec49ea7	-0.38402292
179	0xbe403632	-0.18770674
180	0x3e8024c9	0.25028065
181	0x3d8b1cd6	0.067926094
182	0xbe5403bb	-0.20704548
183	0xbde1ce99	-0.110257335
184	0xbdb85f68	-0.09002572
185	0x3e89511e	0.268197
186	0xbe4755b2	-0.19466284
187	0xbe103542	-0.14082816
188	0xbcbbcacf	-0.022923855
189	0x3cfba8dd	0.030720169
190	0xbe24223e	-0.16028687
191	0xbe17d644	-0.1482783
192	0x3e8a86fa	0.27056104
193	0xbec0d20a	-0.37660247
194	0xbedb32fc	-0.42812335
195	0x3d360c80	0.044445515
196	0x3eca9d40	0.39573097
197	0xbbf4f626	-0.0074756322
198	0xbedaca9a	-0.42732698
199	0xbe94f316	-0.2909171
200	0xbee9c73b	-0.45659813
201	0x3e13186c	0.14364785
202	0xbeb4243b	-0.35183892
203	0xbea21cb2	-0.31662518
204	0xbe1ccae7	-0.15311776
205	0x3e84f7e6	0.25970381
206	0x3ba59f1d	0.005054368
207	0x3d4b79c9	0.04967669
208	0x3e10f43c	0.14155668
209	0xbe115038	-0.14190757
210	0x3e94d2fd	0.2906722
211	0xbee9583f	-0.4557514
212	0x3eb911d0	0.36146402
213	0x3ec0e407	0.3767397
214	0xbd13abba	-0.036052443
215	0xbe56a561	-0.20961525
216	0x3ec58f1e	0.38585752
217	0xbed0b733	-0.4076477
218	0x3e949788	0.2902186
219	0xbe267884	-0.1625691
220	0xbd17d180	-0.03706503
221	0xbd9d1900	-0.07670784
222	0xbe8eb860	-0.27875042
223	0xbebd2278	-0.3694036
224	0xbe2d4fdc	-0.16924995
225	0xbe82569e	-0.2545671
226	0xbdd5c628	-0.10438186
227	0x3e47b840	0.1950388
228	0xbeaad818	-0.3336799
229	0xbe1ebd3c	-0.15501875
230	0x3d448f6d	0.047988344
231	0xbe6ce9a0	-0.23135996
232	0x3e86e550	0.26346827
233	0x3e6b08eb	0.2295262
234	0x3dd81ebe	0.105527386
235	0xbdae8b28	-0.08522636
236	0x3de4a4d8	0.11164254
237	0xbe6e3ec0	-0.23266125
238	0x3dedff25	0.116209306
239	0x3ec1fd52	0.3788858
240	0xbdf299a1	-0.11845709
241	0x3e563067	0.20916902
242	0x3eaecde7	0.34141466
243	0x3efa6c05	0.48910537
244	0xbe9df37e	-0.30849832
245	0xbed659f8	-0.41865516
246	0xbead5966	-0.33857268
247	0x3a79e000	0.0009531975
248	0xbedd550e	-0.43228954
249	0x3e80fb32	0.25191647
250	0xbee52f6e	-0.44762748
251	0xbc5e157b	-0.013554926
252	0xbea082b1	-0.3134971
253	0x3e4e195b	0.2012686
254	0x3d9b03ba	0.0756907
255	0x3e89595c	0.26825988

fc1.bias f4 [128]
0	0xbec63e63	-0.38719472
1	0x3eff73b6	0.49892968
2	0xbed61382	-0.41811758
3	0xbd0647f0	-0.03278345
4	0xbe9ff42c	-0.31240976
5	0x3e9a6ae3	0.30159673
6	0x3d0f0ebc	0.03492616
7	0xbe263f8c	-0.16235179
8	0xbe9dca9d	-0.30818644
9	0xbe3472c0	-0.17621899
10	0x3d30246a	0.043003477
11	0xbe511923	-0.20419745
12	0x3eef8a40	0.46785164
13	0x3e548637	0.20754324
14	0xbe94607f	-0.2897987
15	0xbe9fcea2	-0.31212336
16	0xbef43fba	-0.4770487
17	0x3ef712d8	0.48256564
18	0x3df1f6a0	0.11814618
19	0x3ee66571	0.4499927
20	0xbe6b6d92	-0.22991017
21	0xbe747ba1	-0.23875286
22	0xbe854ce4	-0.26035225
23	0x3e2d9842	0.16952613
24	0xbee8feda	-0.45506936
25	0x3e9eb9f5	0.3100125
26	0xbe17f2a6	-0.14838657
27	0xbe2a59b8	-0.16635787
28	0x3ef7fba4	0.48434174
29	0xbe8e8485	-0.2783548
30	0xbdb19080	-0.08670139
31	0x3ed6c230	0.41945028
32	0x3e7f386e	0.2492387
33	0x3e42977c	0.19003099
34	0x3eff5211	0.498673
35	0x3d88eac8	0.06685406
36	0xbef87542	-0.4852696
37	0xbed0ea34	-0.40803683
38	0xbe6e635a	-0.23280087
39	0xbef6f857	-0.48236343
40	0x3d1c54a2	0.03816665
41	0xbe3a0b28	-0.18168318
42	0xbe2f5dc1	-0.17125608
43	0x3ec00433	0.37503204
44	0xbee38f04	-0.4444505
45	0x3efe9f43	0.49730882
46	0x3e4f308a	0.2023336
47	0x3ed2c64b	0.4116691
48	0xbe905456	-0.28189343
49	0xbe8eb5fb	-0.27873215
50	0xbeacfc39	-0.3378618
51	0xbefd9abb	-0.49532112
52	0x3eee0602	0.4648896
53	0xbe92ad45	-0.2864782
54	0x3dc204c5	0.09473566
55	0xbea81b36	-0.3283326
56	0x3e54bf00	0.20775986
57	0xbe196db8	-0.1498326
58	0x3e92ba29	0.28657654
59	0xbe4ecf7f	-0.20196341
60	0x3ed4bfe2	0.41552645
61	0x3ee6e074	0.4509312
62	0xbe82ba0e	-0.25532573
63	0x3ef818d9	0.48456457
64	0xbeaec4f4	-0.34134638
65	0x3da87dc7	0.08227115
66	0xbc92b090	-0.017906457
67	0x3e6ae55a	0.22939053
68	0x3ed2c930	0.4116912
69	0xbebf2bea	-0.3733819
70	0xbe7a6b47	-0.24454986
71	0xbea60a5a	-0.32429773
72	0x3dda2800	0.10652161
73	0x3e5d5cfc	0.21617502
74	0xbe1384bb	-0.14406101
75	0x3ec8b9fe	0.392044
76	0x3ebaef08	0.3651049
77	0x3ee4ebbb	0.44711098
78	0xbdcd2157	-0.10016125
79	0xbcd304cc	-0.025759123
80	0x3ee4ba9d	0.44673625
81	0xbe95628e	-0.29176754
82	0x3e310be4	0.17289692
83	0xbe371e8e	-0.1788275
84	0x3eb975ce	0.3622269
85	0xbcd728ba	-0.026264537
86	0x3e9261d0	0.2859025
87	0xbd0d70b0	-0.034531295
88	0x3e0ce7e5	0.13760336
89	0xbe545722	-0.20736364
90	0x3d5fd2f4	0.05464454
91	0x3cca0f3e	0.024665471
92	0x3eb2e6eb	0.349418
93	0xbd962720	-0.07331681
94	0xbeb8f14a	-0.3612159
95	0xbd4580e0	-0.048218608
96	0xbe91058f	-0.28324553
97	0x3ee5a325	0.44851032
98	0xbdad6028	-0.08465606
99	0x3cece660	0.028918445
100	0xbcece058	-0.02891557
101	0x3dba467b	0.09095474
102	0x3ebb5e87	0.36595556
103	0x3e5e77b4	0.2172535
104	0xbeef0207	-0.46681234
105	0x3ed92017	0.42407295
106	0xbeda6ad2	-0.42659622
107	0xbe366656	-0.17812476
108	0x3d3f7111	0.046738688
109	0x3e993ece	0.2993073
110	0xbeda9acd	-0.4269623
111	0xbe91f488	-0.28506875
112	0xbee604cf	-0.44925544
113	0xbc9e10e0	-0.019295156
114	0x3e7e992d	0.2486312
115	0x3e3c4001	0.1838379
116	0xbefd0aaa	-0.494222
117	0xbeab31bb	-0.3343638
118	0x3c707340	0.014675915
119	0xbed76c76	-0.42074937
120	0x3e77daf7	0.24204622
121	0xbe6709d1	-0.22562338
122	0x3edb6b2b	0.428552
123	0xbca6cde3	-0.020361846
124	0xbed42fbe	-0.41442674
125	0x3ea5b5d2	0.3236528
126	0x3ec232bc	0.37929332
127	0x3e7df2c3	0.24799637

fc2.weight f4 [64, 128]
0	0xbd86e095	-0.065858044
1	0xbd529019	-0.051406953
2	0x3c6478e8	0.013944842
3	0x3d91b94f	0.07115423
4	0x3d609043	0.05482508
5	0x3d8d63b0	0.069037795
6	0x3c743d13	0.014907139
7	0xbd943707	-0.07237058
8	0xbab09e59	-0.0013474926
9	0x3d9d795b	0.07689162
10	0xbcb3a335	-0.02192841
11	0x3d983ab3	0.07433071
12	0xbdb5c7e7	-0.08876019
13	0xbd972c7e	-0.07381533
14	0x3d847ca0	0.06469083
15	0xbd9e2734	-0.07722321
16	0xbd61e53c	-0.055150256
17	0x3d16902f	0.036758598
18	0xbd88fdec	-0.06689057
19	0xbca6c518	-0.020357653
20	0xbbba8a8b	-0.005692785
21	0x3b7f94a6	0.0038998513
22	0xbd53d744	-0.051718965
23	0xbd347fcb	-0.044067185
24	0xbd61c7c4	-0.055122152
25	0x3d85d3ed	0.06534562
26	0x3bbd90e8	0.0057850964
27	0x3c41a917	0.011820099
28	0xbcc5798c	-0.02410581
29	0xbccccb27	-0.024999214
30	0x3bbef1b0	0.0058271512
31	0xbd8863ce	-0.06659661
32	0xbdb9eed7	-0.09078758
33	0xbb4fd91c	-0.00317151
34	0xbd91f5bb	-0.071269475
35	0xbd8d79fb	-0.069080316
36	0x3c7befed	0.015377027
37	0x3d93d323	0.072180055
38	0x3d0343d1	0.032047097
39	0xbc8a08d8	-0.01684992
40	0x3daa35ef	0.08311068
41	0xba116a80	-0.0005547181
42	0xbc194b6e	-0.009356363
43	0x3d6eadc2	0.058271177
44	0xbb40d3fb	-0.0029423225
45	0x3b0c2d60	0.002138935
46	0xbd8b6dc8	-0.068080485
47	0xbd077db0	-0.03307885
48	0xbd182524	-0.037144795
49	0x3da680d5	0.081300415
50	0xbd8557f3	-0.065109156
51	0x3d983013	0.074310444
52	0x3d71af26	0.059004925
53	0xbd6c8bf1	-0.057750646
54	0xbd60e3c9	-0.054904733
55	0xbda84853	-0.0821692
56	0xbcec891c	-0.028873973
57	0x3d272091	0.040802542
58	0xbd975537	-0.073893
59	0x3cc825e7	0.024432136
60	0x3c98f2a2	0.018670384
61	0x3d8b5e95	0.068051495
62	0x3bc45f80	0.00599283
63	0xbb9153ee	-0.004435054
64	0x3d8b64ad	0.06806312
65	0xbdaafb3c	-0.083487004
66	0x3db4c1e5	0.08826045
67	0x3da30ed1	0.079618104
68	0xbc7f93a0	-0.015599161
69	0x3d5610f3	0.052262258
70	0xbd0ccb8b	-0.0343738
71	0x3c2f9b78	0.010718219
72	0xbd8363af	-0.064154975
73	0xbcf33a82	-0.029690985
74	0x3d09ed4a	0.033673562
75	0x3c5b67c8	0.013391443
76	0xbce38506	-0.027773391
77	0xbdae412a	-0.08508523
78	0xbd5aa21c	-0.053377256
79	0x3d435a3e	0.047693484
80	0x3da304a7	0.07959872
81	0xbd8ab3c5	-0.067725696
82	0xbd8ce094	-0.068787724
83	0xbd5860b1	-0.052826587
84	0x3c377128	0.011196412
85	0xbcf1d40d	-0.029520059
86	0x3cec2984	0.02882839
87	0x3d85d74f	0.065352075
88	0xbd4303cc	-0.047611043
89	0x3d4b6e99	0.04966602
90	0xbc79bb04	-0.015242342
91	0xbd92cf82	-0.07168485
92	0xbd4ad498	-0.04951915
93	0xbdac5950	-0.084154725
94	0x3d89ab95	0.0672218
95	0xbc986d77	-0.018606884
96	0x3d7c7ed2	0.061644383
97	0x3d62dbbf	0.055385347
98	0x3cc54d08	0.024084583
99	0xbdb2804d	-0.08715878
100	0x3d70613a	0.058686472
101	0x3d3a40cb	0.045471948
102	0xbd9b87ed	-0.07594285
103	0xbd6f1d70	-0.058377683
104	0xbbe6830f	-0.0070346664
105	0xbb50160f	-0.003175143
106	0x3d526af4	0.05137153
107	0x3b54b925	0.0032458988
108	0xbd8774cf	-0.06614076
109	0xbbbe9a40	-0.005816728
110	0xbdb702e5	-0.08936099
111	0xbcdd95c4	-0.027048953
112	0xbbe1cae1	-0.00689064
113	0x3d61639a	0.055026628
114	0x3dab9c03	0.08379366
115	0xbda9087a	-0.0825357
116	0xbc8139a8	-0.015774563
117	0xbcbccc6d	-0.023046697
118	0xbd6eb0e0	-0.05827415
119	0xbd5a4f33	-0.053298187
120	0x3c324256	0.0108800735
121	0x3c9956f2	0.018718217
122	0xbd7601c5	-0.06006028
123	0x3d57a5fa	0.052648522
124	0xbd5f253f	-0.05447888
125	0x3cdfcdcf	0.027319817
126	0xbcd48002	-0.025939945
127	0xbcadf61f	-0.021235524
128	0xbc4808fc	-0.012209173
129	0xbd3cd4c8	-0.04610136
130	0xbd6eb107	-0.058274295
131	0x3d9ebf53	0.07751336
132	0xbc88024c	-0.016602658
133	0xbd92aee0	-0.07162261
134	0xbd143ec5	-0.036192674
135	0xba6331d3	-0.0008666787
136	0x3d69bec0	0.05706668
137	0x3d9ce1ba	0.076602414
138	0xbda8d62e	-0.082439765
139	0x3d819b9d	0.06328509
140	0x3b210d9e	0.0024574767
141	0x3d35195a	0.04421363
142	0x3da02012	0.07818617
143	0x3d10a666	0.03531494
144	0x3b8f33e0	0.0043701977
145	0xbd299f8c	-0.04141192
146	0x3c9c76ec	0.019099675
147	0x3d83bc4f	0.064324014
148	0x3d5a34a2	0.05327285
149	0x3d8384c9	0.06421811
150	0x3c771df8	0.015082829
151	0x3d1483e9	0.03625861
152	0x3d9325b5	0.071849264
153	0xbd9bf2fd	-0.07614706
154	0x3d5fd9b0	0.054650962
155	0xbdb16cbd	-0.08663318
156	0x3ca43895	0.020046512
157	0x3d9a9a0b	0.075489126
158	0xbcaf3df8	-0.021391854
159	0xbd8ed14f	-0.06973516
160	0x3aca1d53	0.0015420116
161	0xbc12c1f1	-0.008957372
162	0xbc525a1f	-0.012838869
163	0x3d326e16	0.043562017
164	0xbd174519	-0.03693113
165	0x3d4f9aee	0.05068486
166	0xbc1eb7b7	-0.009687356
167	0x3b905527	0.004404682
168	0xbd215dee	-0.03939622
169	0x3d5924ee	0.053013735
170	0xbd25f86b	-0.040520113
171	0x3d2ced89	0.04221872
172	0xbcc17176	-0.023613673
173	0x3be96490	0.0071225837
174	0xbd91501b	-0.07095357
175	0x3c639aae	0.013891859
176	0xbd062a35	-0.032755096
177	0xbd760b77	-0.060069527
178	0xbcc5a660	-0.024127185
179	0x3c97f58a	0.0185497
180	0x3d3396e7	0.043845084
181	0x3d472e7d	0.04862832
182	0xbd5fcab4	-0.054636672
183	0xbd883375	-0.0665044
184	0x3d48717a	0.048936345
185	0x3b5894b9	0.003304763
186	0x3ce3ce8a	0.027808446
187	0xbbb3c591	-0.0054861982
188	0xbd7dbfdd	-0.061950553
189	0xbd28bbb2	-0.041194625
190	0x3daf1069	0.08548052
191	0xbd4bb127	-0.049729493
192	0x3d9cc94c	0.07655582
193	0xbd2c76ff	-0.04210567
194	0x3ce44b7f	0.02786803
195	0xbcd2aa62	-0.02571601
196	0xbd109aaa	-0.03530375
197	0x3d676926	0.05649676
198	0xbc7a9627	-0.015294588
199	0xbd122a3f	-0.03568482
200	0x3d854c5b	0.06508704
201	0xb8959a5c	-7.133625e-05
202	0x3d8e8532	0.06958999
203	0xbda9de58	-0.08294362
204	0x3b0841e0	0.0020791218
205	0xbb4e2ea2	-0.00314609
206	0x3d88e45c	0.06684181
207	0x3c6ae801	0.014337541
208	0xbd6661cc	-0.05624561
209	0x3d980de0	0.074245214
210	0x3d93e653	0.07221665
211	0x3d73c575	0.05951448
212	0x3c7ba398	0.015358828
213	0xbc5b5a2a	-0.013388196
214	0x3beef700	0.0072926283
215	0x3d1a41e6	0.037660502
216	0xbc7f45a9	-0.015580573
217	0x3d94ebee	0.072715625
218	0x3d989f8e	0.07452308
219	0xbc348e5b	-0.011020268
220	0xbd190d8d	-0.03736644
221	0xbc94fc8c	-0.01818683
222	0x3d068caa	0.03284899
223	0xbdb77fc9	-0.0895992
224	0xbc7af180	-0.015316367
225	0xbaf4a435	-0.001866466
226	0x3ce5b904	0.028042324
227	0x38289800	4.0195882e-05
228	0xbd930cb7	-0.071801595
229	0x3d51f7ff	0.051261898
230	0xbd3b4321	-0.045718316
231	0x3d19850e	0.037480406
232	0xbd204b50	-0.039134324
233	0x3c68cd89	0.01420916
234	0xbaf904db	-0.001899864
235	0x3ce4ac55	0.027914206
236	0xbd842266	-0.064518735
237	0xbd85fe7d	-0.065426804
238	0xbb91d248	-0.0044501163
239	0xbd9177fe	-0.07102965
240	0xbd39c290	-0.045351565
241	0x3d89d5ff	0.0673027
242	0x3d86c143	0.065798305
243	0x3c33dcd9	0.010977947
244	0x3d77c44a	0.06048993
245	0x3d71a0ac	0.05899112
246	0xbb81e940	-0.003964573
247	0xbdaae3cc	-0.0834423
248	0xbd90079a	-0.070327
249	0xbd220e2a	-0.03956429
250	0x3cf5edfb	0.030020704
251	0xbd3cf8ea	-0.04613582
252	0x3d0a4905	0.033761043
253	0xbd4161fd	-0.04721259
254	0x3da82efe	0.08212088
255	0x3d2ef9b3	0.0427186

fc2.bias f4 [64]
0	0x3daef0f8	0.08542055
1	0x3be5d15d	0.0070134834
2	0xbd4782c3	-0.04870869
3	0x3d055df3	0.0325603
4	0xbb2ccb6d	-0.0026366368
5	0xbb35bd73	-0.0027731329
6	0x3d9ed2f0	0.07755077
7	0xbc70d140	-0.014698327
8	0xbd01b41c	-0.031665906
9	0x3d5d2186	0.05398705
10	0xbd1b2889	-0.037880454
11	0xbda5b8c7	-0.08091884
12	0x3d255791	0.040366713
13	0x3d955f41	0.07293559
14	0x3da8d175	0.08243076
15	0x3d6bf600	0.05760765
16	0x3ca8a123	0.020584648
17	0x3dae52a1	0.08511854
18	0xbd7d12b5	-0.06178542
19	0x3d8e5f61	0.06951786
20	0xbc647805	-0.0139446305
21	0x3da3cf1d	0.07998488
22	0x3db5e2af	0.08881127
23	0x3da587b6	0.080825254
24	0x3cf88503	0.030336862
25	0x3d911ef9	0.07085986
26	0xbd88affc	-0.06674191
27	0x3cc2a950	0.023762375
28	0x3d90f598	0.07078093
29	0x3d88f589	0.06687457
30	0xbcd5afd9	-0.026084827
31	0xbd9e5688	-0.07731348
32	0x3ca36cc6	0.019949328
33	0x3d8e6f85	0.069548644
34	0x3dac19de	0.08403371
35	0x3db03458	0.08603734
36	0xbd0d1a9e	-0.034449212
37	0xbc84c4c5	-0.016207108
38	0x3c02f590	0.007993117
39	0x3d3f81a1	0.046754483
40	0xbd25942d	-0.040424515
41	0xbbde27f5	-0.0067796656
42	0xbdb46534	-0.088083655
43	0x3d1e1d25	0.038602013
44	0xbd4f4da2	-0.050611146
45	0x3d1eaedd	0.03874098
46	0x3da4d35c	0.08048126
47	0xbd85e527	-0.06537848
48	0xbd8790ba	-0.06619401
49	0x3d42bafa	0.047541596
50	0x3d369a7a	0.044580914
51	0x3da04029	0.078247376
52	0xbd91e31b	-0.07123395
53	0x3d212288	0.039339572
54	0x3d608164	0.054810897
55	0xbc9d7a90	-0.019223481
56	0xbccf906c	-0.02533742
57	0x3d91a1ec	0.07110962
58	0xbce8342e	-0.028345194
59	0x3d489c2e	0.04897707
60	0x3d1db096	0.038498484
61	0x3da3fbcd	0.080070116
62	0xbd693318	-0.056933492
63	0x3b4c6c00	0.0031192303

fc3.weight f4 [32, 64]
0	0x3dd7f4cd	0.10544739
1	0xbcb85125	-0.02249963
2	0x3d8f21db	0.06988879
3	0xbde1f276	-0.11032574
4	0xbde12063	-0.109925054
5	0xbdde15c1	-0.10843993
6	0x3d65a646	0.056066774
7	0x3d70a943	0.05875517
8	0x3da990af	0.08279549
9	0xbd1a2f04	-0.037642494
10	0xbd9739a6	-0.073840424
11	0x3d1d8684	0.038458362
12	0x3de59fcc	0.112121195
13	0xbbb55220	-0.0055334717
14	0x3de31889	0.11088664
15	0xbd873316	-0.06601541
16	0xbd881e25	-0.066463746
17	0x3d3b6fe0	0.04576099
18	0x3d5ccf46	0.05390861
19	0x3dd54184	0.10412887
20	0xbd8c5c0d	-0.06853495
21	0x3de25c04	0.11052707
22	0xbdda73c0	-0.10666609
23	0x3dde7116	0.10861413
24	0xbcfb70e3	-0.030693477
25	0x3ca678c0	0.02032125
26	0x3c8f5cbc	0.017500274
27	0x3c751e80	0.014960885
28	0xbda472b4	-0.080296904
29	0x3cfdbf4a	0.030975003
30	0xbd383283	-0.044970047
31	0x3d090cee	0.033459596
32	0xbdd2e381	-0.10297299
33	0x3caf28b7	0.021381719
34	0x3dc9f1a6	0.09860544
35	0x3c8924a3	0.016741103
36	0xbbb1d9e0	-0.005427584
37	0xbd44edfc	-0.048078522
38	0xbd6dcf00	-0.05805874
39	0x3ddd1147	0.10794311
40	0x3d06318e	0.032762103
41	0xbcebf4d4	-0.028803267
42	0xbc0c2d60	-0.00855574
43	0x3d89a090	0.06720078
44	0xbd9aad8e	-0.07552634
45	0x3da49000	0.08035278
46	0xba77dc34	-0.0009455115
47	0x3c441c90	0.0119697
48	0xbd893063	-0.06698682
49	0xbd73c354	-0.05951245
50	0xbd072724	-0.03299631
51	0x3de92b20	0.113851786
52	0x3dc6aaea	0.09700568
53	0xbdf4dff8	-0.11956781
54	0xbd1d0745	-0.03833701
55	0x3d1a2ab8	0.037638396
56	0x3d9d7958	0.0768916
57	0xbbbf8f02	-0.0058459053
58	0x3cb5dd98	0.02220039
59	0xbd3ce5e0	-0.046117663
60	0x3b91aa9a	0.004445386
61	0xbdce5819	-0.10075397
62	0x3c0fc9c4	0.008776132
63	0x3dc49e1f	0.09600472
64	0xbd937e50	-0.072018266
65	0xbd830b1b	-0.063986026
66	0x3dffbf8c	0.124877065
67	0xbd302fe6	-0.04301443
68	0xbd0ed90d	-0.034874965
69	0x3da5a7cf	0.080886476
70	0xbdb5a12b	-0.08868631
71	0x3d67f4c7	0.056629922
72	0x3db5d797	0.08879011
73	0xbd8fe318	-0.070257366
74	0xbc4e4241	-0.012589038
75	0xbd3bc320	-0.045840383
76	0x3de9b4f7	0.114114694
77	0xbcda4cd8	-0.02664797
78	0xbc1a0fd4	-0.009403188
79	0x3bede73b	0.007260231
80	0xbde8cee0	-0.11367583
81	0xbd8b906a	-0.06814654
82	0xbc108ad1	-0.008822159
83	0xbca29650	-0.019847065
84	0x3db305cb	0.08741339
85	0x3da9cf7b	0.08291527
86	0xbd09e36d	-0.033664156
87	0x3c6c774c	0.0144327395
88	0x3ca9ddf4	0.020735718
89	0x3d4d6f94	0.050155237
90	0xbd52b39c	-0.05144082
91	0x3dde2082	0.10846044
92	0xb7c77040	-2.377492e-05
93	0x3b257e42	0.0025252257
94	0xbd6ecc33	-0.05830021
95	0x3d4e024d	0.050295163
96	0xbdb92ee9	-0.090421505
97	0xbcb9caa3	-0.022679633
98	0xbd346d5d	-0.04404961
99	0xbd04b9f4	-0.0324039
100	0x3c39bcd0	0.01133652
101	0xbd229f98	-0.03970298
102	0xbddf482c	-0.109024376
103	0x3d96ab5a	0.073569015
104	0x3db39fc9	0.08770711
105	0x3d8e2c14	0.06942001
106	0x3d9b8ce4	0.07595232
107	0xbd79febf	-0.06103396
108	0x3dd6f978	0.10496801
109	0x3d092225	0.03347983
110	0x3de372be	0.1110587
111	0x3d9d0fcb	0.07669028
112	0x3cc66c18	0.024221465
113	0x3df3d634	0.119060904
114	0x3d82f818	0.063949764
115	0x3b90ee57	0.0044229436
116	0x3dd34123	0.10315158
117	0x3d2ebbfb	0.04265974
118	0x3db4cf05	0.08828548
119	0x3ded797a	0.115954354
120	0x3d4f2264	0.050569907
121	0x3d532088	0.051544696
122	0x3daefaef	0.085439555
123	0xbd8e93d8	-0.06961793
124	0x3da25ddc	0.079280585
125	0xbd5b38dc	-0.053521022
126	0x3dee2f06	0.11630063
127	0x3d9c23a9	0.07623989
128	0xbdba6f38	-0.091032445
129	0x3dbfa348	0.09357315
130	0x3cefb676	0.029261809
131	0x3db9148b	0.090371214
132	0xbde8aacc	-0.11360702
133	0xbcc50336	-0.024049383
134	0x3cdd175f	0.026988683
135	0xbd911ebe	-0.07085942
136	0x3df8b480	0.12143803
137	0x3d963208	0.073337615
138	0xbda6de67	-0.08147889
139	0xbdfd7bf6	-0.12377159
140	0x3dbcf4f0	0.092264056
141	0x3d99b658	0.075054824
142	0xbcccf788	-0.025020376
143	0xbdaad4b4	-0.08341351
144	0xbcd25935	-0.025677303
145	0xbde03b57	-0.10948818
146	0xbc22a3e7	-0.009926773
147	0x3deacbc8	0.114646494
148	0x3dbbcfa6	0.09170465
149	0xbbb5c8b8	-0.005547609
150	0x3ce43ed8	0.027861997
151	0xbd0575d0	-0.032583058
152	0x3dbf5c1e	0.09343742
153	0x3dd1ade0	0.10238242
154	0x3d152d44	0.03642012
155	0xbdb730fc	-0.0894489
156	0xbde53f56	-0.11193721
157	0xbde4e219	-0.11175937
158	0xbd0cdeb4	-0.034392074
159	0x3d534a80	0.05158472
160	0xbdac795f	-0.08421587
161	0x3d2b7c98	0.04186687
162	0x3c612b70	0.013743266
163	0xbd844de1	-0.06460167
164	0x3ddff8b6	0.1093611
165	0x38e96000	0.00011128187
166	0x3dd823f6	0.10553734
167	0x3d437aa9	0.0477244
168	0x3dca9d2e	0.09893261
169	0xbdda0b03	-0.106466316
170	0xbc3d1b20	-0.011542112
171	0x3dee5e4e	0.11639081
172	0x3d12c830	0.035835445
173	0x3da3d948	0.080004275
174	0x3de376b2	0.11106624
175	0xbcf288e6	-0.029606294
176	0xbd233671	-0.03984684
177	0x3da93dc4	0.08263734
178	0x3da2c498	0.079476535
179	0xbbc17950	-0.005904354
180	0xbd15525a	-0.03645549
181	0xbdbf4d43	-0.093409084
182	0xbcf95b0e	-0.030438926
183	0xbd782698	-0.06058368
184	0xbdba3fdc	-0.090942115
185	0x3c833956	0.01601855
186	0xbd0fc545	-0.03510024
187	0xbbab9b00	-0.0052369833
188	0xbddb53b4	-0.107093245
189	0x3d059e51	0.032621685
190	0x3d308fc2	0.043105848
191	0x3d276378	0.040866345
192	0xbd9dcec8	-0.07705456
193	0xbda6392b	-0.08116373
194	0xbcad4665	-0.02115173
195	0xbdcab57a	-0.09897895
196	0x3c4e4f5f	0.012592166
197	0xbd0595b9	-0.03261349
198	0xbb6150f4	-0.0034380527
199	0xbd93238e	-0.07184516
200	0x3df1a76a	0.1179951
201	0x3d7b308c	0.061325595
202	0x3de59c43	0.11211445
203	0xbcd91eb8	-0.026503906
204	0x3ce5a4b3	0.028032636
205	0x3df984d2	0.121835366
206	0xbdaf2bc4	-0.085532695
207	0xbdb11170	-0.08645904
208	0x3c33d8f3	0.010977018
209	0xbd7c3641	-0.061575178
210	0x3d4732f8	0.048632592
211	0xbdf0a0e2	-0.11749436
212	0xbd644fc2	-0.055740125
213	0xbc10c493	-0.008835929
214	0xbdf42b88	-0.119223654
215	0x3dc89e1d	0.09795783
216	0xbdd7cfec	-0.10537705
217	0xbc55c470	-0.013047323
218	0x3d5be2b4	0.053682998
219	0xbcabf1b0	-0.020989269
220	0xbd429168	-0.04750195
221	0xbdf1ecdf	-0.11812758
222	0xbdb49234	-0.088169485
223	0xbd021bb5	-0.031764705
224	0xbc910107	-0.017700685
225	0x3d246f52	0.040145226
226	0x3c4a9b30	0.012366101
227	0x3d802722	0.06257464
228	0x3d8eef0c	0.06979188
229	0x3da79398	0.08182448
230	0x3d3c9828	0.046043545
231	0x3c3bd507	0.011464364
232	0x3dc2a577	0.09504216
233	0x3b230234	0.002487314
234	0x3c9b5fc8	0.01896657
235	0xbcc0450a	-0.02347042
236	0xbdf52290	-0.11969483
237	0xbdd3ef2d	-0.103483535
238	0xbdc243f7	-0.094856195
239	0xbba27de0	-0.004958853
240	0xbd33dc5b	-0.04391132
241	0x3c3bb0e0	0.0114557445
242	0x3de43e22	0.111446634
243	0xbdcc9f68	-0.09991342
244	0x3cef7ae3	0.029233402
245	0x3dee9d81	0.11651135
246	0xbcf68a8e	-0.030095365
247	0xbcea2fd8	-0.028587267
248	0x3bc843c0	0.006111592
249	0x3d7ccd9b	0.06171952
250	0xbd5a022b	-0.053224724
251	0xbda5e092	-0.08099474
252	0x3d84e241	0.06488467
253	0x3db70c24	0.089378625
254	0xbd7497ae	-0.059714966
255	0x3d00cbf5	0.03144451

fc3.bias f4 [32]
0	0xbc278573	-0.010224688
1	0x3def1dd2	0.1167561
2	0xbc980eb6	-0.018561702
3	0xbde653ac	-0.11246428
4	0x3cea8d39	0.028631793
5	0xbde447f7	-0.11146539
6	0x3e04fdd7	0.12987457
7	0xbd4b28c4	-0.049599424
8	0xbddee612	-0.10883726
9	0xbc1ccd20	-0.00957039
10	0x3c832051	0.01600662
11	0xbdd0e8e2	-0.10200669
12	0x3abe71d1	0.001452977
13	0x3d89632c	0.06708369
14	0x3c6265b0	0.0138181895
15	0x3dcfef0a	0.10153015
16	0xbcd797a8	-0.026317433
17	0xbb375279	-0.0027972742
18	0xbcfbf1eb	-0.030755004
19	0xbcf481fc	-0.029847138
20	0xbc50efdd	-0.0127525
21	0x3da84f1a	0.082182124
22	0xbda9be04	-0.08288196
23	0x3c34a865	0.0110264765
24	0x3d193c33	0.037410926
25	0xbc9d1919	-0.019177007
26	0xbd982e84	-0.07430747
27	0x3de43864	0.11143568
28	0xbd577744	-0.052603975
29	0xbdb8a152	-0.090151444
30	0x3d6d7c7a	0.05798004
31	0x3dd61c82	0.10454656

fc4.weight f4 [6, 32]
0	0xbe03248c	-0.1280691
1	0x3ddb4b2a	0.10707696
2	0xbdc46c07	-0.09590917
3	0xbe2e1655	-0.17000706
4	0xbd91109e	-0.070832476
5	0x3d049b99	0.032374952
6	0xbe118011	-0.1420901
7	0x3d60892c	0.054818317
8	0x3e320119	0.17383231
9	0x3dbc8c5e	0.092064604
10	0x3e3101eb	0.17285888
11	0x3de2a65d	0.110668875
12	0x3d90a8b0	0.070634246
13	0xbd0de2e8	-0.034640223
14	0x3dbd2812	0.092361584
15	0x3deea526	0.11652593
16	0xbd6bab04	-0.05753614
17	0xbe10a32b	-0.14124744
18	0x3d2da38d	0.042392302
19	0x3e14ab59	0.14518489
20	0xbdb3a900	-0.087724686
21	0x3d4d98e7	0.050194647
22	0x3d7a70c4	0.061142698
23	0xbd82a8d0	-0.06379855
24	0xbe263e68	-0.16234744
25	0x3e2c9427	0.1685339
26	0xbe2ef7b9	-0.17086686
27	0x3c71df50	0.0147627145
28	0xbe078ee8	-0.13238108
29	0xbd868acd	-0.06569443
30	0xbe16fde0	-0.14745283
31	0x3d955e0e	0.0729333
32	0xbc943071	-0.018089505
33	0x3dce376d	0.100691654
34	0xbda2befe	-0.07946585
35	0x3e1778b6	0.14792141
36	0xbdd5dfbc	-0.104430646
37	0x3df90486	0.12159066
38	0xbdf9e7fa	-0.12202449
39	0xbe2e0f66	-0.16998062
40	0x3b52ed40	0.003218487
41	0xbe2e0884	-0.16995436
42	0xbdf74897	-0.12074392
43	0xbe2afc05	-0.166977
44	0xbd41585f	-0.047203418
45	0xbd2636fb	-0.040579777
46	0xbe268e61	-0.1626525
47	0x3d30a8cc	0.043129727
48	0xbe262a52	-0.16227081
49	0x3c95fc1a	0.018308688
50	0x3d4c6808	0.0499039
51	0x3df8f8e5	0.12156848
52	0xbdd2f7e4	-0.10301188
53	0x3de6d195	0.11270443
54	0xbe0c3624	-0.13692528
55	0xbdd03b8e	-0.10167609
56	0xbdbf8078	-0.09350675
57	0xbdc9eb58	-0.098593414
58	0xbdbbbca8	-0.09166843
59	0x3d9224a2	0.071358934
60	0x3d9f3f52	0.07775749
61	0xbb670fe6	-0.003525728
62	0x3d886ab4	0.06660977
63	0xbd057d40	-0.03259015
64	0xbd2b9d76	-0.041898213
65	0xbdf3b662	-0.11900021
66	0xbdac548b	-0.08414563
67	0xbd0787d3	-0.033088516
68	0xbbaa1f37	-0.0051917094
69	0x3e210cd7	0.15727554
70	0x3e12179d	0.1426682
71	0x3c733cb0	0.014846012
72	0x3e1f41f7	0.15552507
73	0xbdd3b3d3	-0.10337033
74	0xbd9a322b	-0.075291
75	0x3da27419	0.079323
76	0xbdaf7d02	-0.08568765
77	0xbe2a6f4f	-0.16644023
78	0xbe141da0	-0.14464426
79	0x3d4b7d78	0.049680203
80	0x3dbf19fe	0.093311295
81	0xbe0b2d9b	-0.13591616
82	0x3bdc39d1	0.0067207594
83	0x3a0e5043	0.000542883
84	0xbcb3034a	-0.021852154
85	0x3cae1b35	0.021253208
86	0xbd6db4be	-0.058033697
87	0xbd8e3044	-0.069428
88	0xbdc246d2	-0.09486164
89	0x3dbefe74	0.09325877
90	0xbd3fd0dc	-0.046830043
91	0xbdefd0c2	-0.11709739
92	0xbda9caa0	-0.08290601
93	0xbde7b909	-0.113145895
94	0x3dfda976	0.12385838
95	0x3df16a46	0.11787848
96	0xbdfe4ae0	-0.12416625
97	0x3e0a9113	0.13531904
98	0x3d31d891	0.043419424
99	0x3de07d83	0.109614395
100	0x3de6442c	0.112434715
101	0x3da305ff	0.07960128
102	0xbe0f9293	-0.14020757
103	0xbda8920b	-0.082309805
104	0xbdf7711f	-0.12082123
105	0x3da7788a	0.08177288
106	0x3dec6cbe	0.115441784
107	0xbe302436	-0.17201313
108	0x3daa7ab8	0.08324188
109	0xbd1feb40	-0.03904271
110	0x3d88ebe4	0.066856176
111	0x3dc228f6	0.09480469
112	0xbdc1a786	-0.09455781
113	0x3db8fafa	0.09032245
114	0xbe1c8ea4	-0.15288788
115	0x3c418c37	0.011813215
116	0x3daf3cc8	0.08556515
117	0xbe1f4c2e	-0.15556404
118	0x3a3d3aba	0.0007218529
119	0x3e0b712c	0.1361739
120	0x3d1a3e11	0.037656847
121	0x3cdea707	0.027179254
122	0x3cab6e20	0.020926535
123	0x3e10fd59	0.14159144
124	0x3d9c96ba	0.07645936
125	0x3b881333	0.0041526794
126	0x3d204ec5	0.03913762
127	0x3dfed4b6	0.12442915
128	0x3dac1f41	0.08404399
129	0xbe02cd94	-0.12773734
130	0xbe259e54	-0.16173679
131	0x3dc01ab5	0.09380094
132	0xbe19ff71	-0.1503885
133	0x3e147724	0.14498574
134	0x3d828ca5	0.06374482
135	0xbddb89e2	-0.107196584
136	0xbd6a2e14	-0.05717285
137	0x3e1c5b61	0.15269233
138	0x3df53dc0	0.119746685
139	0xbdbf908c	-0.09353742
140	0x3de51020	0.11184716
141	0xbdb29519	-0.08719844
142	0x3e279773	0.16366367
143	0x3dade8aa	0.08491643
144	0x3db00fd4	0.08596769
145	0xbe216212	-0.15760067
146	0xbe0e834c	-0.13917273
147	0x3de8eda4	0.11373451
148	0x3e2aa2b8	0.16663635
149	0x3d0db6e1	0.034598235
150	0x3dde7ec8	0.10864025
151	0xbe2e0431	-0.16993786
152	0x3db730dc	0.08944866
153	0xbd76a7b8	-0.060218543
154	0x3c287550	0.010281876
155	0xbde0c8d3	-0.10975804
156	0x3cb3c278	0.021943316
157	0x3d2ab8a3	0.04167999
158	0x3e1acde1	0.15117599
159	0x3e2e085d	0.16995378
160	0x3d426c88	0.047466785
161	0xbe2c06c9	-0.16799463
162	0xbd64a7a6	-0.055823945
163	0xbbfe1fc5	-0.007755252
164	0x3dcfa89c	0.101395816
165	0xbe204284	-0.15650374
166	0xbe2fdafc	-0.1717338
167	0x3dae5646	0.08512549
168	0xbd65562c	-0.055990383
169	0x3e22294d	0.15836067
170	0x3dcdfdf9	0.10058207
171	0x3bf27fab	0.007400473
172	0x3c72ba23	0.014814886
173	0x3d6be8dd	0.057595123
174	0x3d0419d4	0.032251194
175	0xbe1fb78b	-0.1559736
176	0x3d438ab1	0.04773969
177	0xbe014c7e	-0.12626836
178	0x3dd504d2	0.1040131
179	0x3d656a7a	0.056009747
180	0x3e031030	0.12799144
181	0xbda7e356	-0.08197658
182	0xbbaaa5b9	-0.005207744
183	0xbb4fc09a	-0.0031700493
184	0x3d3dfee5	0.046385664
185	0x3d8731df	0.06601309
186	0x3e23f917	0.16012989
187	0xbe081cda	-0.13292256
188	0x3c030bd0	0.007998422
189	0xbded2967	-0.115801625
190	0x3d548e1f	0.05189335
191	0x3d7fa7d0	0.062415898

fc4.bias f4 [6]
0	0x3e03a281	0.12854959
1	0x3c4e00da	0.012573445
2	0x3e08bc4d	0.13353081
3	0xbd7600ea	-0.060059465
4	0xbd90e874	-0.07075587
5	0x3cb8da57	0.02256505
