src/params_data/240418_005728/328param.pt (torch, 46927 bytes, 8 tensors)

fc1.weight f4 [128, 4]
000000 a1 ad aa bd c5 a9 80 3e 16 12 e4 3e c2 1f 86 3e
       -0.08333898 0.25129524 0.44545048 0.26196104
000010 40 ad a9 be f2 30 f0 be be 40 c1 be 40 1f f5 3d
       -0.33139992 -0.46912342 -0.37744707 0.11968851
000020 e8 8d 04 be f3 10 f5 3e 8b eb d6 be 37 69 25 be
       -0.12944758 0.47864494 -0.4197658 -0.16153418
000030 2c 35 db be 00 7a c8 ba 5a 2e a8 be 22 d2 a6 3e
       -0.42814004 -0.0015295148 -0.32847863 0.32582194
000040 70 e4 37 be 16 58 c2 be 14 fc 3b 3e a0 b2 17 3d
       -0.17958236 -0.3795783 0.18357879 0.037035584
000050 1c 66 4b be 72 a2 45 be 12 3e 57 3e 89 a0 93 bd
       -0.1986317 -0.19300249 0.21019772 -0.07208354
000060 6d f2 68 be 22 5d 81 be ea 5b b1 3e de 17 28 3d
       -0.22748728 -0.25266367 0.34640437 0.041038387
000070 80 5c ac 3b 5c d2 f4 be fd bb fd 3c 08 9e ab bd
       0.0052600503 -0.4781674 0.030973429 -0.083797514
000080 2e 5c 9b be a8 c2 af 3e 2d 29 46 be 61 0b e2 bd
       -0.30343765 0.34328198 -0.19351645 -0.110373266
000090 c1 0f f1 3e 19 2e 8b 3e a1 18 d9 3e 49 47 09 bf
       0.47082332 0.27183607 0.42401603 -0.536244
0000a0 78 3d c5 3d 13 64 2d be 20 c1 ce 3d 88 71 da be
       0.09630865 -0.16932707 0.100954294 -0.42664742
0000b0 72 58 ca bd d7 3e d0 3e c9 0c 6f bc af ed d5 be
       -0.09880151 0.40672943 -0.014590451 -0.417829
0000c0 dd 68 e7 3c f2 5b 78 3e 59 9a 3c be 9e 62 09 3f
       0.028248245 0.24253824 -0.18418254 0.536661
0000d0 9d 54 13 be c3 7b 68 3e 75 5b 74 be d7 36 cf 3e
       -0.14387746 0.22703461 -0.23863013 0.40471527
0000e0 0c 64 38 be a4 f5 cb be d8 a9 7f 3e 68 75 0b bc
       -0.18006915 -0.39835846 0.24967134 -0.008511879
0000f0 3e 77 d9 3e 60 49 cc be 00 5e 3a be b8 04 78 be
       0.42473787 -0.3989973 -0.1819992 -0.2422055
000100 0c 7b c0 3e 90 4c 1c be 08 db c4 bd f0 96 72 3e
       0.37593877 -0.15263581 -0.096120894 0.2369039
000110 db 1e f5 be 28 a4 1b bd f3 08 a1 3e c9 34 df be
       -0.47875103 -0.03799835 0.3145214 -0.4359496
000120 e8 b6 ea 3d 1c 5a 40 be 98 fb aa bd 4c 85 f5 3e
       0.11460668 -0.18784374 -0.08348769 0.4795326
000130 cc 79 b9 3e 09 f1 b6 be 13 89 52 3e 53 c0 0a be
       0.36225736 -0.3573077 0.20560102 -0.13549928
000140 68 38 69 3c 06 79 45 3e b8 9d 9d 3e 84 6e c8 be
       0.01423464 0.19284448 0.30784392 -0.39146817
000150 40 ba de 3e bc fb 24 3d 97 65 79 3e af 6a 52 3e
       0.43501472 0.040279135 0.2435516 0.20548509
000160 90 67 17 3d 56 1e f6 be 3a 10 f2 be be d6 db be
       0.036964 -0.4807002 -0.47278005 -0.42937273
000170 d3 a2 c2 be 82 14 a8 3e 1f de 3b 3e a7 df aa be
       -0.3801485 0.32828146 0.18346451 -0.33373758
000180 0f f1 82 3e 90 ba bb 3e 7f 5a 7d be 0a 52 94 3e
       0.25574538 0.36665773 -0.24741553 0.2896884
000190 09 0d c7 be 01 41 3b 3d ff 2f 19 bd e2 75 07 3f
       -0.38877133 0.04571629 -0.03739929 0.5291425
0001a0 70 69 15 be 6d e4 4a be c2 b7 81 3e 30 80 10 3e
       -0.14591002 -0.198137 0.2533551 0.141114
0001b0 a7 9c 4e 3e 98 c0 93 3e 51 37 a1 be 56 06 d7 3e
       0.20176946 0.28857875 -0.31487516 0.4199702
0001c0 78 fe f9 be ed 8e cb 3e 92 fd 07 3d 98 ef 6c be
       -0.48826957 0.3975748 0.033200808 -0.23138273
0001d0 45 39 29 bd 18 e3 b9 3e 18 d5 ca 3e fb 08 17 3e
       -0.041314382 0.3630607 0.39615703 0.1474952
0001e0 18 8d d2 3e 08 73 bf bd 7c 35 6c be 0e d3 b6 be
       0.4112327 -0.09348112 -0.23067278 -0.35707897
0001f0 ee eb f3 3e 30 76 94 3e 5d 1d bc 3c a7 ee a5 3e
       0.47640938 0.2899642 0.02296322 0.3240864
000200 55 e7 63 bd 66 bc c9 3e 20 4d a4 bd 4a 2d 80 3e
       -0.055640537 0.3940155 -0.08022523 0.25034553
000210 63 62 d8 3e 8a 0c d0 3b 0c 56 cf 3e 31 ba 77 bc
       0.42262563 0.006349151 0.40495336 -0.015120075
000220 5f 88 aa 3d 35 f7 eb 3e 2d 20 7d be 79 87 3a be
       0.08326792 0.46087041 -0.24719305 -0.18215741
000230 60 1b 03 3d 52 d5 d8 be b0 68 14 be 20 5a cd 3d
       0.03200853 -0.4235025 -0.1449306 0.100269556
000240 86 91 cb 3e 2d 16 d0 bc 88 55 fa 3e 54 78 9d 3e
       0.39759463 -0.0254012 0.4889338 0.30755866
000250 d8 bd 33 3e 75 7c 90 3e b7 8b d0 be 99 2c e9 3e
       0.17552888 0.28219953 -0.40731594 0.45541838
000260 a0 85 6d 3d a0 76 4b be 77 51 91 3d 98 fc ca bd
       0.057988763 -0.1986947 0.07095616 -0.0991146
000270 4a 0f c4 3d f8 51 fa 3e 74 5b 16 3e 1b c5 28 3e
       0.09573229 0.48890662 0.14683324 0.1648144
000280 69 1a bd bb 4a 30 aa 3e ed 58 1f 3e 58 a1 da be
       -0.0057709706 0.33239967 0.15561266 -0.4270122
000290 82 86 ae 3e 40 ef cf be 28 2f cf bd c0 da ea 3d
       0.34086996 -0.4061222 -0.10116416 0.114675045
0002a0 06 54 ad be 82 ec b6 be 39 f3 16 3e b0 b8 fd bd
       -0.33853167 -0.35727316 0.1474122 -0.12388742
0002b0 db ae bc be 05 17 c6 3e 08 48 9a 3e cc 58 03 3e
       -0.36852154 0.38689438 0.3013308 0.12826842
0002c0 94 a7 13 3e d0 f0 fc 3e 85 ba c6 be 2f bf 8e be
       0.14419395 0.49402475 -0.38814178 -0.27880237
0002d0 22 46 86 3e 64 41 94 3d 62 5c 4f be cb a0 0e be
       0.26225382 0.07239035 -0.20250085 -0.13928525
0002e0 e0 83 a8 bd cb cb 88 3e 8c 99 45 be 45 e9 04 be
       -0.08228278 0.26717982 -0.19296855 -0.1297961
0002f0 b4 76 5a bc 06 12 19 3d 1a b8 20 be a5 63 fb bd
       -0.013333965 0.037370704 -0.15695229 -0.12274865
000300 fa 86 8a 3e 0a d2 c0 be fc 32 db be 80 0c 36 3d
       0.27056104 -0.37660247 -0.42812335 0.044445515
000310 d3 60 d2 3e 9e 03 20 3c eb f8 d2 be 60 49 8a be
       0.41089496 0.009766487 -0.41205534 -0.27009106
000320 8a 57 ef be fc 03 22 3e c7 ea a8 be cd b5 85 be
       -0.46746475 0.15821832 -0.3299162 -0.26115265
000330 26 7b 27 be 3a 73 84 3e 9f 3e a9 3b 40 a0 01 3e
       -0.16355571 0.2586916 0.0051649357 0.12658787
000340 d4 34 1b 3e 2c 8d 0a be 06 03 98 3e b8 5a 07 bf
       0.15156871 -0.13530415 0.29689807 -0.528728
000350 9c 25 b9 3e f7 0c c0 3e 2b 93 21 bd a8 21 e6 bd
       0.36161506 0.3750989 -0.03944699 -0.11236888
000360 1e 8f c5 3e 29 d7 e7 be 62 db 89 3e 10 95 35 be
       0.38585752 -0.45281342 0.26925188 -0.17732644
000370 80 d1 17 bd 00 19 9d bd 60 b8 8e be 78 22 bd be
       -0.03706503 -0.07670784 -0.27875042 -0.3694036
000380 dc 4f 2d be 9e 56 82 be 28 c6 d5 bd 40 b8 47 3e
       -0.16924995 -0.2545671 -0.10438186 0.1950388
000390 18 d8 aa be 3c bd 1e be 76 dc 5d 3d a0 e9 6c be
       -0.3336799 -0.15501875 0.054165326 -0.23135996
0003a0 66 4e 91 3e 69 1c 6a 3e 8e 7e d0 3d 21 f5 58 be
       0.28380126 0.228624 0.101803884 -0.2118726
0003b0 d8 a4 e4 3d 07 50 66 be b6 b7 e3 3d 43 f2 c5 3e
       0.11164254 -0.22491466 0.111190245 0.38661394
0003c0 65 b4 f2 bd 37 8a 53 3e 89 b9 ad 3e ba 62 0c 3f
       -0.11850814 0.20658194 0.33930615 0.54838145
0003d0 7e f3 9d be f8 59 d6 be 66 59 ad be 00 e0 79 3a
       -0.30849832 -0.41865516 -0.33857268 0.0009531975
0003e0 5f 6c e2 be a3 0a 80 3e 6c dc e4 be 02 69 c9 bd
       -0.44223306 0.25008115 -0.4469942 -0.09834482
0003f0 ca 14 9e be 77 23 4d 3e 15 4b 9a 3d 18 95 80 3e
       -0.30875236 0.2003306 0.07533852 0.2511375

fc1.bias f4 [128]
000000 9b 2d bf be b6 73 ff 3e fb 37 e4 be f0 47 06 bd
       -0.37339482 0.49892968 -0.4457396 -0.03278345
000010 d5 dc 9a be 3b 66 a7 3e c6 89 8d 3c 27 2c 19 be
       -0.30246606 0.32695183 0.01727761 -0.14958249
000020 7e 0e a3 be 1e 59 32 be 6f bc 58 3d cb 40 56 be
       -0.31846994 -0.17416808 0.05291408 -0.20923154
000030 24 e2 02 3f f6 ac 41 3e 8e 8b 9c be a2 ce 9f be
       0.51126313 0.18913636 -0.30575222 -0.31212336
000040 ba 3f f4 be 29 8e f2 3e a0 f6 f1 3d d1 dd e8 3e
       -0.4770487 0.47374085 0.11814618 0.45481732
000050 1f d1 6e be 7f 9e 86 be e4 4c 85 be 8e be 25 3e
       -0.23321961 -0.26292798 -0.26035225 0.16185972
000060 7b a0 f5 be ee ac a8 3e ca 09 21 be ee 08 36 be
       -0.47974 0.32944435 -0.1572639 -0.17776844
000070 a1 6b f3 3e ae e7 82 be 80 90 b1 bd f0 12 d5 3e
       0.47543052 -0.25567383 -0.08670139 0.4161601
000080 8a 54 72 3e b5 52 39 3e 52 a6 02 3f c8 ea 88 3d
       0.23665062 0.18097956 0.51035035 0.06685406
000090 24 6f eb be d5 76 db be 95 00 6d be 10 d0 f0 be
       -0.4598323 -0.428641 -0.23144753 -0.4703374
0000a0 43 8f fb 3b 28 0b 3a be 4b b1 22 be 2e 84 b5 3e
       0.0076769902 -0.18168318 -0.15887944 0.35452408
0000b0 17 8e e8 be 9d 32 04 3f ad 77 54 3e 44 d7 d6 3e
       -0.45420906 0.5163973 0.20748778 0.4196111
0000c0 56 54 90 be 20 48 84 be 9c 70 99 be 33 b9 f6 be
       -0.28189343 -0.25836277 -0.29968727 -0.4818817
0000d0 f3 90 f9 3e d3 cc 9e be 55 03 8f 3d 36 1b a8 be
       0.487434 -0.31015643 0.069830574 -0.3283326
0000e0 00 bf 54 3e b8 1a 13 be cd f3 88 3e e8 6e 54 be
       0.20775986 -0.14365661 0.26748505 -0.20745432
0000f0 11 43 d1 3e 74 e0 e6 3e dd 1b 87 be 53 94 f4 3e
       0.4087148 0.4509312 -0.26388445 0.47769412
000100 b4 87 b9 be c1 08 ac 3d d3 38 3b 3c b7 27 87 3e
       -0.36236346 0.08400107 0.011427122 0.26397488
000110 30 c9 d2 3e b0 24 bb be 92 d7 7f be 5a 0a a6 be
       0.4116912 -0.36551428 -0.24984577 -0.32429773
000120 00 28 da 3d af 5d 4c 3e f8 99 34 be fe b9 c8 3e
       0.10652161 0.19957612 -0.1763686 0.392044
000130 08 ef ba 3e d1 bf e7 3e b2 ef af bd 9d a8 68 bc
       0.3651049 0.45263532 -0.0859064 -0.014200357
000140 fc f2 e8 3e 56 cf 92 be e4 0b 31 3e c3 c7 2b be
       0.45497882 -0.2867381 0.17289692 -0.16775422
000150 ce 75 b9 3e 57 0e 58 bb d0 61 92 3e b0 70 0d bd
       0.3622269 -0.0032967532 0.2859025 -0.034531295
000160 54 d5 07 3e c0 1d 68 be 63 89 7d 3d 9d 42 27 3d
       0.13264972 -0.22667599 0.0618986 0.04083501
000170 dc 36 a1 3e ba b4 94 bd 4a f1 b8 be ce ac 5c bd
       0.31487167 -0.07261033 -0.3612159 -0.053875737
000180 0a ce 9e be 04 5b d8 3e 28 60 ad bd 60 e6 ec 3c
       -0.3101657 0.4225694 -0.08465606 0.028918445
000190 5d ce 94 3b 42 08 9b 3d 06 b7 cd 3e b4 77 5e 3e
       0.004541202 0.075699344 0.40178698 0.2172535
0001a0 e0 3c fd be f6 4e d5 3e e0 91 db be 4d 99 69 be
       -0.49460506 0.41661805 -0.4288473 -0.22812386
0001b0 d3 e5 24 3d 33 d1 9b 3e d3 5d d3 be 88 f4 91 be
       0.04025824 0.30433044 -0.4128252 -0.28506875
0001c0 09 89 f2 be e0 10 9e bc bb 70 72 3e 1d a0 4a 3e
       -0.47370175 -0.019295156 0.23675816 0.19787641
0001d0 aa 0a fd be 49 98 a0 be 40 73 70 3c 76 6c d7 be
       -0.494222 -0.31366184 0.014675915 -0.42074937
0001e0 ca 04 5f 3e 3b c2 5c be 54 57 eb 3e 95 57 24 bd
       0.2177917 -0.21558468 0.45965064 -0.040122587
0001f0 95 75 c8 be 2a 79 a0 3e 15 c8 c3 3e 35 1c 6f 3e
       -0.39152208 0.3134244 0.38238588 0.23350604

fc2.weight f4 [64, 128]
000000 ab 39 85 bd 19 90 52 bd a3 36 a6 ba 4f b9 91 3d
       -0.0650514 -0.051406953 -0.0012681078 0.07115423
000010 ff 95 26 3d aa 47 81 3d a5 db 45 3c 94 3f b5 bd
       0.04067039 0.06312497 0.012076293 -0.08850017
000020 46 f1 ff bb 3e 53 9f 3d 1b 0f 14 bd 46 d6 9d 3d
       -0.0078107445 0.07779549 -0.03614722 0.07706885
000030 28 2b c8 bd 5c 40 b1 bd 79 08 57 3d 34 27 9e bd
       -0.097738564 -0.08654854 0.052498315 -0.07722321
000040 3c e5 61 bd 9d 7f 14 3d ec fd 88 bd 37 a4 0c bd
       -0.055150256 0.036254514 -0.06689057 -0.034336295
000050 c8 53 9d bb 9f 5f 83 3b 44 d7 53 bd 39 ea 2c bd
       -0.0048012473 0.0040092017 -0.051718965 -0.04221556
000060 af 11 83 bd f6 23 5e 3d 89 11 17 3b 2f ae 92 3a
       -0.06399857 0.054233514 0.0023051223 0.0011190827
000070 60 f7 ad bc 6a d4 c2 bc b0 f1 be 3b 28 8d 82 bd
       -0.021236122 -0.023782928 0.0058271512 -0.0637458
000080 f3 a6 b6 bd c7 6e 5a bb 07 25 9a bd fb 79 8d bd
       -0.08918562 -0.0033330189 -0.07526594 -0.069080316
000090 be a1 74 3c 23 d3 93 3d bb 00 93 3c 64 4c 6f bc
       0.0149311405 0.072180055 0.017944684 -0.014605615
0000a0 3a 44 ae 3d 80 6a 11 ba ff 79 c1 bc 83 18 75 3d
       0.08509107 -0.0005547181 -0.023617743 0.05983783
0000b0 1a 29 7a bc 60 2d 0c 3b 11 0a 9f bd b0 7d 07 bd
       -0.015268588 0.002138935 -0.07765592 -0.03307885
0000c0 24 25 18 bd d5 80 a6 3d f3 57 85 bd 1f e4 9d 3d
       -0.037144795 0.081300415 -0.065109156 0.07709526
0000d0 df a0 6a 3d 3f d7 63 bd a1 10 8b bd 53 48 a8 bd
       0.057282325 -0.055625197 -0.06790281 -0.0821692
0000e0 1c 89 ec bc 22 9d d8 3c eb 2f 93 bd 16 4c 30 3c
       -0.028873973 0.026442114 -0.07186874 0.010760328
0000f0 2e c8 a0 3c 95 5e 8b 3d 80 5f c4 3b 7a b6 11 bb
       0.019626703 0.068051495 0.00599283 -0.0022234009
000100 15 92 8f 3d 4c f7 b5 bd 63 5d a9 3d 3a c4 a2 3d
       0.07010285 -0.08885059 0.08269765 0.079475835
000110 a0 93 7f bc 87 00 19 3d 06 d7 15 bd 78 9b 2f 3c
       -0.015599161 0.03735402 -0.036582015 0.010718219
000120 af 63 83 bd 54 2b 2e bd 47 63 06 3d c8 67 5b 3c
       -0.064154975 -0.04252179 0.032809522 0.013391443
000130 06 85 e3 bc 0e 52 ab bd 76 a4 86 bd 69 32 05 3d
       -0.027773391 -0.0836526 -0.06574337 0.032518778
000140 91 4d a6 3d 90 ec 9d bd 94 e0 8c bd 2c df 6c bd
       0.08120263 -0.07711136 -0.068787724 -0.05783002
000150 28 71 37 3c 22 10 e0 bc 84 29 ec 3c 4f d7 85 3d
       0.011196412 -0.027351443 0.02882839 0.065352075
000160 6a f0 3a bd 38 89 53 3d 42 2b 68 bc ff 97 8f bd
       -0.045639433 0.051644534 -0.01417047 -0.07011413
000170 2a f1 41 bd 50 59 ac bd 95 ab 89 3d 19 f0 91 bc
       -0.047349133 -0.084154725 0.0672218 -0.017814683
000180 fb 14 7e 3d 6c c4 68 3d 08 4d c5 3c 4d 80 b2 bd
       0.062031727 0.056827947 0.024084583 -0.08715878
000190 47 05 76 3d 7f 01 3b 3d b6 06 a2 bd 70 1d 6f bd
       0.060063627 0.045655724 -0.07911436 -0.058377683
0001a0 cf 91 22 bc ae 8e 11 bb 64 25 49 3d 17 42 b0 3a
       -0.009922459 -0.0022210288 0.049107924 0.0013447431
0001b0 15 b7 a3 bd 40 9a be bb 0c 6c b8 bd c4 95 dd bc
       -0.079939045 -0.005816728 -0.09004983 -0.027048953
0001c0 a6 bf ed bb 9a 63 61 3d 03 9c ab 3d 9b fc a3 bd
       -0.0072555123 0.055026628 0.08379366 -0.08007165
0001d0 a8 39 81 bc ac c0 bb bc e0 b0 6e bd 33 4f 5a bd
       -0.015774563 -0.022919022 -0.05827415 -0.053298187
0001e0 f6 95 0e 3c a7 1e 97 3b a2 bb 76 bd 63 3e 5e 3d
       0.008702746 0.0046118083 -0.060237534 0.054258715
0001f0 00 9c 65 bd 3a 77 5f 3c 67 28 cf bc 19 1e 02 bd
       -0.056056976 0.013639266 -0.02528782 -0.031766985
000200 60 52 62 bc c8 d4 3c bd 43 fe 6d bd 53 bf 9e 3d
       -0.013813585 -0.04610136 -0.05810381 0.07751336
000210 5d 4d 40 bc 66 27 9a bd ed ff 1a bd 57 b6 8c 3b
       -0.011737195 -0.07527046 -0.037841726 0.0042941975
000220 6c f0 67 3d f9 e7 9b 3d 32 30 9f bd ee 9f 80 3d
       0.05662577 0.07612605 -0.077728644 0.06280504
000230 fc 83 c4 3a aa e2 2e 3d 9f f7 a5 3d 66 a6 10 3d
       0.0014992948 0.042696632 0.081038706 0.03531494
000240 e0 33 8f 3b 3c 98 35 bd ec 76 9c 3c 26 3e 8d 3d
       0.0043701977 -0.044334635 0.019099675 0.068966195
000250 82 03 57 3d 0c ef 81 3d f8 1d 77 3c e0 93 0f 3d
       0.05249358 0.06344423 0.015082829 0.035053134
000260 e3 74 93 3d 1f 6b ad bd 10 b3 4b 3d 10 04 b2 bd
       0.07200029 -0.08467697 0.049731314 -0.08692181
000270 ee bd 9a 3c 82 22 98 3d f8 3d af bc 21 ef 8f bd
       0.018889394 0.07428457 -0.021391854 -0.07028032
000280 99 55 33 3a eb c4 2b bc 41 d9 53 bc 16 6e 32 3d
       0.0006841063 -0.010483961 -0.012930215 0.043562017
000290 b6 9e 1e bd c4 a6 51 3d cf 0e 9f bb 84 58 6d 3b
       -0.038725577 0.05118443 -0.0048540602 0.003621609
0002a0 88 e9 23 bd ee 24 59 3d 4b f2 11 bd ae 4a 26 3d
       -0.040017635 0.053013735 -0.03563146 0.040598564
0002b0 7f 1d be bc cb 69 84 3c 26 74 91 bd cd fe a1 3c
       -0.023207424 0.016163727 -0.07102232 0.019774819
0002c0 35 2a 06 bd 1f 47 53 bd 72 84 94 bc 62 28 91 3c
       -0.032755096 -0.0515815 -0.018129561 0.017719451
0002d0 36 0c 3f 3d 43 42 47 3d 41 b5 50 bd 75 33 88 bd
       0.046642505 0.048647176 -0.050954107 -0.0665044
0002e0 7a 71 48 3d 61 03 03 3c 3b 88 df 3c f7 ac 42 ba
       0.048936345 0.007996411 0.02728664 -0.00074262865
0002f0 c5 2d 83 bd b2 bb 28 bd bf a9 af 3d fe 1f 54 bd
       -0.06405214 -0.041194625 0.085772984 -0.051788323
000300 03 12 9a 3d d6 29 2b bd ff fb c0 3c bf bd e6 bc
       0.07522967 -0.041787945 0.023557661 -0.02816665
000310 aa 9a 10 bd c8 a8 7b 3d 8c fa 76 bc 3f 2a 12 bd
       -0.03530375 0.06144026 -0.0150743835 -0.03568482
000320 5b 4c 85 3d b4 c2 5e 3b 67 f6 8e 3d 58 de a9 bd
       0.06508704 0.0033990564 0.06980591 -0.08294362
000330 e0 41 08 3b 6a 06 85 bb 4f ae 8f 3d 4f e6 60 3c
       0.0020791218 -0.0040596025 0.070156686 0.013726785
000340 cc 05 6b bd fa 09 97 3d 53 e6 93 3d a7 c8 5e 3d
       -0.057378575 0.0737495 0.07221665 0.054390576
000350 98 a3 7b 3c 20 57 6e bc 00 f7 ee 3b e6 41 1a 3d
       0.015358828 -0.014547139 0.0072926283 0.037660502
000360 0f 56 86 bc fb 39 93 3d 94 4d 95 3d 17 1f 3d bc
       -0.016398458 0.07188793 0.072901875 -0.011543057
000370 2c 0c 19 bd 14 60 99 bc aa 8c 06 3d 37 f6 ba bd
       -0.037365124 -0.018722571 0.03284899 -0.09128993
000380 2c 17 8a bc 8d 5d 1e bb 04 b9 e5 3c 00 98 28 38
       -0.016856752 -0.0024164647 0.028042324 4.0195882e-05
000390 b9 29 95 bd 0a 5d 3d 3d 86 99 39 bd 0e 85 19 3d
       -0.072833486 0.046231307 -0.045312427 0.037480406
0003a0 21 98 1f bd 22 df 5d 3c e8 30 d5 ba d6 11 e8 3c
       -0.03896344 0.013541969 -0.0016265186 0.028328817
0003b0 a9 8d 74 bd 2d 74 61 bd 82 62 12 bc fe 77 91 bd
       -0.05970541 -0.055042434 -0.008934619 -0.07102965
0003c0 93 ae 39 bd ff d5 89 3d cf 52 85 3d d2 15 2c 3c
       -0.045332503 0.0673027 0.06509935 0.010503249
0003d0 4a c4 77 3d 2e 21 6b 3d 40 e9 81 bb cc e3 aa bd
       0.06048993 0.05740469 -0.003964573 -0.0834423
0003e0 32 54 3f bd a5 00 0e bd da c3 ee 3c 4f 0d 42 bd
       -0.046711154 -0.034668583 0.029146124 -0.047375973
0003f0 a2 57 1d 3d 98 bd 43 bd 7f 32 a4 3d 67 4d 36 3d
       0.03841365 -0.047788233 0.08017444 0.04450741

fc2.bias f4 [64]
000000 45 3e b7 3d a1 0c 2f bc ef a7 66 bd 94 44 e5 3c
       0.08947424 -0.010684163 -0.056312498 0.027986802
000010 63 a8 de 3c 70 47 f6 3c a0 f5 50 3d 39 5a 83 bc
       0.027179902 0.03006336 0.051015496 -0.016034232
000020 7c 5b 7b bc 86 21 5d 3d b3 2b 5c bd c7 b8 a5 bd
       -0.015341636 0.05398705 -0.053752612 -0.08091884
000030 74 7f a3 3d 41 5f 95 3d 28 d4 af 3d 6f 2f 3f 3d
       0.07983294 0.07293559 0.085853875 0.046676096
000040 56 f2 f1 3c 63 4e 38 3d 51 4d 5a bd 61 5f 8e 3d
       0.0295345 0.04499663 -0.05329639 0.06951786
000050 dd 4b 84 bb 9e 38 fc 3d 57 3d fe 3d e2 e8 a3 3d
       -0.004037364 0.12315486 0.124140434 0.08003403
000060 ec ed 43 3b f9 1e 91 3d 75 b1 a4 bd 50 a9 c2 3c
       0.002989645 0.07085986 -0.0804166 0.023762375
000070 23 d7 72 3d 57 0c 97 3d 6e b6 d5 bc 89 cf ab bd
       0.0592872 0.073754005 -0.026087966 -0.083891936
000080 cf f8 8d bc 34 82 f9 3c 94 53 af 3d d7 0a c8 3d
       -0.017330555 0.030457594 0.08560863 0.097676925
000090 9e 1a 0d bd 10 bc ec bc 90 f5 02 3c 79 cd ca 3c
       -0.034449212 -0.028898269 0.007993117 0.02475618
0000a0 86 92 d6 bc 42 07 ad 3c 34 65 b4 bd 6c 44 31 3d
       -0.026192915 0.021121625 -0.088083655 0.043278143
0000b0 6e 3e 5b bd 46 14 fb 3c 04 91 a5 3d 76 d4 5b bd
       -0.053526334 0.030649316 0.080843 -0.053669415
0000c0 ce 1b a4 bd fa ba 42 3d 7a 9a 36 3d 29 40 a0 3d
       -0.08013116 0.047541596 0.044580914 0.078247376
0000d0 11 22 38 bd af 76 85 3d 43 73 89 3d 90 7a 9d bc
       -0.044954363 0.06516778 0.067114376 -0.019223481
0000e0 6c 90 cf bc 88 55 91 3d 3c 50 56 ba 2e 9c 48 3d
       -0.02533742 0.07096392 -0.0008175408 0.04897707
0000f0 bb a7 00 3d 65 ca a6 3d 57 7d 75 bd ef 2a e6 bb
       0.03140996 0.081440724 -0.059933987 -0.007024161

fc3.weight f4 [32, 64]
000000 8c 4b cb 3d 43 a4 c8 bc 61 3d 8e 3d 95 99 e4 bd
       0.09926519 -0.024492389 0.06945301 -0.11162106
000010 2b d0 ea bd 54 0d e4 bd cf 1b 63 3d 30 46 6a 3d
       -0.11465486 -0.11135355 0.055446442 0.057195842
000020 79 af a9 3d 04 2f 1a bd a2 79 9a bd 84 86 1d 3d
       0.08285422 -0.037642494 -0.07542731 0.038458362
000030 d1 ba e3 3d 20 52 b5 bb 64 5e d5 3d 57 d5 8f bd
       0.11119617 -0.0055334717 0.10418394 -0.07023113
000040 7e 6e 87 bd db 2e 35 3d d6 39 57 3d 84 41 d5 3d
       -0.066128716 0.044234138 0.05254539 0.10412887
000050 c5 1a 90 bd f6 b0 de 3d c7 82 e7 bd 6d 09 d2 3d
       -0.07036356 0.10873596 -0.11304241 0.10255704
000060 a4 b9 00 bd c0 78 a6 3c 08 9c 86 3c 80 1e 75 3c
       -0.03142704 0.02032125 0.016431823 0.014960885
000070 aa 6d a1 bd 51 83 cd 3c d8 02 52 bd 13 05 02 3d
       -0.07882245 0.02508703 -0.051272243 0.03174312
000080 91 d0 d4 bd 65 29 a0 3c b2 ad bc 3d b9 0a 68 3c
       -0.103913434 0.019550988 0.09212817 0.014162713
000090 e0 d9 b1 bb 2f 30 5e bd 00 cf 6d bd f4 17 de 3d
       -0.005427584 -0.05424517 -0.05805874 0.108444124
0000a0 3c f9 f5 3c 14 a4 f7 bc 60 2d 0c bc 3a 02 7c 3d
       0.03002607 -0.030229606 -0.00855574 0.06152556
0000b0 47 b6 94 bd 0a e0 97 3d 8a 8b 02 bb 33 d3 7e 3c
       -0.07261329 0.07415779 -0.0019919598 0.0155532835
0000c0 0e bd 8b bd 54 c3 73 bd 24 27 07 bd 20 2b e9 3d
       -0.06823169 -0.05951245 -0.03299631 0.113851786
0000d0 6a e4 c7 3d 11 7c f6 bd 74 e7 24 bd b8 2a 1a 3d
       0.097603634 -0.120353825 -0.040259793 0.037638396
0000e0 58 79 9d 3d 02 8f bf bb cf b8 ab 3c e0 e5 3c bd
       0.0768916 -0.0058459053 0.020962147 -0.046117663
0000f0 cd 0e 7e 3b 8c 52 d0 bd fc 93 ad 3b e8 a3 bd 3d
       0.0038766146 -0.101719946 0.005297182 0.09259778
000100 82 f5 84 bd 5e 46 82 bd 37 60 fb 3d 0c a6 2e bd
       -0.064921394 -0.06361078 0.12274211 -0.042638823
000110 39 55 12 bd 48 1c a3 3d 08 1f b4 bd 0c 77 66 3d
       -0.035725806 0.079643786 -0.08794981 0.056265876
000120 0b 0b ac 3d 18 e3 8f bd 1c 84 4f bc 20 c3 3b bd
       0.08400544 -0.070257366 -0.012665775 -0.045840383
000130 22 5a ea 3d d8 4c da bc 84 f6 d7 bb be 95 07 3c
       0.11442973 -0.02664797 -0.0065906662 0.008275447
000140 9f f0 df bd c3 12 8b bd b6 f2 24 bc 50 96 a2 bc
       -0.10934567 -0.06790688 -0.010067632 -0.019847065
000150 07 86 b2 3d 4d 0c aa 3d c6 e1 ec bc a1 fe 7d 3c
       0.0871697 0.083031274 -0.02891625 0.015502603
000160 50 62 b2 3c 94 6f 4d 3d 61 4c 4e bd 82 20 de 3d
       0.021775395 0.050155237 -0.05036581 0.10846044
000170 4d 6b 01 3b 5b 37 8a 3b ab 18 62 bd e3 8b 48 3d
       0.0019747794 0.0042180247 -0.055199306 0.04896153
000180 fe 11 b7 bd f9 aa b3 bc 2a 11 29 bd 3d 34 06 bd
       -0.089389786 -0.021932112 -0.041276135 -0.032764662
000190 d0 bc 39 3c d7 d4 3b bd 2c 48 df bd 35 2c 95 3d
       0.01133652 -0.045857277 -0.109024376 0.072838224
0001a0 00 d7 b2 3d 09 25 8d 3d e4 8c 9b 3d 25 64 6f bd
       0.08732414 0.068918295 0.07595232 -0.058445115
0001b0 73 f2 dc 3d 62 ce 11 3d 0a 5d e2 3d 24 40 a2 3d
       0.10788431 0.035597213 0.11052902 0.0792239
0001c0 fa 0b c6 3c 34 d6 f3 3d 18 f8 82 3d 57 ee 90 3b
       0.024175633 0.119060904 0.063949764 0.0044229436
0001d0 ef 74 d0 3d a6 6f 33 3d 3a 68 b5 3d 7a 79 ed 3d
       0.10178553 0.043807648 0.0885777 0.115954354
0001e0 64 22 4f 3d e1 b0 53 3d f6 a5 ae 3d d8 93 8e bd
       0.050569907 0.051682357 0.08527748 -0.06961793
0001f0 7a 3c a0 3d e3 d9 55 bd 95 e5 eb 3d 14 11 96 3d
       0.07824035 -0.052209746 0.11518399 0.07327476
000200 38 6f ba bd 2c 4f bf 3d 73 b6 ec 3c a7 42 b8 3d
       -0.091032445 0.09341273 0.028895592 0.08997088
000210 f3 fc e8 bd 30 b2 c5 bc 5f bb db 3c e5 93 91 bd
       -0.11376371 -0.024132818 0.026822744 -0.07108287
000220 a6 89 f8 3d 08 32 96 3d 55 15 a7 bd f6 7b fd bd
       0.12135629 0.073337615 -0.08158366 -0.12377159
000230 10 bc bc 3d 58 b6 99 3d 88 f7 cc bc e1 d4 ab bd
       0.092155576 0.075054824 -0.025020376 -0.08390213
000240 a4 9e d3 bc 1e a9 e0 bd f5 9e 26 bc c8 cb ea 3d
       -0.025832482 -0.109697565 -0.010169734 0.114646494
000250 8d 6e bb 3d 0c dd bc bb d4 63 fd 3c d0 75 05 bd
       0.09151945 -0.0057636555 0.03093139 -0.032583058
000260 db dd be 3d e0 ad d1 3d 51 27 0a 3d fc 30 b7 bd
       0.09319659 0.10238242 0.0337289 -0.0894489
000270 6c 77 e5 bd 19 e2 e4 bd b4 de 0c bd 66 f4 51 3d
       -0.112044185 -0.11175937 -0.034392074 0.051258467
000280 37 c0 ac bd e7 db 2a 3d 70 2b 61 3c d7 b7 84 bd
       -0.084350996 0.04171362 0.013743266 -0.06480377
000290 b6 f8 df 3d 00 60 e9 38 f6 23 d8 3d e9 7c 43 3d
       0.1093611 0.00011128187 0.10553734 0.047726545
0002a0 f6 70 ca 3d 5e b0 da bd 20 1b 3d bc 4e 5e ee 3d
       0.09884827 -0.106781706 -0.011542112 0.11639081
0002b0 30 c8 12 3d 48 d9 a3 3d 1d ee e2 3d 41 6b 0a bd
       0.035835445 0.080004275 0.11080573 -0.03379369
0002c0 19 a7 23 bd c4 3d a9 3d 98 c4 a2 3d 50 79 c1 bb
       -0.03995428 0.08263734 0.079476535 -0.005904354
0002d0 e3 f3 15 bd 05 c8 bf bd ff 0d fb bc 98 26 78 bd
       -0.03660954 -0.093643226 -0.030646322 -0.06058368
0002e0 dc 3f ba bd 56 39 83 3c bb a2 10 bd 00 9b ab bb
       -0.090942115 0.01601855 -0.035311442 -0.0052369833
0002f0 cf 0c dc bd 3d 33 05 3d c2 8f 30 3d 36 4e 26 3d
       -0.107446305 0.032519568 0.043105848 0.04060193
000300 cd 93 9f bd 63 6b a6 bd 74 72 ae bc 7a b5 ca bd
       -0.07791863 -0.08125951 -0.02129481 -0.09897895
000310 cd 3b 4b 3c dc 71 06 bd c7 00 63 bb d2 27 93 bd
       0.012404394 -0.03282343 -0.0034637915 -0.071853295
000320 6a a7 f1 3d 8c 30 7b 3d ed 53 e5 3d b8 1e d9 bc
       0.1179951 0.061325595 0.11197648 -0.026503906
000330 0e 6e e4 3c d2 84 f9 3d c4 2b af bd 70 11 b1 bd
       0.02788451 0.121835366 -0.085532695 -0.08645904
000340 59 9b 2f 3c 2b eb 7c bd 95 c6 46 3d e2 a0 f0 bd
       0.01071819 -0.06174771 0.048529226 -0.11749436
000350 75 92 64 bd 4b 30 13 bc fc 97 f9 bd 99 3b c1 3d
       -0.055803735 -0.008983682 -0.12187192 0.094351955
000360 b6 d1 d7 bd 70 c4 55 bc b4 e2 5b 3d b0 f1 ab bc
       -0.10538046 -0.013047323 0.053682998 -0.020989269
000370 68 91 42 bd b4 ff f1 bd 34 92 b4 bd 53 96 02 bd
       -0.04750195 -0.118163496 -0.088169485 -0.03188164
000380 e6 5f 91 bc dc f5 23 3d 30 9b 4a 3c 9b 81 7f 3d
       -0.017745923 0.04002939 0.012366101 0.06237946
000390 0c ef 8e 3d ab 99 a6 3d 28 98 3c 3d 37 92 36 3c
       0.06979188 0.081347786 0.046043545 0.011143259
0003a0 77 a5 c2 3d 03 04 1e 3b c8 5f 9b 3c f4 1c d1 bc
       0.09504216 0.0024111278 0.01896657 -0.025526501
0003b0 90 22 f5 bd 8b 3a d4 bd 25 a0 c2 bd e0 7d a2 bb
       -0.11969483 -0.10362729 -0.095032014 -0.004958853
0003c0 51 2a 34 bd e0 b0 3b 3c 22 3e e4 3d 68 9f cc bd
       -0.04398567 0.0114557445 0.111446634 -0.09991342
0003d0 7b 15 ef 3c c1 46 ee 3d c2 7b f7 bc d8 2f ea bc
       0.029185047 0.11634589 -0.03021038 -0.028587267
0003e0 c0 43 c8 3b 9b cd 7c 3d b4 18 5b bd 92 e0 a5 bd
       0.006111592 0.06171952 -0.053490356 -0.08099474
0003f0 ff 8c 84 3d 52 de b6 3d cd 61 75 bd de 0f 00 3d
       0.06472205 0.08929123 -0.059907723 0.031265132

fc3.bias f4 [32]
000000 05 ee 71 bc 1b 2a 0c 3e ba 82 99 bc f9 11 e7 bd
       -0.014766221 0.13687937 -0.018739093 -0.11282725
000010 68 91 8b 3a d3 82 c7 bd c0 ee 27 3e c4 28 4b bd
       0.0010648193 -0.097417496 0.1639967 -0.049599424
000020 f1 52 da bd 20 cd 1c bc 04 10 6b 3c e8 5d c3 bd
       -0.10660351 -0.00957039 0.01434708 -0.095393956
000030 23 72 f0 bb 24 e2 86 3d b0 65 62 3c 0a ef cf 3d
       -0.007337825 0.06586102 0.0138181895 0.10153015
000040 a8 97 d7 bc a6 7e 43 3c 87 ea 15 bd 55 c2 01 bd
       -0.026317433 0.011932051 -0.036600616 -0.03167947
000050 0b 1e 54 bc 12 04 ed 3d 67 be 9b bd 85 aa 90 3b
       -0.012946616 0.11573042 -0.07604676 0.0044148588
000060 29 e0 c8 3c 6f 76 17 bd 84 2e 98 bd 64 38 e4 3d
       0.02452095 -0.03697818 -0.07430747 0.11143568
000070 44 77 57 bd 52 a1 b8 bd 7e 41 2c 3d 82 1c d6 3d
       -0.052603975 -0.090151444 0.042054646 0.10454656

fc4.weight f4 [6, 32]
000000 7e 86 fd bd 99 b2 db 3d a9 6b c4 bd c9 11 2e be
       -0.12379168 0.10727424 -0.09590847 -0.16998972
000010 8b 0e 8a bd a3 fa 03 3d 76 0e 08 be 2c 89 60 3d
       -0.06741055 0.032221448 -0.13286766 0.054818317
000020 94 5e 30 3e 5e 8c bc 3d 4f e7 2e 3e ab ab d0 3d
       0.17223579 0.092064604 0.17080425 0.10188993
000030 a3 1f 95 3d 24 52 25 bd 12 28 bd 3d 26 a5 ee 3d
       0.07281425 -0.04036154 0.092361584 0.11652593
000040 04 ab 6b bd 89 aa 07 be 92 17 34 3d 75 34 13 3e
       -0.05753614 -0.13248648 0.04396779 0.1437548
000050 c4 27 b4 bd 02 10 4d 3d f9 ac 4b 3d ad 32 69 bd
       -0.08796647 0.050064094 0.049725506 -0.056933094
000060 ef 63 23 be 95 9f 2c 3e b9 f7 2e be 50 df 71 3c
       -0.1595609 0.1685775 -0.17086686 0.0147627145
000070 e8 8e 07 be cd 8a 86 bd 16 62 13 be 0e 5e 95 3d
       -0.13238108 -0.06569443 -0.14392886 0.0729333
000080 0d 0a 74 bc c2 40 cd 3d fe be a2 bd 61 73 17 3e
       -0.014894974 0.10022117 -0.07946585 0.14790107
000090 96 3b d1 bd b1 ad f9 3d 96 34 fa bd 66 0f 2e be
       -0.10216443 0.12191332 -0.12217061 -0.16998062
0000a0 ea 68 ee 3b 84 08 2e be 71 96 d0 bd c1 68 23 be
       0.0072756903 -0.16995436 -0.101849444 -0.15957929
0000b0 4f f0 30 bd db 1f 5a bd 61 8e 26 be cc a8 30 3d
       -0.043197926 -0.053253036 -0.1626525 0.043129727
0000c0 52 2a 26 be 7a ce 41 3c f9 c9 51 3d aa 2a f6 3d
       -0.16227081 0.011829013 0.051218007 0.12019856
0000d0 21 0c ac bd dc 7a e2 3d ca dd 0f be 79 5a c3 bd
       -0.08400751 0.1105859 -0.1404945 -0.09538741
0000e0 1f 22 bc bd 0d 7b c1 bd a8 bc bb bd a2 24 92 3d
       -0.091861956 -0.09447298 -0.09166843 0.071358934
0000f0 52 3f 9f 3d e6 0f 67 bb 53 a2 8e 3d 40 7d 05 bd
       0.07775749 -0.003525728 0.06964555 -0.03259015
000100 07 0d 18 bd cc a4 f5 bd 03 4b ac bd b5 89 07 bd
       -0.0371218 -0.11994323 -0.08412745 -0.033090312
000110 3d 27 c0 bb af ff 1b 3e 73 0e 0b 3e b0 3c 73 3c
       -0.0058640526 0.15234254 0.1357973 0.014846012
000120 35 89 1c 3e d3 b3 d3 bd 29 18 a8 bd 9b b9 94 3d
       0.15286715 -0.10337033 -0.08207733 0.07261964
000130 4e f1 af bd 37 2e 38 be a0 1d 14 be 78 7d 4b 3d
       -0.08590947 -0.1798638 -0.14464426 0.049680203
000140 fe 19 bf 3d 6e ed 02 be 5a ab b9 3b 88 13 17 3b
       0.093311295 -0.12785885 0.0056661787 0.0023052413
000150 51 7c f9 bc f2 b1 a7 3c c6 26 4e bd e8 b7 9f bd
       -0.030454786 0.020470593 -0.050329946 -0.07798749
000160 04 e8 c2 bd de 82 b9 3d dc d0 3f bd c2 d0 ef bd
       -0.0951691 0.09058164 -0.046830043 -0.11709739
000170 a0 ca a9 bd 09 b9 e7 bd e7 9d f7 3d 46 6a f1 3d
       -0.08290601 -0.113145895 0.12090664 0.11787848
000180 d9 2d ea bd d2 d9 09 3e 91 d8 31 3d 03 64 e0 3d
       -0.11434526 0.13461998 0.043419424 0.10956576
000190 c6 c5 d4 3d 1e f9 9e 3d f7 72 09 be 0b 92 a8 bd
       0.10389285 0.07762359 -0.13422762 -0.082309805
0001a0 1f cc fb bd 8a 78 a7 3d f1 50 04 3e 08 6c 25 be
       -0.122947924 0.08177288 0.12921502 -0.16154492
0001b0 4c cc aa 3d b0 6b a2 bd e4 eb 88 3d f6 28 c2 3d
       0.08339748 -0.07930696 0.066856176 0.09480469
0001c0 86 a7 c1 bd 34 6d b2 3d c2 6d 1a be df 82 2c 3c
       -0.09455781 0.08712235 -0.15080932 0.010529249
0001d0 97 1c d1 3d d3 20 1e be 4b 01 45 bc 7a f3 05 3e
       0.10210531 -0.15442209 -0.012024234 0.1308116
0001e0 e4 67 1c 3d 57 14 e5 3c 20 6e ab 3c 59 fd 10 3e
       0.038185015 0.0279638 0.020926535 0.14159144
0001f0 ba 96 9c 3d 33 13 88 3b 24 2c 21 3d b6 d4 fe 3d
       0.07645936 0.0041526794 0.039348736 0.12442915
000200 47 09 c8 3d e2 0a 01 be 54 9e 25 be 3a 23 c0 3d
       0.097673945 -0.12601808 -0.16173679 0.09381719
000210 da 04 17 be b4 7b 12 3e 3e 52 60 3d e2 89 db bd
       -0.14747944 0.14305001 0.054765932 -0.107196584
000220 4d 60 52 bd 61 5b 1c 3e c3 ae e7 3d 87 71 b9 bd
       -0.05136137 0.15269233 0.1131263 -0.09054857
000230 8a d8 e3 3d 68 91 c4 bd 73 97 27 3e aa e8 ad 3d
       0.11125286 -0.095980465 0.16366367 0.08491643
000240 d4 0f b0 3d f6 d5 1c be 74 75 0c be be 3a e8 3d
       0.08596769 -0.15315995 -0.1371668 0.11339329
000250 b1 27 23 3e 59 d0 06 3d f1 85 c9 3d c2 3b 26 be
       0.1593311 0.03291354 0.098400004 -0.16233733
000260 d8 2e b6 3d 3c 7c 6c bd 50 75 28 3c d3 c8 e0 bd
       0.088956535 -0.057735667 0.010281876 -0.10975804
000270 78 c2 b3 3c a3 b8 2a 3d 4f 55 1b 3e 5d 08 2e 3e
       0.021943316 0.04167999 0.15169261 0.16995378
000280 71 74 2c 3d 04 2f 28 be a6 a7 64 bd 84 bf fe bb
       0.042103235 -0.16424185 -0.055823945 -0.0077742953
000290 45 1b ce 3d e3 1a 19 be d4 aa 32 be 46 56 ae 3d
       0.10063795 -0.14951663 -0.17447978 0.08512549
0002a0 fc 09 76 bd 4d 29 22 3e 55 0e e6 3d a5 49 d2 3b
       -0.060068116 0.15836067 0.11233202 0.0064174705
0002b0 12 9c 99 3c 6e f3 1f 3d d4 19 04 3d 8b b7 1f be
       0.018751178 0.039050512 0.032251194 -0.1559736
0002c0 b1 8a 43 3d 06 c5 03 be d3 e6 db 3d 1d 72 6a 3d
       0.04773969 -0.12868127 0.107373856 0.057237733
0002d0 30 dc 0f 3e da 12 a7 bd 8b 57 63 bc 30 a3 59 bc
       0.14048839 -0.081578925 -0.013875852 -0.013283536
0002e0 04 aa 42 3d a8 89 8f 3d 17 f9 23 3e da 1c 08 be
       0.04752542 0.07008678 0.16012989 -0.13292256
0002f0 d0 0b 03 3c 67 29 ed bd 0f 84 65 3d d0 a7 7f 3d
       0.007998422 -0.115801625 0.056034144 0.062415898

fc4.bias f4 [6]
000000 16 a9 08 3e a5 6f 85 3c ef f7 00 3e c7 1b a7 bd
       0.13345751 0.016288588 0.12594579 -0.08159595
000010 bb 1c 8e bd c0 e2 dd bc
       -0.06939074 -0.027085662
