src/params_data/240418_005728/332param.pt (torch, 46927 bytes, 8 tensors)

fc1.weight f4 [128, 4]
000000 93 ba aa bd 9a b2 80 3e 7f 1b e4 3e ff e9 85 3e
       -0.083363675 0.25136262 0.44552228 0.26155087
000010 40 ad a9 be f2 30 f0 be be 40 c1 be 40 1f f5 3d
       -0.33139992 -0.46912342 -0.37744707 0.11968851
000020 79 00 05 be 46 20 f5 3e 66 ba d6 be 4d 4e 24 be
       -0.12988462 0.47876185 -0.41939086 -0.16045494
000030 2c 35 db be 00 7a c8 ba 5a 2e a8 be 22 d2 a6 3e
       -0.42814004 -0.0015295148 -0.32847863 0.32582194
000040 70 e4 37 be 16 58 c2 be f4 2c 3b 3e a0 b2 17 3d
       -0.17958236 -0.3795783 0.18278867 0.037035584
000050 1c 66 4b be 20 30 47 be 0e 18 56 3e 18 ad 96 bd
       -0.1986317 -0.19451952 0.20907614 -0.07357234
000060 24 81 67 be a4 1f 81 be 57 6c b1 3e 4e c1 2a 3d
       -0.22607857 -0.25219452 0.3465297 0.041688256
000070 80 5c ac 3b 5c d2 f4 be 93 f7 f8 3c 08 9e ab bd
       0.0052600503 -0.4781674 0.03039149 -0.083797514
000080 87 6a 9b be 3b be af 3e fb 53 46 be 38 19 e7 bd
       -0.3035471 0.34324822 -0.19367974 -0.11284107
000090 1f d6 f0 3e b1 f2 8a 3e a0 d5 d8 3e 83 b2 09 bf
       0.4703836 0.27138284 0.42350483 -0.5378801
0000a0 78 3d c5 3d 81 07 2e be d2 6f cd 3d 88 71 da be
       0.09630865 -0.1699505 0.10031094 -0.42664742
0000b0 4a 63 c9 bd f9 47 d0 3e 16 6f 70 bc e1 09 d7 be
       -0.09833391 0.4067991 -0.014674922 -0.41999725
0000c0 e7 bc e8 3c a6 87 78 3e 4c 3d 3c be e6 ce 09 3f
       0.028410388 0.24270496 -0.18382758 0.53831327
0000d0 18 a0 13 be 42 3c 68 3e e0 bc 74 be ba 62 ce 3e
       -0.1441654 0.22679237 -0.23900175 0.40309697
0000e0 0c 64 38 be 95 05 cc be 3b ee 7e 3e 68 75 0b bc
       -0.18006915 -0.3984801 0.24895565 -0.008511879
0000f0 3e 77 d9 3e 60 49 cc be 00 5e 3a be b8 04 78 be
       0.42473787 -0.3989973 -0.1819992 -0.2422055
000100 0c 7b c0 3e 90 4c 1c be 08 db c4 bd f0 96 72 3e
       0.37593877 -0.15263581 -0.096120894 0.2369039
000110 68 ac f4 be 7f ce 1b bd c7 e9 a0 3e 03 41 df be
       -0.47787786 -0.038038727 0.31428358 -0.43604288
000120 e8 b6 ea 3d 1c 5a 40 be 98 fb aa bd 4c 85 f5 3e
       0.11460668 -0.18784374 -0.08348769 0.4795326
000130 cc 79 b9 3e 09 f1 b6 be 3d 00 52 3e 53 c0 0a be
       0.36225736 -0.3573077 0.20507903 -0.13549928
000140 9a 21 67 3c 52 05 46 3e 42 01 9e 3e 37 a0 c7 be
       0.014107132 0.19337967 0.30860335 -0.38989422
000150 f8 7d de 3e 83 e3 24 3d 6f 58 79 3e 22 78 52 3e
       0.43455482 0.040256035 0.24350141 0.2055364
000160 90 67 17 3d 56 1e f6 be 3a 10 f2 be be d6 db be
       0.036964 -0.4807002 -0.47278005 -0.42937273
000170 cd 09 c3 be 56 36 a8 3e fa 3f 3c 3e 5c 58 ab be
       -0.38093415 0.32853955 0.1838378 -0.3346585
000180 f2 85 82 3e e0 cb bb 3e 48 e3 7c be 36 78 94 3e
       0.25492817 0.36678982 -0.24696076 0.28997964
000190 59 fc c6 be 97 f8 3b 3d 18 4d 17 bd 6f ff 07 3f
       -0.388644 0.04589137 -0.036938757 0.53124136
0001a0 a3 23 18 be c7 42 4a be 96 fd 81 3e c0 de 10 3e
       -0.14857344 -0.19752036 0.25388783 0.14147472
0001b0 86 b4 4e 3e ac b2 93 3e 71 54 a1 be aa fd d6 3e
       0.20186052 0.28847253 -0.31509736 0.41990405
0001c0 d4 d1 f9 be 70 a0 cb 3e 30 f1 08 3d bd 43 6c be
       -0.487929 0.39770842 0.03343314 -0.23072715
0001d0 8c 6f 28 bd 43 d3 b9 3e 47 e6 ca 3e 2e 42 18 3e
       -0.041122004 0.36293992 0.39628813 0.14868996
0001e0 18 8d d2 3e 08 73 bf bd 7c 35 6c be 0e d3 b6 be
       0.4112327 -0.09348112 -0.23067278 -0.35707897
0001f0 aa ce f3 3e 8b 3e 94 3e f5 ec b9 3c 3e 3a a6 3e
       0.4761861 0.28953966 0.022695998 0.3246631
000200 75 73 68 bd 91 bf c9 3e 40 ab a3 bd 4f ac 7f 3e
       -0.056750733 0.39403966 -0.07991648 0.24968074
000210 cc 7a d8 3e 91 a7 d1 3b 7d 43 cf 3e d8 2e 8d bc
       0.42281187 0.0063981493 0.40481177 -0.01723425
000220 5f df ab 3d 4c 1c ec 3e 8f c8 7c be c1 34 3a be
       0.08392214 0.4611534 -0.24685882 -0.18184187
000230 60 1b 03 3d 52 d5 d8 be b0 68 14 be 20 5a cd 3d
       0.03200853 -0.4235025 -0.1449306 0.100269556
000240 fd cc cb 3e b6 c2 cf bc 6a 73 fa 3e de f5 9d 3e
       0.3980483 -0.0253614 0.4891618 0.30851644
000250 8f 65 34 3e 6e 99 90 3e 8b 81 d0 be 63 34 e9 3e
       0.17616867 0.28242058 -0.40723833 0.4554778
000260 a0 85 6d 3d a0 76 4b be c6 1f 92 3d 98 fc ca bd
       0.057988763 -0.1986947 0.071349666 -0.0991146
000270 38 13 c4 3d e2 47 fa 3e 52 86 16 3e 81 51 29 3e
       0.09573978 0.48882967 0.14699677 0.16534998
000280 0a 3e cb bb 51 2d aa 3e c5 6a 1f 3e 11 35 da be
       -0.006202464 0.332377 0.15568073 -0.4261861
000290 82 86 ae 3e 40 ef cf be 28 2f cf bd c0 da ea 3d
       0.34086996 -0.4061222 -0.10116416 0.114675045
0002a0 06 54 ad be 82 ec b6 be 42 75 16 3e b0 b8 fd bd
       -0.33853167 -0.35727316 0.14693168 -0.12388742
0002b0 a9 03 bd be 17 01 c6 3e c3 32 9a 3e 14 3b 02 3e
       -0.36916855 0.38672706 0.30116853 0.12717849
0002c0 3d 2c 14 3e cf e6 fc 3e 6c ee c6 be 2c ad 8f be
       0.1447 0.49394843 -0.38853776 -0.28061807
0002d0 eb 2c 86 3e 45 f8 93 3d a8 8d 4f be d9 ed 0f be
       0.26206145 0.07225088 -0.20268881 -0.14055575
0002e0 99 c2 a9 bd a8 c4 88 3e 19 ae 45 be ea 5c 04 be
       -0.0828907 0.26712537 -0.19304694 -0.12926069
0002f0 df 7b 58 bc 29 53 19 3d 26 ba 20 be 93 16 fb bd
       -0.013213127 0.037432823 -0.1569601 -0.12260165
000300 fa 86 8a 3e 0a d2 c0 be fc 32 db be 80 0c 36 3d
       0.27056104 -0.37660247 -0.42812335 0.044445515
000310 f9 5d d2 3e ce 77 1f 3c 27 ef d2 be 2b 34 8a be
       0.4108732 0.0097331535 -0.41198084 -0.26992926
000320 c2 4b ef be 70 d1 21 3e b8 f4 a8 be 4e 82 85 be
       -0.46737486 0.1580255 -0.32999206 -0.26075977
000330 f1 08 27 be 3d 5f 84 3e 19 fc 99 3b 79 e3 02 3e
       -0.16312005 0.2585391 0.004699242 0.12782086
000340 ee 7e 1a 3e ee d2 0a be bc e7 97 3e 70 b8 07 bf
       0.15087482 -0.13557026 0.29668987 -0.53015804
000350 1b 39 b9 3e 1b 1a c0 3e 65 1b 21 bd 56 4c e2 bd
       0.3617638 0.37519917 -0.039332766 -0.11049716
000360 1e 8f c5 3e 29 d7 e7 be f0 3a 8a 3e 10 95 35 be
       0.38585752 -0.45281342 0.2699809 -0.17732644
000370 80 d1 17 bd 00 19 9d bd 60 b8 8e be 78 22 bd be
       -0.03706503 -0.07670784 -0.27875042 -0.3694036
000380 dc 4f 2d be 9e 56 82 be 28 c6 d5 bd 40 b8 47 3e
       -0.16924995 -0.2545671 -0.10438186 0.1950388
000390 18 d8 aa be 3c bd 1e be 17 7a 5a 3d a0 e9 6c be
       -0.3336799 -0.15501875 0.05333909 -0.23135996
0003a0 47 48 91 3e 65 e0 69 3e 09 19 d0 3d ef 84 5b be
       0.28375456 0.22839506 0.10161025 -0.21437429
0003b0 d8 a4 e4 3d 07 50 66 be 6e ad e2 3d 43 f2 c5 3e
       0.11164254 -0.22491466 0.11068235 0.38661394
0003c0 63 06 f3 bd e9 be 53 3e d6 e0 ad 3e 8c bb 0c 3f
       -0.118664525 0.20678295 0.339606 0.54973674
0003d0 7e f3 9d be f8 59 d6 be 66 59 ad be 00 e0 79 3a
       -0.30849832 -0.41865516 -0.33857268 0.0009531975
0003e0 4f 4b e2 be 56 28 80 3e aa d3 e4 be 0b ca cb bd
       -0.4419808 0.25030774 -0.44692737 -0.09950646
0003f0 0d 28 9e be 6c 14 4d 3e 66 61 9a 3d 8b 49 80 3e
       -0.3088993 0.20027322 0.075381085 0.2505611

fc1.bias f4 [128]
000000 bf fe be be b6 73 ff 3e de 38 e4 be f0 47 06 bd
       -0.3730373 0.49892968 -0.44574636 -0.03278345
000010 60 44 9b be 50 f9 a6 3e db 60 8d 3c b1 c4 19 be
       -0.30325603 0.32612085 0.017258098 -0.15016438
000020 4d 2f a3 be 95 e7 32 be c1 03 56 3d b3 5c 56 be
       -0.31872025 -0.17471154 0.052249674 -0.209338
000030 0b 1b 03 3f 26 1a 41 3e ed e8 9c be a2 ce 9f be
       0.5121314 0.18857631 -0.30646458 -0.31212336
000040 ba 3f f4 be ea 64 f2 3e a0 f6 f1 3d af 98 e8 3e
       -0.4770487 0.47342616 0.11814618 0.45428988
000050 0e 17 6e be f4 b7 86 be e4 4c 85 be 0f d7 25 3e
       -0.23250982 -0.2631222 -0.26035225 0.1619532
000060 0c 88 f5 be 20 08 a9 3e c7 ab 20 be bd 60 36 be
       -0.47955358 0.3301401 -0.15690528 -0.1781034
000070 6a 79 f3 3e ce b1 82 be 80 90 b1 bd 47 de d4 3e
       0.4755357 -0.2552628 -0.08670139 0.41575834
000080 1d 92 72 3e 8a 11 39 3e d5 c8 02 3f c8 ea 88 3d
       0.2368855 0.18073097 0.51087695 0.06685406
000090 5e 2c eb be 2d 86 db be 6f 99 6c be fa a9 f0 be
       -0.45932287 -0.42875805 -0.23105405 -0.47004682
0000a0 b8 2e f2 3b 28 0b 3a be 3d 2f 23 be 77 5d b5 3e
       0.007390823 -0.18168318 -0.15935989 0.3542287
0000b0 f6 d0 e8 be 08 35 04 3f ee 86 54 3e c7 e5 d6 3e
       -0.45471925 0.5164342 0.20754597 0.4197218
0000c0 56 54 90 be cb 34 84 be 40 70 99 be 6f d2 f6 be
       -0.28189343 -0.25821528 -0.29968452 -0.48207423
0000d0 7f 8f f9 3e 03 d8 9e be 42 7d 90 3d 36 1b a8 be
       0.4874229 -0.3102418 0.07055141 -0.3283326
0000e0 00 bf 54 3e 45 f3 13 be 34 ab 88 3e 11 f5 54 be
       0.20775986 -0.14448269 0.26693118 -0.2079661
0000f0 05 77 d1 3e 74 e0 e6 3e 19 12 87 be 48 81 f4 3e
       0.40911117 0.4509312 -0.26380995 0.47754884
000100 46 a3 b9 be 82 16 ab 3d 77 07 37 3c e1 6e 87 3e
       -0.3625738 0.083539024 0.011171213 0.2645178
000110 30 c9 d2 3e b8 a4 bb be 21 ea 7f be 5a 0a a6 be
       0.4116912 -0.36649108 -0.24991657 -0.32429773
000120 00 28 da 3d 58 df 4c 3e 32 e1 34 be fe b9 c8 3e
       0.10652161 0.20007074 -0.1766403 0.392044
000130 08 ef ba 3e 7a a2 e7 3e a7 53 b0 bd fb 15 60 bc
       0.3651049 0.45241147 -0.086097054 -0.013677116
000140 e8 d9 e8 3e 0f f3 92 be e4 0b 31 3e 99 c8 2c be
       0.4547875 -0.28701064 0.17289692 -0.16873397
000150 ce 75 b9 3e 78 72 55 bb d0 61 92 3e b0 70 0d bd
       0.3622269 -0.003256945 0.2859025 -0.034531295
000160 e7 a3 07 3e 7c d6 67 be 1a 8a 7e 3d 0b dd 26 3d
       0.13246118 -0.22640413 0.062143423 0.040738147
000170 e3 1c a1 3e ba b4 94 bd 4a f1 b8 be 35 60 5b bd
       0.3146735 -0.07261033 -0.3612159 -0.053558547
000180 e2 09 9f be 08 e0 d7 3e 28 60 ad bd 60 e6 ec 3c
       -0.31062227 0.4216311 -0.08465606 0.028918445
000190 50 8e 97 3b c0 22 9b 3d 63 d2 cd 3e b4 77 5e 3e
       0.0046251193 0.075749874 0.40199575 0.2172535
0001a0 56 fc fc be c6 50 d5 3e 98 b4 db be 32 6a 6a be
       -0.49411267 0.41663188 -0.4291122 -0.22892073
0001b0 8f 21 28 3d 5a 0d 9c 3e 16 72 d3 be 88 f4 91 be
       0.04104763 0.30478936 -0.41297978 -0.28506875
0001c0 77 7c f2 be e0 10 9e bc a7 79 71 3e d9 99 4a 3e
       -0.47360584 -0.019295156 0.23581563 0.1978525
0001d0 aa 0a fd be 6a 6e a0 be 40 73 70 3c 76 6c d7 be
       -0.494222 -0.3133424 0.014675915 -0.42074937
0001e0 03 8d 5e 3e b8 70 5d be dd 4c eb 3e 76 b0 24 bd
       0.21733479 -0.2162503 0.4595708 -0.04020735
0001f0 15 bc c8 be 61 58 a0 3e 23 ea c3 3e ee fa 6d 3e
       -0.39205995 0.31317428 0.3826457 0.23240253

fc2.weight f4 [64, 128]
000000 0f 45 85 bd 19 90 52 bd 29 24 b6 ba 4f b9 91 3d
       -0.065073125 -0.051406953 -0.0013896275 0.07115423
000010 30 49 25 3d ae a6 80 3d 23 cf 41 3c 24 fa b5 bd
       0.040353 0.062817916 0.01182917 -0.08885601
000020 24 19 fc bb 76 4a 9f 3d d5 5f 15 bd 32 07 9e 3d
       -0.0076934267 0.07777874 -0.036468346 0.07716216
000030 a8 d9 c7 bd 71 43 b1 bd 8d c7 55 3d 34 27 9e bd
       -0.097583115 -0.086554416 0.05219226 -0.07722321
000040 3c e5 61 bd 78 1e 14 3d ec fd 88 bd a3 ed 0d bd
       -0.055150256 0.03616187 -0.06689057 -0.034650456
000050 be f6 9d bb a1 89 81 3b 44 d7 53 bd b8 ce 2c bd
       -0.0048206737 0.003953174 -0.051718965 -0.04218933
000060 03 c9 82 bd 01 d8 5e 3d 00 45 05 3b 2f ae 92 3a
       -0.06385996 0.054405216 0.0020335317 0.0011190827
000070 a8 55 ad bc 31 d8 c2 bc b0 f1 be 3b 12 64 82 bd
       -0.021159008 -0.023784729 0.0058271512 -0.06366743
000080 0d 73 b6 bd cf 38 5f bb 17 e6 99 bd fb 79 8d bd
       -0.08908663 -0.003406096 -0.07514589 -0.069080316
000090 19 45 73 3c 23 d3 93 3d bc 6c 90 3c 81 76 6e bc
       0.014848017 0.072180055 0.017629974 -0.014554621
0000a0 b6 55 ae 3d 80 6a 11 ba 80 18 c4 bc 96 25 75 3d
       0.08512442 -0.0005547181 -0.023937464 0.059850298
0000b0 ff e1 78 bc 60 2d 0c 3b 64 bd 9e bd b0 7d 07 bd
       -0.0151906 0.002138935 -0.07750967 -0.03307885
0000c0 24 25 18 bd d5 80 a6 3d f3 57 85 bd a1 13 9e 3d
       -0.037144795 0.081300415 -0.065109156 0.07718588
0000d0 b3 f6 69 3d b6 74 63 bd 59 b3 8b bd 53 48 a8 bd
       0.057120036 -0.055531226 -0.06821317 -0.0821692
0000e0 1c 89 ec bc 02 fa d5 3c 0d 1d 93 bd d2 3f 2b 3c
       -0.028873973 0.02612019 -0.07183275 0.010452228
0000f0 15 a1 a0 3c 95 5e 8b 3d 80 5f c4 3b f7 03 0f bb
       0.01960806 0.068051495 0.00599283 -0.0021822432
000100 0d a7 8f 3d 52 b7 b5 bd 43 bb a8 3d 69 9e a2 3d
       0.07014284 -0.08872856 0.08238842 0.079403706
000110 a0 93 7f bc 93 ab 17 3d 06 d7 15 bd 78 9b 2f 3c
       -0.015599161 0.03702886 -0.036582015 0.010718219
000120 af 63 83 bd da 6c 2f bd 47 63 06 3d c8 67 5b 3c
       -0.064154975 -0.04282842 0.032809522 0.013391443
000130 06 85 e3 bc 54 4f ab bd d8 47 87 bd 38 1f 05 3d
       -0.027773391 -0.0836474 -0.066055 0.032500476
000140 3e 55 a6 3d e6 9f 9d bd 94 e0 8c bd 79 1f 6e bd
       0.081217274 -0.07696514 -0.068787724 -0.058135483
000150 28 71 37 3c 21 b3 df bc 84 29 ec 3c 4f d7 85 3d
       0.011196412 -0.027307095 0.02882839 0.065352075
000160 0c cc 3a bd ed ad 53 3d d0 58 68 bc 8b 8f 8f bd
       -0.04560475 0.05167954 -0.014181331 -0.070098005
000170 ce 89 41 bd 50 59 ac bd 95 ab 89 3d 28 23 92 bc
       -0.04725056 -0.084154725 0.0672218 -0.01783903
000180 aa ee 7d 3d 33 31 69 3d 08 4d c5 3c 4d 80 b2 bd
       0.061995186 0.056931686 0.024084583 -0.08715878
000190 5b 0a 76 3d 9f c6 3a 3d 0e c6 a1 bd 70 1d 6f bd
       0.06006847 0.045599576 -0.07899104 -0.058377683
0001a0 54 75 26 bc 68 a5 0a bb 64 25 49 3d 01 7b be 3a
       -0.010159809 -0.0021155719 0.049107924 0.0014532508
0001b0 d2 5a a4 bd 40 9a be bb c7 9e b8 bd c4 95 dd bc
       -0.08025135 -0.005816728 -0.090146594 -0.027048953
0001c0 6a 2f f0 bb 9a 63 61 3d 03 9c ab 3d cf df a3 bd
       -0.007329871 0.055026628 0.08379366 -0.080016725
0001d0 a8 39 81 bc 81 34 bc bc e0 b0 6e bd 33 4f 5a bd
       -0.015774563 -0.022974255 -0.05827415 -0.053298187
0001e0 06 43 0b 3c 9a bc 8c 3b a2 bb 76 bd 7b 50 5e 3d
       0.008499866 0.004294944 -0.060237534 0.05427597
0001f0 64 36 66 bd 15 61 5f 3c ce 6b cf bc 97 5a 03 bd
       -0.056204215 0.013633986 -0.02531996 -0.032068815
000200 0f ba 65 bc c8 d4 3c bd 46 02 6e bd 53 bf 9e 3d
       -0.014021411 -0.04610136 -0.058107637 0.07751336
000210 86 fe 4c bc 28 8f 9b bd 45 03 1e bd 3c 4a 60 3b
       -0.012511855 -0.07595664 -0.038577337 0.0034223935
000220 b6 a8 67 3d 16 9c 9b 3d e7 ca a0 bd 57 74 80 3d
       0.05655738 0.075981304 -0.078512006 0.0627219
000230 ec 6c bf 3a b1 c8 2e 3d db 6c a4 3d 66 a6 10 3d
       0.0014604605 0.042671863 0.08028575 0.03531494
000240 e0 33 8f 3b b9 df 37 bd ec 76 9c 3c 57 ac 8b 3d
       0.0043701977 -0.044891093 0.019099675 0.068199806
000250 6c 46 56 3d 45 95 81 3d f8 1d 77 3c 3c e9 0e 3d
       0.052313253 0.06327299 0.015082829 0.0348904
000260 58 74 93 3d 63 3f ae bd 7d d1 48 3d 60 e8 b1 bd
       0.07199925 -0.08508184 0.04902791 -0.086869
000270 2c a6 99 3c e4 c8 97 3d f8 3d af bc 15 0c 90 bd
       0.018755995 0.07411364 -0.021391854 -0.070335545
000280 0f 0e 1e 3a 72 18 30 bc 3d 76 54 bc 16 6e 32 3d
       0.00060293166 -0.010748016 -0.012967643 0.043562017
000290 bb f1 1f bd d6 12 52 3d ee 0d b8 bb d2 55 66 3b
       -0.03904889 0.051287495 -0.005616895 0.0035146368
0002a0 32 69 24 bd ee 24 59 3d d1 22 15 bd 83 8f 25 3d
       -0.040139385 0.053013735 -0.036410157 0.040420067
0002b0 37 0f be bc 5a 52 88 3c ad 85 91 bd ed 48 a3 3c
       -0.023200614 0.01664083 -0.07105575 0.019932235
0002c0 35 2a 06 bd 4e 4e 51 bd f4 2b 94 bc c2 4b 90 3c
       -0.032755096 -0.051100068 -0.018087365 0.01761425
0002d0 96 46 3c 3d 73 15 47 3d ea cd 53 bd 75 33 88 bd
       0.045965753 0.04860444 -0.051710047 -0.0665044
0002e0 7a 71 48 3d df e3 eb 3b c0 ca de 3c 8a 52 c4 ba
       0.048936345 0.007198795 0.027196288 -0.0014978212
0002f0 d4 a0 83 bd b2 bb 28 bd 12 bc af 3d 59 db 54 bd
       -0.0642716 -0.041194625 0.085807934 -0.051967
000300 ec c6 99 3d 71 34 2b bd aa 75 bb 3c 62 3e e9 bc
       0.075086445 -0.04179806 0.022883255 -0.02847213
000310 aa 9a 10 bd fe 55 78 3d 60 9f 75 bc 3f 2a 12 bd
       -0.03530375 0.060628884 -0.014991611 -0.03568482
000320 5b 4c 85 3d 59 8d 2d 3b 4b 26 8f 3d 58 de a9 bd
       0.06508704 0.0026481955 0.06989726 -0.08294362
000330 e0 41 08 3b cd 5d 89 bb 08 23 8e 3d f7 c5 5f 3c
       0.0020791218 -0.00419209 0.069402754 0.013658038
000340 f6 95 6b bd ee e9 96 3d 53 e6 93 3d f0 03 5c 3d
       -0.05751606 0.07368837 0.07221665 0.053714693
000350 98 a3 7b 3c 2e 64 70 bc 00 f7 ee 3b e6 41 1a 3d
       0.015358828 -0.014672322 0.0072926283 0.037660502
000360 01 7a 87 bc b2 02 93 3d 15 ec 94 3d a2 34 3f bc
       -0.016537668 0.071782485 0.072715916 -0.0116702635
000370 7a 39 19 bd 14 60 99 bc aa 8c 06 3d c4 7d bb bd
       -0.03740833 -0.018722571 0.03284899 -0.09154847
000380 74 c1 8b bc 7a 16 24 bb 04 b9 e5 3c 00 98 28 38
       -0.01706002 -0.002503781 0.028042324 4.0195882e-05
000390 51 83 95 bd 90 8c 3b 3d da ba 39 bd 0e 85 19 3d
       -0.07300437 0.045788348 -0.04534421 0.037480406
0003a0 fe dc 22 bd 3e a6 5c 3c c1 5b c9 ba a0 f1 e7 3c
       -0.039761536 0.01346737 -0.0015362428 0.028313458
0003b0 36 a6 77 bd 79 cd 5f bd a1 ba 1b bc fe 77 91 bd
       -0.060461245 -0.054639313 -0.009504945 -0.07102965
0003c0 af fd 39 bd ff d5 89 3d 11 46 85 3d e8 20 2b 3c
       -0.045407947 0.0673027 0.06507505 0.010444857
0003d0 4a c4 77 3d f9 04 6a 3d 40 e9 81 bb cc e3 aa bd
       0.06048993 0.05713365 -0.003964573 -0.0834423
0003e0 a2 83 3d bd 47 29 11 bd e7 b0 ee 3c e4 a5 42 bd
       -0.046268113 -0.035439756 0.029137088 -0.047521487
0003f0 d2 6b 1a 3d 67 c5 43 bd 17 b1 a3 3d e8 4c 33 3d
       0.03770048 -0.04779568 0.079927616 0.043774515

fc2.bias f4 [64]
000000 c8 39 b7 3d 6c 2e 39 bc 79 48 67 bd dc f1 e0 3c
       0.08946568 -0.011302572 -0.0564656 0.027459078
000010 95 b3 e1 3c 17 60 fc 3c 4f 11 51 3d 69 7b 84 bc
       0.027551452 0.030807538 0.051041897 -0.016172128
000020 a9 28 74 bc 86 21 5d 3d 88 a5 5c bd c7 b8 a5 bd
       -0.014902272 0.05398705 -0.0538688 -0.08091884
000030 88 34 a4 3d 41 5f 95 3d ed 7a ae 3d 05 74 3f 3d
       0.08017832 0.07293559 0.0851954 0.046741504
000040 83 28 f3 3c fa 24 38 3d 54 d1 58 bd 61 5f 8e 3d
       0.029682403 0.04495714 -0.052934006 0.06951786
000050 08 19 8e bb a7 0a fd 3d ea 67 ff 3d cc ae a3 3d
       -0.00433648 0.123555474 0.12470992 0.07992324
000060 89 de 3e 3b f9 1e 91 3d b7 ba a5 bd 50 a9 c2 3c
       0.002912434 0.07085986 -0.08092254 0.023762375
000070 75 90 72 3d f0 e8 96 3d 57 8f da bc 9c 89 ab bd
       0.059219796 0.07368648 -0.026679678 -0.08375856
000080 23 2f 93 bc 03 fd f3 3c cf 07 ae 3d 96 3c c7 3d
       -0.017966812 0.029783731 0.08497583 0.09728353
000090 9e 1a 0d bd 33 4d e7 bc 90 f5 02 3c d9 ab c7 3c
       -0.034449212 -0.028235054 0.007993117 0.024373936
0000a0 61 9d d1 bc f3 53 af 3c 34 65 b4 bd b8 84 32 3d
       -0.02558774 0.021402335 -0.088083655 0.0435836
0000b0 6e 3e 5b bd aa 4d f8 3c 12 14 a5 3d a3 20 5c bd
       -0.053526334 0.03031047 0.08060469 -0.053742062
0000c0 48 bc a3 bd fa ba 42 3d 7a 9a 36 3d 29 40 a0 3d
       -0.07994896 0.047541596 0.044580914 0.078247376
0000d0 29 45 37 bd 2c 34 86 3d 57 30 8a 3d 90 7a 9d bc
       -0.04474369 0.0655292 0.06747501 -0.019223481
0000e0 6c 90 cf bc 88 55 91 3d ae e2 82 ba 2e 9c 48 3d
       -0.02533742 0.07096392 -0.0009985769 0.04897707
0000f0 27 0d fe 3c 58 71 a6 3d eb 84 72 bd 39 8b de bb
       0.03101213 0.08127087 -0.05920879 -0.006791499

fc3.weight f4 [32, 64]
000000 8c 4b cb 3d eb 41 c3 bc c5 e5 8f 3d 80 10 e3 bd
       0.09926519 -0.023835143 0.07026247 -0.110871315
000010 35 70 ea bd 0e 68 e3 bd f2 36 66 3d b0 2c 6d 3d
       -0.11447183 -0.11103831 0.056204744 0.057903945
000020 c3 87 ab 3d 04 2f 1a bd 13 0d 99 bd 84 86 1d 3d
       0.08375504 -0.037642494 -0.07473197 0.038458362
000030 b1 ef e4 3d 20 52 b5 bb 64 5e d5 3d 94 6a 8e bd
       0.1117853 -0.0055334717 0.10418394 -0.06953922
000040 9a ed 85 bd 2e 23 38 3d 8b 1d 5a 3d 84 41 d5 3d
       -0.065394595 0.044955425 0.05325083 0.10412887
000050 67 ca 8e bd 2d e8 df 3d b3 84 e7 bd 6d 09 d2 3d
       -0.06972199 0.10932956 -0.11304607 0.10255704
000060 35 95 fb bc c0 78 a6 3c 29 b1 8c 3c 80 1e 75 3c
       -0.030710796 0.02032125 0.01717432 0.014960885
000070 aa 6d a1 bd 51 83 cd 3c d8 02 52 bd 1c 04 05 3d
       -0.07882245 0.02508703 -0.051272243 0.032474622
000080 f1 55 d3 bd 9a 3f a5 3c b2 ad bc 3d 75 f6 71 3c
       -0.103191264 0.02017193 0.09212817 0.014768233
000090 e0 d9 b1 bb 2f 30 5e bd 00 cf 6d bd cf 99 df 3d
       -0.005427584 -0.05424517 -0.05805874 0.109180085
0000a0 2a e8 fa 3c 85 da f1 bc 60 2d 0c bc 3a 02 7c 3d
       0.030628283 -0.029523144 -0.00855574 0.06152556
0000b0 47 b6 94 bd 0a e0 97 3d 92 f6 a5 ba b7 d6 84 3c
       -0.07261329 0.07415779 -0.0012661985 0.016215665
0000c0 fc 7e 8a bd 54 c3 73 bd 24 27 07 bd 20 2b e9 3d
       -0.067625016 -0.05951245 -0.03299631 0.113851786
0000d0 59 a9 c9 3d 8f fc f4 bd 82 45 22 bd b8 2a 1a 3d
       0.098467536 -0.11962234 -0.03961707 0.037638396
0000e0 58 79 9d 3d 02 8f bf bb 8e 0c b2 3c e0 e5 3c bd
       0.0768916 -0.0058459053 0.021734502 -0.046117663
0000f0 9c 6b 99 3b b8 b2 ce bd fc 93 ad 3b e0 88 be 3d
       0.0046820175 -0.10092682 0.005297182 0.093034506
000100 dd 3c 86 bd d5 93 82 bd 7d f6 fa 3d a4 1a 2f bd
       -0.065545775 -0.06375853 0.12254045 -0.042750016
000110 ee c5 12 bd 3a c3 a2 3d bb 71 b4 bd ea 13 66 3d
       -0.03583329 0.07947393 -0.08810755 0.056171335
000120 f8 6b ab 3d 18 e3 8f bd 1d 58 52 bc 20 c3 3b bd
       0.08370203 -0.070257366 -0.012838391 -0.045840383
000130 9c ef e9 3d d8 4c da bc ad f1 b1 bb 70 2c 07 3c
       0.11422655 -0.02664797 -0.0054304213 0.008250341
000140 78 81 e0 bd 27 64 8b bd 4a f0 27 bc 50 96 a2 bc
       -0.10962194 -0.06806212 -0.0102501605 -0.019847065
000150 e2 34 b2 3d 62 b4 a9 3d 37 71 ee bc 0c eb 83 3c
       0.08701493 0.082863584 -0.02910672 0.01610329
000160 a5 6f b1 3c 94 6f 4d 3d 9e c5 4e bd 82 20 de 3d
       0.021659682 0.050155237 -0.05048143 0.10846044
000170 2f ea 03 3b b1 ff a7 3b 95 ca 5d bd 4b 07 48 3d
       0.0020128598 0.0051269163 -0.054148275 0.04883508
000180 36 64 b7 bd 78 d0 b4 bc aa ee 24 bd 29 da 06 bd
       -0.089546606 -0.022072062 -0.04026667 -0.032922897
000190 d0 bc 39 3c be e0 3e bd 2c 48 df bd 7d c3 94 3d
       0.01133652 -0.04660105 -0.109024376 0.07263849
0001a0 c5 9e b2 3d fc c8 8c 3d e4 8c 9b 3d 3a 6a 6c bd
       0.08721689 0.06874272 0.07595232 -0.057718493
0001b0 73 f2 dc 3d 13 68 15 3d 61 01 e2 3d ec 0e a2 3d
       0.10788431 0.036476206 0.11035419 0.07913002
0001c0 c6 77 c4 3c 34 d6 f3 3d 18 f8 82 3d 57 ee 90 3b
       0.023982894 0.119060904 0.063949764 0.0044229436
0001d0 da f2 cf 3d 23 97 32 3d c2 19 b5 3d 7a 79 ed 3d
       0.10153742 0.043601166 0.088428035 0.115954354
0001e0 64 22 4f 3d e1 b0 53 3d 87 27 ae 3d d8 93 8e bd
       0.050569907 0.051682357 0.08503633 -0.06961793
0001f0 bb ea 9f 3d 82 7f 56 bd 21 11 ed 3d 2b dc 95 3d
       0.07808443 -0.052367695 0.11575533 0.07317384
000200 38 6f ba bd 2c 4f bf 3d 73 b6 ec 3c a7 42 b8 3d
       -0.091032445 0.09341273 0.028895592 0.08997088
000210 f3 fc e8 bd 30 b2 c5 bc 5f bb db 3c e5 93 91 bd
       -0.11376371 -0.024132818 0.026822744 -0.07108287
000220 a6 89 f8 3d 08 32 96 3d 55 15 a7 bd f6 7b fd bd
       0.12135629 0.073337615 -0.08158366 -0.12377159
000230 10 bc bc 3d 58 b6 99 3d 88 f7 cc bc e1 d4 ab bd
       0.092155576 0.075054824 -0.025020376 -0.08390213
000240 a4 9e d3 bc 1e a9 e0 bd f5 9e 26 bc c8 cb ea 3d
       -0.025832482 -0.109697565 -0.010169734 0.114646494
000250 8d 6e bb 3d 0c dd bc bb d4 63 fd 3c d0 75 05 bd
       0.09151945 -0.0057636555 0.03093139 -0.032583058
000260 db dd be 3d e0 ad d1 3d 51 27 0a 3d fc 30 b7 bd
       0.09319659 0.10238242 0.0337289 -0.0894489
000270 6c 77 e5 bd 19 e2 e4 bd b4 de 0c bd 66 f4 51 3d
       -0.112044185 -0.11175937 -0.034392074 0.051258467
000280 37 c0 ac bd e7 db 2a 3d 70 2b 61 3c d7 b7 84 bd
       -0.084350996 0.04171362 0.013743266 -0.06480377
000290 b6 f8 df 3d 00 60 e9 38 f6 23 d8 3d e9 7c 43 3d
       0.1093611 0.00011128187 0.10553734 0.047726545
0002a0 f6 70 ca 3d 5e b0 da bd 20 1b 3d bc 4e 5e ee 3d
       0.09884827 -0.106781706 -0.011542112 0.11639081
0002b0 30 c8 12 3d 48 d9 a3 3d 1d ee e2 3d 41 6b 0a bd
       0.035835445 0.080004275 0.11080573 -0.03379369
0002c0 19 a7 23 bd c4 3d a9 3d 98 c4 a2 3d 50 79 c1 bb
       -0.03995428 0.08263734 0.079476535 -0.005904354
0002d0 e3 f3 15 bd 05 c8 bf bd ff 0d fb bc 98 26 78 bd
       -0.03660954 -0.093643226 -0.030646322 -0.06058368
0002e0 dc 3f ba bd 56 39 83 3c bb a2 10 bd 00 9b ab bb
       -0.090942115 0.01601855 -0.035311442 -0.0052369833
0002f0 cf 0c dc bd 3d 33 05 3d c2 8f 30 3d 36 4e 26 3d
       -0.107446305 0.032519568 0.043105848 0.04060193
000300 cd 93 9f bd 63 6b a6 bd 74 72 ae bc 7a b5 ca bd
       -0.07791863 -0.08125951 -0.02129481 -0.09897895
000310 cd 3b 4b 3c dc 71 06 bd c7 00 63 bb d2 27 93 bd
       0.012404394 -0.03282343 -0.0034637915 -0.071853295
000320 6a a7 f1 3d 8c 30 7b 3d ed 53 e5 3d b8 1e d9 bc
       0.1179951 0.061325595 0.11197648 -0.026503906
000330 0e 6e e4 3c d2 84 f9 3d c4 2b af bd 70 11 b1 bd
       0.02788451 0.121835366 -0.085532695 -0.08645904
000340 59 9b 2f 3c 2b eb 7c bd 95 c6 46 3d e2 a0 f0 bd
       0.01071819 -0.06174771 0.048529226 -0.11749436
000350 75 92 64 bd 4b 30 13 bc fc 97 f9 bd 99 3b c1 3d
       -0.055803735 -0.008983682 -0.12187192 0.094351955
000360 b6 d1 d7 bd 70 c4 55 bc b4 e2 5b 3d b0 f1 ab bc
       -0.10538046 -0.013047323 0.053682998 -0.020989269
000370 68 91 42 bd b4 ff f1 bd 34 92 b4 bd 53 96 02 bd
       -0.04750195 -0.118163496 -0.088169485 -0.03188164
000380 e6 5f 91 bc dc f5 23 3d 30 9b 4a 3c 9b 81 7f 3d
       -0.017745923 0.04002939 0.012366101 0.06237946
000390 0c ef 8e 3d ab 99 a6 3d 28 98 3c 3d 37 92 36 3c
       0.06979188 0.081347786 0.046043545 0.011143259
0003a0 77 a5 c2 3d 03 04 1e 3b c8 5f 9b 3c f4 1c d1 bc
       0.09504216 0.0024111278 0.01896657 -0.025526501
0003b0 90 22 f5 bd 8b 3a d4 bd 25 a0 c2 bd e0 7d a2 bb
       -0.11969483 -0.10362729 -0.095032014 -0.004958853
0003c0 51 2a 34 bd e0 b0 3b 3c 22 3e e4 3d 68 9f cc bd
       -0.04398567 0.0114557445 0.111446634 -0.09991342
0003d0 7b 15 ef 3c c1 46 ee 3d c2 7b f7 bc d8 2f ea bc
       0.029185047 0.11634589 -0.03021038 -0.028587267
0003e0 c0 43 c8 3b 9b cd 7c 3d b4 18 5b bd 92 e0 a5 bd
       0.006111592 0.06171952 -0.053490356 -0.08099474
0003f0 ff 8c 84 3d 52 de b6 3d cd 61 75 bd de 0f 00 3d
       0.06472205 0.08929123 -0.059907723 0.031265132

fc3.bias f4 [32]
000000 46 73 69 bc c0 51 0c 3e ba 82 99 bc f9 11 e7 bd
       -0.014248675 0.1370306 -0.018739093 -0.11282725
000010 8a 3f 90 3a 0c 55 c7 bd 35 5b 28 3e c4 28 4b bd
       0.0011005264 -0.09733018 0.16441043 -0.049599424
000020 77 33 db bd 20 cd 1c bc 63 0b 62 3c c8 6c c2 bd
       -0.107031755 -0.00957039 0.01379666 -0.094934046
000030 16 1e 05 bc 97 09 87 3d b0 65 62 3c 0a ef cf 3d
       -0.008124849 0.06593626 0.0138181895 0.10153015
000040 a8 97 d7 bc e7 0f 48 3c d5 77 14 bd 55 c2 01 bd
       -0.026317433 0.012210823 -0.036247093 -0.03167947
000050 57 c2 5e bc ef 95 ed 3d e3 f8 9b bd 85 aa 90 3b
       -0.013596139 0.11600863 -0.07615831 0.0044148588
000060 2c 08 c5 3c 4a dc 16 bd 84 2e 98 bd 64 38 e4 3d
       0.024051748 -0.036831178 -0.07430747 0.11143568
000070 44 77 57 bd 52 a1 b8 bd d5 64 2b 3d 82 1c d6 3d
       -0.052603975 -0.090151444 0.041844208 0.10454656

fc4.weight f4 [6, 32]
000000 1f b8 fd bd 3a 52 db 3d a9 6b c4 bd c9 11 2e be
       -0.12388634 0.10709043 -0.09590847 -0.16998972
000010 b1 14 8a bd 6a 7e 03 3d 9a e3 07 be 2c 89 60 3d
       -0.06742228 0.03210298 -0.13270417 0.054818317
000020 6c a0 2f 3e 5e 8c bc 3d 54 98 2e 3e b5 b9 d0 3d
       0.1715104 0.092064604 0.17050296 0.10191671
000030 74 b5 94 3d 1d 62 26 bd 12 28 bd 3d 26 a5 ee 3d
       0.07261172 -0.040620912 0.092361584 0.11652593
000040 04 ab 6b bd 82 63 07 be 22 5d 33 3d 75 34 13 3e
       -0.05753614 -0.13221553 0.04378999 0.1437548
000050 a1 bd b4 bd df 8d 4c 3d ea 7b 4c 3d ad 32 69 bd
       -0.08825231 0.049939986 0.04992286 -0.056933094
000060 60 75 23 be 67 59 2c 3e b9 f7 2e be 50 df 71 3c
       -0.15962744 0.1683098 -0.17086686 0.0147627145
000070 e8 8e 07 be cd 8a 86 bd 00 91 13 be 0e 5e 95 3d
       -0.13238108 -0.06569443 -0.14410782 0.0729333
000080 0e 6e 71 bc f3 68 cd 3d fe be a2 bd 61 73 17 3e
       -0.014735712 0.10029783 -0.07946585 0.14790107
000090 12 1e d1 bd 69 ba f9 3d 85 6b fa bd 66 0f 2e be
       -0.102108136 0.12193758 -0.12227539 -0.16998062
0000a0 ea 68 ee 3b 84 08 2e be 1d 52 d0 bd ee 59 23 be
       0.0072756903 -0.16995436 -0.10171912 -0.15952274
0000b0 5f 43 30 bd 86 09 5e bd 61 8e 26 be cc a8 30 3d
       -0.043033 -0.0542083 -0.1626525 0.043129727
0000c0 52 2a 26 be a1 9f 3c 3c 29 2b 52 3d aa 2a f6 3d
       -0.16227081 0.011512668 0.051310692 0.12019856
0000d0 1c c8 ab bd d2 7d e2 3d c5 1d 10 be 79 5a c3 bd
       -0.08387777 0.110591546 -0.14073856 -0.09538741
0000e0 3c 02 bc bd 0b 24 c1 bd a8 bc bb bd a2 24 92 3d
       -0.09180114 -0.09430703 -0.09166843 0.071358934
0000f0 52 3f 9f 3d e6 0f 67 bb 0e e6 8e 3d 40 7d 05 bd
       0.07775749 -0.003525728 0.06977473 -0.03259015
000100 0a 0d 18 bd 27 84 f4 bd 03 4b ac bd b5 89 07 bd
       -0.03712181 -0.119392686 -0.08412745 -0.033090312
000110 e6 92 b3 bb e3 93 1c 3e 6c 9d 0b 3e b0 3c 73 3c
       -0.005480158 0.1529079 0.1363427 0.014846012
000120 35 89 1c 3e d3 b3 d3 bd 76 00 a8 bd 9e 16 95 3d
       0.15286715 -0.10337033 -0.08203213 0.072797045
000130 c8 ba ae bd 80 8d 38 be a0 1d 14 be 78 7d 4b 3d
       -0.085317194 -0.18022728 -0.14464426 0.049680203
000140 fe 19 bf 3d 13 4b 02 be 92 14 cc 3b 88 13 17 3b
       0.093311295 -0.12723951 0.006228038 0.0023052413
000150 52 20 f9 bc ca 26 ac 3c e8 e5 4b bd e8 b7 9f bd
       -0.03041092 0.02101459 -0.049779803 -0.07798749
000160 1b ca c1 bd 23 8d ba 3d dc d0 3f bd c2 d0 ef bd
       -0.09462377 0.09108951 -0.046830043 -0.11709739
000170 a0 ca a9 bd 09 b9 e7 bd 0d b8 f8 3d 46 6a f1 3d
       -0.08290601 -0.113145895 0.1214448 0.11787848
000180 dd 2d ea bd f0 e0 09 3e 91 d8 31 3d 03 64 e0 3d
       -0.11434529 0.13464713 0.043419424 0.10956576
000190 05 eb d4 3d 92 1b 9f 3d 1e 82 09 be 0b 92 a8 bd
       0.10396389 0.077689305 -0.13428542 -0.082309805
0001a0 21 86 fb bd 8a 78 a7 3d 3f 0c 05 3e 93 85 25 be
       -0.122814424 0.08177288 0.12992953 -0.16164236
0001b0 8d fc aa 3d 0f 0d a0 bd e4 eb 88 3d f6 28 c2 3d
       0.083489515 -0.07814991 0.066856176 0.09480469
0001c0 86 a7 c1 bd fc db b1 3d 15 61 1a be df 82 2c 3c
       -0.09455781 0.08684537 -0.15076096 0.010529249
0001d0 65 8f d2 3d 1c 22 1e be 81 35 49 bc 7a f3 05 3e
       0.102812566 -0.15442699 -0.012280823 0.1308116
0001e0 1d 63 1c 3d ce ad e5 3c 20 6e ab 3c 59 fd 10 3e
       0.03818046 0.028036978 0.020926535 0.14159144
0001f0 ba 96 9c 3d 33 13 88 3b 18 86 21 3d b6 d4 fe 3d
       0.07645936 0.0041526794 0.039434522 0.12442915
000200 47 09 c8 3d 2f 6f 01 be 54 9e 25 be 3a 23 c0 3d
       0.097673945 -0.1264007 -0.16173679 0.09381719
000210 0f 62 17 be 24 1f 12 3e 52 20 5e 3d e2 89 db bd
       -0.147835 0.14269692 0.05423004 -0.107196584
000220 4d 60 52 bd 61 5b 1c 3e 02 f5 e6 3d 50 99 b9 bd
       -0.05136137 0.15269233 0.112772 -0.09062445
000230 a5 10 e3 3d bb e8 c3 bd 73 97 27 3e aa e8 ad 3d
       0.11087159 -0.09565874 0.16366367 0.08491643
000240 d4 0f b0 3d 7a 8e 1d be 41 da 0c be be 3a e8 3d
       0.08596769 -0.15386382 -0.13755132 0.11339329
000250 fb d1 22 3e 9f f8 04 3d 2b 30 c8 3d c2 3b 26 be
       0.15900414 0.032463666 0.09774812 -0.16233733
000260 f7 3d b5 3d 91 b1 6d bd 50 75 28 3c d3 c8 e0 bd
       0.088497095 -0.05803067 0.010281876 -0.10975804
000270 78 c2 b3 3c a3 b8 2a 3d 11 02 1b 3e 5d 08 2e 3e
       0.021943316 0.04167999 0.15137507 0.16995378
000280 81 74 2c 3d 45 eb 27 be a6 a7 64 bd 84 bf fe bb
       0.042103294 -0.16398342 -0.055823945 -0.0077742953
000290 58 ec cd 3d 73 ca 18 be e3 fc 31 be 46 56 ae 3d
       0.100548446 -0.14920978 -0.17381625 0.08512549
0002a0 fc 09 76 bd 4d 29 22 3e 5e 8c e3 3d 9d 4a d8 3b
       -0.060068116 0.15836067 0.11110757 0.0066006915
0002b0 75 5a 9b 3c fe c8 26 3d d4 19 04 3d 8b b7 1f be
       0.018964032 0.040719025 0.032251194 -0.1559736
0002c0 b1 8a 43 3d 86 75 03 be 63 69 dc 3d 1d 72 6a 3d
       0.04773969 -0.128378 0.107622884 0.057237733
0002d0 7d b1 0e 3e 66 79 a6 bd 28 78 57 bc 30 a3 59 bc
       0.13934894 -0.08128624 -0.013151206 -0.013283536
0002e0 78 ac 43 3d 6c 0c 90 3d 17 f9 23 3e da 1c 08 be
       0.0477719 0.07033619 0.16012989 -0.13292256
0002f0 d0 0b 03 3c 67 29 ed bd f2 5d 66 3d d0 a7 7f 3d
       0.007998422 -0.115801625 0.056241937 0.062415898

fc4.bias f4 [6]
000000 85 9d 08 3e 6c 90 85 3c 89 77 01 3e 7c a8 a7 bd
       0.13341339 0.016304217 0.12643255 -0.08186433
000010 05 51 8f bd 46 3a e2 bc
       -0.06997875 -0.027615678
