src/params_data/240418_005728/337param.pt (torch, 46927 bytes, 8 tensors)

fc1.weight f4 [128, 4]
-0.08210112 0.25153676 0.44551185 0.26028138 -0.33139992 -0.46912342 -0.37744707 0.11968851
-0.13072774 0.47861552 -0.41928503 -0.15896422 -0.42814004 -0.0015295148 -0.32847863 0.32582194
-0.17958236 -0.3795783 0.18294795 0.037035584 -0.1986317 -0.19425362 0.2086391 -0.07348421
-0.22440472 -0.25217348 0.34666622 0.04311065 0.0052600503 -0.4781674 0.031069541 -0.083797514
-0.30324522 0.34304652 -0.19398305 -0.11596416 0.47128507 0.27156395 0.4235766 -0.5389596
0.09630865 -0.16996002 0.100308 -0.42664742 -0.09837673 0.40661195 -0.014918043 -0.42278188
0.029448356 0.24294506 -0.18386936 0.5396382 -0.1443967 0.22677587 -0.23880959 0.40122968
-0.18006915 -0.39848188 0.24937288 -0.008511879 0.42473787 -0.3989973 -0.1819992 -0.2422055
0.37593877 -0.15263581 -0.096120894 0.2369039 -0.47760704 -0.037899368 0.31435207 -0.43531555
0.11460668 -0.18784374 -0.08348769 0.4795326 0.36225736 -0.3573077 0.20470428 -0.13549928
0.013057008 0.19304456 0.3085427 -0.38894042 0.4340489 0.04017695 0.24367696 0.20540585
0.036964 -0.4807002 -0.47278005 -0.42937273 -0.38151056 0.3282153 0.18379779 -0.3362924
0.25440875 0.36663905 -0.24668741 0.2898745 -0.38898298 0.04598167 -0.03677271 0.53355443
-0.14863433 -0.19795504 0.2536934 0.14120725 0.20211154 0.28842562 -0.31528664 0.42066523
-0.48898447 0.39739487 0.03301812 -0.2296558 -0.04221058 0.36270547 0.39582518 0.15017515
0.4112327 -0.09348112 -0.23067278 -0.35707897 0.47558066 0.28967252 0.02292593 0.32641947
-0.056323208 0.3939004 -0.07990193 0.24842004 0.42326564 0.0062675835 0.40464586 -0.02020554
0.08429224 0.4610533 -0.24719608 -0.1818897 0.03200853 -0.4235025 -0.1449306 0.100269556
0.39756113 -0.025363524 0.4887713 0.30946028 0.17618737 0.282359 -0.40732273 0.45560452
0.057988763 -0.1986947 0.07266055 -0.0991146 0.09588529 0.48900065 0.14731425 0.16578707
-0.0067355996 0.33229473 0.15611337 -0.4252188 0.34086996 -0.4061222 -0.10116416 0.114675045
-0.33853167 -0.35727316 0.14789504 -0.12388742 -0.36892262 0.38679862 0.3014377 0.12561056
0.14569582 0.4941642 -0.38855487 -0.28249815 0.2628192 0.07221156 -0.20279148 -0.14183891
-0.08167793 0.2674118 -0.1925957 -0.12864475 -0.0138441585 0.037070442 -0.15742867 -0.121819235
0.27056104 -0.37660247 -0.42812335 0.044445515 0.41215685 0.011000565 -0.41075185 -0.26844305
-0.46768358 0.15813847 -0.32997602 -0.2599002 -0.1620843 0.2588232 0.0048789824 0.12966938
0.15123539 -0.13663177 0.29558402 -0.53288347 0.36121723 0.3752083 -0.038967974 -0.10818613
0.38585752 -0.45281342 0.27001277 -0.17732644 -0.03706503 -0.07670784 -0.27875042 -0.3694036
-0.16924995 -0.2545671 -0.10438186 0.1950388 -0.3336799 -0.15501875 0.053656496 -0.23135996
0.28313056 0.22828576 0.10154609 -0.21714287 0.11164254 -0.22491466 0.10939775 0.38661394
-0.11876525 0.2066302 0.339614 0.5508852 -0.30849832 -0.41865516 -0.33857268 0.0009531975
-0.44300246 0.24995129 -0.44720522 -0.10141133 -0.3090515 0.20019254 0.07521749 0.25036696
00000000: a224 a8bd 6dc9 803e 211a e43e 9a43 853e
00000010: 40ad a9be f230 f0be be40 c1be 401f f53d
00000020: 7edd 05be 180d f53e 87ac d6be 84c7 22be
00000030: 2c35 dbbe 007a c8ba 5a2e a8be 22d2 a63e
00000040: 70e4 37be 1658 c2be b556 3b3e a0b2 173d
00000050: 1c66 4bbe 6cea 46be 7da5 553e e47e 96bd
00000060: 5aca 65be e21c 81be 3c7e b13e cb94 303d
00000070: 805c ac3b 5cd2 f4be 8d85 fe3c 089e abbd
00000080: f542 9bbe cba3 af3e 7ea3 46be 9e7e edbd
00000090: 474c f13e 6e0a 8b3e 08df d83e 42f9 09bf
000000a0: 783d c53d 000a 2ebe 486e cd3d 8871 dabe
000000b0: bd79 c9bd 712f d03e cf6a 74bc de76 d8be
000000c0: ae3d f13c 97c6 783e 4048 3cbe bb25 0a3f
000000d0: bbdc 13be ef37 683e 808a 74be fa6d cd3e
000000e0: 0c64 38be d105 ccbe 9b5b 7f3e 6875 0bbc
000000f0: 3e77 d93e 6049 ccbe 005e 3abe b804 78be
00000100: 0c7b c03e 904c 1cbe 08db c4bd f096 723e
00000110: e988 f4be 5e3c 1bbd c1f2 a03e aee1 debe
00000120: e8b6 ea3d 1c5a 40be 98fb aabd 4c85 f53e
00000130: cc79 b93e 09f1 b6be 009e 513e 53c0 0abe
00000140: 10ed 553c 79ad 453e 4ff9 9d3e 3323 c7be
00000150: a83b de3e 9690 243d 7486 793e e955 523e
00000160: 9067 173d 561e f6be 3a10 f2be bed6 dbbe
00000170: 5a55 c3be d60b a83e 7d35 3c3e 842e acbe
00000180: dd41 823e 1db8 bb3e a09b 7cbe 6e6a 943e
00000190: c728 c7be 4757 3c3d fb9e 16bd 0697 083f
000001a0: 9933 18be bab4 4abe 1ae4 813e a298 103e
000001b0: 54f6 4e3e 86ac 933e 406d a1be 6f61 d73e
000001c0: 2c5c fabe 5777 cb3e 023e 073d e42a 6bbe
000001d0: 00e5 2cbd 88b4 b93e 99a9 ca3e 84c7 193e
000001e0: 188d d23e 0873 bfbd 7c35 6cbe 0ed3 b6be
000001f0: 4f7f f33e f54f 943e 29cf bb3c 7420 a73e
00000200: 2ab3 66bd 50ad c93e a0a3 a3bd d361 7e3e
00000210: 46b6 d83e 4d60 cd3b be2d cf3e 1786 a5bc
00000220: 69a1 ac3d 2e0f ec3e f820 7dbe 4b41 3abe
00000230: 601b 033d 52d5 d8be b068 14be 205a cd3d
00000240: 228d cb3e 2ac7 cfbc 3b40 fa3e 9471 9e3e
00000250: 766a 343e 5c91 903e 9b8c d0be ff44 e93e
00000260: a085 6d3d a076 4bbe 0ecf 943d 98fc cabd
00000270: 825f c43d 4b5e fa3e 8cd9 163e 16c4 293e
00000280: 4eb6 dcbb 8922 aa3e 2fdc 1f3e 47b6 d9be
00000290: 8286 ae3e 40ef cfbe 282f cfbd c0da ea3d
000002a0: 0654 adbe 82ec b6be cc71 173e b0b8 fdbd
000002b0: 6de3 bcbe 780a c63e 0b56 9a3e 0ea0 003e
000002c0: 4931 153e 1703 fd3e aaf0 c6be 99a3 90be
000002d0: 3d90 863e a8e3 933d 92a8 4fbe 383e 11be
000002e0: c246 a7bd 33ea 883e cf37 45be 73bb 03be
000002f0: 9cd2 62bc 2dd7 173d fb34 21be 5d7c f9bd
00000300: fa86 8a3e 0ad2 c0be fc32 dbbe 800c 363d
00000310: 3906 d33e b73b 343c 114e d2be 5e71 89be
00000320: 3974 efbe 0def 213e 9ef2 a8be a411 85be
00000330: 6df9 25be 7984 843e dfdf 9f3b 0dc8 043e
00000340: 73dd 1a3e 33e9 0bbe ca56 973e 0d6b 08bf
00000350: 77f1 b83e 4d1b c03e e29c 1fbd b190 ddbd
00000360: 1e8f c53e 29d7 e7be 1d3f 8a3e 1095 35be
00000370: 80d1 17bd 0019 9dbd 60b8 8ebe 7822 bdbe
00000380: dc4f 2dbe 9e56 82be 28c6 d5bd 40b8 473e
00000390: 18d8 aabe 3cbd 1ebe eac6 5b3d a0e9 6cbe
000003a0: 7df6 903e bec3 693e 65f7 cf3d b35a 5ebe
000003b0: d8a4 e43d 0750 66be ed0b e03d 43f2 c53e
000003c0: 323b f3bd de96 533e e3e1 ad3e d006 0d3f
000003d0: 7ef3 9dbe f859 d6be 6659 adbe 00e0 793a
000003e0: 38d1 e2be 3bf3 7f3e 15f8 e4be beb0 cfbd
000003f0: 003c 9ebe 46ff 4c3e a10b 9a3d 1930 803e

fc1.bias f4 [128]
-0.3729027 0.49892968 -0.44598782 -0.03278345 -0.3030969 0.32566437 0.017154707 -0.1494864
-0.3191135 -0.17445761 0.05224648 -0.20967448 0.5126726 0.18851018 -0.3060546 -0.31212336
-0.4770487 0.4735321 0.11814618 0.45391127 -0.23276721 -0.26323342 -0.26035225 0.16178957
-0.47970438 0.33042246 -0.15714303 -0.1782536 0.47512555 -0.25529832 -0.08670139 0.41603044
0.23671666 0.18044886 0.5105579 0.06685406 -0.45947286 -0.4291681 -0.22974342 -0.46977934
0.007444974 -0.18168318 -0.15839669 0.35426858 -0.45489156 0.51635504 0.20800784 0.41957584
-0.28189343 -0.25702393 -0.29947442 -0.4816135 0.4865395 -0.31017512 0.07058289 -0.3283326
0.20775986 -0.14416534 0.26661402 -0.20926027 0.40906915 0.4509312 -0.26423427 0.4774701
-0.36325026 0.083547845 0.011572888 0.2647259 0.4116912 -0.36624515 -0.24967378 -0.32429773
0.10652161 0.20064029 -0.17718147 0.392044 0.3651049 0.45221308 -0.0854077 -0.014270219
0.4549591 -0.2866215 0.17289692 -0.16869882 0.3622269 -0.0030571753 0.2859025 -0.034531295
0.13229465 -0.22663246 0.062273297 0.040975522 0.31436422 -0.07261033 -0.3612159 -0.05340661
-0.31084543 0.42165196 -0.08465606 0.028918445 0.0049809883 0.07530586 0.40231034 0.2172535
-0.4944143 0.4164971 -0.42859995 -0.22919482 0.040595707 0.30438364 -0.41304088 -0.28506875
-0.47380835 -0.019295156 0.23611043 0.19803087 -0.494222 -0.31316897 0.014675915 -0.42074937
0.21735574 -0.21684864 0.4600451 -0.04044129 -0.39173993 0.31343928 0.38243258 0.23216923
00000000: 1aed bebe b673 ff3e 8458 e4be f047 06bd
00000010: 842f 9bbe 7bbd a63e 0788 8c3c f612 19be
00000020: d862 a3be 04a5 32be 6800 563d e8b4 56be
00000030: 833e 033f d008 413e 30b3 9cbe a2ce 9fbe
00000040: ba3f f4be cd72 f23e a0f6 f13d 0f67 e83e
00000050: 875a 6ebe 88c6 86be e44c 85be 2aac 253e
00000060: d09b f5be 222d a93e 1aea 20be 1d88 36be
00000070: a843 f33e 76b6 82be 8090 b1bd f101 d53e
00000080: da65 723e 96c7 383e ecb3 023f c8ea 883d
00000090: 0740 ebbe ecbb dbbe dc41 6bbe eb86 f0be
000000a0: f8f4 f33b 280b 3abe be32 22be b162 b53e
000000b0: 8ce7 e8be d82f 043f 0200 553e a5d2 d63e
000000c0: 5654 90be a498 83be b654 99be 0b96 f6be
000000d0: b51b f93e 46cf 9ebe c38d 903d 361b a8be
000000e0: 00bf 543e 14a0 13be a281 883e 5348 56be
000000f0: 8371 d13e 74e0 e63e b749 87be f676 f43e
00000100: f0fb b9be 221b ab3d 369c 3d3c 278a 873e
00000110: 30c9 d23e 7c84 bbbe 7caa 7fbe 5a0a a6be
00000120: 0028 da3d a674 4d3e 0f6f 35be feb9 c83e
00000130: 08ef ba3e 7988 e73e 3bea aebd a3cd 69bc
00000140: 66f0 e83e 0ec0 92be e40b 313e 62bf 2cbe
00000150: ce75 b93e e45a 48bb d061 923e b070 0dbd
00000160: 4078 073e 5712 68be 4912 7f3d f3d5 273d
00000170: 59f4 a03e bab4 94bd 4af1 b8be e4c0 5abd
00000180: 2227 9fbe c4e2 d73e 2860 adbd 60e6 ec3c
00000190: 8f37 a33b f539 9a3d 9ffb cd3e b477 5e3e
000001a0: df23 fdbe 1c3f d53e 7471 dbbe 0cb2 6abe
000001b0: af47 263d 2cd8 9b3e 187a d3be 88f4 91be
000001c0: 0297 f2be e010 9ebc efc6 713e 9bc8 4a3e
000001d0: aa0a fdbe af57 a0be 4073 703c 766c d7be
000001e0: 8192 5e3e 920d 5ebe 088b eb3e c4a5 25bd
000001f0: 2392 c8be 1d7b a03e 34ce c33e c5bd 6d3e

fc2.weight f4 [64, 128]
-0.06506836 -0.051406953 -0.0014423138 0.07115423 0.04031946 0.06281455 0.01182616 -0.08889373
-0.0077002314 0.077785514 -0.03650229 0.077172555 -0.0975435 -0.08655476 0.052159928 -0.07722321
-0.055150256 0.036168955 -0.06689057 -0.034683637 -0.0048143915 0.0039558513 -0.051718965 -0.042180434
-0.06383017 0.054387726 0.0020249896 0.0011190827 -0.021147406 -0.023779077 0.0058271512 -0.06365712
-0.08907864 -0.0034015265 -0.075141855 -0.069080316 0.014849593 0.072180055 0.017596763 -0.014547112
0.08513385 -0.0005547181 -0.023971243 0.059858095 -0.015153834 0.002138935 -0.07746252 -0.03307885
-0.037144795 0.081300415 -0.065109156 0.07719251 0.057124432 -0.05552294 -0.068245925 -0.0821692
-0.028873973 0.026086127 -0.07182257 0.010419667 0.019613732 0.068051495 0.00599283 -0.0021730335
0.07014882 -0.0887281 0.08238219 0.0794074 -0.015599161 0.036994424 -0.036582015 0.010718219
-0.064154975 -0.042860795 0.032809522 0.013391443 -0.027773391 -0.08363939 -0.06604898 0.03249369
0.081224576 -0.07692128 -0.068787724 -0.0581438 0.011196412 -0.027299369 0.02882839 0.065352075
-0.04559496 0.051685978 -0.014176313 -0.07008926 -0.04723838 -0.084154725 0.0672218 -0.017831989
0.06199187 0.056944326 0.024084583 -0.08715878 0.06007629 0.045602877 -0.07897854 -0.058377683
-0.0101679545 -0.002103954 0.049107924 0.0014580078 -0.080284305 -0.005816728 -0.090146355 -0.027048953
-0.007333526 0.055026628 0.08379366 -0.08000922 -0.015774563 -0.022969985 -0.05827415 -0.053298187
0.008509966 0.0042614625 -0.060237534 0.05428181 -0.05620417 0.013633658 -0.02531406 -0.032061618
-0.01412091 -0.04610136 -0.058245856 0.07751336 -0.011811293 -0.07531557 -0.03810376 0.0041877273
0.05646023 0.07581313 -0.07780449 0.062584 0.0012607761 0.04253529 0.08096925 0.03531494
0.0043701977 -0.044814147 0.019099675 0.06889597 0.052210268 0.06300075 0.015082829 0.034818515
0.071775176 -0.08505587 0.04953784 -0.08712189 0.018676195 0.073994376 -0.021391854 -0.07058899
0.00044430097 -0.0109370565 -0.013144429 0.043562017 -0.0392146 0.05100344 -0.0049163946 0.0033543988
-0.040270913 0.053013735 -0.03570451 0.040332712 -0.023382895 0.015468073 -0.071194954 0.018599194
-0.032755096 -0.05284762 -0.0178298 0.017489558 0.046018973 0.04838883 -0.05101754 -0.0665044
0.048936345 0.007906008 0.02699793 -0.00081409473 -0.06437229 -0.041194625 0.08578223 -0.052037332
0.074969515 -0.042011883 0.02350928 -0.02863812 -0.03530375 0.061335202 -0.015239294 -0.03568482
0.06508704 0.0033352203 0.06962952 -0.08294362 0.0020791218 -0.0043714237 0.07014546 0.013632256
-0.057685386 0.073597915 0.07221665 0.054296467 0.015358828 -0.014818332 0.0072926283 0.037660502
-0.016636115 0.071589224 0.07257991 -0.011827091 -0.037615884 -0.018722571 0.03284899 -0.091521874
-0.01719374 -0.0026119435 0.028042324 4.0195882e-05 -0.073091164 0.045871206 -0.045494977 0.037480406
-0.039442126 0.013319279 -0.0018062072 0.028101873 -0.059766848 -0.05609708 -0.009473476 -0.07102965
-0.04595109 0.0673027 0.06505763 0.010167525 0.06048993 0.05706559 -0.003964573 -0.0834423
-0.047461987 -0.034740806 0.029044913 -0.047673922 0.03740008 -0.047911223 0.07986385 0.04449783
00000000: 8f42 85bd 1990 52bd 050c bdba 4fb9 913d
00000010: 0526 253d eaa4 803d 83c2 413c ea0d b6bd
00000020: 3952 fcbb 034e 9f3d 6d83 15bd a50c 9e3d
00000030: e3c4 c7bd 9f43 b1bd a6a5 553d 3427 9ebd
00000040: 3ce5 61bd e625 143d ecfd 88bd 6e10 0ebd
00000050: 0bc2 9dbb 16a0 813b 44d7 53bd 64c5 2cbd
00000060: 64b9 82bd aac5 5e3d b0b5 043b 2fae 923a
00000070: 533d adbc 57cc c2bc b0f1 be3b aa5e 82bd
00000080: dd6e b6bd 25ec 5ebb f9e3 99bd fb79 8dbd
00000090: b54b 733c 23d3 933d 1627 903c 0357 6ebc
000000a0: a85a ae3d 806a 11ba 575f c4bc c32d 753d
000000b0: c947 78bc 602d 0c3b aba4 9ebd b07d 07bd
000000c0: 2425 18bd d580 a63d f357 85bd 1b17 9e3d
000000d0: 4ffb 693d 066c 63bd 85c4 8bbd 5348 a8bd
000000e0: 1c89 ecbc 93b2 d53c b617 93bd 40b7 2a3c
000000f0: faac a03c 955e 8b3d 805f c43b 7469 0ebb
00000100: 2faa 8f3d 14b7 b5bd feb7 a83d 59a0 a23d
00000110: a093 7fbc 7787 173d 06d7 15bd 789b 2f3c
00000120: af63 83bd cd8e 2fbd 4763 063d c867 5b3c
00000130: 0685 e3bc 214b abbd b044 87bd 1a18 053d
00000140: 1259 a63d e788 9dbd 94e0 8cbd 3128 6ebd
00000150: 2871 373c eda2 dfbc 8429 ec3c 4fd7 853d
00000160: c8c1 3abd adb4 533d c443 68bc f58a 8fbd
00000170: 087d 41bd 5059 acbd 95ab 893d 6414 92bc
00000180: 30eb 7d3d 743e 693d 084d c53c 4d80 b2bd
00000190: 8e12 763d 15ca 3a3d 80bf a1bd 701d 6fbd
000001a0: 7e97 26bc 7ee2 09bb 6425 493d a01a bf3a
000001b0: 196c a4bd 409a bebb a79e b8bd c495 ddbc
000001c0: 134e f0bb 9a63 613d 039c ab3d e0db a3bd
000001d0: a839 81bc 8d2b bcbc e0b0 6ebd 334f 5abd
000001e0: 626d 0b3c bda3 8b3b a2bb 76bd 9a56 5e3d
000001f0: 5836 66bd b55f 5f3c 6e5f cfbc 0b53 03bd
00000200: 645b 67bc c8d4 3cbd 3593 6ebd 53bf 9e3d
00000210: 2784 41bc 0d3f 9abd b012 1cbd 3439 893b
00000220: d842 673d ea43 9b3d f657 9fbd 0a2c 803d
00000230: a040 a53a 7c39 2e3d 35d3 a53d 66a6 103d
00000240: e033 8f3b 0a8f 37bd ec76 9c3c 5519 8d3d
00000250: 6fda 553d 8a06 813d f81d 773c dc9d 0e3d
00000260: ddfe 923d c631 aebd 31e8 4a3d f66c b2bd
00000270: d2fe 983c 5d8a 973d f83d afbc f690 90bd
00000280: 11f1 e839 5731 33bc bb5b 57bc 166e 323d
00000290: 7d9f 20bd fce8 503d b519 a1bb 79d5 5b3b
000002a0: 1df3 24bd ee24 593d e43e 12bd ea33 253d
000002b0: 7c8d bfbc cd6d 7d3c a9ce 91bd 565d 983c
000002c0: 352a 06bd bf76 58bd cd0f 92bc 4346 8f3c
000002d0: 647e 3c3d 5e33 463d c5f7 50bd 7533 88bd
000002e0: 7a71 483d 3388 013c c32a dd3c f968 55ba
000002f0: 9fd5 83bd b2bb 28bd 98ae af3d 1925 55bd
00000300: 9e89 993d a714 2cbd 8996 c03c 7e9a eabc
00000310: aa9a 10bd 9f3a 7b3d 3bae 79bc 3f2a 12bd
00000320: 5b4c 853d b693 5a3b ec99 8e3d 58de a9bd
00000330: e041 083b 293e 8fbb 6ca8 8f3d d359 5f3c
00000340: 8347 6cbd 81ba 963d 53e6 933d f965 5e3d
00000350: 98a3 7b3c 97c8 72bc 00f7 ee3b e641 1a3d
00000360: 7648 88bc 5f9d 923d c7a4 943d 6ac6 41bc
00000370: 1d13 1abd 1460 99bc aa8c 063d d26f bbbd
00000380: e3d9 8cbc 242d 2bbb 04b9 e53c 0098 2838
00000390: d2b0 95bd 72e3 3b3d f158 3abd 0e85 193d
000003a0: 118e 21bd 1b39 5a3c 42be ecba e635 e63c
000003b0: 15ce 74bd 0dc6 65bd a336 1bbc fe77 91bd
000003c0: 3637 3cbd ffd5 893d ef3c 853d b195 263c
000003d0: 4ac4 773d 9cbd 693d 40e9 81bb cce3 aabd
000003e0: 8067 42bd 604c 0ebd 99ef ed3c bb45 43bd
000003f0: d430 193d 8f3e 44bd a88f a33d 5b43 363d

fc2.bias f4 [64]
0.089547664 -0.011458118 -0.056239553 0.027328791 0.027801167 0.03102924 0.050724328 -0.01609087
-0.014767022 0.05398705 -0.053781126 -0.08091884 0.08052616 0.07293559 0.08502012 0.046608474
0.029439185 0.04451635 -0.052605104 0.06951786 -0.0041941544 0.12367087 0.12466425 0.07979679
0.002357864 0.07085986 -0.08129409 0.023762375 0.059119463 0.07371432 -0.02603867 -0.083729446
-0.0183902 0.029573599 0.08540848 0.09764757 -0.034449212 -0.02971992 0.007993117 0.024124566
-0.025770172 0.021655718 -0.088083655 0.044422626 -0.053526334 0.029974379 0.08074073 -0.053153526
-0.079990685 0.047541596 0.044580914 0.078247376 -0.04422357 0.06553518 0.06715611 -0.019223481
-0.02533742 0.07096392 -0.00030169892 0.04897707 0.031101279 0.08129499 -0.060374282 -0.0066936254
00000000: c464 b73d d5ba 3bbc 725b 66bd a1e0 df3c
00000010: 46bf e33c 0831 fe3c 50c4 4f3d 00d1 83bc
00000020: 61f1 71bc 8621 5d3d 9949 5cbd c7b8 a5bd
00000030: e6ea a43d 415f 953d 071f ae3d 87e8 3e3d
00000040: 722a f13c c756 363d 7378 57bd 615f 8e3d
00000050: 1e6f 89bb 2747 fd3d f84f ff3d 806c a33d
00000060: 6586 1a3b f91e 913d 847d a6bd 50a9 c23c
00000070: 4027 723d 89f7 963d 0d4f d5bc 587a abbd
00000080: 0ba7 96bc 5544 f23c a4ea ae3d 73fb c73d
00000090: 9e1a 0dbd 3177 f3bc 90f5 023c e2a0 c53c
000000a0: f81b d3bc 5567 b13c 3465 b4bd 80f4 353d
000000b0: 6e3e 5bbd d48c f53c 655b a53d 83b7 59bd
000000c0: 28d2 a3bd faba 423d 7a9a 363d 2940 a03d
000000d0: c623 35bd 4f37 863d 2589 893d 907a 9dbc
000000e0: 6c90 cfbc 8855 913d 582d 9eb9 2e9c 483d
000000f0: 1cc8 fe3c fd7d a63d 064b 77bd 3356 dbbb

fc3.weight f4 [32, 64]
0.09926519 -0.025178205 0.06873181 -0.11260427 -0.1147636 -0.111528255 0.05471293 0.05642569
0.08195284 -0.037642494 -0.0760326 0.038458362 0.11055566 -0.0055334717 0.10418394 -0.07177943
-0.066662 0.043524187 0.051822472 0.10412887 -0.07108509 0.10806547 -0.113048404 0.10255704
-0.032258242 0.02032125 0.01545839 0.014960885 -0.07882245 0.02508703 -0.051272243 0.030905357
-0.104611486 0.018889487 0.09212817 0.013471307 -0.005427584 -0.05424517 -0.05805874 0.10825199
0.028891798 -0.030965406 -0.00855574 0.06152556 -0.07261329 0.07415779 -0.0027058325 0.0140425
-0.068717115 -0.05951245 -0.03299631 0.113851786 0.096842885 -0.121002555 -0.04100289 0.037638396
0.0768916 -0.0058459053 0.020353593 -0.046117663 0.003056894 -0.10243915 0.005297182 0.092143595
-0.06608863 -0.06355558 0.122841686 -0.04259926 -0.035786778 0.07957724 -0.08782937 0.05636246
0.083989635 -0.070257366 -0.012592823 -0.045840383 0.11447808 -0.02664797 -0.006412425 0.008597092
-0.10918576 -0.06781723 -0.0100152735 -0.019847065 0.08721947 0.08308684 -0.029061912 0.0150446305
0.021932883 0.050155237 -0.050252486 0.10846044 0.0020287128 0.0042406935 -0.055079903 0.049018867
-0.08927607 -0.021850573 -0.04118147 -0.03272822 0.01133652 -0.047251984 -0.109024376 0.07285463
0.08738719 0.068969056 0.07595232 -0.05869304 0.10788431 0.035434656 0.11061566 0.07984127
0.024231069 0.119060904 0.063949764 0.0044229436 0.10191061 0.043898627 0.088624075 0.115954354
0.050569907 0.051682357 0.08532253 -0.06961793 0.07836796 -0.052077655 0.11501756 0.07322486
-0.091032445 0.09341273 0.028895592 0.08997088 -0.11376371 -0.024132818 0.026822744 -0.07108287
0.12135629 0.073337615 -0.08158366 -0.12377159 0.092155576 0.075054824 -0.025020376 -0.08390213
-0.025832482 -0.109697565 -0.010169734 0.114646494 0.09151945 -0.0057636555 0.03093139 -0.032583058
0.09319659 0.10238242 0.0337289 -0.0894489 -0.112044185 -0.11175937 -0.034392074 0.051258467
-0.084350996 0.04171362 0.013743266 -0.06480377 0.1093611 0.00011128187 0.10553734 0.047726545
0.09884827 -0.106781706 -0.011542112 0.11639081 0.035835445 0.080004275 0.11080573 -0.03379369
-0.03995428 0.08263734 0.079476535 -0.005904354 -0.03660954 -0.093643226 -0.030646322 -0.06058368
-0.090942115 0.01601855 -0.035311442 -0.0052369833 -0.107446305 0.032519568 0.043105848 0.04060193
-0.07791863 -0.08125951 -0.02129481 -0.09897895 0.012404394 -0.03282343 -0.0034637915 -0.071853295
0.1179951 0.061325595 0.11197648 -0.026503906 0.02788451 0.121835366 -0.085532695 -0.08645904
0.01071819 -0.06174771 0.048529226 -0.11749436 -0.055803735 -0.008983682 -0.12187192 0.094351955
-0.10538046 -0.013047323 0.053682998 -0.020989269 -0.04750195 -0.118163496 -0.088169485 -0.03188164
-0.017745923 0.04002939 0.012366101 0.06237946 0.06979188 0.081347786 0.046043545 0.011143259
0.09504216 0.0024111278 0.01896657 -0.025526501 -0.11969483 -0.10362729 -0.095032014 -0.004958853
-0.04398567 0.0114557445 0.111446634 -0.09991342 0.029185047 0.11634589 -0.03021038 -0.028587267
0.006111592 0.06171952 -0.053490356 -0.08099474 0.06472205 0.08929123 -0.059907723 0.031265132
00000000: 8c4b cb3d 8642 cebc 43c3 8c3d 119d e6bd
00000010: 2e09 ebbd ed68 e4bd aa1a 603d a01e 673d
00000020: e4d6 a73d 042f 1abd fbb6 9bbd 8486 1d3d
00000030: 026b e23d 2052 b5bb 645e d53d 1801 93bd
00000040: 1686 88bd 6b46 323d cd43 543d 8441 d53d
00000050: 0f95 91bd 6e51 dd3d ec85 e7bd 6d09 d23d
00000060: 3821 04bd c078 a63c 3045 7d3c 801e 753c
00000070: aa6d a1bd 5183 cd3c d802 52bd 3b2d fd3c
00000080: 8c3e d6bd 20be 9a3c b2ad bc3d c2b6 5c3c
00000090: e0d9 b1bb 2f30 5ebd 00cf 6dbd 38b3 dd3d
000000a0: 7eae ec3c 2aab fdbc 602d 0cbc 3a02 7c3d
000000b0: 47b6 94bd 0ae0 973d 5654 31bb 8412 663c
000000c0: 8fbb 8cbd 54c3 73bd 2427 07bd 202b e93d
000000d0: 9055 c63d 30d0 f7bd a5f2 27bd b82a 1a3d
000000e0: 5879 9d3d 028f bfbb 94bc a63c e0e5 3cbd
000000f0: 2c56 483b 9ecb d1bd fc93 ad3b c8b5 bc3d
00000100: 7a59 87bd 6e29 82bd 6c94 fb3d 907c 2ebd
00000110: 2895 12bd 64f9 a23d e2df b3bd 53dc 663d
00000120: c202 ac3d 18e3 8fbd 2152 4ebc 20c3 3bbd
00000130: 7c73 ea3d d84c dabc 521f d2bb d1da 0c3c
00000140: c99c dfbd c3e3 8abd 1a17 24bc 5096 a2bc
00000150: 1fa0 b23d 6f29 aa3d 3f13 eebc c17d 763c
00000160: 97ac b33c 946f 4d3d 8dd5 4dbd 8220 de3d
00000170: 27f4 043b 84f5 8a3b 779b 61bd 02c8 483d
00000180: 5fd6 b6bd f9ff b2bc e7ad 28bd 070e 06bd
00000190: d0bc 393c 4c8b 41bd 2c48 dfbd cf34 953d
000001a0: 0ef8 b23d a63f 8d3d e48c 9b3d 1d68 70bd
000001b0: 73f2 dc3d ee23 113d 778a e23d d283 a33d
000001c0: 3c80 c63c 34d6 f33d 18f8 823d 57ee 903b
000001d0: 83b6 d03d 0ccf 333d 8a80 b53d 7a79 ed3d
000001e0: 6422 4f3d e1b0 533d 94bd ae3d d893 8ebd
000001f0: 627f a03d 614f 55bd 548e eb3d eaf6 953d
00000200: 386f babd 2c4f bf3d 73b6 ec3c a742 b83d
00000210: f3fc e8bd 30b2 c5bc 5fbb db3c e593 91bd
00000220: a689 f83d 0832 963d 5515 a7bd f67b fdbd
00000230: 10bc bc3d 58b6 993d 88f7 ccbc e1d4 abbd
00000240: a49e d3bc 1ea9 e0bd f59e 26bc c8cb ea3d
00000250: 8d6e bb3d 0cdd bcbb d463 fd3c d075 05bd
00000260: dbdd be3d e0ad d13d 5127 0a3d fc30 b7bd
00000270: 6c77 e5bd 19e2 e4bd b4de 0cbd 66f4 513d
00000280: 37c0 acbd e7db 2a3d 702b 613c d7b7 84bd
00000290: b6f8 df3d 0060 e938 f623 d83d e97c 433d
000002a0: f670 ca3d 5eb0 dabd 201b 3dbc 4e5e ee3d
000002b0: 30c8 123d 48d9 a33d 1dee e23d 416b 0abd
000002c0: 19a7 23bd c43d a93d 98c4 a23d 5079 c1bb
000002d0: e3f3 15bd 05c8 bfbd ff0d fbbc 9826 78bd
000002e0: dc3f babd 5639 833c bba2 10bd 009b abbb
000002f0: cf0c dcbd 3d33 053d c28f 303d 364e 263d
00000300: cd93 9fbd 636b a6bd 7472 aebc 7ab5 cabd
00000310: cd3b 4b3c dc71 06bd c700 63bb d227 93bd
00000320: 6aa7 f13d 8c30 7b3d ed53 e53d b81e d9bc
00000330: 0e6e e43c d284 f93d c42b afbd 7011 b1bd
00000340: 599b 2f3c 2beb 7cbd 95c6 463d e2a0 f0bd
00000350: 7592 64bd 4b30 13bc fc97 f9bd 993b c13d
00000360: b6d1 d7bd 70c4 55bc b4e2 5b3d b0f1 abbc
00000370: 6891 42bd b4ff f1bd 3492 b4bd 5396 02bd
00000380: e65f 91bc dcf5 233d 309b 4a3c 9b81 7f3d
00000390: 0cef 8e3d ab99 a63d 2898 3c3d 3792 363c
000003a0: 77a5 c23d 0304 1e3b c85f 9b3c f41c d1bc
000003b0: 9022 f5bd 8b3a d4bd 25a0 c2bd e07d a2bb
000003c0: 512a 34bd e0b0 3b3c 223e e43d 689f ccbd
000003d0: 7b15 ef3c c146 ee3d c27b f7bc d82f eabc
000003e0: c043 c83b 9bcd 7c3d b418 5bbd 92e0 a5bd
000003f0: ff8c 843d 52de b63d cd61 75bd de0f 003d

fc3.bias f4 [32]
-0.01522486 0.13743329 -0.018739093 -0.11282725 0.00075799914 -0.097436026 0.16438884 -0.049599424
-0.10532328 -0.00957039 0.013589932 -0.095165364 -0.0077434382 0.06555401 0.0138181895 0.10153015
-0.026317433 0.012505715 -0.036341723 -0.03167947 -0.013008345 0.11627179 -0.07585483 0.0044148588
0.02400339 -0.03700108 -0.07430747 0.11143568 -0.052603975 -0.090151444 0.041384373 0.10454656
00000000: b171 79bc 50bb 0c3e ba82 99bc f911 e7bd
00000010: 76b4 463a 8a8c c7bd 8c55 283e c428 4bbd
00000020: bbb3 d7bd 20cd 1cbc 4ea8 5e3c 0fe6 c2bd
00000030: abbc fdbb 2e41 863d b065 623c 0aef cf3d
00000040: a897 d7bc c5e4 4c3c 0fdb 14bd 55c2 01bd
00000050: f420 55bc e71f ee3d c759 9bbd 85aa 903b
00000060: c2a2 c43c 728e 17bd 842e 98bd 6438 e43d
00000070: 4477 57bd 52a1 b8bd a982 293d 821c d63d

fc4.weight f4 [6, 32]
-0.123100534 0.10733856 -0.09590847 -0.16998972 -0.067391336 0.03234132 -0.13240284 0.054818317
0.17334421 0.092064604 0.16937143 0.10213233 0.07291728 -0.040718026 0.092361584 0.11652593
-0.05753614 -0.13187645 0.044012208 0.1437548 -0.08937879 0.050094012 0.050056677 -0.056933094
-0.15942271 0.16853991 -0.17086686 0.0147627145 -0.13238108 -0.06569443 -0.14376819 0.0729333
-0.014615153 0.10039888 -0.07946585 0.14790107 -0.10190077 0.12195289 -0.12226571 -0.16998062
0.0072756903 -0.16995436 -0.10176337 -0.15958458 -0.04280197 -0.05551684 -0.1626525 0.043129727
-0.16227081 0.011523189 0.05145365 0.12019856 -0.08396474 0.11066898 -0.14076334 -0.09538741
-0.091617376 -0.094126485 -0.09166843 0.071358934 0.07775749 -0.003525728 0.069947936 -0.03259015
-0.03712181 -0.11990382 -0.08412745 -0.033090312 -0.005729704 0.15231475 0.13562036 0.014846012
0.15286715 -0.10337033 -0.080982685 0.07235172 -0.08581043 -0.1801994 -0.14464426 0.049680203
0.093311295 -0.12763193 0.005738078 0.0023052413 -0.029322263 0.020513728 -0.050330617 -0.07798749
-0.0950902 0.09060254 -0.046830043 -0.11709739 -0.08290601 -0.113145895 0.12092134 0.11787848
-0.11434529 0.1345649 0.043419424 0.10956576 0.1038673 0.07752723 -0.13444448 -0.082309805
-0.12281239 0.08177288 0.12976182 -0.1613079 0.083364844 -0.07665124 0.066856176 0.09480469
-0.09455781 0.08681574 -0.15080625 0.010529249 0.10259335 -0.15444773 -0.012394936 0.1308116
0.03811586 0.028012004 0.020926535 0.14159144 0.07645936 0.0041526794 0.03932076 0.12442915
0.097673945 -0.12625165 -0.16173679 0.09381719 -0.14757603 0.14280963 0.053976838 -0.107196584
-0.05136137 0.15269233 0.113311686 -0.09093194 0.11109036 -0.09600274 0.16366367 0.08491643
0.08596769 -0.15412265 -0.13735877 0.11339329 0.15953377 0.032501295 0.09722198 -0.16233733
0.08855895 -0.057782814 0.010281876 -0.10975804 0.021943316 0.04167999 0.15163691 0.16995378
0.042103294 -0.16394414 -0.055823945 -0.0077742953 0.10054813 -0.14906207 -0.17329699 0.08512549
-0.060068116 0.15836067 0.11138683 0.006597593 0.018882228 0.04124981 0.032251194 -0.1559736
0.04773969 -0.1278994 0.107620016 0.057237733 0.13966313 -0.08116748 -0.012446552 -0.013283536
0.047814466 0.070263214 0.16012989 -0.13292256 0.007998422 -0.115801625 0.05617008 0.062415898
00000000: 221c fcbd 52d4 db3d a96b c4bd c911 2ebe
00000010: 7804 8abd 5578 043d 9c94 07be 2c89 603d
00000020: 2581 313e 5e8c bc3d b46f 2d3e c12a d13d
00000030: a855 953d f2c7 26bd 1228 bd3d 26a5 ee3d
00000040: 04ab 6bbd 9f0a 07be 2546 343d 7534 133e
00000050: 3a0c b7bd 612f 4d3d 3b08 4d3d ad32 69bd
00000060: b53f 23be ba95 2c3e b9f7 2ebe 50df 713c
00000070: e88e 07be cd8a 86bd f837 13be 0e5e 953d
00000080: 6574 6fbc ee9d cd3d febe a2bd 6173 173e
00000090: 5ab1 d0bd 70c2 f93d 7266 fabd 660f 2ebe
000000a0: ea68 ee3b 8408 2ebe 5069 d0bd 246a 23be
000000b0: 1e51 2fbd a065 63bd 618e 26be cca8 303d
000000c0: 522a 26be c2cb 3c3c 10c1 523d aa2a f63d
000000d0: b5f5 abbd 6ba6 e23d 4424 10be 795a c3bd
000000e0: e4a1 bbbd 63c5 c0bd a8bc bbbd a224 923d
000000f0: 523f 9f3d e60f 67bb dd40 8f3d 407d 05bd
00000100: 0a0d 18bd 2290 f5bd 034b acbd b589 07bd
00000110: 3ec0 bbbb 66f8 1b3e 10e0 0a3e b03c 733c
00000120: 3589 1c3e d3b3 d3bd 40da a5bd 232d 943d
00000130: 61bd afbd 3186 38be a01d 14be 787d 4b3d
00000140: fe19 bf3d f2b1 02be 7d06 bc3b 8813 173b
00000150: 3e35 f0bc 680c a83c 7a27 4ebd e8b7 9fbd
00000160: a7be c2bd d38d b93d dcd0 3fbd c2d0 efbd
00000170: a0ca a9bd 09b9 e7bd 9ca5 f73d 466a f13d
00000180: dd2d eabd 62cb 093e 91d8 313d 0364 e03d
00000190: 61b8 d43d 99c6 9e3d d0ab 09be 0b92 a8bd
000001a0: 1085 fbbd 8a78 a73d 48e0 043e e62d 25be
000001b0: 30bb aa3d 53fb 9cbd e4eb 883d f628 c23d
000001c0: 86a7 c1bd 73cc b13d f46c 1abe df82 2c3c
000001d0: 761c d23d 8c27 1ebe 2114 4bbc 7af3 053e
000001e0: 601f 1c3d 6e79 e53c 206e ab3c 59fd 103e
000001f0: ba96 9c3d 3313 883b ce0e 213d b6d4 fe3d
00000200: 4709 c83d 1d48 01be 549e 25be 3a23 c03d
00000210: 2c1e 17be b03c 123e d116 5d3d e289 dbbd
00000220: 4d60 52bd 615b 1c3e f50f e83d 863a babd
00000230: 5883 e33d 169d c4bd 7397 273e aae8 ad3d
00000240: d40f b03d 54d2 1dbe c7a7 0cbe be3a e83d
00000250: d25c 233e 1420 053d 511c c73d c23b 26be
00000260: 655e b53d acad 6cbd 5075 283c d3c8 e0bd
00000270: 78c2 b33c a3b8 2a3d b546 1b3e 5d08 2e3e
00000280: 8174 2c3d f9e0 27be a6a7 64bd 84bf febb
00000290: 2eec cd3d baa3 18be c474 31be 4656 ae3d
000002a0: fc09 76bd 4d29 223e c71e e43d 9f30 d83b
000002b0: e7ae 9a3c 90f5 283d d419 043d 8bb7 1fbe
000002c0: b18a 433d 0ff8 02be e267 dc3d 1d72 6a3d
000002d0: da03 0f3e 233b a6bd 9fec 4bbc 30a3 59bc
000002e0: 1ad9 433d 29e6 8f3d 17f9 233e da1c 08be
000002f0: d00b 033c 6729 edbd 9912 663d d0a7 7f3d

fc4.bias f4 [6]
0.13367215 0.016283514 0.12583089 -0.08204276 -0.06987678 -0.02809239
00000000: 5ae1 083e 0165 853c d0d9 003e 0906 a8bd
00000010: 8f1b 8fbd 0322 e6bc
