src/params_data/240418_005728/35param.pt (torch, 46927 bytes, 8 tensors)

fc1.weight f4 [128, 4]
000000 b1 c5 b1 bd c0 99 81 3e d6 02 e5 3e eb 2e 9a 3e
       -0.08680285 0.25312614 0.44728726 0.3011392
000010 40 ad a9 be f2 30 f0 be be 40 c1 be 40 1f f5 3d
       -0.33139992 -0.46912342 -0.37744707 0.11968851
000020 69 c9 04 be 8c 79 f5 3e 9b da d5 be 44 16 5b be
       -0.12967457 0.47944295 -0.41768345 -0.21395212
000030 2c 35 db be 00 7a c8 ba 5a 2e a8 be 22 d2 a6 3e
       -0.42814004 -0.0015295148 -0.32847863 0.32582194
000040 70 e4 37 be 16 58 c2 be 66 dc 31 3e a0 b2 17 3d
       -0.17958236 -0.3795783 0.17369232 0.037035584
000050 1c 66 4b be d8 61 64 be 9f 1a 44 3e 53 6d 9c bd
       -0.1986317 -0.2230295 0.1915078 -0.076380394
000060 f4 e0 6b be 38 9b 75 be 51 4b b6 3e 3d f3 4d 3c
       -0.23035032 -0.23984993 0.35604337 0.0125702
000070 80 5c ac 3b 5c d2 f4 be ad c0 96 3c 08 9e ab bd
       0.0052600503 -0.4781674 0.018402422 -0.083797514
000080 ea 07 a5 be b4 ae b1 3e 21 d1 41 be 57 f5 e6 3c
       -0.322326 0.347036 -0.18927433 0.028193159
000090 10 c8 ed 3e 8a 2d 8c 3e 59 1a da 3e b1 aa f0 be
       0.46441698 0.27378494 0.42598227 -0.47005227
0000a0 78 3d c5 3d 41 06 1c be 5c fd b9 3d c4 43 d9 be
       0.09630865 -0.1523676 0.090815276 -0.42434514
0000b0 45 b8 f5 bd 47 7a d1 3e d0 1f 30 bc 60 5f 92 be
       -0.11998037 0.40913603 -0.010749772 -0.2858839
0000c0 5e a7 2a 3d 59 6c 7b 3e 59 65 3a be fc e3 ea 3e
       0.04166352 0.2455305 -0.18202724 0.45877063
0000d0 21 7d 2f be c1 9b 69 3e 98 7f 75 be 59 b4 fc 3e
       -0.17137577 0.22813322 -0.23974454 0.49356344
0000e0 0c 64 38 be 93 f7 b1 be 75 73 85 3e 80 1b a7 3b
       -0.18006915 -0.34759197 0.2606465 0.005099714
0000f0 3e 77 d9 3e 60 49 cc be 00 5e 3a be b8 04 78 be
       0.42473787 -0.3989973 -0.1819992 -0.2422055
000100 0c 7b c0 3e 90 4c 1c be 08 db c4 bd f0 96 72 3e
       0.37593877 -0.15263581 -0.096120894 0.2369039
000110 25 97 ea be 22 85 2a bd 35 a1 a0 3e 6e 00 e5 be
       -0.4581844 -0.04163087 0.3137299 -0.4472689
000120 e8 b6 ea 3d 1c 5a 40 be 98 fb aa bd 4c 85 f5 3e
       0.11460668 -0.18784374 -0.08348769 0.4795326
000130 cc 79 b9 3e ba ee b3 be a8 6e 4c 3e c0 25 19 be
       0.36225736 -0.3514307 0.19964087 -0.14955807
000140 86 61 b2 3c 64 ec 46 3e 21 b3 9d 3e fa e3 e1 be
       0.021775018 0.19426113 0.30800727 -0.44119245
000150 dc 32 d5 3e 4d be 2a 3d d1 b1 7b 3e c0 de 55 3e
       0.41640365 0.04168539 0.2457955 0.20885754
000160 90 67 17 3d 56 1e f6 be 3a 10 f2 be be d6 db be
       0.036964 -0.4807002 -0.47278005 -0.42937273
000170 1f 10 c0 be 64 aa a8 3e 85 83 39 3e dc 3c 82 be
       -0.375123 0.32942498 0.18116577 -0.25437057
000180 e4 ad 7e 3e ba 74 bc 3e a5 f1 7c be 12 79 93 3e
       0.24871022 0.36807805 -0.24701555 0.28803307
000190 d4 d3 d4 be 8a 77 1e 3d 95 93 29 bd 03 41 d9 3e
       -0.41567862 0.03868822 -0.04140051 0.42432413
0001a0 c8 6e 05 be 99 c9 50 be 95 06 7f 3e 20 b5 d8 3d
       -0.13030541 -0.20389403 0.24904855 0.10581422
0001b0 dc b2 5c 3e e2 0e 95 3e 04 3d 9f be 22 de d9 3e
       0.21552604 0.29112917 -0.3110124 0.42552286
0001c0 82 ba ee be fa aa cc 3e 2e 69 0f 3d e4 39 87 be
       -0.4662667 0.39974195 0.035012417 -0.26411355
0001d0 f0 16 a8 bc 60 1f bb 3e 24 80 cb 3e ea 21 87 3d
       -0.02051875 0.36547375 0.397462 0.065982655
0001e0 18 8d d2 3e 08 73 bf bd 7c 35 6c be 0e d3 b6 be
       0.4112327 -0.09348112 -0.23067278 -0.35707897
0001f0 3d 82 f7 3e ad 91 95 3e 1a 52 d3 3c 83 c6 83 3e
       0.4834155 0.29212704 0.025795985 0.2573739
000200 c8 d4 7a bd a9 3a cb 3e 13 bc a0 bd ca 94 99 3e
       -0.06123808 0.39693192 -0.07848372 0.2999633
000210 01 78 cb 3e 00 b2 01 3c e2 b4 d0 3e 1c 44 e5 3d
       0.39739993 0.007915974 0.40763003 0.111946315
000220 5a e3 c3 3d 5b 48 ed 3e 1e ba 78 be cc de 3d be
       0.09564848 0.46344265 -0.24289748 -0.18542022
000230 60 1b 03 3d 52 d5 d8 be b0 68 14 be 20 5a cd 3d
       0.03200853 -0.4235025 -0.1449306 0.100269556
000240 ba c1 d3 3e 33 fa b5 bc ec 0f fd 3e 20 a0 8a 3e
       0.4135874 -0.02221403 0.4942621 0.2707529
000250 22 b4 3b 3e 6f d4 90 3e 40 39 d0 be bd e9 f5 3e
       0.18330434 0.28287074 -0.40668678 0.4802989
000260 a0 85 6d 3d a0 76 4b be a6 f1 8d 3d 98 fc ca bd
       0.057988763 -0.1986947 0.069308564 -0.0991146
000270 39 42 ad 3d 5c 71 fb 3e 86 5b 1b 3e 97 85 04 3e
       0.084598966 0.49109924 0.15171632 0.12941585
000280 10 58 9e bc 5a c9 aa 3e 25 a5 21 3e bb ae ef be
       -0.0193291 0.33356744 0.15785654 -0.46812996
000290 82 86 ae 3e 40 ef cf be 28 2f cf bd c0 da ea 3d
       0.34086996 -0.4061222 -0.10116416 0.114675045
0002a0 06 54 ad be 82 ec b6 be 3c 4a 0a 3e b0 b8 fd bd
       -0.33853167 -0.35727316 0.1350488 -0.12388742
0002b0 2f e0 ce be 94 b1 c6 3e d0 cf 9b 3e a0 61 46 3e
       -0.40405414 0.38807356 0.30431986 0.19373178
0002c0 26 f5 0a 3e e9 74 fd 3e eb c7 c4 be 94 c3 41 be
       0.13570079 0.49503258 -0.38433775 -0.18922263
0002d0 0c 30 80 3e aa 42 8c 3d 00 71 53 be 3a 0a e1 bd
       0.25036657 0.06848653 -0.20648575 -0.10988279
0002e0 72 a6 b8 bd 42 3e 89 3e 49 44 47 be c3 7c 0f be
       -0.09016122 0.2680531 -0.19459642 -0.14012437
0002f0 f0 d6 be bc 08 c0 fa 3c 38 3d 24 be df bb 17 be
       -0.02329585 0.030609146 -0.16038978 -0.14817761
000300 fa 86 8a 3e 0a d2 c0 be fc 32 db be 80 0c 36 3d
       0.27056104 -0.37660247 -0.42812335 0.044445515
000310 c7 de ca 3e 18 8a e4 bb 8d 89 da be 5b b1 94 be
       0.3962309 -0.00697447 -0.42683068 -0.2904156
000320 ef 1a ea be 04 53 13 3e 7d da b3 be 7f f9 a1 be
       -0.45723674 0.14387137 -0.3512763 -0.31635663
000330 de 4a 1d be d7 f6 84 3e 57 52 a5 3b 8a 34 52 3d
       -0.15360591 0.25969574 0.005045216 0.051319636
000340 0c a7 11 3e 25 70 11 be dc b6 94 3e b3 f1 e9 be
       0.1422388 -0.14202936 0.2904576 -0.45692214
000350 44 b9 b8 3e 09 e8 c0 3e eb d8 12 bd 9e cc 54 be
       0.36078846 0.3767703 -0.0358514 -0.2078118
000360 1e 8f c5 3e f8 16 d2 be 6d d0 93 3e 84 78 26 be
       0.38585752 -0.4103315 0.28869954 -0.1625691
000370 80 d1 17 bd 00 19 9d bd 60 b8 8e be 78 22 bd be
       -0.03706503 -0.07670784 -0.27875042 -0.3694036
000380 dc 4f 2d be 9e 56 82 be 28 c6 d5 bd 40 b8 47 3e
       -0.16924995 -0.2545671 -0.10438186 0.1950388
000390 18 d8 aa be 3c bd 1e be ab 2e 45 3d a0 e9 6c be
       -0.3336799 -0.15501875 0.04814021 -0.23135996
0003a0 56 c4 87 3e 10 4c 6b 3e a9 9f d7 3d a7 93 b2 bd
       0.2651698 0.22978234 0.105285 -0.08719569
0003b0 d8 a4 e4 3d c0 3e 6e be f0 e5 ee 3d 52 fd c1 3e
       0.11164254 -0.23266125 0.11664951 0.3788858
0003c0 86 b9 f4 bd fd d1 55 3e 6b cc ae 3e 58 0c fb 3e
       -0.11949448 0.20880885 0.34140334 0.49032855
0003d0 7e f3 9d be f8 59 d6 be 66 59 ad be 00 e0 79 3a
       -0.30849832 -0.41865516 -0.33857268 0.0009531975
0003e0 6e 2f dd be 23 db 80 3e c4 58 e5 be 5e 0f 75 bc
       -0.43200248 0.25167188 -0.44794285 -0.014957277
0003f0 bd 3a a0 be f5 1c 4e 3e 0d 96 9b 3d 78 44 89 3e
       -0.31294814 0.20128234 0.07596979 0.2681005

fc1.bias f4 [128]
000000 84 24 c6 be b6 73 ff 3e e4 41 d6 be f0 47 06 bd
       -0.38699734 0.49892968 -0.41847146 -0.03278345
000010 73 ec 9f be 12 df 9a 3e 3d a5 0e 3d 34 0b 26 be
       -0.31235084 0.30248314 0.034825552 -0.16215211
000020 2f f1 9d be d1 5e 34 be 5d c1 32 3d 33 70 51 be
       -0.3084807 -0.17614295 0.043641437 -0.20452957
000030 27 05 f0 3e 27 eb 53 3e d4 c2 94 be a2 ce 9f be
       0.4687893 0.20695172 -0.29054892 -0.31212336
000040 ba 3f f4 be ac b8 f6 3e a0 f6 f1 3d 90 af e6 3e
       -0.4770487 0.48187768 0.11814618 0.4505582
000050 66 2c 6b be 73 47 75 be e4 4c 85 be c1 b6 2d 3e
       -0.22966155 -0.23953037 -0.26035225 0.16964246
000060 28 32 e9 be b5 32 9f 3e 98 65 18 be 89 bd 2a be
       -0.4554608 0.31093374 -0.14882505 -0.16673864
000070 a6 f1 f7 3e 3a 4e 8e be 80 90 b1 bd c5 ea d6 3e
       0.4842655 -0.27794057 -0.08670139 0.4197599
000080 cb 13 7f 3e 1e 5c 42 3e 12 92 ff 3e c8 ea 88 3d
       0.24909894 0.18980452 0.4991613 0.06685406
000090 de 1b f8 be 26 46 d1 be 78 b0 6e be 29 b3 f6 be
       -0.4845876 -0.40873832 -0.23309505 -0.48183563
0000a0 23 96 19 3d 28 0b 3a be 9c 59 2f be 66 c8 bf 3e
       0.037496697 -0.18168318 -0.17124027 0.3745758
0000b0 ce a1 e3 be eb 10 ff 3e 43 64 4f 3e 32 bf d2 3e
       -0.44459385 0.49817595 0.2025309 0.41161495
0000c0 56 54 90 be 32 74 8e be b0 81 ac be 7e 80 fd be
       -0.28189343 -0.27823025 -0.33692694 -0.49512094
0000d0 26 08 ee 3e 61 d5 92 be c6 51 be 3d 36 1b a8 be
       0.46490592 -0.2867842 0.09292941 -0.3283326
0000e0 00 bf 54 3e e9 45 19 be 24 96 92 3e 18 5c 4e be
       0.20775986 -0.14968075 0.28630173 -0.20152318
0000f0 2d 9d d4 3e 74 e0 e6 3e ba f8 82 be 3c 08 f8 3e
       0.41526166 0.4509312 -0.25580388 0.48443782
000100 40 f6 ae be 0f 68 a8 3d af ce 87 bc b5 52 6b 3e
       -0.3417225 0.082229726 -0.016578047 0.22980769
000110 30 c9 d2 3e a8 29 bf be 30 8a 7a be 5a 0a a6 be
       0.4116912 -0.3733647 -0.24466777 -0.32429773
000120 00 28 da 3d c8 62 5c 3e ac 44 14 be fe b9 c8 3e
       0.10652161 0.21522057 -0.14479321 0.392044
000130 08 ef ba 3e 7d db e4 3e fb 89 cc bd 11 b2 cf bc
       0.3651049 0.44698706 -0.09987255 -0.025353463
000140 6d f5 e4 3e 7f 63 95 be e4 0b 31 3e 72 08 37 be
       0.44718495 -0.29177472 0.17289692 -0.17874315
000150 ce 75 b9 3e 79 35 d5 bc d0 61 92 3e b0 70 0d bd
       0.3622269 -0.026026474 0.2859025 -0.034531295
000160 52 fb 0c 3e c4 78 54 be 86 e5 5f 3d fc a9 ce 3c
       0.13767746 -0.20749193 0.05466225 0.02522754
000170 f3 b0 b2 3e 20 27 96 bd 4a f1 b8 be b2 4d 45 bd
       0.34900627 -0.07331681 -0.3612159 -0.0481698
000180 11 42 91 be 1f 82 e5 3e 28 60 ad bd 60 e6 ec 3c
       -0.28370717 0.44825837 -0.08465606 0.028918445
000190 bd 63 e9 bc 67 fe b8 3d d1 93 bb 3e b4 77 5e 3e
       -0.028489942 0.090328984 0.36636212 0.2172535
0001a0 dc 14 ef be 3d 04 d9 3e 34 51 da be f1 4d 37 be
       -0.46695602 0.42386046 -0.42640078 -0.17900826
0001b0 21 03 3e 3d 3b 41 99 3e 4c 69 da be 88 f4 91 be
       0.046389703 0.2993258 -0.4265846 -0.28506875
0001c0 34 23 e6 be e0 10 9e bc 6c 54 7e 3e 75 a0 3c 3e
       -0.44948733 -0.019295156 0.24836892 0.18420584
0001d0 aa 0a fd be 25 e3 aa be 40 73 70 3c 76 6c d7 be
       -0.494222 -0.33376423 0.014675915 -0.42074937
0001e0 50 ce 76 3e 27 e6 66 be e3 c2 db 3e 21 d6 ab bc
       0.2410214 -0.22548734 0.42922124 -0.020976128
0001f0 fe 87 d3 be 9f a6 a5 3e 28 4f c2 3e 7f 67 7d 3e
       -0.4131469 0.32353684 0.37951016 0.24746512

fc2.weight f4 [64, 128]
000000 ff c6 87 bd 19 90 52 bd e8 78 64 3c 4f b9 91 3d
       -0.06629752 -0.051406953 0.013944842 0.07115423
000010 bb 24 5b 3d ff fc 8a 3d a7 85 63 3c 01 1c 97 bd
       0.053501826 0.067865364 0.013886846 -0.07378388
000020 0d e4 b9 ba d6 9d 9c 3d 9d 6b be bc e3 4a 98 3d
       -0.0014182344 0.07647292 -0.023244673 0.074361585
000030 94 df b5 bd 7e 2c 97 bd 48 04 82 3d 34 27 9e bd
       -0.08880535 -0.07381533 0.06348473 -0.07722321
000040 3c e5 61 bd 96 bf 13 3d ec fd 88 bd bc 81 b1 bc
       -0.055150256 0.036071382 -0.06689057 -0.021668307
000050 3d 5b c8 bb 94 9d 5a 3b 44 d7 53 bd 53 7d 35 bd
       -0.006114392 0.0033358084 -0.051718965 -0.04430897
000060 3d fe 61 bd ed d3 85 3d 93 96 9a 3b 17 a9 41 3c
       -0.0551741 0.06534562 0.004717657 0.011820099
000070 8a cb c5 bc d1 bd cf bc b0 f1 be 3b 02 7b 88 bd
       -0.024144907 -0.025359066 0.0058271512 -0.06664087
000080 47 e7 b9 bd 8f 21 79 bb 45 0a 92 bd fb 79 8d bd
       -0.09077316 -0.0038014387 -0.07130865 -0.069080316
000090 5d 1c 71 3c 23 d3 93 3d 1f b5 fb 3c c2 39 8b bc
       0.014716235 0.072180055 0.030726014 -0.016995315
0000a0 62 c4 a9 3d 80 6a 11 ba 86 02 2f bc ca 6a 6d 3d
       0.0828941 -0.0005547181 -0.010681754 0.05796317
0000b0 51 d4 40 bb 60 2d 0c 3b 3b 7d 8b bd b0 7d 07 bd
       -0.0029423425 0.002138935 -0.06810995 -0.03307885
0000c0 24 25 18 bd d5 80 a6 3d f3 57 85 bd 27 3d 98 3d
       -0.037144795 0.081300415 -0.065109156 0.07433539
0000d0 0d 0c 6e 3d b6 74 6c bd 2c db 65 bd 53 48 a8 bd
       0.05811696 -0.05772849 -0.05611722 -0.0821692
0000e0 1c 89 ec bc 99 ba 21 3d d6 c6 97 bd 98 7f bd 3c
       -0.028873973 0.039484594 -0.07410972 0.02313213
0000f0 0a 6a 95 3c 95 5e 8b 3d 80 5f c4 3b 10 b6 97 bb
       0.01823904 0.068051495 0.00599283 -0.004629858
000100 f2 ff 8a 3d 59 18 ab bd 80 5c b2 3d 73 c4 a1 3d
       0.06787099 -0.08354253 0.08709049 0.07898798
000110 a0 93 7f bc c0 85 50 3d 8b cb 0c bd 78 9b 2f 3c
       -0.015599161 0.050908804 -0.0343738 0.010718219
000120 af 63 83 bd 33 3e fd bc 4a ed 09 3d c8 67 5b 3c
       -0.064154975 -0.030913448 0.033673562 0.013391443
000130 06 85 e3 bc 5a f2 ae bd 8e de 5f bd 3e 5a 43 3d
       -0.027773391 -0.08542319 -0.054655604 0.047693484
000140 98 67 a2 3d 74 c9 8a bd 94 e0 8c bd 2d 0c 5d bd
       0.07929915 -0.067767054 -0.068787724 -0.05396669
000150 28 71 37 3c fc 44 f3 bc 84 29 ec 3c 4f d7 85 3d
       0.011196412 -0.02969598 0.02882839 0.065352075
000160 ee e6 43 bd c4 93 4a 3d 81 1d 80 bc 7d 69 93 bd
       -0.047827654 0.049457327 -0.015639069 -0.07197855
000170 aa b6 4a bd 50 59 ac bd 95 ab 89 3d c5 13 9c bc
       -0.04949061 -0.084154725 0.0672218 -0.019052396
000180 85 98 7a 3d 66 f2 62 3d 08 4d c5 3c 4d 80 b2 bd
       0.06118061 0.05540695 0.024084583 -0.08715878
000190 2d 03 6f 3d fd ef 37 3d fe 92 9b bd 70 1d 6f bd
       0.058352638 0.044906605 -0.07596396 -0.058377683
0001a0 bd 98 02 bc 2f 29 4f bb f4 6a 52 3d 11 62 53 3b
       -0.007970986 -0.003161024 0.05137153 0.0032254497
0001b0 fc 22 8a bd 40 9a be bb 69 75 b8 bd c4 95 dd bc
       -0.06744954 -0.005816728 -0.09006769 -0.027048953
0001c0 cb 58 f6 bb 9a 63 61 3d 03 9c ab 3d 98 4c a9 bd
       -0.007517909 0.055026628 0.08379366 -0.08266562
0001d0 a8 39 81 bc 6e 6a c1 bc e0 b0 6e bd 33 4f 5a bd
       -0.015774563 -0.02361032 -0.05827415 -0.053298187
0001e0 ab 61 22 3c 07 96 8e 3c c5 01 76 bd e8 7c 56 3d
       0.009910981 0.017405523 -0.06006028 0.052365214
0001f0 49 af 62 bd cf cd df 3c 75 70 d8 bc e5 b0 b7 bc
       -0.055342946 0.027319817 -0.026420811 -0.022423217
000200 35 c6 4a bc c8 d4 3c bd 52 08 6d bd 53 bf 9e 3d
       -0.012376358 -0.04610136 -0.057869263 0.07751336
000210 4c 01 87 bc 0d fa 92 bd f9 ea 15 bd 81 9d 40 ba
       -0.01648011 -0.071766 -0.03660104 -0.00073476887
000220 79 a5 6a 3d 2a de 9c 3d 1a 95 a8 bd 1b e0 81 3d
       0.057286713 0.07659562 -0.08231564 0.06341573
000230 0b d4 38 3b 07 a5 36 3d 4d 21 a0 3d 66 a6 10 3d
       0.002820256 0.044590976 0.078188516 0.03531494
000240 e0 33 8f 3b e8 99 2e bd ec 76 9c 3c a7 fc 83 3d
       0.0043701977 -0.042627245 0.019099675 0.06444674
000250 59 c6 59 3d 18 6a 83 3d f8 1d 77 3c 3a 40 14 3d
       0.053167675 0.0641672 0.015082829 0.036194064
000260 93 ff 93 3d e4 4f 9d bd cc 3f 5e 3d f1 4c b0 bd
       0.07226481 -0.076812536 0.05426006 -0.086084254
000270 41 5b a4 3c 93 78 9a 3d f8 3d af bc 0e 53 8e bd
       0.020063045 0.07542529 -0.021391854 -0.06949435
000280 a7 e4 e0 3a 2b ea 17 bc e9 2f 4d bc 16 6e 32 3d
       0.0017157987 -0.009272139 -0.01252363 0.043562017
000290 18 11 19 bd 41 99 52 3d 66 be 1c bc 39 44 93 3b
       -0.037369817 0.051415686 -0.009566879 0.0044942168
0002a0 2f 32 21 bd ee 24 59 3d 5e 78 25 bd 9a 82 2c 3d
       -0.0393545 0.053013735 -0.040397994 0.04211674
0002b0 07 f6 bd bc 03 b8 0f 3c 3a a0 90 bd eb 81 76 3c
       -0.023188604 0.008771899 -0.07061811 0.015045623
0002c0 35 2a 06 bd f8 40 71 bd 82 c9 bd bc 8b bb 98 3c
       -0.032755096 -0.05889985 -0.023167375 0.018644115
0002d0 9a 2c 31 3d b6 3c 48 3d e5 bb 5f bd 75 33 88 bd
       0.043255426 0.048886023 -0.05462255 -0.0665044
0002e0 7a 71 48 3d 5e ab 60 3b 6a d8 e4 3c 11 c9 af bb
       0.048936345 0.003428183 0.027935226 -0.005364545
0002f0 50 7c 7e bd b2 bb 28 bd cc 61 b0 3d 72 0e 4c bd
       -0.062130272 -0.041194625 0.08612403 -0.049818464
000300 9a c9 9c 3d c9 ea 2a bd 26 d7 e2 3c bb c3 d5 bc
       0.0765564 -0.041727815 0.027690481 -0.026094308
000310 aa 9a 10 bd b9 ed 67 3d 03 0e 70 bc 3f 2a 12 bd
       -0.03530375 0.056623194 -0.014651778 -0.03568482
000320 5b 4c 85 3d f4 98 42 b8 f5 cb 8f 3d 58 de a9 bd
       0.06508704 -4.6395653e-05 0.070213236 -0.08294362
000330 e0 41 08 3b d5 93 4b bb e3 0b 89 3d 60 1c 6f 3c
       0.0020791218 -0.0031063457 0.0669172 0.0145941675
000340 9a 3e 66 bd 31 96 98 3d 53 e6 93 3d 16 7c 72 3d
       -0.056212045 0.07450522 0.07221665 0.05920037
000350 98 a3 7b 3c 51 92 5a bc 00 f7 ee 3b e6 41 1a 3d
       0.015358828 -0.013340549 0.0072926283 0.037660502
000360 d7 4c 7f bc af 24 95 3d 8e 72 98 3d 43 ae 33 bc
       -0.015582285 0.072823875 0.074437246 -0.01096684
000370 fd fe 17 bd 8c fc 94 bc aa 8c 06 3d e0 32 b8 bd
       -0.03710841 -0.01818683 0.03284899 -0.08994079
000380 43 18 7d bc c9 2a e2 ba 04 b9 e5 3c 00 98 28 38
       -0.015447679 -0.0017255183 0.028042324 4.0195882e-05
000390 c1 36 93 bd be 33 4e 3d ad 00 3a bd 0e 85 19 3d
       -0.07188178 0.050342314 -0.0454108 0.037480406
0003a0 20 f2 21 bd e4 da 6b 3c 49 74 a1 ba 5e 76 e7 3c
       -0.03953755 0.014395449 -0.0012317981 0.028254684
0003b0 60 e3 83 bd 1a 89 82 bd 40 d2 b7 bb fe 77 91 bd
       -0.06439853 -0.06373806 -0.0056097806 -0.07102965
0003c0 e7 ce 38 bd ff d5 89 3d 39 a6 87 3d 64 21 38 3c
       -0.045119192 0.0673027 0.06623501 0.01123843
0003d0 4a c4 77 3d df 31 70 3d 40 e9 81 bb cc e3 aa bd
       0.06048993 0.05864131 -0.003964573 -0.0834423
0003e0 42 5d 8d bd 40 8e 21 bd e2 ae f9 3c b0 e9 3c bd
       -0.06902553 -0.0394423 0.030478898 -0.0461213
0003f0 1f fd 06 3d 9c c9 3f bd ad a6 a7 3d e2 cb 2e 3d
       0.03295624 -0.04682313 0.08186088 0.042674907

fc2.bias f4 [64]
000000 17 e7 ad 3d 66 d2 ce 3b d0 8e 48 bd bb 92 05 3d
       0.084913425 0.0063117025 -0.04896432 0.032610636
000010 75 f0 fa ba 43 63 f6 ba 97 67 9e 3d b3 ca 6c bc
       -0.0019145148 -0.0018797893 0.07734602 -0.014452624
000020 71 c8 00 bd 86 21 5d 3d 38 51 1c bd c7 b8 a5 bd
       -0.031441156 0.05398705 -0.038163394 -0.08091884
000030 09 db 29 3d 41 5f 95 3d d3 00 a8 3d 77 3b 6a 3d
       0.041468654 0.07293559 0.08203282 0.057185616
000040 1c 17 aa 3c 0e 3b ad 3d 56 30 7b bd 61 5f 8e 3d
       0.020762973 0.084585294 -0.061325394 0.06951786
000050 3f fe 65 bc a2 da a5 3d ee 0c b8 3d ae 0e a5 3d
       -0.014037668 0.080983415 0.08986841 0.080594406
000060 b1 bd f1 3c f9 1e 91 3d 2d 79 89 bd 50 a9 c2 3c
       0.029509397 0.07085986 -0.067125656 0.023762375
000070 85 76 8f 3d 8e 3a 8a 3d 66 cf d5 bc 43 8b 9e bd
       0.07005028 0.0674945 -0.026099872 -0.07741406
000080 76 bc 9e 3c 8c 41 8c 3d 27 6d ac 3d 97 3a b0 3d
       0.019376975 0.068484396 0.08419257 0.08604925
000090 9e 1a 0d bd 20 d6 83 bc 90 f5 02 3c 90 9d 3c 3d
       -0.034449212 -0.016093314 0.007993117 0.0460487
0000a0 d3 83 25 bd f9 6a cf bb 34 65 b4 bd bc 84 1c 3d
       -0.04040892 -0.006329891 -0.088083655 0.038212523
0000b0 a2 4d 4f bd 2a cf 1d 3d 8a 4a a4 3d 1a 0e 85 bd
       -0.050611146 0.038527645 0.0802203 -0.0649683
0000c0 56 d0 87 bd fa ba 42 3d 7a 9a 36 3d 29 40 a0 3d
       -0.06631534 0.047541596 0.044580914 0.078247376
0000d0 49 0e 91 bd 44 44 24 3d ad 79 61 3d 90 7a 9d bc
       -0.07082803 0.040104166 0.05504768 -0.019223481
0000e0 6c 90 cf bc 0d a7 91 3d bc 22 e4 bc 2e 9c 48 3d
       -0.02533742 0.071119405 -0.027848594 0.04897707
0000f0 dd 40 1c 3d bc 79 a3 3d c0 f0 68 bd 54 69 3c 3b
       0.038147796 0.07982203 -0.056870222 0.0028749304

fc3.weight f4 [32, 64]
000000 cd 73 d6 3d 9c 14 b9 bc c7 ef 8e 3d 76 f2 e1 bd
       0.10471306 -0.022592835 0.06979328 -0.11032574
000010 df b2 e1 bd 81 9c de bd 46 a6 65 3d cd 92 70 3d
       -0.11020445 -0.108696945 0.056066774 0.05873375
000020 af 90 a9 3d 04 2f 1a bd 4e 98 97 bd 84 86 1d 3d
       0.08279549 -0.037642494 -0.07402097 0.038458362
000030 3e 9b e5 3d 20 52 b5 bb c4 07 e1 3d 16 33 87 bd
       0.11211251 -0.0055334717 0.10987809 -0.06601541
000040 4b 93 88 bd 7b b3 3a 3d 37 be 5c 3d 84 41 d5 3d
       -0.06668719 0.045581322 0.05389234 0.10412887
000050 4e 67 8c bd 20 33 e2 3d 19 90 dc bd 58 80 dc 3d
       -0.06855641 0.110449076 -0.10769672 0.10766667
000060 e3 70 fb bc c0 78 a6 3c bc 5c 8f 3c 80 1e 75 3c
       -0.030693477 0.02032125 0.017500274 0.014960885
000070 b4 72 a4 bd 07 6a f7 3c 75 1f 3c bd 9d b5 08 3d
       -0.080296904 0.030201925 -0.045928437 0.033376325
000080 81 e3 d2 bd 13 39 ae 3c 90 1a c8 3d e8 6b 87 3c
       -0.10297299 0.02126745 0.097706914 0.016530946
000090 e0 d9 b1 bb 7d cf 48 bd 00 cf 6d bd 9c 16 dc 3d
       -0.005427584 -0.049026 -0.05805874 0.107465
0000a0 8e 31 06 3d fd 74 ec bc 60 2d 0c bc 83 95 87 3d
       0.032762103 -0.028864378 -0.00855574 0.06620314
0000b0 8e ad 9a bd f7 88 a2 3d 70 35 89 ba 90 1c 44 3c
       -0.07552634 0.0793628 -0.0010468196 0.0119697
0000c0 63 30 89 bd 54 c3 73 bd 24 27 07 bd 20 2b e9 3d
       -0.06698682 -0.05951245 -0.03299631 0.113851786
0000d0 ea aa c6 3d ff 21 f5 bd 95 83 1d bd b8 2a 1a 3d
       0.09700568 -0.11969375 -0.038455565 0.037638396
0000e0 58 79 9d 3d 02 8f bf bb d9 67 b3 3c e0 e5 3c bd
       0.0768916 -0.0058459053 0.021900104 -0.046117663
0000f0 ad a9 8e 3b a2 d3 ce bd f6 d5 00 3c c1 52 c4 3d
       0.004353723 -0.100989595 0.007863512 0.095860966
000100 8a a7 93 bd 52 22 83 bd ad 78 ff 3d d5 af 30 bd
       -0.0720969 -0.064030305 0.12474189 -0.043136436
000110 4a f4 0e bd fb aa a5 3d d0 cc b5 bd 81 89 67 3d
       -0.03490094 0.080892526 -0.088769555 0.05652762
000120 58 b4 b5 3d 18 e3 8f bd f6 cb 4e bc 20 c3 3b bd
       0.088722885 -0.070257366 -0.01262187 -0.045840383
000130 ea a1 e9 3d d8 4c da bc bd b8 12 bc c9 07 e9 3b
       0.11407836 -0.02664797 -0.008955178 0.0071115238
000140 ee b8 e8 bd bd aa 8b bd 5a b6 11 bc 50 96 a2 bc
       -0.113633975 -0.06819675 -0.008893574 -0.019847065
000150 1f ed b2 3d 02 c2 a9 3d 1d 23 08 bd e9 9c 6d 3c
       0.087366335 0.08288957 -0.03323661 0.014502742
000160 e4 11 a9 3c 94 6f 4d 3d 54 7e 53 bd 82 20 de 3d
       0.020638414 0.050155237 -0.051634148 0.10846044
000170 f7 33 a8 b8 07 b3 27 3b 64 fb 6c bd 9b 90 4d 3d
       -8.0205435e-05 0.0025588886 -0.057856932 0.050186735
000180 1c 4c b9 bd 53 09 ba bc fc a8 32 bd 6c cb 04 bd
       -0.0904772 -0.022709524 -0.043618187 -0.03242056
000190 d0 bc 39 3c 84 b2 22 bd 2c 48 df bd dd b8 96 3d
       0.01133652 -0.039721027 -0.109024376 0.073594786
0001a0 97 73 b3 3d e2 0a 8e 3d e4 8c 9b 3d 12 b3 78 bd
       0.087622814 0.069356695 0.07595232 -0.06071765
0001b0 78 f9 d6 3d fe 4b 09 3d 38 4e e3 3d 78 55 9d 3d
       0.10496801 0.033519737 0.110989034 0.076823175
0001c0 63 27 c6 3c 34 d6 f3 3d 18 f8 82 3d 57 ee 90 3b
       0.024188703 0.119060904 0.063949764 0.0044229436
0001d0 52 f0 d2 3d 1f ac 2e 3d 57 bc b4 3d 7a 79 ed 3d
       0.10299744 0.042644616 0.088249855 0.115954354
0001e0 64 22 4f 3d fa 1b 53 3d 8d fe ae 3d d8 93 8e bd
       0.050569907 0.051540352 0.085446455 -0.06961793
0001f0 dd 1a a2 3d 3f 82 5b bd f0 ea ee 3d 87 0e 9c 3d
       0.0791528 -0.05359101 0.116659045 0.07619958
000200 38 6f ba bd 48 a3 bf 3d 76 b6 ef 3c 8b 14 b9 3d
       -0.091032445 0.09357315 0.029261809 0.090371214
000210 cc aa e8 bd 36 03 c5 bc 5f 17 dd 3c be 1e 91 bd
       -0.11360702 -0.024049383 0.026988683 -0.07085942
000220 80 b4 f8 3d 08 32 96 3d 67 de a6 bd f6 7b fd bd
       0.12143803 0.073337615 -0.08147889 -0.12377159
000230 f0 f4 bc 3d 58 b6 99 3d 88 f7 cc bc b4 d4 aa bd
       0.092264056 0.075054824 -0.025020376 -0.08341351
000240 35 59 d2 bc 57 3b e0 bd e7 a3 22 bc c8 cb ea 3d
       -0.025677303 -0.10948818 -0.009926773 0.114646494
000250 a6 cf bb 3d b8 c8 b5 bb d8 3e e4 3c d0 75 05 bd
       0.09170465 -0.005547609 0.027861997 -0.032583058
000260 1e 5c bf 3d e0 ad d1 3d 44 2d 15 3d fc 30 b7 bd
       0.09343742 0.10238242 0.03642012 -0.0894489
000270 56 3f e5 bd 19 e2 e4 bd b4 de 0c bd 80 4a 53 3d
       -0.11193721 -0.11175937 -0.034392074 0.05158472
000280 5f 79 ac bd 98 7c 2b 3d 70 2b 61 3c e1 4d 84 bd
       -0.08421587 0.04186687 0.013743266 -0.06460167
000290 b6 f8 df 3d 00 60 e9 38 f6 23 d8 3d a9 7a 43 3d
       0.1093611 0.00011128187 0.10553734 0.0477244
0002a0 2e 9d ca 3d 03 0b da bd 20 1b 3d bc 4e 5e ee 3d
       0.09893261 -0.106466316 -0.011542112 0.11639081
0002b0 30 c8 12 3d 48 d9 a3 3d b2 76 e3 3d e6 88 f2 bc
       0.035835445 0.080004275 0.11106624 -0.029606294
0002c0 71 36 23 bd c4 3d a9 3d 98 c4 a2 3d 50 79 c1 bb
       -0.03984684 0.08263734 0.079476535 -0.005904354
0002d0 5a 52 15 bd 43 4d bf bd 0e 5b f9 bc 98 26 78 bd
       -0.03645549 -0.093409084 -0.030438926 -0.06058368
0002e0 dc 3f ba bd 56 39 83 3c 45 c5 0f bd 00 9b ab bb
       -0.090942115 0.01601855 -0.03510024 -0.0052369833
0002f0 b4 53 db bd 51 9e 05 3d c2 8f 30 3d 78 63 27 3d
       -0.107093245 0.032621685 0.043105848 0.040866345
000300 c8 ce 9d bd 2b 39 a6 bd 65 46 ad bc 7a b5 ca bd
       -0.07705456 -0.08116373 -0.02115173 -0.09897895
000310 5f 4f 4e 3c b9 95 05 bd f4 50 61 bb 8e 23 93 bd
       0.012592166 -0.03261349 -0.0034380527 -0.07184516
000320 6a a7 f1 3d 8c 30 7b 3d 43 9c e5 3d b8 1e d9 bc
       0.1179951 0.061325595 0.11211445 -0.026503906
000330 b3 a4 e5 3c d2 84 f9 3d c4 2b af bd 70 11 b1 bd
       0.028032636 0.121835366 -0.085532695 -0.08645904
000340 f3 d8 33 3c 41 36 7c bd f8 32 47 3d e2 a0 f0 bd
       0.010977018 -0.061575178 0.048632592 -0.11749436
000350 c2 4f 64 bd 93 c4 10 bc 88 2b f4 bd 1d 9e c8 3d
       -0.055740125 -0.008835929 -0.119223654 0.09795783
000360 ec cf d7 bd 70 c4 55 bc b4 e2 5b 3d b0 f1 ab bc
       -0.10537705 -0.013047323 0.053682998 -0.020989269
000370 68 91 42 bd df ec f1 bd 34 92 b4 bd b5 1b 02 bd
       -0.04750195 -0.11812758 -0.088169485 -0.031764705
000380 07 01 91 bc 52 6f 24 3d 30 9b 4a 3c 22 27 80 3d
       -0.017700685 0.040145226 0.012366101 0.06257464
000390 0c ef 8e 3d 98 93 a7 3d 28 98 3c 3d 07 d5 3b 3c
       0.06979188 0.08182448 0.046043545 0.011464364
0003a0 77 a5 c2 3d 34 02 23 3b c8 5f 9b 3c 0a 45 c0 bc
       0.09504216 0.002487314 0.01896657 -0.02347042
0003b0 90 22 f5 bd 2d ef d3 bd f7 43 c2 bd e0 7d a2 bb
       -0.11969483 -0.103483535 -0.094856195 -0.004958853
0003c0 5b dc 33 bd e0 b0 3b 3c 22 3e e4 3d 68 9f cc bd
       -0.04391132 0.0114557445 0.111446634 -0.09991342
0003d0 e3 7a ef 3c 81 9d ee 3d 8e 8a f6 bc d8 2f ea bc
       0.029233402 0.11651135 -0.030095365 -0.028587267
0003e0 c0 43 c8 3b 9b cd 7c 3d 2b 02 5a bd 92 e0 a5 bd
       0.006111592 0.06171952 -0.053224724 -0.08099474
0003f0 41 e2 84 3d 24 0c b7 3d ae 97 74 bd f5 cb 00 3d
       0.06488467 0.089378625 -0.059714966 0.03144451

fc3.bias f4 [32]
000000 08 e6 2d bc 74 ef ef 3d b6 0e 98 bc ac 53 e6 bd
       -0.010613926 0.11715594 -0.018561702 -0.11246428
000010 b1 42 e6 3c 2e 2f e4 bd 46 1c 06 3e c4 28 4b bd
       0.028107973 -0.11141811 0.13096723 -0.049599424
000020 12 e6 de bd 20 cd 1c bc 84 09 82 3c 24 16 d0 bd
       -0.10883726 -0.00957039 0.015873678 -0.10160473
000030 20 8a 9f 3a 09 c8 89 3d b0 65 62 3c 0a ef cf 3d
       0.0012171902 0.06727607 0.0138181895 0.10153015
000040 a8 97 d7 bc f6 cb 22 bb c5 53 fa bc 1e 88 f4 bc
       -0.026317433 -0.0024840808 -0.030557523 -0.029850062
000050 d4 e8 4e bc c7 de a9 3d d5 73 a9 bd 3c a8 34 3c
       -0.012628753 0.082944445 -0.08274046 0.011026438
000060 7f c0 17 3d d9 2d 9f bc 84 2e 98 bd 64 38 e4 3d
       0.037048813 -0.019431042 -0.07430747 0.11143568
000070 44 77 57 bd 52 a1 b8 bd 51 1b 6b 3d 82 1c d6 3d
       -0.052603975 -0.090151444 0.057399098 0.10454656

fc4.weight f4 [6, 32]
000000 da 09 03 be b7 ac db 3d 07 6c c4 bd 55 16 2e be
       -0.12796727 0.10726302 -0.09590917 -0.17000706
000010 64 e5 90 bd a6 76 05 3d 1c 7e 10 be 2c 89 60 3d
       -0.07075003 0.032583855 -0.14110607 0.054818317
000020 19 01 32 3e 5e 8c bc 3d 59 71 31 3e fb a1 e2 3d
       0.17383231 0.092064604 0.17328395 0.110660516
000030 3b 2f 91 3d 4b dc 0c bd 12 28 bd 3d 26 a5 ee 3d
       0.070890866 -0.034389775 0.092361584 0.11652593
000040 04 ab 6b bd 1f 6e 10 be c2 a0 2e 3d 99 ab 14 3e
       -0.05753614 -0.14104508 0.04263378 0.14518584
000050 74 eb b1 bd b8 41 4e 3d ba 48 78 3d d0 a8 82 bd
       -0.08687487 0.050355643 0.060616232 -0.06379855
000060 ed 13 26 be 02 cb 2c 3e b9 f7 2e be 50 df 71 3c
       -0.16218539 0.16874316 -0.17086686 0.0147627145
000070 e8 8e 07 be cd 8a 86 bd 60 b3 16 be 0e 5e 95 3d
       -0.13238108 -0.06569443 -0.14716864 0.0729333
000080 85 c5 93 bc 5e af ce 3d fe be a2 bd b6 78 17 3e
       -0.01803852 0.100920424 -0.07946585 0.14792141
000090 00 9a d5 bd 0a ad f9 3d bf 45 fb bd 66 0f 2e be
       -0.10429764 0.12191208 -0.122691624 -0.16998062
0000a0 40 ed 52 3b 84 08 2e be 72 6a f6 bd c7 11 2b be
       0.003218487 -0.16995436 -0.120320216 -0.16706
0000b0 b1 6e 3f bd 67 66 27 bd 61 8e 26 be cc a8 30 3d
       -0.046736423 -0.040869143 -0.1626525 0.043129727
0000c0 52 2a 26 be 44 50 91 3c e3 ba 4d 3d 9e f6 f8 3d
       -0.16227081 0.017738469 0.050227057 0.121564135
0000d0 ce 98 d1 bd 43 de e6 3d 5b a2 0d be 8e 3b d0 bd
       -0.10234223 0.11272862 -0.13831465 -0.10167609
0000e0 62 42 bf bd 63 f2 c8 bd a8 bc bb bd a2 24 92 3d
       -0.093388334 -0.098118566 -0.09166843 0.071358934
0000f0 52 3f 9f 3d e6 0f 67 bb fc 72 89 3d 40 7d 05 bd
       0.07775749 -0.003525728 0.06711385 -0.03259015
000100 da ba 2b bd 0b 55 f4 bd 8b 54 ac bd d3 87 07 bd
       -0.041926242 -0.11930283 -0.08414563 -0.033088516
000110 da 8f af bb 02 9d 20 3e e0 f2 11 3e b0 3c 73 3c
       -0.0053577246 0.15684894 0.14252806 0.014846012
000120 f7 41 1f 3e d3 b3 d3 bd 23 86 9a bd d7 55 a2 3d
       0.15552507 -0.10337033 -0.07545116 0.07926529
000130 9c 43 b0 bd 18 b1 2a be a0 1d 14 be 78 7d 4b 3d
       -0.086066455 -0.16669118 -0.14464426 0.049680203
000140 fe 19 bf 3d 2a fe 0a be 48 a7 d0 3b eb e2 0f 3a
       0.093311295 -0.13573518 0.0063675977 0.00054888305
000150 4f 08 b5 bc 38 35 ac 3c 87 5a 6d bd 44 30 8e bd
       -0.022098688 0.02102147 -0.05794766 -0.069428
000160 80 a6 c2 bd 9c 2c be 3d dc d0 3f bd c2 d0 ef bd
       -0.095044136 0.09285852 -0.046830043 -0.11709739
000170 a0 ca a9 bd 09 b9 e7 bd b2 c6 fc 3d 46 6a f1 3d
       -0.08290601 -0.113145895 0.123425856 0.11787848
000180 09 0c fe bd 3d 4f 0a 3e 91 d8 31 3d 83 7d e0 3d
       -0.12404639 0.1350679 0.043419424 0.109614395
000190 c7 db e5 3d 3e 65 a2 3d 9c a3 0f be 0b 92 a8 bd
       0.1122356 0.07929467 -0.14027256 -0.082309805
0001a0 1f 71 f7 bd 8a 78 a7 3d 74 b3 ed 3d 2b 04 30 be
       -0.12082123 0.08177288 0.116064936 -0.1718909
0001b0 ac e2 a9 3d b4 53 25 bd e4 eb 88 3d f6 28 c2 3d
       0.08295187 -0.04036303 0.066856176 0.09480469
0001c0 86 a7 c1 bd 90 b2 b8 3d c8 ca 1c be d6 a9 41 3c
       -0.09455781 0.09018433 -0.1531173 0.011820277
0001d0 fd 4e b1 3d b8 80 1f be 53 8b 45 b8 2c 71 0b 3e
       0.08657644 -0.15576446 -4.7098216e-05 0.1361739
0001e0 07 ae 19 3d 8d a1 dc 3c 20 6e ab 3c 59 fd 10 3e
       0.03751948 0.026932502 0.020926535 0.14159144
0001f0 ba 96 9c 3d 33 13 88 3b ea 16 1f 3d b6 d4 fe 3d
       0.07645936 0.0041526794 0.038840212 0.12442915
000200 ae c2 ab 3d 4d b0 02 be 54 9e 25 be b5 1a c0 3d
       0.083867416 -0.12762566 -0.16173679 0.09380094
000210 04 e1 19 be 06 8f 14 3e 68 68 80 3d e2 89 db bd
       -0.15027243 0.14507684 0.06269914 -0.107196584
000220 14 2e 6a bd 61 5b 1c 3e f8 01 f5 3d cb d3 bf bd
       -0.05717285 0.15269233 0.11963266 -0.09366568
000230 f5 84 e5 3d b3 d3 b2 bd 73 97 27 3e aa e8 ad 3d
       0.11207 -0.08731785 0.16366367 0.08491643
000240 d4 0f b0 3d e3 b3 21 be 55 52 0e be b0 ee e8 3d
       0.08596769 -0.15791278 -0.13898595 0.11373651
000250 fb 5b 2a 3e 14 58 0d 3d 8c 3f dc 3d 31 04 2e be
       0.1663665 0.034507826 0.10754308 -0.16993786
000260 d1 5c b7 3d b5 77 75 bd 50 75 28 3c d3 c8 e0 bd
       0.0895325 -0.059928615 0.010281876 -0.10975804
000270 78 c2 b3 3c a3 b8 2a 3d c6 19 1b 3e 5d 08 2e 3e
       0.021943316 0.04167999 0.1514655 0.16995378
000280 a4 6b 42 3d 91 bf 2b be a6 a7 64 bd c5 1f fe bb
       0.047465935 -0.16772296 -0.055823945 -0.007755252
000290 32 e6 cf 3d 2c f2 1f be 65 31 31 be 46 56 ae 3d
       0.10151328 -0.15619725 -0.17303999 0.08512549
0002a0 2c 56 65 bd 4d 29 22 3e d1 a9 ce 3d 3f 2c f0 3b
       -0.055990383 0.15836067 0.10090984 0.0073294933
0002b0 f6 36 7a 3c 64 b8 6b 3d d4 19 04 3d 8b b7 1f be
       0.015271893 0.057548895 0.032251194 -0.1559736
0002c0 b1 8a 43 3d c1 70 01 be 4c c5 d5 3d 96 68 65 3d
       0.04773969 -0.12640668 0.10438022 0.056007944
0002d0 aa 5e 03 3e 71 92 a7 bd fe 73 c6 bb 9a c0 4f bb
       0.1282908 -0.08182228 -0.006056308 -0.0031700493
0002e0 24 9e 3e 3d 4c f7 87 3d 17 f9 23 3e da 1c 08 be
       0.046537533 0.06638965 0.16012989 -0.13292256
0002f0 d0 0b 03 3c 67 29 ed bd 6f 5e 56 3d d0 a7 7f 3d
       0.007998422 -0.115801625 0.052336153 0.062415898

fc4.bias f4 [6]
000000 00 04 04 3e d4 e2 4f 3c 35 6d 08 3e f0 cb 78 bd
       0.12892151 0.012688357 0.13322909 -0.060741365
000010 a5 13 91 bd dd 4d b4 3c
       -0.07083825 0.022009784
