src/params_data/240418_005728/58param.pt (torch, 46927 bytes, 8 tensors)

fc1.weight f4 [128, 4]
00000000: 5de1 adbd 3775 813e da26 e53e c868 993e
00000010: 40ad a9be f230 f0be be40 c1be 401f f53d
00000020: b0a7 05be 1e84 f53e 790f d6be 8413 58be
00000030: 2c35 dbbe 007a c8ba 5a2e a8be 22d2 a63e
00000040: 70e4 37be 1658 c2be 40e7 323e a0b2 173d
00000050: 1c66 4bbe d6cf 60be 462d 473e b762 a0bd
00000060: 50d9 6abe 5f7c 78be 4d00 b53e 86e8 6f3c
00000070: 805c ac3b 5cd2 f4be 27e6 913c 089e abbd
00000080: 2f8a a2be 9a73 b13e 9078 42be 02b5 8d3c
00000090: 8b36 ee3e e30e 8c3e 2ba9 d93e 2599 f3be
000000a0: 783d c53d 978a 1dbe 0fc4 bb3d c443 d9be
000000b0: 467a eabd fb50 d13e ec61 3bbc b3ab 97be
000000c0: 1bda 233d 6b41 7b3e d230 3bbe d7c0 ed3e
000000d0: 4099 29be 6792 693e b6e3 74be 824b f93e
000000e0: 0c64 38be 2ce6 b3be 75e5 843e 801b a73b
000000f0: 3e77 d93e 6049 ccbe 005e 3abe b804 78be
00000100: 0c7b c03e 904c 1cbe 08db c4bd f096 723e
00000110: 4e64 ebbe 9720 24bd f7de a03e eac4 e4be
00000120: e8b6 ea3d 1c5a 40be 98fb aabd 4c85 f53e
00000130: cc79 b93e baee b3be 49eb 4e3e c025 19be
00000140: 5e84 a73c 3cb4 463e afca 9d3e 7ec4 dfbe
00000150: c91c d73e 8876 2a3d 0a3e 7c3e 8ca0 573e
00000160: 9067 173d 561e f6be 3a10 f2be bed6 dbbe
00000170: 0ae6 bfbe ef8d a83e 72de 383e 3f41 86be
00000180: 489c 7f3e aa36 bc3e d066 7dbe 6688 933e
00000190: 9f75 d3be 9f90 233d 7088 28bd 5e01 dd3e
000001a0: c86e 05be 3ca8 51be b4af 7d3e b5c7 dd3d
000001b0: 37bc 593e 0bfa 943e 066d 9fbe e334 d93e
000001c0: 05b8 f0be 50ad cc3e 7779 0e3d aaa6 86be
000001d0: bbe1 c3bc 8e0b bb3e 922d cb3e 8766 8f3d
000001e0: 188d d23e 0873 bfbd 7c35 6cbe 0ed3 b6be
000001f0: e011 f63e 1276 953e 96c5 c83c cbcc 853e
00000200: 71b5 75bd 18fa ca3e b9f9 a0bd b780 973e
00000210: 132c ce3e 05fd 033c 5f00 d13e a835 d43d
00000220: 70f8 bd3d 8039 ed3e c546 79be a400 3ebe
00000230: 601b 033d 52d5 d8be b068 14be 205a cd3d
00000240: f44d d23e 9ab0 b5bc 75a8 fc3e 789c 8b3e
00000250: 3823 3b3e 71be 903e c00f d0be 3be2 f43e
00000260: a085 6d3d a076 4bbe 2317 8b3d 98fc cabd
00000270: 51bb ae3d 143d fb3e 7e78 193e 6b80 073e
00000280: 4c6d 90bc 44ea aa3e 3d7d 223e a931 edbe
00000290: 8286 ae3e 40ef cfbe 282f cfbd c0da ea3d
000002a0: 0654 adbe 82ec b6be 577a 0b3e b0b8 fdbd
000002b0: 8baf cabe 1399 c63e 0ca1 9b3e c786 413e
000002c0: efc4 0c3e af84 fd3e 74e6 c4be 2acb 47be
000002d0: 875e 813e 281d 923d c920 50be 76e7 ddbd
000002e0: a33f b5bd eb34 893e 9cb7 45be 5aac 0cbe
000002f0: a74b c4bc 258a fd3c 9c00 24be bf07 17be
00000300: fa86 8a3e 0ad2 c0be fc32 dbbe 800c 363d
00000310: 9ae5 cb3e 4599 97bb 4a6f d9be a271 93be
00000320: 471d ebbe 3f8a 163e dade b1be 3d77 9fbe
00000330: fd39 1fbe 55fe 843e 9464 c83b 7072 6f3d
00000340: 31a6 153e 6a9f 0ebe d70b 963e f8ec ebbe
00000350: 0563 b83e 45f4 c03e 6e95 12bd a984 4dbe
00000360: 1e8f c53e 82c4 d5be 327e 913e 8478 26be
00000370: 80d1 17bd 0019 9dbd 60b8 8ebe 7822 bdbe
00000380: dc4f 2dbe 9e56 82be 28c6 d5bd 40b8 473e
00000390: 18d8 aabe 3cbd 1ebe 1125 463d a0e9 6cbe
000003a0: 5d96 893e 563f 6b3e 1ee3 d43d dc98 c6bd
000003b0: d8a4 e43d c03e 6ebe 6fab ef3d 52fd c13e
000003c0: e54c f5bd 3085 553e cf1d af3e fcc0 fd3e
000003d0: 7ef3 9dbe f859 d6be 6659 adbe 00e0 793a
000003e0: 3f7a dcbe 0abe 803e 1555 e5be 1fe1 aabc
000003f0: c0dd 9fbe 6b6d 4e3e b6a4 9a3d 1c03 883e
-0.0849025 0.2528474 0.44756204 0.29962754 -0.33139992 -0.46912342 -0.37744707 0.11968851
-0.13052249 0.4795236 -0.4180868 -0.21101195 -0.42814004 -0.0015295148 -0.32847863 0.32582194
-0.17958236 -0.3795783 0.17471027 0.037035584 -0.1986317 -0.21954283 0.19450864 -0.07831328
-0.2293446 -0.24266194 0.35351792 0.01464284 0.0052600503 -0.4781674 0.01780994 -0.083797514
-0.3174605 0.3465851 -0.18991303 0.017298225 0.46525988 0.27355108 0.42511877 -0.47577778
0.09630865 -0.15384899 0.091682546 -0.42434514 -0.11449103 0.40882096 -0.011436921 -0.29623184
0.040002923 0.24536674 -0.18280342 0.46436188 -0.16562366 0.22809754 -0.2391499 0.4869042
-0.18006915 -0.35136545 0.25956312 0.005099714 0.42473787 -0.3989973 -0.1819992 -0.2422055
0.37593877 -0.15263581 -0.096120894 0.2369039 -0.45974964 -0.040070143 0.3142011 -0.44681484
0.11460668 -0.18784374 -0.08348769 0.4795326 0.36225736 -0.3514307 0.20206942 -0.14955807
0.02044886 0.19404691 0.30818698 -0.437046 0.4201415 0.041616946 0.24633041 0.21057338
0.036964 -0.4807002 -0.47278005 -0.42937273 -0.37480193 0.32920787 0.18053606 -0.26221654
0.2496196 0.36760455 -0.24746251 0.28815 -0.41300675 0.039932843 -0.041145742 0.43165106
-0.13030541 -0.20474333 0.24774057 0.10829107 0.21263205 0.29097018 -0.31137866 0.42423162
-0.47015396 0.39975977 0.034783807 -0.2629903 -0.023911348 0.36532253 0.39683205 0.070019774
0.4112327 -0.09348112 -0.23067278 -0.35707897 0.48060513 0.29191643 0.024508279 0.26132807
-0.05998749 0.3964393 -0.07860131 0.2959039 0.40268 0.00805593 0.40820596 0.103617966
0.09275901 0.46332932 -0.24343403 -0.18554932 0.03200853 -0.4235025 -0.1449306 0.100269556
0.410751 -0.022178937 0.49347273 0.27267814 0.18275154 0.28270295 -0.40637016 0.4782885
0.057988763 -0.1986947 0.06791522 -0.0991146 0.085318215 0.49070036 0.1498737 0.13232581
-0.017630242 0.33381855 0.15868087 -0.4632695 0.34086996 -0.4061222 -0.10116416 0.114675045
-0.33853167 -0.35727316 0.13620888 -0.12388742 -0.39587054 0.3878866 0.30396307 0.1889907
0.13746999 0.49515292 -0.38457072 -0.19511095 0.2526743 0.07134467 -0.20325007 -0.10835163
-0.08850028 0.26798186 -0.19308323 -0.13737622 -0.023961855 0.030949662 -0.16015857 -0.14749049
0.27056104 -0.37660247 -0.42812335 0.044445515 0.3982361 -0.0046264254 -0.4246772 -0.28797632
-0.45920774 0.14701174 -0.34740335 -0.3114566 -0.15549465 0.2597529 0.0061155055 0.058458745
0.14614178 -0.13927999 0.29305908 -0.4607923 0.36013046 0.37686363 -0.03578704 -0.20070137
0.38585752 -0.41751486 0.28416592 -0.1625691 -0.03706503 -0.07670784 -0.27875042 -0.3694036
-0.16924995 -0.2545671 -0.10438186 0.1950388 -0.3336799 -0.15501875 0.048375193 -0.23135996
0.2687253 0.2297338 0.10394882 -0.09697124 0.11164254 -0.23266125 0.1170262 0.3788858
-0.11977557 0.20851588 0.3420243 0.49561298 -0.30849832 -0.41865516 -0.33857268 0.0009531975
-0.43062016 0.25144988 -0.44791475 -0.0208593 -0.3122387 0.20158927 0.07550947 0.26564872

fc1.bias f4 [128]
00000000: c96e c5be b673 ff3e 1f6b d7be f047 06bd
00000010: 0467 9fbe adc1 9c3e f0d2 023d 7ea6 26be
00000020: 4341 9ebe 1b1b 34be a6cf 353d 02ed 51be
00000030: bb75 f13e dd43 523e 2f95 95be a2ce 9fbe
00000040: ba3f f4be 9376 f63e a0f6 f13d afeb e73e
00000050: bf48 6bbe 7abc 77be e44c 85be f99e 2c3e
00000060: dc86 eabe 4ae0 9f3e 68b9 1abe e250 2bbe
00000070: a8b6 f73e 93b6 8dbe 8090 b1bd 9067 d63e
00000080: 0237 7e3e c534 423e ba35 003f c8ea 883d
00000090: e8d9 f6be 6614 d2be a91d 70be 65bb f6be
000000a0: cc3e 0e3d 280b 3abe 9129 2ebe d24d be3e
000000b0: e4c0 e3be 6ea0 003f ecef 503e 841d d33e
000000c0: 5654 90be f62b 8dbe cf77 a9be 5868 fcbe
000000d0: ec34 f03e e8db 93be 1889 b33d 361b a8be
000000e0: 00bf 543e 5008 19be 426a 913e 5df9 4dbe
000000f0: a55a d43e 74e0 e63e 848c 83be 426c f73e
00000100: ce74 afbe ffee a83d 5357 62bc b25c 6e3e
00000110: 30c9 d23e 5a39 bebe 0b4b 7bbe 5a0a a6be
00000120: 0028 da3d 7c67 5b3e eda4 16be feb9 c83e
00000130: 08ef ba3e 674a e53e 1fe2 c7bd 88db bfbc
00000140: 0971 e53e 8b4d 95be e40b 313e 2dcd 36be
00000150: ce75 b93e 47be c8bc d061 923e b070 0dbd
00000160: 5fda 0b3e f630 56be de9e 633d 3d98 da3c
00000170: 6cb2 b13e 2027 96bd 4af1 b8be 8d9e 49bd
00000180: b432 92be 5d87 e43e 2860 adbd 60e6 ec3c
00000190: fdbb c9bc de58 b63d b281 bd3e b477 5e3e
000001a0: a092 f1be 2d7f d83e 487f dabe c4e1 3abe
000001b0: 0b6e 393d ca00 993e 9f39 d9be 88f4 91be
000001c0: ea4e e7be e010 9ebc 1a84 7c3e 53fe 3e3e
000001d0: aa0a fdbe b826 aabe 4073 703c 766c d7be
000001e0: fc40 753e 785a 63be 21bd dd3e 819a bdbc
000001f0: d18e d1be bd23 a53e 7968 c23e 1beb 7a3e
-0.38561085 0.49892968 -0.42073914 -0.03278345 -0.31133282 0.30616513 0.031939447 -0.16274449
-0.30909166 -0.17588465 0.044387482 -0.20500568 0.47160134 0.205337 -0.2921538 -0.31212336
-0.4770487 0.4813734 0.11814618 0.45297 -0.22976969 -0.24192992 -0.26035225 0.16857518
-0.45806015 0.31225806 -0.1510979 -0.16730073 0.48381543 -0.27678356 -0.08670139 0.41875887
0.24825671 0.18965442 0.5008198 0.06685406 -0.48213124 -0.41031188 -0.23448814 -0.48189846
0.034727857 -0.18168318 -0.17008044 0.37168747 -0.444831 0.50244796 0.20404023 0.41233456
-0.28189343 -0.27572602 -0.3309922 -0.49298358 0.46915376 -0.28878713 0.08766383 -0.3283326
0.20775986 -0.14944577 0.2840138 -0.20114656 0.41475406 0.4509312 -0.25693142 0.48324782
-0.34268802 0.0824871 -0.013814765 0.23277548 0.4116912 -0.3715313 -0.24540345 -0.32429773
0.10652161 0.21426195 -0.14711352 0.392044 0.3651049 0.44783327 -0.09759926 -0.02342011
0.448128 -0.29160723 0.17289692 -0.17851706 0.3622269 -0.024504794 0.2859025 -0.034531295
0.1365752 -0.20917115 0.05557143 0.026683921 0.34706438 -0.07331681 -0.3612159 -0.04922347
-0.28554308 0.44634524 -0.08465606 0.028918445 -0.024625773 0.08903669 0.37013012 0.2172535
-0.47182178 0.42284527 -0.42675233 -0.18250185 0.04527096 0.29883415 -0.42426774 -0.28506875
-0.45177394 -0.019295156 0.24659768 0.18651704 -0.494222 -0.33232665 0.014675915 -0.42074937
0.23950571 -0.2220248 0.43308356 -0.023144962 -0.40929273 0.3225383 0.3797033 0.24503748

fc2.weight f4 [64, 128]
00000000: e041 86bd 1990 52bd e878 643c 4fb9 913d
00000010: 4116 5a3d 9670 8b3d 7bce 6b3c 04aa 97bd
00000020: 163d a9ba 2027 9e3d 6e7b c0bc b2b0 993d
00000030: 44b2 b5bd 7e2c 97bd ae13 823d 3427 9ebd
00000040: 3ce5 61bd 73a8 163d ecfd 88bd 5c93 b3bc
00000050: ddab afbb 7add 843b 44d7 53bd cb65 32bd
00000060: 0d9d 61bd 4538 863d bd59 a73b 17a9 413c
00000070: 0dc3 bfbc 389c c9bc b0f1 be3b c500 87bd
00000080: f9ab b8bd bece 49bb 8275 91bd fb79 8dbd
00000090: e788 7c3c 23d3 933d 0fa9 f93c d63b 85bc
000000a0: e153 ab3d 806a 11ba 6442 33bc 4886 703d
000000b0: d44b 39bb 602d 0c3b 483e 8bbd b07d 07bd
000000c0: 2425 18bd d580 a63d f357 85bd af9d 993d
000000d0: 8fa6 703d fdd0 69bd 0df2 65bd 5348 a8bd
000000e0: 1c89 ecbc f5c3 203d a13a 96bd 5381 bb3c
000000f0: 0c96 9b3c 955e 8b3d 805f c43b 47ba 7dbb
00000100: 8482 8c3d 87b1 aabd fdd4 b23d 833d a33d
00000110: a093 7fbc 0c5c 4f3d 8bcb 0cbd 789b 2f3c
00000120: af63 83bd 1d83 fdbc 4aed 093d c867 5b3c
00000130: 0685 e3bc b462 adbd 3566 60bd 3e5a 433d
00000140: 08f4 a33d 928e 8abd 94e0 8cbd 10de 5bbd
00000150: 2871 373c b030 edbc 8429 ec3c 4fd7 853d
00000160: cdcb 40bd d49b 4d3d 1300 74bc 13dc 91bd
00000170: fc05 48bd 5059 acbd 95ab 893d 17e2 95bc
00000180: 876f 7d3d c072 653d 084d c53c 4d80 b2bd
00000190: ce20 723d 30e9 3a3d 59d7 9abd 701d 6fbd
000001a0: 5427 f5bb f053 29bb f46a 523d aa85 6d3b
000001b0: 10a6 8abd 409a bebb b70a b7bd c495 ddbc
000001c0: d216 e0bb 9a63 613d 039c ab3d 54c5 a7bd
000001d0: a839 81bc c370 bbbc e0b0 6ebd 334f 5abd
000001e0: bff2 2b3c 617e 8c3c c501 76bd 3286 593d
000001f0: 1009 60bd cfcd df3c 2550 d2bc 8db4 b6bc
00000200: a586 57bc c8d4 3cbd 9b34 6dbd 53bf 9e3d
00000210: 6e78 87bc 6090 94bd a3df 19bd 41bc 6cba
00000220: 8b4f 693d 59e2 9b3d 90b0 a8bd 3f16 813d
00000230: 8b5b 303b 96c8 353d 5a72 9f3d 66a6 103d
00000240: e033 8f3b 117d 38bd ec76 9c3c 12e5 833d
00000250: 6a1f 573d af81 823d f81d 773c 4d79 113d
00000260: a70f 943d a1ad a2bd f60a 5a3d d8ed afbd
00000270: 5881 9f3c 592d 993d f83d afbc e7b0 8ebd
00000280: bf99 b23a 984f 25bc 276d 4fbc 166e 323d
00000290: 80e6 1cbd da67 543d 4fbc 1dbc e858 853b
000002a0: ec2c 23bd ee24 593d ccb3 25bd 2a7d 293d
000002b0: 35c3 bdbc 2e3b 363c 4ceb 90bd 0f58 803c
000002c0: 352a 06bd 7a28 6ebd 9687 b5bc 8f05 953c
000002d0: 09a0 2c3d e89d 473d cfdf 60bd 7533 88bd
000002e0: 7a71 483d f9b3 5c3b 5d0e e23c 7200 b1bb
000002f0: 2bf1 80bd b2bb 28bd fe75 b03d ce3a 4fbd
00000300: 8f94 9b3d c3f8 2abd adff db3c aca0 ddbc
00000310: aa9a 10bd 9d8d 673d a10b 6bbc 3f2a 12bd
00000320: 5b4c 853d 9145 a4b9 3770 903d 58de a9bd
00000330: e041 083b d63c 6abb 37ae 883d 7366 693c
00000340: 1647 68bd 0dfc 973d 53e6 933d c549 6e3d
00000350: 98a3 7b3c c6ed 62bc 00f7 ee3b e641 1a3d
00000360: 0d44 84bc c15c 943d 5b12 973d 65c3 3abc
00000370: 4aa7 18bd 8cfc 94bc aa8c 063d 4a57 babd
00000380: 8236 84bc f3ab 0bbb 04b9 e53c 0098 2838
00000390: 7293 94bd 5fb3 453d 398a 3abd 0e85 193d
000003a0: adda 25bd 5b50 663c 2f1b 61ba 491d e73c
000003b0: 51f9 83bd 5cdc 7cbd 78e1 ffbb fe77 91bd
000003c0: d830 38bd ffd5 893d 953d 873d 9d00 363c
000003d0: 4ac4 773d 1546 6c3d 40e9 81bb cce3 aabd
000003e0: 0196 87bd 23bc 21bd 2405 f93c 6617 3fbd
000003f0: d704 023d 9561 40bd 1ac7 a53d 53f7 2c3d
-0.065555334 -0.051406953 0.013944842 0.07115423 0.05324388 0.068085834 0.0143924905 -0.07405475
-0.0012911882 0.07722306 -0.023496356 0.07504405 -0.08871892 -0.07381533 0.0635141 -0.07722321
-0.055150256 0.03678174 -0.06689057 -0.021920852 -0.005361064 0.0040547224 -0.051718965 -0.04355411
-0.055081416 0.06553701 0.005107133 0.011820099 -0.023408437 -0.024610624 0.0058271512 -0.06591944
-0.09017176 -0.0030793394 -0.07102491 -0.069080316 0.015413499 0.072180055 0.030476121 -0.016263884
0.08365608 -0.0005547181 -0.010941122 0.05872181 -0.0028273957 0.002138935 -0.067989886 -0.03307885
-0.037144795 0.081300415 -0.065109156 0.07500779 0.058752593 -0.057084072 -0.05613904 -0.0821692
-0.028873973 0.03924938 -0.07335401 0.022888815 0.018992446 0.068051495 0.00599283 -0.0038715766
0.068608314 -0.08334642 0.087320305 0.07970717 -0.015599161 0.050624892 -0.0343738 0.010718219
-0.064154975 -0.030946309 0.033673562 0.013391443 -0.027773391 -0.08466092 -0.054784972 0.047693484
0.0800553 -0.067654744 -0.068787724 -0.053678572 0.011196412 -0.02895388 0.02882839 0.065352075
-0.04706936 0.050197437 -0.014892596 -0.07122054 -0.048833832 -0.084154725 0.0672218 -0.018296285
0.06187394 0.056017637 0.024084583 -0.08715878 0.059113316 0.04563254 -0.075606056 -0.058377683
-0.007481495 -0.0025837384 0.05137153 0.0036243 -0.06769955 -0.005816728 -0.089375906 -0.027048953
-0.006838658 0.055026628 0.08379366 -0.08191934 -0.015774563 -0.022880917 -0.05827415 -0.053298187
0.010494887 0.017150106 -0.06006028 0.053106494 -0.054696143 0.027319817 -0.025672982 -0.02230289
-0.01315466 -0.04610136 -0.057911497 0.07751336 -0.016536918 -0.072541 -0.037566792 -0.00090307376
0.056960624 0.07611532 -0.082368016 0.06303071 0.0026910033 0.044380747 0.07785483 0.03531494
0.0043701977 -0.045041148 0.019099675 0.06440176 0.052520193 0.063723914 0.015082829 0.035516072
0.07229548 -0.07943273 0.05323311 -0.08590287 0.019470856 0.074793525 -0.021391854 -0.06967335
0.0013626142 -0.010089777 -0.012660301 0.043562017 -0.03830576 0.051856853 -0.009627416 0.0040694363
-0.039837763 0.053013735 -0.04045467 0.04137913 -0.023164371 0.011122508 -0.07076129 0.01566699
-0.032755096 -0.05814407 -0.022159379 0.018191127 0.04214481 0.048734576 -0.05490094 -0.0665044
0.048936345 0.0033676608 0.02759474 -0.0054016644 -0.06295999 -0.041194625 0.08616255 -0.05059319
0.07596695 -0.041741144 0.026855314 -0.027054153 -0.03530375 0.056531537 -0.014346034 -0.03568482
0.06508704 -0.0003133235 0.07052653 -0.08294362 0.0020791218 -0.0035741827 0.06673854 0.014245617
-0.056708418 0.07421122 0.07221665 0.05817582 0.015358828 -0.013850635 0.0072926283 0.037660502
-0.01614573 0.07244254 0.07376548 -0.011399125 -0.037268914 -0.01818683 0.03284899 -0.0909868
-0.016139273 -0.0021312207 0.028042324 4.0195882e-05 -0.072546855 0.048266765 -0.045541976 0.037480406
-0.04049175 0.014057244 -0.00085871195 0.028212206 -0.06444038 -0.06173359 -0.0078088604 -0.07102965
-0.044968456 0.0673027 0.06603543 0.011108545 0.06048993 0.057684023 -0.003964573 -0.0834423
-0.06620408 -0.03948606 0.030397959 -0.046653174 0.031742897 -0.04696806 0.08094616 0.042228054

fc2.bias f4 [64]
00000000: 412b b03d 65a9 703b fd0c 4cbd 350d 063d
00000010: 807d e23a ffe4 cb3a 120f 993d 5f94 6dbc
00000020: aeb6 f9bc 8621 5d3d 1a85 21bd c7b8 a5bd
00000030: 0af6 383d 415f 953d 8d50 aa3d 29cf 693d
00000040: 78d3 b23c 8f1f a63d 2ab0 77bd 615f 8e3d
00000050: 0ebb 59bc 7f77 af3d 4abb c03d fdaf a63d
00000060: 89b9 e23c f91e 913d 47e6 89bd 50a9 c23c
00000070: f96e 8c3d f27d 8e3d 6965 d9bc 257b a1bd
00000080: 5fd1 7d3c 32fe 833d fdb9 ac3d d5e5 b23d
00000090: 9e1a 0dbd 85fa 8fbc 90f5 023c d83f 343d
000000a0: 3adf 20bd 9683 91bb 3465 b4bd e5e2 1b3d
000000b0: a24d 4fbd 86b8 183d a189 a53d 820f 7ebd
000000c0: 1cdd 89bd faba 423d 7a9a 363d 2940 a03d
000000d0: 3f21 8bbd ca7f 2d3d 3138 683d 907a 9dbc
000000e0: 6c90 cfbc 77c2 913d 58da d7bc 2e9c 483d
000000f0: adf2 193d 3756 a53d 771c 67bd 6aba d23a
0.08602 0.003672206 -0.049817074 0.03272744 0.0017279834 0.0015555917 0.074735776 -0.014500706
-0.030482616 0.05398705 -0.039433576 -0.08091884 0.045156516 0.07293559 0.08316145 0.05708233
0.021829352 0.08111488 -0.060470738 0.06951786 -0.013289226 0.08567714 0.094107226 0.08139036
0.02767636 0.07085986 -0.06733375 0.023762375 0.06857104 0.06957616 -0.026537614 -0.07884816
0.0154918125 0.06444968 0.08433912 0.08735243 -0.034449212 -0.017575512 0.007993117 0.0440062
-0.039275385 -0.004440735 -0.088083655 0.03805818 -0.050611146 0.03728535 0.08082891 -0.06202651
-0.067316264 0.047541596 0.044580914 0.078247376 -0.067934506 0.042358197 0.056694213 -0.019223481
-0.02533742 0.07117169 -0.026349232 0.04897707 0.03758495 0.08073085 -0.05642363 0.0016077284

fc3.weight f4 [32, 64]
00000000: c468 d73d 9c94 b8bc f919 8f3d 76f2 e1bd
00000010: 523c e1bd 712f debd 46a6 653d 10a5 703d
00000020: af90 a93d 042f 1abd 684f 97bd 8486 1d3d
00000030: 709d e53d 2052 b5bb abc9 e23d 1633 87bd
00000040: 7643 88bd bf41 3b3d 84d2 5c3d 8441 d53d
00000050: de61 8cbd 4f52 e23d 1606 dbbd 8aed dd3d
00000060: e370 fbbc c078 a63c bc5c 8f3c 801e 753c
00000070: b472 a4bd f729 fc3c 1a96 39bd b0f4 083d
00000080: 81e3 d2bd 8dde ae3c 8a65 c93d 7bab 883c
00000090: e0d9 b1bb e303 46bd 00cf 6dbd accf dc3d
000000a0: 8e31 063d 1e18 ecbc 602d 0cbc 9bb1 883d
000000b0: 8ead 9abd 59eb a33d 9c4f 7eba 901c 443c
000000c0: 6330 89bd 54c3 73bd 2427 07bd 202b e93d
000000d0: eaaa c63d c9f0 f4bd 0e29 1dbd b82a 1a3d
000000e0: 5879 9d3d 028f bfbb 982b b53c e0e5 3cbd
000000f0: 86ee 903b 447c cebd 5201 0d3c 678a c43d
00000100: 1f17 93bd 24f2 82bd 2307 003e aa1c 34bd
00000110: e5a7 0ebd 6765 a63d a4ae b5bd 8e49 663d
00000120: 1308 b53d 18e3 8fbd 7c19 48bc 20c3 3bbd
00000130: 8342 ea3d d84c dabc 9f74 0cbc e84c d43b
00000140: 8d6d e5bd 2616 8bbd 65a5 12bc 5096 a2bc
00000150: 6bdd b23d 914a aa3d 3207 fcbc 609b 6f3c
00000160: 725e a93c 946f 4d3d 4832 56bd 8220 de3d
00000170: c045 37b9 95a2 433b edaf 6bbd 4dd7 4b3d
00000180: 2a0e b9bd e004 b8bc fcb2 31bd d8cf 03bd
00000190: d0bc 393c ea94 21bd 2c48 dfbd 315a 993d
000001a0: 4c14 b33d ab2b 8e3d e48c 9b3d 5b69 77bd
000001b0: 78f9 d63d c18f 093d 3bfb e33d 0919 9f3d
000001c0: c43f c93c 34d6 f33d 18f8 823d 57ee 903b
000001d0: eb49 d33d 6a9e 313d 5ae5 b43d 7a79 ed3d
000001e0: 6422 4f3d 5634 533d 3ec5 b03d d893 8ebd
000001f0: 1c76 a23d 3528 5abd 2003 ef3d c06e 9b3d
00000200: 386f babd 48a3 bf3d 76b6 ef3c 8b14 b93d
00000210: ccaa e8bd 3603 c5bc 5f17 dd3c be1e 91bd
00000220: 80b4 f83d 0832 963d 67de a6bd f67b fdbd
00000230: f0f4 bc3d 58b6 993d 88f7 ccbc b4d4 aabd
00000240: 3559 d2bc 573b e0bd e7a3 22bc c8cb ea3d
00000250: a6cf bb3d b8c8 b5bb d83e e43c d075 05bd
00000260: 1e5c bf3d e0ad d13d 442d 153d fc30 b7bd
00000270: 563f e5bd 19e2 e4bd b4de 0cbd 804a 533d
00000280: 5f79 acbd 987c 2b3d 702b 613c e14d 84bd
00000290: b6f8 df3d 0060 e938 f623 d83d a97a 433d
000002a0: 2e9d ca3d 030b dabd 201b 3dbc 4e5e ee3d
000002b0: 30c8 123d 48d9 a33d b276 e33d e688 f2bc
000002c0: 7136 23bd c43d a93d 98c4 a23d 5079 c1bb
000002d0: 5a52 15bd 434d bfbd 0e5b f9bc 9826 78bd
000002e0: dc3f babd 5639 833c 45c5 0fbd 009b abbb
000002f0: b453 dbbd 519e 053d c28f 303d 7863 273d
00000300: c8ce 9dbd 2b39 a6bd 6546 adbc 7ab5 cabd
00000310: 5f4f 4e3c b995 05bd f450 61bb 8e23 93bd
00000320: 6aa7 f13d 8c30 7b3d 439c e53d b81e d9bc
00000330: b3a4 e53c d284 f93d c42b afbd 7011 b1bd
00000340: f3d8 333c 4136 7cbd f832 473d e2a0 f0bd
00000350: c24f 64bd 93c4 10bc 882b f4bd 1d9e c83d
00000360: eccf d7bd 70c4 55bc b4e2 5b3d b0f1 abbc
00000370: 6891 42bd dfec f1bd 3492 b4bd b51b 02bd
00000380: 0701 91bc 526f 243d 309b 4a3c 2227 803d
00000390: 0cef 8e3d 9893 a73d 2898 3c3d 07d5 3b3c
000003a0: 77a5 c23d 3402 233b c85f 9b3c 0a45 c0bc
000003b0: 9022 f5bd 2def d3bd f743 c2bd e07d a2bb
000003c0: 5bdc 33bd e0b0 3b3c 223e e43d 689f ccbd
000003d0: e37a ef3c 819d ee3d 8e8a f6bc d82f eabc
000003e0: c043 c83b 9bcd 7c3d 2b02 5abd 92e0 a5bd
000003f0: 41e2 843d 240c b73d ae97 74bd f5cb 003d
0.10518029 -0.0225318 0.06987376 -0.11032574 -0.10997833 -0.108488925 0.056066774 0.058751166
0.08279549 -0.037642494 -0.073881924 0.038458362 0.112116694 -0.0055334717 0.11073621 -0.06601541
-0.06653492 0.045716997 0.0539117 0.10412887 -0.06854604 0.11050855 -0.1069452 0.108363226
-0.030693477 0.02032125 0.017500274 0.014960885 -0.080296904 0.03078173 -0.045309164 0.033436477
-0.10297299 0.021346355 0.0983382 0.01668333 -0.005427584 -0.04834355 -0.05805874 0.10781798
0.032762103 -0.028820094 -0.00855574 0.066745006 -0.07552634 0.080038734 -0.0009701194 0.0119697
-0.06698682 -0.05951245 -0.03299631 0.113851786 0.09700568 -0.119599886 -0.03836923 0.037638396
0.0768916 -0.0058459053 0.022115514 -0.046117663 0.0044229655 -0.100822955 0.008606272 0.09596711
-0.071821444 -0.06393841 0.12502722 -0.04397265 -0.034828085 0.0812481 -0.08871201 0.05622249
0.08839431 -0.070257366 -0.012213107 -0.045840383 0.11438467 -0.02664797 -0.0085727265 0.0064788945
-0.11202536 -0.06791334 -0.008950566 -0.019847065 0.087336384 0.08315004 -0.03076515 0.014624447
0.020674918 0.050155237 -0.052294046 0.10846044 -0.00017478224 0.0029851545 -0.057540823 0.049765874
-0.09035905 -0.022463262 -0.043383583 -0.032180637 0.01133652 -0.039448656 -0.109024376 0.07487906
0.08744106 0.06941923 0.07595232 -0.06040321 0.10496801 0.03358436 0.11131903 0.07768447
0.024566539 0.119060904 0.063949764 0.0044229436 0.10316833 0.043363966 0.08832808 0.115954354
0.050569907 0.051563583 0.08631371 -0.06961793 0.07932684 -0.053261 0.11670518 0.07589483
-0.091032445 0.09357315 0.029261809 0.090371214 -0.11360702 -0.024049383 0.026988683 -0.07085942
0.12143803 0.073337615 -0.08147889 -0.12377159 0.092264056 0.075054824 -0.025020376 -0.08341351
-0.025677303 -0.10948818 -0.009926773 0.114646494 0.09170465 -0.005547609 0.027861997 -0.032583058
0.09343742 0.10238242 0.03642012 -0.0894489 -0.11193721 -0.11175937 -0.034392074 0.05158472
-0.08421587 0.04186687 0.013743266 -0.06460167 0.1093611 0.00011128187 0.10553734 0.0477244
0.09893261 -0.106466316 -0.011542112 0.11639081 0.035835445 0.080004275 0.11106624 -0.029606294
-0.03984684 0.08263734 0.079476535 -0.005904354 -0.03645549 -0.093409084 -0.030438926 -0.06058368
-0.090942115 0.01601855 -0.03510024 -0.0052369833 -0.107093245 0.032621685 0.043105848 0.040866345
-0.07705456 -0.08116373 -0.02115173 -0.09897895 0.012592166 -0.03261349 -0.0034380527 -0.07184516
0.1179951 0.061325595 0.11211445 -0.026503906 0.028032636 0.121835366 -0.085532695 -0.08645904
0.010977018 -0.061575178 0.048632592 -0.11749436 -0.055740125 -0.008835929 -0.119223654 0.09795783
-0.10537705 -0.013047323 0.053682998 -0.020989269 -0.04750195 -0.11812758 -0.088169485 -0.031764705
-0.017700685 0.040145226 0.012366101 0.06257464 0.06979188 0.08182448 0.046043545 0.011464364
0.09504216 0.002487314 0.01896657 -0.02347042 -0.11969483 -0.103483535 -0.094856195 -0.004958853
-0.04391132 0.0114557445 0.111446634 -0.09991342 0.029233402 0.11651135 -0.030095365 -0.028587267
0.006111592 0.06171952 -0.053224724 -0.08099474 0.06488467 0.089378625 -0.059714966 0.03144451

fc3.bias f4 [32]
00000000: df2e 29bc b822 f43d b60e 98bc ac53 e6bd
00000010: 5ffa d53c efe3 e0bd 5028 0b3e c428 4bbd
00000020: 12e6 debd 20cd 1cbc 4945 7d3c d6a9 cdbd
00000030: ac20 4c37 2cfd 873d b065 623c 0aef cf3d
00000040: a897 d7bc 0d71 bcb9 93fd 01bd 2488 f4bc
00000050: 0706 50bc 7aa3 ae3d 9a98 a8bd 3ca8 343c
00000060: 2ec8 133d 62c1 acbc 842e 98bd 6438 e43d
00000070: 4477 57bd 52a1 b8bd 385a 663d 821c d63d
-0.010326116 0.119206846 -0.018561702 -0.11246428 0.026120363 -0.10980975 0.13589597 -0.049599424
-0.10883726 -0.00957039 0.015458413 -0.10042159 1.2166955e-05 0.066400856 0.0138181895 0.10153015
-0.026317433 -0.00035942384 -0.031735968 -0.029850073 -0.0126967495 0.085272744 -0.082322314 0.011026438
0.036079578 -0.021088306 -0.07430747 0.11143568 -0.052603975 -0.090151444 0.056238383 0.10454656

fc4.weight f4 [6, 32]
00000000: b608 03be 538f db3d 076c c4bd 5516 2ebe
00000010: 8fd7 90bd 40f5 043d b06d 0ebe 2c89 603d
00000020: 1901 323e 5e8c bc3d 88ed 303e a77d e13d
00000030: 77cb 913d af07 11bd 1228 bd3d 26a5 ee3d
00000040: 04ab 6bbd 352c 10be e31b 2f3d 99ab 143e
00000050: ee8b b3bd 79a0 4d3d 9fdd 693d d0a8 82bd
00000060: a8e0 25be 7de0 2c3e b9f7 2ebe 50df 713c
00000070: e88e 07be cd8a 86bd 434c 16be 0e5e 953d
00000080: abc2 93bc 54e5 ce3d febe a2bd b678 173e
00000090: b963 d5bd bd9e f93d cd31 ffbd 660f 2ebe
000000a0: 40ed 523b 8408 2ebe a5f0 f2bd b4eb 2abe
000000b0: ee25 3dbd 9b29 28bd 618e 26be cca8 303d
000000c0: 522a 26be 195f 8b3c 0feb 4e3d 9ef6 f83d
000000d0: 26c4 ccbd 7375 e63d 0a51 10be 8e3b d0bd
000000e0: 00f1 bebd 8dbf c7bd a8bc bbbd a224 923d
000000f0: 523f 9f3d e60f 67bb 9c4a 8a3d 407d 05bd
00000100: fab0 2bbd 006e f4bd 8b54 acbd d387 07bd
00000110: e5e4 b7bb 590c 203e 9853 123e b03c 733c
00000120: f741 1f3e d3b3 d3bd 857b 9fbd 6510 a33d
00000130: be74 b0bd 5f63 29be a01d 14be 787d 4b3d
00000140: fe19 bf3d 71a5 09be 917f cf3b 2fe5 0f3a
00000150: 01dd cfbc 8e94 ad3c a180 65bd 4430 8ebd
00000160: 1a92 c2bd 689d bd3d dcd0 3fbd c2d0 efbd
00000170: a0ca a9bd 09b9 e7bd fb15 fc3d 466a f13d
00000180: 5118 febd d6cd 0a3e 91d8 313d 837d e03d
00000190: 0639 e53d 4216 a33d d339 0cbe 0b92 a8bd
000001a0: 1f71 f7bd 8a78 a73d 41de ed3d 8c58 2ebe
000001b0: 713a aa3d 002c 30bd e4eb 883d f628 c23d
000001c0: 86a7 c1bd e8c3 bc3d 3618 1cbe fda9 413c
000001d0: b653 b33d 2fb4 1ebe 16ad c939 2c71 0b3e
000001e0: e732 1c3d fea8 de3c 206e ab3c 59fd 103e
000001f0: ba96 9c3d 3313 883b 9e06 203d b6d4 fe3d
00000200: 98c1 ab3d 4e95 02be 549e 25be b51a c03d
00000210: 38c3 19be 6664 143e b611 783d e289 dbbd
00000220: 142e 6abd 615b 1c3e b14e f43d 9dfc bfbd
00000230: 83d8 e53d 0a5a b3bd 7397 273e aae8 ad3d
00000240: d40f b03d 5d94 22be b50b 0ebe b0ee e83d
00000250: 59cf 293e 2cf9 0b3d 5c8a d53d 3104 2ebe
00000260: b63f b73d 67be 73bd 5075 283c d3c8 e0bd
00000270: 78c2 b33c a3b8 2a3d 255f 1b3e 5d08 2e3e
00000280: 5383 423d 2ca5 2bbe a6a7 64bd c51f febb
00000290: 300f d03d a1bc 1fbe 0d29 35be 4656 ae3d
000002a0: 2c56 65bd 4d29 223e 6258 d13d 967a df3b
000002b0: df19 813c 8582 613d d419 043d 8bb7 1fbe
000002c0: b18a 433d 2d5d 02be 8a45 d63d 9668 653d
000002d0: 5de4 043e 9c22 a8bd 2840 29bc 9ac0 4fbb
000002e0: 67c1 3e3d 01c3 883d 17f9 233e da1c 08be
000002f0: d00b 033c 6729 edbd f11d 583d d0a7 7f3d
-0.12796292 0.10720696 -0.09590917 -0.17000706 -0.070723645 0.03246045 -0.1390903 0.054818317
0.17383231 0.092064604 0.17278111 0.110102944 0.07118886 -0.03540772 0.092361584 0.11652593
-0.05753614 -0.14079364 0.042751204 0.14518584 -0.08766924 0.050201867 0.05709612 -0.06379855
-0.16198981 0.1688251 -0.17086686 0.0147627145 -0.13238108 -0.06569443 -0.14677529 0.0729333
-0.01803716 0.101023346 -0.07946585 0.14792141 -0.10419411 0.1218848 -0.124606706 -0.16998062
0.003218487 -0.16995436 -0.118623056 -0.16691476 -0.04617875 -0.041055303 -0.1626525 0.043129727
-0.16227081 0.01701312 0.050517138 0.121564135 -0.0999835 0.112528704 -0.14093414 -0.10167609
-0.09323311 -0.09753332 -0.09166843 0.071358934 0.07775749 -0.003525728 0.06752512 -0.03259015
-0.041916825 -0.11935043 -0.08414563 -0.033088516 -0.005612003 0.1562971 0.14289701 0.014846012
0.15552507 -0.10337033 -0.07787231 0.079621114 -0.08616017 -0.16541813 -0.14464426 0.049680203
0.093311295 -0.13442017 0.006332346 0.0005489168 -0.025373938 0.021189 -0.056030873 -0.069428
-0.09500523 0.092585385 -0.046830043 -0.11709739 -0.08290601 -0.113145895 0.1230888 0.11787848
-0.12406982 0.13555083 0.043419424 0.109614395 0.11192517 0.0796323 -0.13693933 -0.082309805
-0.12082123 0.08177288 0.11614657 -0.17025965 0.08311928 -0.04301071 0.066856176 0.09480469
-0.09455781 0.09217054 -0.1524361 0.0118203135 0.08756201 -0.15498422 0.00038466667 0.1361739
0.03813448 0.027180191 0.020926535 0.14159144 0.07645936 0.0041526794 0.03906881 0.12442915
0.083865345 -0.12752268 -0.16173679 0.09380094 -0.15015876 0.14491424 0.060563765 -0.107196584
-0.05717285 0.15269233 0.11929072 -0.09374354 0.11222937 -0.08757408 0.16366367 0.08491643
0.08596769 -0.15876909 -0.13871653 0.11373651 0.16583003 0.034173176 0.104267806 -0.16993786
0.08947699 -0.059507754 0.010281876 -0.10975804 0.021943316 0.04167999 0.15173014 0.16995378
0.04748852 -0.16762227 -0.055823945 -0.007755252 0.10159147 -0.155993 -0.17691441 0.08512549
-0.055990383 0.15836067 0.10221936 0.0068200333 0.015759407 0.055056114 0.032251194 -0.1559736
0.04773969 -0.12730856 0.10462482 0.056007944 0.12977739 -0.08209726 -0.010330237 -0.0031700493
0.04657116 0.06677819 0.16012989 -0.13292256 0.007998422 -0.115801625 0.05276293 0.062415898

fc4.bias f4 [6]
00000000: d4d6 033e 0560 4e3c a36f 083e 825e 7dbd
00000010: 6464 91bd 4f99 923c
0.12874919 0.012596135 0.13323836 -0.061857708 -0.07099226 0.017895369
