src/params_data/240418_005728/77param.pt (torch, 46927 bytes, 8 tensors)

fc1.weight f4 [128, 4]
0	0xbdac4a01	-0.084125526
1	0x3e816b5f	0.2527723
2	0x3ee52874	0.44757426
3	0x3e988bc1	0.29794124
4	0xbea9ad40	-0.33139992
5	0xbef030f2	-0.46912342
6	0xbec140be	-0.37744707
7	0x3df51f40	0.11968851
8	0xbe05a7fc	-0.13052362
9	0x3ef584f7	0.47953007
10	0xbed61eee	-0.41820472
11	0xbe54f84e	-0.20797846
12	0xbedb352c	-0.42814004
13	0xbac87a00	-0.0015295148
14	0xbea82e5a	-0.32847863
15	0x3ea6d222	0.32582194
16	0xbe37e470	-0.17958236
17	0xbec25816	-0.3795783
18	0x3e317182	0.17328456
19	0x3d17b2a0	0.037035584
20	0xbe4b661c	-0.1986317
21	0xbe5cd66e	-0.21566173
22	0x3e4a93ce	0.19782946
23	0xbda2ab1d	-0.079427935
24	0xbe69c0df	-0.2282748
25	0xbe7954e4	-0.2434879
26	0x3eb46067	0.352298
27	0x3c828eb7	0.015937192
28	0x3bac5c80	0.0052600503
29	0xbef4d25c	-0.4781674
30	0x3c8a78b4	0.016903259
31	0xbdab9e08	-0.083797514
32	0xbea174e6	-0.315345
33	0x3eb15814	0.3463751
34	0xbe42d9de	-0.19028422
35	0x3c112e36	0.008861115
36	0x3eee4e0d	0.46543923
37	0x3e8c280e	0.2737431
38	0x3ed9d675	0.4254643
39	0xbef59665	-0.47966304
40	0x3dc53d78	0.09630865
41	0xbe1d8a97	-0.15384899
42	0x3db9df99	0.09075851
43	0xbed943c4	-0.42434514
44	0xbde63c8d	-0.11242018
45	0x3ed12da2	0.40855128
46	0xbc42e187	-0.01189459
47	0xbe9bf989	-0.30463818
48	0x3d21e9b4	0.039529517
49	0x3e7b77de	0.24557444
50	0xbe3b72cf	-0.18305515
51	0x3ef00956	0.46882123
52	0xbe270e71	-0.16314103
53	0x3e69723a	0.2279748
54	0xbe749db8	-0.2388829
55	0x3ef6df42	0.48217207
56	0xbe38640c	-0.18006915
57	0xbeb5bef7	-0.35497257
58	0x3e839a9c	0.25703895
59	0x3ba71b80	0.005099714
60	0x3ed9773e	0.42473787
61	0xbecc4960	-0.3989973
62	0xbe3a5e00	-0.1819992
63	0xbe7804b8	-0.2422055
64	0x3ec07b0c	0.37593877
65	0xbe1c4c90	-0.15263581
66	0xbdc4db08	-0.096120894
67	0x3e7296f0	0.2369039
68	0xbeed1962	-0.46308428
69	0xbd226ba2	-0.039653428
70	0x3ea100fc	0.31446064
71	0xbee45651	-0.44597104
72	0x3deab6e8	0.11460668
73	0xbe405a1c	-0.18784374
74	0xbdaafb98	-0.08348769
75	0x3ef5854c	0.4795326
76	0x3eb979cc	0.36225736
77	0xbeb3eeba	-0.3514307
78	0x3e4eef96	0.20208582
79	0xbe1925c0	-0.14955807
80	0x3ca8553e	0.02054846
81	0x3e46a439	0.19398583
82	0x3e9db51c	0.30802238
83	0xbede13c4	-0.43374455
84	0x3ed8329f	0.4222612
85	0x3d29080c	0.04126744
86	0x3e7bef61	0.24603035
87	0x3e58ef33	0.21184997
88	0x3d176790	0.036964
89	0xbef61e56	-0.4807002
90	0xbef2103a	-0.47278005
91	0xbedbd6be	-0.42937273
92	0xbebf773c	-0.37395656
93	0x3ea8dc9c	0.32980812
94	0x3e3912d7	0.18073593
95	0xbe88a07c	-0.2668494
96	0x3e806a8d	0.25081292
97	0x3ebc3e7b	0.3676642
98	0xbe7d60ef	-0.24744008
99	0x3e93f91b	0.2890099
100	0xbed0d11d	-0.4078454
101	0x3d25c335	0.040469367
102	0xbd2809d6	-0.041025005
103	0x3ee0035a	0.43752557
104	0xbe056ec8	-0.13030541
105	0xbe4f5fb4	-0.20251352
106	0x3e7f10b6	0.24908718
107	0x3de31f88	0.110899985
108	0x3e575778	0.2102946
109	0x3e94e173	0.29078254
110	0xbe9f7d6a	-0.3115037
111	0x3ed8547e	0.42251962
112	0xbef1edcb	-0.47251734
113	0x3ecc8ae4	0.39949715
114	0x3d0e75a4	0.03478016
115	0xbe865384	-0.26235592
116	0xbcd1f12b	-0.025627693
117	0x3ebaeb30	0.3650756
118	0x3ecb403a	0.39697438
119	0x3d96cf0b	0.07363709
120	0x3ed28d18	0.4112327
121	0xbdbf7308	-0.09348112
122	0xbe6c357c	-0.23067278
123	0xbeb6d30e	-0.35707897
124	0x3ef55d58	0.47922778
125	0x3e954aa1	0.291585
126	0x3cc61007	0.024177564
127	0x3e87a1cc	0.2649063
128	0xbd7163fb	-0.05893324
129	0x3ecaf0f1	0.3963695
130	0xbda0f0e3	-0.078584455
131	0x3e965721	0.2936335
132	0x3ecf6ff4	0.405151
133	0x3c02771a	0.007962966
134	0x3ed0ec35	0.40805212
135	0x3dc60957	0.0966975
136	0x3dbb36d9	0.09141321
137	0x3eed1448	0.46304536
138	0xbe79db07	-0.24399959
139	0xbe3ee237	-0.18640982
140	0x3d031b60	0.03200853
141	0xbed8d552	-0.4235025
142	0xbe1468b0	-0.1449306
143	0x3dcd5a20	0.100269556
144	0x3ed16e14	0.40904295
145	0xbcb91791	-0.022594245
146	0x3efc691b	0.4929894
147	0x3e8c4254	0.27394354
148	0x3e39cf18	0.18145406
149	0x3e90d133	0.28284606
150	0xbed00914	-0.40631926
151	0x3ef3b20c	0.47596776
152	0x3d6d85a0	0.057988763
153	0xbe4b76a0	-0.1986947
154	0x3d8bf3d1	0.06833614
155	0xbdcafc98	-0.0991146
156	0x3db16d85	0.08663467
157	0x3efb1819	0.49041823
158	0x3e18c018	0.14917028
159	0x3e0a5d60	0.13512182
160	0xbc874c16	-0.016515773
161	0x3eaad8ef	0.33368632
162	0x3e2275db	0.15865271
163	0xbeeb104a	-0.45910865
164	0x3eae8682	0.34086996
165	0xbecfef40	-0.4061222
166	0xbdcf2f28	-0.10116416
167	0x3deadac0	0.114675045
168	0xbead5406	-0.33853167
169	0xbeb6ec82	-0.35727316
170	0x3e0a718a	0.13519874
171	0xbdfdb8b0	-0.12388742
172	0xbec85f4d	-0.3913521
173	0x3ec6a45f	0.3879728
174	0x3e9b8a21	0.30378821
175	0x3e3eb4a7	0.18623601
176	0x3e0d1931	0.13779141
177	0x3efd71d7	0.49500915
178	0xbec5368e	-0.38518184
179	0xbe4d47a3	-0.20046858
180	0x3e8245d4	0.254439
181	0x3d9409a8	0.07228404
182	0xbe4f3130	-0.20233607
183	0xbde004ff	-0.10938453
184	0xbdb31ba3	-0.08745506
185	0x3e8932fc	0.2679671
186	0xbe455a71	-0.19272782
187	0xbe0a9572	-0.13533571
188	0xbcc4b707	-0.024013055
189	0x3cfefdb9	0.031126844
190	0xbe23dd6d	-0.16002436
191	0xbe1747c0	-0.14773464
192	0x3e8a86fa	0.27056104
193	0xbec0d20a	-0.37660247
194	0xbedb32fc	-0.42812335
195	0x3d360c80	0.044445515
196	0x3ecbe59a	0.3982361
197	0xbb979945	-0.0046264254
198	0xbed96f4a	-0.4246772
199	0xbe9371a2	-0.28797632
200	0xbeebdc01	-0.46066287
201	0x3e17b6b2	0.14815786
202	0xbeb0e71f	-0.3455133
203	0xbe9dc922	-0.30817515
204	0xbe20b088	-0.15692341
205	0x3e84e806	0.2595827
206	0x3bc67114	0.0060559604
207	0x3d816f9d	0.06320117
208	0x3e16ad74	0.14714605
209	0xbe0e5ed9	-0.13903369
210	0x3e968615	0.2939917
211	0xbeed8dc7	-0.4639723
212	0x3eb85b9e	0.36007398
213	0x3ec0fe2f	0.37693927
214	0xbd139039	-0.036026213
215	0xbe47b8d8	-0.19504106
216	0x3ec58f1e	0.38585752
217	0xbeda07bb	-0.42584023
218	0x3e8f0e4c	0.27940595
219	0xbe267884	-0.1625691
220	0xbd17d180	-0.03706503
221	0xbd9d1900	-0.07670784
222	0xbe8eb860	-0.27875042
223	0xbebd2278	-0.3694036
224	0xbe2d4fdc	-0.16924995
225	0xbe82569e	-0.2545671
226	0xbdd5c628	-0.10438186
227	0x3e47b840	0.1950388
228	0xbeaad818	-0.3336799
229	0xbe1ebd3c	-0.15501875
230	0x3d41b1c6	0.04728868
231	0xbe6ce9a0	-0.23135996
232	0x3e8a5604	0.2701875
233	0x3e6b1df9	0.22960652
234	0x3dd4288d	0.10359297
235	0xbdd53cb7	-0.10411971
236	0x3de4a4d8	0.11164254
237	0xbe6e3ec0	-0.23266125
238	0x3df09af3	0.11748304
239	0x3ec1fd52	0.3788858
240	0xbdf4917a	-0.1194181
241	0x3e551ceb	0.20811813
242	0x3eaf14e4	0.34195626
243	0x3effc5d7	0.49955627
244	0xbe9df37e	-0.30849832
245	0xbed659f8	-0.41865516
246	0xbead5966	-0.33857268
247	0x3a79e000	0.0009531975
248	0xbedc5af6	-0.43038148
249	0x3e80c694	0.25151503
250	0xbee54f78	-0.44787192
251	0xbcd44155	-0.025910059
252	0xbe9fab49	-0.31185368
253	0x3e4e84ef	0.20167898
254	0x3d9b0bc5	0.07570604
255	0x3e878119	0.2646568

fc1.bias f4 [128]
0	0xbec4dbd7	-0.38448974
1	0x3eff73b6	0.49892968
2	0xbed84df5	-0.42246976
3	0xbd0647f0	-0.03278345
4	0xbea021db	-0.3127583
5	0x3e9ec61f	0.3101053
6	0x3cf79841	0.030223968
7	0xbe27941e	-0.16365096
8	0xbe9ea1ae	-0.30982727
9	0xbe336870	-0.17520308
10	0x3d3215a6	0.043477677
11	0xbe525fe2	-0.20544389
12	0x3ef2eba2	0.474454
13	0x3e513c73	0.20433216
14	0xbe9709af	-0.29499575
15	0xbe9fcea2	-0.31212336
16	0xbef43fba	-0.4770487
17	0x3ef63447	0.4808676
18	0x3df1f6a0	0.11814618
19	0x3ee7ede0	0.45298672
20	0xbe6bac79	-0.23015012
21	0xbe799a32	-0.24375227
22	0xbe854ce4	-0.26035225
23	0x3e2c26ad	0.16811629
24	0xbeeb6257	-0.45973465
25	0x3ea05d1e	0.31321043
26	0xbe1a73fc	-0.15083307
27	0xbe2be8f8	-0.1678809
28	0x3ef77d30	0.48337698
29	0xbe8cf8ba	-0.27533513
30	0xbdb19080	-0.08670139
31	0x3ed63e62	0.4184447
32	0x3e7d8510	0.2475779
33	0x3e41ad82	0.18913844
34	0x3f005ad4	0.5013859
35	0x3d88eac8	0.06685406
36	0xbef5e40f	-0.48025557
37	0xbed2beea	-0.4116128
38	0xbe6faf57	-0.2340673
39	0xbef680c4	-0.48145115
40	0x3d0504f1	0.032475416
41	0xbe3a0b28	-0.18168318
42	0xbe2f3247	-0.17109023
43	0x3ebd94dc	0.37027633
44	0xbee4314f	-0.4456887
45	0x3f0114e3	0.50422496
46	0x3e51db44	0.204938
47	0x3ed3449d	0.41263285
48	0xbe905456	-0.28189343
49	0xbe8d2bf6	-0.27572602
50	0xbea7e0b1	-0.32788613
51	0xbefbeee8	-0.49205709
52	0x3ef1759b	0.47160038
53	0xbe94a846	-0.29034632
54	0x3da7e4d2	0.08197941
55	0xbea81b36	-0.3283326
56	0x3e54bf00	0.20775986
57	0xbe1a2514	-0.15053207
58	0x3e90c264	0.28273308
59	0xbe4d819e	-0.20068976
60	0x3ed40471	0.4140964
61	0x3ee6e074	0.4509312
62	0xbe83d799	-0.25750425
63	0x3ef73332	0.48281246
64	0xbeb05513	-0.34439906
65	0x3da95fd9	0.082702346
66	0xbc14aada	-0.009073937
67	0x3e708fee	0.23492405
68	0x3ed2c930	0.4116912
69	0xbebf1a12	-0.37324578
70	0xbe7b821a	-0.24561349
71	0xbea60a5a	-0.32429773
72	0x3dda2800	0.10652161
73	0x3e5991ca	0.2124702
74	0xbe1845cd	-0.14870377
75	0x3ec8b9fe	0.392044
76	0x3ebaef08	0.3651049
77	0x3ee598ba	0.44843084
78	0xbdc31ebd	-0.09527347
79	0xbcb82f93	-0.022483623
80	0x3ee5a541	0.4485264
81	0xbe9512a2	-0.29115778
82	0x3e310be4	0.17289692
83	0xbe376af6	-0.17911896
84	0x3eb975ce	0.3622269
85	0xbcbc3300	-0.022973537
86	0x3e9261d0	0.2859025
87	0xbd0d70b0	-0.034531295
88	0x3e0b11c0	0.1358099
89	0xbe5745b5	-0.21022685
90	0x3d651406	0.0559273
91	0x3cdf969e	0.0272935
92	0x3eb09755	0.34490457
93	0xbd962720	-0.07331681
94	0xbeb8f14a	-0.3612159
95	0xbd4b7517	-0.049672212
96	0xbe92cd9d	-0.28672495
97	0x3ee3db2c	0.44503152
98	0xbdad6028	-0.08465606
99	0x3cece660	0.028918445
100	0xbcb5b45b	-0.022180727
101	0x3db44bfe	0.08803557
102	0x3ebeb791	0.37249425
103	0x3e5e77b4	0.2172535
104	0xbef3407c	-0.47510135
105	0x3ed80d7e	0.42197794
106	0xbeda4a42	-0.4263478
107	0xbe3d739f	-0.18501137
108	0x3d3ea341	0.04654241
109	0x3e9959de	0.29951376
110	0xbed8d115	-0.42347017
111	0xbe91f488	-0.28506875
112	0xbee826fb	-0.4534224
113	0xbc9e10e0	-0.019295156
114	0x3e7bd01c	0.24591106
115	0x3e40445a	0.18776074
116	0xbefd0aaa	-0.494222
117	0xbea97dcc	-0.33103788
118	0x3c707340	0.014675915
119	0xbed76c76	-0.42074937
120	0x3e728529	0.23683609
121	0xbe63834b	-0.22218053
122	0x3eded033	0.43518218
123	0xbcc99db5	-0.024611333
124	0xbed04e1b	-0.4068459
125	0x3ea4f575	0.3221852
126	0x3ec2607e	0.37964243
127	0x3e778234	0.24170762

fc2.weight f4 [64, 128]
0	0xbd8481be	-0.06470059
1	0xbd529019	-0.051406953
2	0x3c5d0153	0.013489085
3	0x3d91b94f	0.07115423
4	0x3d53c480	0.05170107
5	0x3d89dfee	0.06732164
6	0x3c6ad296	0.014332434
7	0xbd9adf22	-0.075620905
8	0xba9123b5	-0.0011073264
9	0x3d9ff0f0	0.07809627
10	0xbccd1d95	-0.02503852
11	0x3d9c352b	0.076273285
12	0xbdb611de	-0.08890127
13	0xbd9732bb	-0.07382723
14	0x3d7ef578	0.062245816
15	0xbd9e2734	-0.07722321
16	0xbd61e53c	-0.055150256
17	0x3d18d59d	0.037313092
18	0xbd88fdec	-0.06689057
19	0xbcc03615	-0.023463288
20	0xbb931f75	-0.004489834
21	0x3b9bdaaa	0.0047562914
22	0xbd53d744	-0.051718965
23	0xbd2e1381	-0.04249907
24	0xbd6231ad	-0.055223156
25	0x3d83eabe	0.06441258
26	0x3b9e80c7	0.004837129
27	0x3c41a917	0.011820099
28	0xbcb5b014	-0.022178687
29	0xbcc1ec40	-0.023672223
30	0x3bbef1b0	0.0058271512
31	0xbd848206	-0.064701125
32	0xbdb6726c	-0.08908543
33	0xbb208668	-0.0024494175
34	0xbd909051	-0.07058776
35	0xbd8d79fb	-0.069080316
36	0x3c830350	0.01599279
37	0x3d93d323	0.072180055
38	0x3ced2d25	0.02895219
39	0xbc77cd95	-0.015124698
40	0x3dad8e80	0.08474445
41	0xba116a80	-0.0005547181
42	0xbc4c9a00	-0.012487888
43	0x3d749e69	0.059721384
44	0xbb5657d0	-0.003270615
45	0x3b0c2d60	0.002138935
46	0xbd8bacdd	-0.068200804
47	0xbd077db0	-0.03307885
48	0xbd182524	-0.037144795
49	0x3da680d5	0.081300415
50	0xbd8557f3	-0.065109156
51	0x3d9c28fc	0.07625005
52	0x3d7191fe	0.05897712
53	0xbd650aad	-0.055918384
54	0xbd6b5eec	-0.05746357
55	0xbda84853	-0.0821692
56	0xbcec891c	-0.028873973
57	0x3d1a6b3b	0.03769992
58	0xbd940313	-0.07227149
59	0x3caef53e	0.021357175
60	0x3ca2b903	0.019863611
61	0x3d8b5e95	0.068051495
62	0x3bc45f80	0.00599283
63	0xbb34a059	-0.0027561395
64	0x3d8ec500	0.069711685
65	0xbdaa1bb6	-0.08306067
66	0x3db16e88	0.0866366
67	0x3da48860	0.08033824
68	0xbc7f93a0	-0.015599161
69	0x3d48d1e2	0.049028285
70	0xbd0ccb8b	-0.0343738
71	0x3c2f9b78	0.010718219
72	0xbd8363af	-0.064154975
73	0xbd042707	-0.032263782
74	0x3d09ed4a	0.033673562
75	0x3c5b67c8	0.013391443
76	0xbce38506	-0.027773391
77	0xbdab6599	-0.083689876
78	0xbd662a78	-0.056192845
79	0x3d40f960	0.047112823
80	0x3da60392	0.0810615
81	0xbd8af0f7	-0.06784242
82	0xbd8ce094	-0.068787724
83	0xbd5df747	-0.0541909
84	0x3c377128	0.011196412
85	0xbce3feba	-0.027831424
86	0x3cec2984	0.02882839
87	0x3d85d74f	0.065352075
88	0xbd3c6048	-0.04599026
89	0x3d520f91	0.051284377
90	0xbc653b4c	-0.013991188
91	0xbd8fcf56	-0.07021968
92	0xbd4343e4	-0.047672167
93	0xbdac5950	-0.084154725
94	0x3d89ab95	0.0672218
95	0xbc8ef249	-0.017449515
96	0x3d8059ac	0.062671036
97	0x3d69d05a	0.057083465
98	0x3cc54d08	0.024084583
99	0xbdb2804d	-0.08715878
100	0x3d761a72	0.060083814
101	0x3d3dce36	0.046339236
102	0xbd99c040	-0.07507372
103	0xbd6f1d70	-0.058377683
104	0xbbf4f2d4	-0.0074752364
105	0xbace360d	-0.0015732661
106	0x3d526af4	0.05137153
107	0x3b8d4cf7	0.0043121534
108	0xbd8dc634	-0.0692257
109	0xbbbe9a40	-0.005816728
110	0xbdb5f559	-0.08884687
111	0xbcdd95c4	-0.027048953
112	0xbbcbb358	-0.006216448
113	0x3d61639a	0.055026628
114	0x3dab9c03	0.08379366
115	0xbda55ef6	-0.08074753
116	0xbc8139a8	-0.015774563
117	0xbcb5a6ea	-0.022174317
118	0xbd6eb0e0	-0.05827415
119	0xbd5a4f33	-0.053298187
120	0x3c2cf276	0.010555854
121	0x3c7f8d61	0.015597672
122	0xbd7601c5	-0.06006028
123	0x3d5da9b5	0.054116923
124	0xbd5eba77	-0.054377045
125	0x3cdfa144	0.027298577
126	0xbccbb1f5	-0.02486513
127	0xbcc04682	-0.02347112
128	0xbc56a07b	-0.013099785
129	0xbd3cd4c8	-0.04610136
130	0xbd6b85ca	-0.057500638
131	0x3d9ebf53	0.07751336
132	0xbc8f1a77	-0.017468674
133	0xbd97c11f	-0.07409882
134	0xbd1d80c4	-0.03845288
135	0xbaf7f5c7	-0.0018917852
136	0x3d6ab8d1	0.05730516
137	0x3d9c2458	0.076241195
138	0xbdaa98a1	-0.08329893
139	0x3d81a889	0.06330974
140	0x3b453c8e	0.0030095908
141	0x3d37248c	0.04471259
142	0x3d9d15b2	0.07670154
143	0x3d10a666	0.03531494
144	0x3b8f33e0	0.0043701977
145	0xbd3accfa	-0.045605637
146	0x3c9c76ec	0.019099675
147	0x3d81fd79	0.06347174
148	0x3d5798c3	0.05263592
149	0x3d826fa1	0.06368948
150	0x3c771df8	0.015082829
151	0x3d1231ef	0.03569215
152	0x3d94d27b	0.072667085
153	0xbda204c5	-0.07911066
154	0x3d53fe40	0.051756144
155	0xbdaf21cb	-0.08551367
156	0x3ca16bf8	0.019704804
157	0x3d996f62	0.07491948
158	0xbcaf3df8	-0.021391854
159	0xbd8e313e	-0.06942986
160	0x3ad606b6	0.0016328904
161	0xbc289361	-0.010289044
162	0xbc49c2ea	-0.012314538
163	0x3d326e16	0.043562017
164	0xbd1e0fbe	-0.03858923
165	0x3d56a1e2	0.052400477
166	0xbc2ce9cc	-0.010553788
167	0x3b8c9a8e	0.0042908853
168	0xbd224eac	-0.03962581
169	0x3d5924ee	0.053013735
170	0xbd2986b4	-0.04138823
171	0x3d2a00b8	0.04150459
172	0xbcba7d69	-0.022764878
173	0x3c47cc00	0.0121946335
174	0xbd9026d4	-0.07038656
175	0x3c850d4b	0.01624169
176	0xbd062a35	-0.032755096
177	0xbd6e287a	-0.05814407
178	0xbca890cf	-0.020576863
179	0x3c972ee3	0.018454975
180	0x3d29a1d1	0.041414086
181	0x3d48df11	0.049040858
182	0xbd6536d5	-0.055960495
183	0xbd883375	-0.0665044
184	0x3d48717a	0.048936345
185	0x3b1e56f2	0.002416071
186	0x3ce3ba55	0.027798811
187	0xbbcf3600	-0.006323576
188	0xbd80e028	-0.062927544
189	0xbd28bbb2	-0.041194625
190	0x3db1ddf0	0.08684909
191	0xbd4ea19a	-0.050447084
192	0x3d9bf435	0.07614938
193	0xbd297be3	-0.041377913
194	0x3ccf2ff9	0.02529143
195	0xbcdfab20	-0.027303278
196	0xbd109aaa	-0.03530375
197	0x3d63909f	0.055557843
198	0xbc62edef	-0.013850673
199	0xbd122a3f	-0.03568482
200	0x3d854c5b	0.06508704
201	0xbaba13bb	-0.0014196554
202	0x3d9159de	0.07097219
203	0xbda9de58	-0.08294362
204	0x3b0841e0	0.0020791218
205	0xbb6110d8	-0.0034342315
206	0x3d8673cf	0.065650575
207	0x3c6fa4c3	0.014626685
208	0xbd67a9df	-0.056558486
209	0x3d98b886	0.0745707
210	0x3d93e653	0.07221665
211	0x3d67b22c	0.056566402
212	0x3c7ba398	0.015358828
213	0xbc5fcde3	-0.013659927
214	0x3beef700	0.0072926283
215	0x3d1a41e6	0.037660502
216	0xbc8293de	-0.01593965
217	0x3d94c387	0.072638564
218	0x3d973ac9	0.07384259
219	0xbc37a678	-0.011209123
220	0xbd176632	-0.036962695
221	0xbc94fc8c	-0.01818683
222	0x3d068caa	0.03284899
223	0xbdba3787	-0.09092622
224	0xbc83fb62	-0.01611108
225	0xbaf0a6a9	-0.0018360215
226	0x3ce5b904	0.028042324
227	0x38289800	4.0195882e-05
228	0xbd944567	-0.072398
229	0x3d449237	0.047991004
230	0xbd390653	-0.045172047
231	0x3d19850e	0.037480406
232	0xbd28867c	-0.04114388
233	0x3c6b0063	0.014343354
234	0xb9b92537	-0.00035313677
235	0x3cea05f8	0.0285673
236	0xbd85d8f4	-0.06535521
237	0xbd77ea6b	-0.060526293
238	0xbc0a160f	-0.008428111
239	0xbd9177fe	-0.07102965
240	0xbd3871e5	-0.045030493
241	0x3d89d5ff	0.0673027
242	0x3d8855bb	0.06656977
243	0x3c39b0a8	0.011333622
244	0x3d77c44a	0.06048993
245	0x3d6c0224	0.05761923
246	0xbb81e940	-0.003964573
247	0xbdaae3cc	-0.0834423
248	0xbd851157	-0.06497448
249	0xbd25911d	-0.040421594
250	0x3cfcb564	0.030848213
251	0xbd3e77b9	-0.046500895
252	0x3cff6d1a	0.031179953
253	0xbd3ecacb	-0.046580117
254	0x3da5ca2a	0.080952
255	0x3d27d288	0.040972263

fc2.bias f4 [64]
0	0x3db1f339	0.08688969
1	0x3b1f1255	0.0024272401
2	0xbd4f1bab	-0.050563496
3	0x3d049f5b	0.032378536
4	0x3b7d450b	0.003864589
5	0x3b77ab9a	0.0037791491
6	0x3d95f72d	0.07322536
7	0xbc75b648	-0.0149970725
8	0xbcefb543	-0.029261237
9	0x3d5d2186	0.05398705
10	0xbd2759e8	-0.040857226
11	0xbda5b8c7	-0.08091884
12	0x3d4458e1	0.047936324
13	0x3d955f41	0.07293559
14	0x3da7b864	0.081894666
15	0x3d67e14e	0.05661135
16	0x3cb99ad1	0.02265683
17	0x3da03bb6	0.07823889
18	0xbd74704b	-0.059677403
19	0x3d8e5f61	0.06951786
20	0xbc49a18a	-0.01230658
21	0x3db60c0e	0.08889018
22	0x3dc68d61	0.09694935
23	0x3da7a4d7	0.081857376
24	0x3cce33bf	0.025171159
25	0x3d911ef9	0.07085986
26	0xbd8b9eb7	-0.06817382
27	0x3cc2a950	0.023762375
28	0x3d8b0cb3	0.067895316
29	0x3d8f7377	0.07004445
30	0xbce2e7c0	-0.027698398
31	0xbda27d30	-0.07934034
32	0x3c562e11	0.0130725065
33	0x3d7c17d9	0.06154618
34	0x3dabb13f	0.083834164
35	0x3db4dfa0	0.088317156
36	0xbd0d1a9e	-0.034449212
37	0xbc972931	-0.018452259
38	0x3c02f590	0.007993117
39	0x3d2f4702	0.042792328
40	0xbd202b9c	-0.03910409
41	0xbb342934	-0.002749038
42	0xbdb46534	-0.088083655
43	0x3d1ebe40	0.038755655
44	0xbd4f4da2	-0.050611146
45	0x3d11190f	0.03542429
46	0x3da5c0b8	0.08093399
47	0xbd770975	-0.060311753
48	0xbd8c12ba	-0.06839509
49	0x3d42bafa	0.047541596
50	0x3d369a7a	0.044580914
51	0x3da04029	0.078247376
52	0xbd86a890	-0.065751195
53	0x3d34653c	0.044041857
54	0x3d6d2e63	0.057905566
55	0xbc9d7a90	-0.019223481
56	0xbccf906c	-0.02533742
57	0x3d91f07b	0.07125946
58	0xbcc737de	-0.024318632
59	0x3d489c2e	0.04897707
60	0x3d179e47	0.03701618
61	0x3da60679	0.08106703
62	0xbd621b0a	-0.055201568
63	0x3a855036	0.0010171

fc3.weight f4 [32, 64]
0	0x3dd58f95	0.10427777
1	0xbcb96bec	-0.022634469
2	0x3d8ed5d4	0.06974378
3	0xbde1f276	-0.11032574
4	0xbde1f5a1	-0.11033178
5	0xbddedf53	-0.108824395
6	0x3d65a646	0.056066774
7	0x3d708947	0.058724668
8	0x3da990af	0.08279549
9	0xbd1a2f04	-0.037642494
10	0xbd97c5d0	-0.074107766
11	0x3d1d8684	0.038458362
12	0x3de597b5	0.112105764
13	0xbbb55220	-0.0055334717
14	0x3de0775c	0.10960266
15	0xbd873316	-0.06601541
16	0xbd88c8af	-0.06678902
17	0x3d3a57da	0.045493938
18	0x3d5cb35a	0.05388198
19	0x3dd54184	0.10412887
20	0xbd8c6a1e	-0.06856178
21	0x3de21e7e	0.11040972
22	0xbddd60fa	-0.108095124
23	0x3ddbc8bb	0.10731646
24	0xbcfb70e3	-0.030693477
25	0x3ca678c0	0.02032125
26	0x3c8f5cbc	0.017500274
27	0x3c751e80	0.014960885
28	0xbda472b4	-0.080296904
29	0x3cf49374	0.029855467
30	0xbd3dbeb1	-0.046324436
31	0x3d088a67	0.033335116
32	0xbdd2e381	-0.10297299
33	0x3cadd02d	0.02121743
34	0x3dc729a2	0.09724738
35	0x3c86a31b	0.016435197
36	0xbbb1d9e0	-0.005427584
37	0xbd4a6cba	-0.049420096
38	0xbd6dcf00	-0.05805874
39	0x3ddba26b	0.10724338
40	0x3d06318e	0.032762103
41	0xbcecb3ee	-0.02889439
42	0xbc0c2d60	-0.00855574
43	0x3d86d7b8	0.06584114
44	0xbd9aad8e	-0.07552634
45	0x3da1e501	0.07905007
46	0xba8f6d20	-0.0010942556
47	0x3c441c90	0.0119697
48	0xbd893063	-0.06698682
49	0xbd73c354	-0.05951245
50	0xbd072724	-0.03299631
51	0x3de92b20	0.113851786
52	0x3dc6aaea	0.09700568
53	0xbdf54468	-0.11975938
54	0xbd1dbf3a	-0.038512446
55	0x3d1a2ab8	0.037638396
56	0x3d9d7958	0.0768916
57	0xbbbf8f02	-0.0058459053
58	0x3cb24e37	0.021765811
59	0xbd3ce5e0	-0.046117663
60	0x3b8d12d1	0.0043052216
61	0xbdcf0590	-0.10108483
62	0x3bf7d72e	0.007563493
63	0x3dc42eb3	0.0957922
64	0xbd91a1dc	-0.0711095
65	0xbd836c4a	-0.06417139
66	0x3dff9304	0.12479213
67	0xbd3563a2	-0.04428447
68	0xbd1012dd	-0.03517424
69	0x3da5f6d6	0.08103721
70	0xbdb610be	-0.08889912
71	0x3d650d07	0.055920627
72	0x3db522d2	0.08844532
73	0xbd8fe318	-0.070257366
74	0xbc49a8b7	-0.012308291
75	0xbd3bc320	-0.045840383
76	0x3de9a3b4	0.11408177
77	0xbcda4cd8	-0.02664797
78	0xbbd1e5de	-0.006405576
79	0x3bd1f045	0.006406816
80	0xbde4eb79	-0.11177725
81	0xbd8b6378	-0.068060815
82	0xbc182706	-0.009286648
83	0xbca29650	-0.019847065
84	0x3db23801	0.08702088
85	0x3da9c269	0.08289034
86	0xbcf56533	-0.029955482
87	0x3c856611	0.01628402
88	0x3ca856e8	0.020549253
89	0x3d4d6f94	0.050155237
90	0xbd5730e1	-0.05253685
91	0x3dde2082	0.10846044
92	0x39313bc7	0.00016902304
93	0x3b73a32b	0.0037176113
94	0xbd620b66	-0.05518665
95	0x3d4a8a02	0.04944802
96	0xbdb96325	-0.090521134
97	0xbcb9bbb5	-0.022672513
98	0xbd26efea	-0.040756144
99	0xbd04c001	-0.03240967
100	0x3c39bcd0	0.01133652
101	0xbd1de21f	-0.038545724
102	0xbddf482c	-0.109024376
103	0x3d99e52f	0.075144164
104	0x3db327e1	0.08747841
105	0x3d8dbb99	0.06920547
106	0x3d9b8ce4	0.07595232
107	0xbd707eca	-0.058714665
108	0x3dd6f978	0.10496801
109	0x3d1015d7	0.035177078
110	0x3de371d9	0.11105699
111	0x3da115f0	0.07865512
112	0x3cc7921a	0.024361659
113	0x3df3d634	0.119060904
114	0x3d82f818	0.063949764
115	0x3b90ee57	0.0044229436
116	0x3dd30074	0.10302821
117	0x3d314ec9	0.043288026
118	0x3db49001	0.08816529
119	0x3ded797a	0.115954354
120	0x3d4f2264	0.050569907
121	0x3d5390c8	0.051651746
122	0x3db09955	0.08622996
123	0xbd8e93d8	-0.06961793
124	0x3da1fb31	0.07909239
125	0xbd5a1e12	-0.053251334
126	0x3df41ad2	0.11919178
127	0x3d9a7d10	0.07543385
128	0xbdba6f38	-0.091032445
129	0x3dbfa348	0.09357315
130	0x3cefb676	0.029261809
131	0x3db9148b	0.090371214
132	0xbde8aacc	-0.11360702
133	0xbcc50336	-0.024049383
134	0x3cdd175f	0.026988683
135	0xbd911ebe	-0.07085942
136	0x3df8b480	0.12143803
137	0x3d963208	0.073337615
138	0xbda6de67	-0.08147889
139	0xbdfd7bf6	-0.12377159
140	0x3dbcf4f0	0.092264056
141	0x3d99b658	0.075054824
142	0xbcccf788	-0.025020376
143	0xbdaad4b4	-0.08341351
144	0xbcd25935	-0.025677303
145	0xbde03b57	-0.10948818
146	0xbc22a3e7	-0.009926773
147	0x3deacbc8	0.114646494
148	0x3dbbcfa6	0.09170465
149	0xbbb5c8b8	-0.005547609
150	0x3ce43ed8	0.027861997
151	0xbd0575d0	-0.032583058
152	0x3dbf5c1e	0.09343742
153	0x3dd1ade0	0.10238242
154	0x3d152d44	0.03642012
155	0xbdb730fc	-0.0894489
156	0xbde53f56	-0.11193721
157	0xbde4e219	-0.11175937
158	0xbd0cdeb4	-0.034392074
159	0x3d534a80	0.05158472
160	0xbdac795f	-0.08421587
161	0x3d2b7c98	0.04186687
162	0x3c612b70	0.013743266
163	0xbd844de1	-0.06460167
164	0x3ddff8b6	0.1093611
165	0x38e96000	0.00011128187
166	0x3dd823f6	0.10553734
167	0x3d437aa9	0.0477244
168	0x3dca9d2e	0.09893261
169	0xbdda0b03	-0.106466316
170	0xbc3d1b20	-0.011542112
171	0x3dee5e4e	0.11639081
172	0x3d12c830	0.035835445
173	0x3da3d948	0.080004275
174	0x3de376b2	0.11106624
175	0xbcf288e6	-0.029606294
176	0xbd233671	-0.03984684
177	0x3da93dc4	0.08263734
178	0x3da2c498	0.079476535
179	0xbbc17950	-0.005904354
180	0xbd15525a	-0.03645549
181	0xbdbf4d43	-0.093409084
182	0xbcf95b0e	-0.030438926
183	0xbd782698	-0.06058368
184	0xbdba3fdc	-0.090942115
185	0x3c833956	0.01601855
186	0xbd0fc545	-0.03510024
187	0xbbab9b00	-0.0052369833
188	0xbddb53b4	-0.107093245
189	0x3d059e51	0.032621685
190	0x3d308fc2	0.043105848
191	0x3d276378	0.040866345
192	0xbd9dcec8	-0.07705456
193	0xbda6392b	-0.08116373
194	0xbcad4665	-0.02115173
195	0xbdcab57a	-0.09897895
196	0x3c4e4f5f	0.012592166
197	0xbd0595b9	-0.03261349
198	0xbb6150f4	-0.0034380527
199	0xbd93238e	-0.07184516
200	0x3df1a76a	0.1179951
201	0x3d7b308c	0.061325595
202	0x3de59c43	0.11211445
203	0xbcd91eb8	-0.026503906
204	0x3ce5a4b3	0.028032636
205	0x3df984d2	0.121835366
206	0xbdaf2bc4	-0.085532695
207	0xbdb11170	-0.08645904
208	0x3c33d8f3	0.010977018
209	0xbd7c3641	-0.061575178
210	0x3d4732f8	0.048632592
211	0xbdf0a0e2	-0.11749436
212	0xbd644fc2	-0.055740125
213	0xbc10c493	-0.008835929
214	0xbdf42b88	-0.119223654
215	0x3dc89e1d	0.09795783
216	0xbdd7cfec	-0.10537705
217	0xbc55c470	-0.013047323
218	0x3d5be2b4	0.053682998
219	0xbcabf1b0	-0.020989269
220	0xbd429168	-0.04750195
221	0xbdf1ecdf	-0.11812758
222	0xbdb49234	-0.088169485
223	0xbd021bb5	-0.031764705
224	0xbc910107	-0.017700685
225	0x3d246f52	0.040145226
226	0x3c4a9b30	0.012366101
227	0x3d802722	0.06257464
228	0x3d8eef0c	0.06979188
229	0x3da79398	0.08182448
230	0x3d3c9828	0.046043545
231	0x3c3bd507	0.011464364
232	0x3dc2a577	0.09504216
233	0x3b230234	0.002487314
234	0x3c9b5fc8	0.01896657
235	0xbcc0450a	-0.02347042
236	0xbdf52290	-0.11969483
237	0xbdd3ef2d	-0.103483535
238	0xbdc243f7	-0.094856195
239	0xbba27de0	-0.004958853
240	0xbd33dc5b	-0.04391132
241	0x3c3bb0e0	0.0114557445
242	0x3de43e22	0.111446634
243	0xbdcc9f68	-0.09991342
244	0x3cef7ae3	0.029233402
245	0x3dee9d81	0.11651135
246	0xbcf68a8e	-0.030095365
247	0xbcea2fd8	-0.028587267
248	0x3bc843c0	0.006111592
249	0x3d7ccd9b	0.06171952
250	0xbd5a022b	-0.053224724
251	0xbda5e092	-0.08099474
252	0x3d84e241	0.06488467
253	0x3db70c24	0.089378625
254	0xbd7497ae	-0.059714966
255	0x3d00cbf5	0.03144451

fc3.bias f4 [32]
0	0xbc30d8bd	-0.010793862
1	0x3df6ff95	0.12060467
2	0xbc980eb6	-0.018561702
3	0xbde653ac	-0.11246428
4	0x3cc656c7	0.0242113
5	0xbdde8e12	-0.108669415
6	0x3e0e3462	0.1388717
7	0xbd4b28c4	-0.049599424
8	0xbddee612	-0.10883726
9	0xbc1ccd20	-0.00957039
10	0x3c779e99	0.015113496
11	0xbdccc94c	-0.09999332
12	0xba121e22	-0.0005573948
13	0x3d86810d	0.06567583
14	0x3c6265b0	0.0138181895
15	0x3dcfef0a	0.10153015
16	0xbcd797a8	-0.026317433
17	0x39d82fcd	0.00041234345
18	0xbd046db3	-0.03233118
19	0xbcf48824	-0.029850073
20	0xbc5c092d	-0.013429922
21	0x3db33e7a	0.08752151
22	0xbda6ac9b	-0.08138391
23	0x3c34a83c	0.011026438
24	0x3d0f60d0	0.035004437
25	0xbcb2d6e2	-0.02183098
26	0xbd982e84	-0.07430747
27	0x3de43864	0.11143568
28	0xbd577744	-0.052603975
29	0xbdb8a152	-0.090151444
30	0x3d616d6e	0.055036
31	0x3dd61c82	0.10454656

fc4.weight f4 [6, 32]
0	0xbe0308b6	-0.12796292
1	0x3ddbe4f1	0.107370265
2	0xbdc46c07	-0.09590917
3	0xbe2e1655	-0.17000706
4	0xbd906cb9	-0.07051987
5	0x3d058911	0.03260142
6	0xbe0e71d8	-0.13910615
7	0x3d60892c	0.054818317
8	0x3e320119	0.17383231
9	0x3dbc8c5e	0.092064604
10	0x3e30d102	0.1726723
11	0x3de05194	0.1095306
12	0x3d925fa7	0.071471505
13	0xbd126b95	-0.03574713
14	0x3dbd2812	0.092361584
15	0x3deea526	0.11652593
16	0xbd6bab04	-0.05753614
17	0xbe0fa77c	-0.14028734
18	0x3d2ff765	0.042960543
19	0x3e14ab99	0.14518584
20	0xbdb32bea	-0.0874861
21	0x3d4e0791	0.050300185
22	0x3d646418	0.05575952
23	0xbd82a8d0	-0.06379855
24	0xbe25a48c	-0.16176051
25	0x3e2d0c81	0.16899301
26	0xbe2ef7b9	-0.17086686
27	0x3c71df50	0.0147627145
28	0xbe078ee8	-0.13238108
29	0xbd868acd	-0.06569443
30	0xbe15e568	-0.14638293
31	0x3d955e0e	0.0729333
32	0xbc90dd7a	-0.017683733
33	0x3dce919e	0.10086368
34	0xbda2befe	-0.07946585
35	0x3e1778b6	0.14792141
36	0xbdd5605e	-0.10418771
37	0x3df962f5	0.12177078
38	0xbdffa7d3	-0.12483182
39	0xbe2e0f66	-0.16998062
40	0x3b52ed40	0.003218487
41	0xbe2e0884	-0.16995436
42	0xbdf06bf3	-0.1173934
43	0xbe2acef9	-0.16680516
44	0xbd3c46bb	-0.04596589
45	0xbd2ba8a6	-0.041908883
46	0xbe268e61	-0.1626525
47	0x3d30a8cc	0.043129727
48	0xbe262a52	-0.16227081
49	0x3c832f3b	0.016013732
50	0x3d4ed347	0.05049446
51	0x3df8f69e	0.121564135
52	0xbdcb06b3	-0.09913387
53	0x3de5b9f7	0.112171106
54	0xbe117a2e	-0.14206764
55	0xbdd03b8e	-0.10167609
56	0xbdbefad8	-0.093251884
57	0xbdc7380c	-0.09727487
58	0xbdbbbca8	-0.09166843
59	0x3d9224a2	0.071358934
60	0x3d9f3f52	0.07775749
61	0xbb670fe6	-0.003525728
62	0x3d8a9ac8	0.067678034
63	0xbd057d40	-0.03259015
64	0xbd2ab56a	-0.041676916
65	0xbdf3cdd4	-0.11904493
66	0xbdac548b	-0.08414563
67	0xbd0787d3	-0.033088516
68	0xbbb348b0	-0.0054713115
69	0x3e2045e3	0.1565166
70	0x3e12675a	0.14297238
71	0x3c733cb0	0.014846012
72	0x3e1f41f7	0.15552507
73	0xbdd3b3d3	-0.10337033
74	0xbda3f84b	-0.080063425
75	0x3da22594	0.07917324
76	0xbdafa03c	-0.08575484
77	0xbe292820	-0.16519213
78	0xbe141da0	-0.14464426
79	0x3d4b7d78	0.049680203
80	0x3dbf19fe	0.093311295
81	0xbe08d932	-0.13364103
82	0x3bd7c152	0.006584325
83	0x3a0fe52f	0.0005489168
84	0xbcdbecde	-0.026846346
85	0x3cafb9d0	0.021450907
86	0xbd5defaa	-0.05418364
87	0xbd8e3044	-0.069428
88	0xbdc21103	-0.09475901
89	0x3dbded15	0.092737354
90	0xbd3fd0dc	-0.046830043
91	0xbdefd0c2	-0.11709739
92	0xbda9caa0	-0.08290601
93	0xbde7b909	-0.113145895
94	0x3dfc8917	0.12330835
95	0x3df16a46	0.11787848
96	0xbdfdb45a	-0.12387915
97	0x3e0aa9b4	0.13541299
98	0x3d31d891	0.043419424
99	0x3de07d83	0.109614395
100	0x3de41dfc	0.111385316
101	0x3da28985	0.07936386
102	0xbe0b309f	-0.13592766
103	0xbda8920b	-0.082309805
104	0xbdf7711f	-0.12082123
105	0x3da7788a	0.08177288
106	0x3df173cc	0.117896646
107	0xbe2cd92e	-0.16879722
108	0x3da98dec	0.082790226
109	0xbd3c62c4	-0.045992628
110	0x3d88ebe4	0.066856176
111	0x3dc228f6	0.09480469
112	0xbdc1a786	-0.09455781
113	0x3dbd4042	0.09240772
114	0xbe1c0f28	-0.15240157
115	0x3c41a9fd	0.0118203135
116	0x3db6d8e0	0.089280844
117	0xbe1eb59c	-0.15498966
118	0xb8939593	-7.0373666e-05
119	0x3e0b712c	0.1361739
120	0x3d1c1dbd	0.038114298
121	0x3cde4abc	0.027135246
122	0x3cab6e20	0.020926535
123	0x3e10fd59	0.14159144
124	0x3d9c96ba	0.07645936
125	0x3b881333	0.0041526794
126	0x3d1f1cec	0.03884594
127	0x3dfed4b6	0.12442915
128	0x3dac146a	0.08402331
129	0xbe02b76f	-0.12765287
130	0xbe259e54	-0.16173679
131	0x3dc01ab5	0.09380094
132	0xbe19be83	-0.1501408
133	0x3e13fd79	0.14452161
134	0x3d7809cb	0.060556214
135	0xbddb89e2	-0.107196584
136	0xbd6a2e14	-0.05717285
137	0x3e1c5b61	0.15269233
138	0x3df4775c	0.119368285
139	0xbdbe5b86	-0.092948005
140	0x3de53e21	0.11193491
141	0xbdb27ec8	-0.08715588
142	0x3e279773	0.16366367
143	0x3dade8aa	0.08491643
144	0x3db00fd4	0.08596769
145	0xbe226027	-0.15856992
146	0xbe0e0716	-0.1386989
147	0x3de8eeb0	0.11373651
148	0x3e2a0352	0.16602829
149	0x3d0b3746	0.03398826
150	0x3dd408d9	0.1035325
151	0xbe2e0431	-0.16993786
152	0x3db70a2e	0.089374885
153	0xbd7372e0	-0.059435725
154	0x3c287550	0.010281876
155	0xbde0c8d3	-0.10975804
156	0x3cb3c278	0.021943316
157	0x3d2ab8a3	0.04167999
158	0x3e1b3486	0.15156755
159	0x3e2e085d	0.16995378
160	0x3d413f72	0.047179647
161	0xbe2b47e6	-0.16726646
162	0xbd64a7a6	-0.055823945
163	0xbbfe1fc5	-0.007755252
164	0x3dd027a2	0.10163809
165	0xbe1f7f1d	-0.15575834
166	0xbe361288	-0.17780507
167	0x3dae5646	0.08512549
168	0xbd65562c	-0.055990383
169	0x3e22294d	0.15836067
170	0x3dccda45	0.10002569
171	0x3bdb0362	0.006683753
172	0x3c867afe	0.01641607
173	0x3d5914e9	0.052998457
174	0x3d0419d4	0.032251194
175	0xbe1fb78b	-0.1559736
176	0x3d438ab1	0.04773969
177	0xbe02afd7	-0.1276239
178	0x3dd737fb	0.10508724
179	0x3d656896	0.056007944
180	0x3e03222e	0.12806007
181	0xbda7d909	-0.08195693
182	0xbc4315e9	-0.011907079
183	0xbb4fc09a	-0.0031700493
184	0x3d3fb2ab	0.04680125
185	0x3d89a355	0.06720606
186	0x3e23f917	0.16012989
187	0xbe081cda	-0.13292256
188	0x3c030bd0	0.007998422
189	0xbded2967	-0.115801625
190	0x3d5a2555	0.05325826
191	0x3d7fa7d0	0.062415898

fc4.bias f4 [6]
0	0x3e0499a0	0.12949228
1	0x3c4beacd	0.012446118
2	0x3e08470e	0.13308355
3	0xbd819a2b	-0.06328233
4	0xbd91163c	-0.07084319
5	0x3c70212b	0.014656345
