src/params_data/240418_005728/78param.pt (torch, 46927 bytes, 8 tensors)

fc1.weight f4 [128, 4]
00000000: 1a07 acbd db6d 813e 5c25 e53e 1583 983e
00000010: 40ad a9be f230 f0be be40 c1be 401f f53d
00000020: c6bd 05be 0497 f53e 1f06 d6be 699c 54be
00000030: 2c35 dbbe 007a c8ba 5a2e a8be 22d2 a63e
00000040: 70e4 37be 1658 c2be 46b5 313e a0b2 173d
00000050: 1c66 4bbe 14ab 5cbe e085 4a3e a8c2 a2bd
00000060: dfc0 69be 1856 79be 8c63 b43e 9794 833c
00000070: 805c ac3b 5cd2 f4be 5142 8c3c 089e abbd
00000080: 5464 a1be 8529 b13e 2f39 43be 22e6 043c
00000090: c043 ee3e c3f9 8b3e 39a6 d93e 93e1 f5be
000000a0: 783d c53d 978a 1dbe 0049 ba3d c443 d9be
000000b0: 67c0 e5bd 3205 d13e 1153 48bc 8e57 9cbe
000000c0: d60b 223d 606e 7b3e 5678 3bbe b716 f03e
000000d0: c3c5 26be b981 693e 209f 74be 4bca f63e
000000e0: 0c64 38be d2db b5be f4ac 833e 801b a73b
000000f0: 3e77 d93e 6049 ccbe 005e 3abe b804 78be
00000100: 0c7b c03e 904c 1cbe 08db c4bd f096 723e
00000110: 301c edbe 4cfc 21bd c704 a13e c246 e4be
00000120: e8b6 ea3d 1c5a 40be 98fb aabd 4c85 f53e
00000130: cc79 b93e baee b3be cd17 4f3e c025 19be
00000140: 2de6 a73c 26cf 463e 0dd2 9d3e a6e5 ddbe
00000150: 4941 d83e 6d50 2a3d d437 7c3e c762 593e
00000160: 9067 173d 561e f6be 3a10 f2be bed6 dbbe
00000170: 2995 bfbe e8b7 a83e afe0 383e 50ea 88be
00000180: fb6e 803e 5950 bc3e 7229 7dbe 3419 943e
00000190: cec1 d0be c0af 263d 35de 26bd 0b41 e03e
000001a0: c86e 05be f360 4fbe be12 7f3e 5fe6 e23d
000001b0: 9117 573e f1cf 943e 0091 9fbe c437 d83e
000001c0: 3918 f2be 4b83 cc3e 6c3f 0e3d fb52 86be
000001d0: 7d49 d3bc dfe6 ba3e 153d cb3e 910e 973d
000001e0: 188d d23e 0873 bfbd 7c35 6cbe 0ed3 b6be
000001f0: e157 f53e fb4b 953e c30d c63c a8b6 873e
00000200: 8d83 71bd 87eb ca3e a3e6 a0bd 2646 963e
00000210: 988a cf3e 5708 003c d1cf d03e 13fe c43d
00000220: 7920 bb3d 29fa ec3e fdf5 79be 601b 3fbe
00000230: 601b 033d 52d5 d8be b068 14be 205a cd3d
00000240: f564 d13e d8e9 b9bc b560 fc3e fb38 8c3e
00000250: cecc 393e c0cf 903e 540c d0be 19a9 f33e
00000260: a085 6d3d a076 4bbe b726 8c3d 98fc cabd
00000270: 23ea b13d d61e fb3e 34e5 183e 058d 0a3e
00000280: e771 86bc 8608 ab3e 3bcd 223e 9fc0 eabe
00000290: 8286 ae3e 40ef cfbe 282f cfbd c0da ea3d
000002a0: 0654 adbe 82ec b6be 25b7 0a3e b0b8 fdbd
000002b0: 092a c8be c9ab c63e 9e90 9b3e f99b 3e3e
000002c0: 9b44 0d3e 3a5a fd3e 1c55 c5be dcc1 4dbe
000002d0: ae69 823e 999d 933d 015e 4fbe 63fb e0bd
000002e0: 2d0a b3bd b14e 893e 272d 45be f83b 0abe
000002f0: 0171 c5bc d910 ff3c 41dc 23be 3c3d 17be
00000300: fa86 8a3e 0ad2 c0be fc32 dbbe 800c 363d
00000310: 4e0d cc3e a58f 8dbb 7548 d9be 7c49 93be
00000320: e807 ecbe 007c 173e b7fd b0be 96df 9dbe
00000330: 78c1 20be 6b00 853e 366c ca3b bc54 823d
00000340: 7c98 163e 04a6 0ebe d75e 963e d2ca edbe
00000350: b55d b83e 6023 c13e 615d 12bd 3a1a 47be
00000360: 1e8f c53e aa34 dabe 11f1 8e3e 8478 26be
00000370: 80d1 17bd 0019 9dbd 60b8 8ebe 7822 bdbe
00000380: dc4f 2dbe 9e56 82be 28c6 d5bd 40b8 473e
00000390: 18d8 aabe 3cbd 1ebe efb5 413d a0e9 6cbe
000003a0: 3e6b 8a3e 63d5 6a3e 2698 d33d 2d98 d6bd
000003b0: d8a4 e43d c03e 6ebe 864a f03d 52fd c13e
000003c0: 428f f4bd 1273 553e 6c41 af3e 090b 003f
000003d0: 7ef3 9dbe f859 d6be 6659 adbe 00e0 793a
000003e0: 3b5c dcbe feb3 803e 3467 e5be 026c d7bc
000003f0: 72bc 9fbe 766b 4e3e e7d6 9a3d 056b 873e
-0.08399792 0.25279126 0.44755065 0.29787508 -0.33139992 -0.46912342 -0.37744707 0.11968851
-0.13060674 0.47966778 -0.41801545 -0.2076279 -0.42814004 -0.0015295148 -0.32847863 0.32582194
-0.17958236 -0.3795783 0.17354307 0.037035584 -0.1986317 -0.21549636 0.19777632 -0.07947284
-0.2282748 -0.24349248 0.35232198 0.016062064 0.0052600503 -0.4781674 0.017121466 -0.083797514
-0.31521857 0.3460199 -0.19064783 0.008111509 0.46536064 0.2733899 0.4250963 -0.48023662
0.09630865 -0.15384899 0.09095955 -0.42434514 -0.112183385 0.40824276 -0.012226836 -0.3053555
0.03956207 0.24553823 -0.18307623 0.4689233 -0.16286378 0.22803392 -0.23888826 0.48201212
-0.18006915 -0.35519272 0.2571789 0.005099714 0.42473787 -0.3989973 -0.1819992 -0.2422055
0.37593877 -0.15263581 -0.096120894 0.2369039 -0.46310568 -0.03954725 0.31448957 -0.44585234
0.11460668 -0.18784374 -0.08348769 0.4795326 0.36225736 -0.3514307 0.20223923 -0.14955807
0.020495499 0.19414958 0.3082432 -0.4333927 0.4223731 0.041580606 0.24630672 0.21229087
0.036964 -0.4807002 -0.47278005 -0.42937273 -0.37418488 0.3295281 0.1805446 -0.26741266
0.2508467 0.3678005 -0.24722841 0.28925478 -0.4077286 0.040694952 -0.040739257 0.43799624
-0.13030541 -0.20251827 0.24909493 0.11079096 0.21005084 0.29064897 -0.31165314 0.42230046
-0.47284105 0.3994392 0.034728453 -0.26235184 -0.025791878 0.36504266 0.3969504 0.07375825
0.4112327 -0.09348112 -0.23067278 -0.35707897 0.4791861 0.2915953 0.024176484 0.26506543
-0.058963347 0.39632818 -0.078564905 0.29350394 0.40535426 0.007814488 0.4078355 0.09618773
0.09137053 0.46284607 -0.24410243 -0.18662786 0.03200853 -0.4235025 -0.1449306 0.100269556
0.40897337 -0.022694513 0.49292532 0.27387223 0.18144533 0.282835 -0.40634406 0.4758995
0.057988763 -0.1986947 0.06843322 -0.0991146 0.08687236 0.49046963 0.14931184 0.13530357
-0.016411735 0.3340494 0.15898602 -0.45850083 0.34086996 -0.4061222 -0.10116416 0.114675045
-0.33853167 -0.35727316 0.13546427 -0.12388742 -0.3909457 0.38802937 0.30383772 0.18614186
0.13795702 0.494829 -0.38541496 -0.20093483 0.25471252 0.07207794 -0.20250703 -0.10985448
-0.08742175 0.2681785 -0.19255506 -0.13499439 -0.024101736 0.031135963 -0.16001989 -0.14769453
0.27056104 -0.37660247 -0.42812335 0.044445515 0.398539 -0.0043201023 -0.42438093 -0.28767002
-0.46099782 0.14793396 -0.3456857 -0.30834645 -0.15698802 0.2597688 0.0061774505 0.06363818
0.14706606 -0.13930517 0.29369232 -0.46443802 0.36008993 0.377223 -0.035733584 -0.19443598
0.38585752 -0.42618304 0.27918294 -0.1625691 -0.03706503 -0.07670784 -0.27875042 -0.3694036
-0.16924995 -0.2545671 -0.10438186 0.1950388 -0.3336799 -0.15501875 0.047292646 -0.23135996
0.27034944 0.22932963 0.103317544 -0.10478244 0.11164254 -0.23266125 0.11732964 0.3788858
-0.11941387 0.20844677 0.342296 0.5001684 -0.30849832 -0.41865516 -0.33857268 0.0009531975
-0.43039116 0.25137323 -0.448053 -0.02629662 -0.3119846 0.2015818 0.075605206 0.26448837

fc1.bias f4 [128]
00000000: 22d2 c4be b673 ff3e b046 d8be f047 06bd
00000010: faff 9fbe 60c5 9e3e 16ae f73c ec5a 27be
00000020: 26d0 9ebe 12c4 33be 0ee6 323d e9ad 52be
00000030: cbfb f23e db35 513e bdfc 96be a2ce 9fbe
00000040: ba3f f4be fa36 f63e a0f6 f13d f101 e83e
00000050: a677 6bbe de5c 79be e44c 85be 1fef 2b3e
00000060: b656 ebbe b67e a03e 0d75 1abe 6b10 2cbe
00000070: a072 f73e 67f8 8cbe 8090 b1bd 1237 d63e
00000080: 5980 7d3e 797e 413e 1c54 003f c8ea 883d
00000090: ace3 f5be b5c8 d2be e595 6fbe 9571 f6be
000000a0: e5f7 053d 280b 3abe acec 2ebe 6d93 bd3e
000000b0: 6050 e4be 4b0b 013f 0a22 523e 4e4a d33e
000000c0: 5654 90be bf03 8dbe fbef a7be 0ad2 fbbe
000000d0: 8458 f13e 3d8f 94be 685d a73d 361b a8be
000000e0: 00bf 543e 0924 1abe 8197 903e d2a9 4dbe
000000f0: 002d d43e 74e0 e63e 93ea 83be be1f f73e
00000100: db66 b0be 9119 a93d 12d7 13bc 2593 703e
00000110: 30c9 d23e 2bfa bebe cb59 7bbe 5a0a a6be
00000120: 0028 da3d 5165 593e 9083 18be feb9 c83e
00000130: 08ef ba3e 7b73 e53e 7a14 c3bd 7b7b babc
00000140: 6ba5 e53e 4412 95be e40b 313e 3862 37be
00000150: ce75 b93e 3143 bdbc d061 923e b070 0dbd
00000160: 7ce4 0a3e f720 57be 50b3 663d 59f8 e03c
00000170: 58a9 b03e 2027 96bd 4af1 b8be 6e39 4abd
00000180: c8e3 92be c8c3 e33e 2860 adbd 60e6 ec3c
00000190: c5ff b5bc 58bf b33d 01b3 be3e b477 5e3e
000001a0: 063e f3be 050e d83e d54f dabe 87bd 3dbe
000001b0: 8c82 3d3d 6344 993e 84a9 d8be 88f4 91be
000001c0: a213 e8be e010 9ebc a99e 7b3e c13a 403e
000001d0: aa0a fdbe ce74 a9be 4073 703c 766c d7be
000001e0: 287e 723e db6c 63be 83e8 de3e b00c c8bc
000001f0: 5764 d0be 38f9 a43e 7868 c23e 00a8 773e
-0.3844157 0.49892968 -0.4224143 -0.03278345 -0.31249982 0.3100996 0.030234378 -0.16343278
-0.3101818 -0.17555264 0.04367643 -0.20574154 0.47457728 0.204307 -0.294897 -0.31212336
-0.4770487 0.4808882 0.11814618 0.4531398 -0.22994861 -0.24351832 -0.26035225 0.16790436
-0.45964593 0.31346673 -0.15083714 -0.16803138 0.4832964 -0.27533266 -0.08670139 0.4183889
0.24755992 0.18895902 0.5012834 0.06685406 -0.48025262 -0.41168752 -0.23397024 -0.4813353
0.032707114 -0.18168318 -0.1708247 0.3702654 -0.4459257 0.50407857 0.20520797 0.41267627
-0.28189343 -0.2754192 -0.32800278 -0.49183685 0.47137845 -0.29015532 0.08172113 -0.3283326
0.20775986 -0.15052809 0.28240588 -0.20084313 0.41440582 0.4509312 -0.25764903 0.48266405
-0.34453472 0.082568295 -0.009023445 0.23493631 0.4116912 -0.37300238 -0.24545972 -0.32429773
0.10652161 0.21230055 -0.14893937 0.392044 0.3651049 0.44814667 -0.0952539 -0.022763958
0.44852766 -0.29115498 0.17289692 -0.17908561 0.3622269 -0.023103328 0.2859025 -0.034531295
0.13563722 -0.21008669 0.05632335 0.027462171 0.345042 -0.07331681 -0.3612159 -0.049371175
-0.28689408 0.44485307 -0.08465606 0.028918445 -0.022216687 0.0877673 0.37245944 0.2172535
-0.47508258 0.42198196 -0.42639032 -0.1852933 0.046267077 0.29934987 -0.4231683 -0.28506875
-0.4532748 -0.019295156 0.24572243 0.18772413 -0.494222 -0.33096927 0.014675915 -0.42074937
0.23680937 -0.22209494 0.43536767 -0.024420112 -0.40701553 0.3222139 0.37970328 0.2418518

fc2.weight f4 [64, 128]
00000000: e39f 84bd 1990 52bd 8f4b 5b3c 4fb9 913d
00000010: 2a69 533d c9bf 893d 90e7 693c bf0a 9bbd
00000020: 93ac 9bba e9d2 9f3d e0d3 cdbc 3b1f 9c3d
00000030: 2849 b6bd bb32 97bd 6f9d 7e3d 3427 9ebd
00000040: 3ce5 61bd 4f95 183d ecfd 88bd e3ed c0bc
00000050: 8900 95bb e0e8 993b 44d7 53bd 774a 2ebd
00000060: f69a 62bd 5836 833d 17c6 9c3b 17a9 413c
00000070: 090e b6bc 0861 c2bc b0f1 be3b 4699 84bd
00000080: b18b b6bd 6980 24bb b0b7 90bd fb79 8dbd
00000090: 9984 823c 23d3 933d 9377 ec3c f297 78bc
000000a0: 4573 ad3d 806a 11ba b607 4ebc 4865 743d
000000b0: a2ac 5ebb 602d 0c3b 1fe5 8bbd b07d 07bd
000000c0: 2425 18bd d580 a63d f357 85bd 9613 9c3d
000000d0: 0752 713d b139 65bd 3bb6 6bbd 5348 a8bd
000000e0: 1c89 ecbc 5711 1a3d 081e 94bd 283e ae3c
000000f0: 2840 a23c 955e 8b3d 805f c43b 3afb 37bb
00000100: aaaa 8e3d 9d45 aabd 1e52 b13d 9168 a43d
00000110: a093 7fbc d376 483d 8bcb 0cbd 789b 2f3c
00000120: af63 83bd 457f 04bd 4aed 093d c867 5b3c
00000130: 0685 e3bc bb82 abbd 8e85 66bd c86a 403d
00000140: 21e7 a53d ef28 8bbd 94e0 8cbd 7a28 5ebd
00000150: 2871 373c 5867 e4bc 8429 ec3c 4fd7 853d
00000160: 6396 3cbd 3ada 513d cb28 66bc a9eb 8fbd
00000170: 1e74 43bd 5059 acbd 95ab 893d 0b6c 8fbc
00000180: ee3b 803d ee9b 693d 084d c53c 4d80 b2bd
00000190: 47e0 753d 8d8f 3d3d 9fe6 99bd 701d 6fbd
000001a0: aab7 f6bb bd0b d5ba f46a 523d 9239 8b3b
000001b0: e0f3 8dbd 409a bebb 6015 b6bd c495 ddbc
000001c0: 54a3 cdbb 9a63 613d 039c ab3d a578 a5bd
000001d0: a839 81bc 1224 b6bc e0b0 6ebd 334f 5abd
000001e0: ebfd 2b3c f11b 7e3c c501 76bd d271 5d3d
000001f0: c8fa 5ebd 359d df3c dd2c ccbc f5f4 c0bc
00000200: 34be 59bc c8d4 3cbd e93d 6cbd 53bf 9e3d
00000210: f337 8dbc 4757 97bd 44f7 1cbd 441c daba
00000220: eded 693d 06cc 9b3d 7320 aabd c245 813d
00000230: d4d0 393b db5f 363d 5185 9d3d 66a6 103d
00000240: e033 8f3b 93bc 3bbd ec76 9c3c 7776 823d
00000250: 4fd8 563d 0228 823d f81d 773c 5b5f 113d
00000260: 927d 943d 7ad2 a2bd 0a9c 543d 2671 afbd
00000270: 72c1 9f3c 340d 993d f83d afbc c286 8ebd
00000280: 5897 bd3a 0cee 2abc 639d 4cbc 166e 323d
00000290: 56a0 1ebd 570e 563d f528 29bc 9296 863b
000002a0: 0712 23bd ee24 593d 6795 28bd 462f 293d
000002b0: 59da bbbc 1fd1 483c 8185 90bd 9224 853c
000002c0: 352a 06bd c6f5 6dbd 3162 aabc 2996 953c
000002d0: 1c0a 2a3d 072e 483d 4b56 64bd 7533 88bd
000002e0: 7a71 483d e367 2d3b 1b54 e23c 45b0 c7bb
000002f0: bd45 81bd b2bb 28bd 0879 b13d 667d 4fbd
00000300: cc8d 9b3d 6d27 2abd 35d2 d03c d6ed e0bc
00000310: aa9a 10bd 8c83 643d 006c 65bc 3f2a 12bd
00000320: 5b4c 853d 0fd7 9dba 920d 913d 58de a9bd
00000330: e041 083b 5b70 6cbb 65e9 863d 384d 6c3c
00000340: c265 68bd 7e52 983d 53e6 933d ff78 683d
00000350: 98a3 7b3c 56e5 62bc 00f7 ee3b e641 1a3d
00000360: 8f28 84bc 8167 943d add9 963d 6d8a 3abc
00000370: d417 18bd 8cfc 94bc aa8c 063d d4a7 babd
00000380: d66f 85bc 810a 05bb 04b9 e53c 0098 2838
00000390: d2aa 94bd 497d 433d eebd 39bd 0e85 193d
000003a0: ac11 28bd 4df2 673c 5ad6 02ba 85ad e83c
000003b0: 0361 85bd aeb4 77bd 4156 0dbc fe77 91bd
000003c0: 5bb7 38bd ffd5 893d 7de8 873d 6a25 373c
000003d0: 4ac4 773d 6d43 6b3d 40e9 81bb cce3 aabd
000003e0: 2b84 84bd de9d 24bd 9527 fb3c 7e38 3fbd
000003f0: e4ce ff3c ec8c 3fbd 1964 a53d e6ac 283d
-0.064758085 -0.051406953 0.013384714 0.07115423 0.051613964 0.06726033 0.0142764 -0.07570409
-0.0011876993 0.078039 -0.025125444 0.07623144 -0.08900672 -0.07382723 0.06216186 -0.07722321
-0.055150256 0.037251767 -0.06689057 -0.023550933 -0.004547183 0.0046969503 -0.051718965 -0.042551484
-0.055323564 0.064068496 0.0047843563 0.011820099 -0.02222349 -0.023727909 0.0058271512 -0.06474547
-0.08913363 -0.0025100952 -0.070662856 -0.069080316 0.015932368 0.072180055 0.028865611 -0.015172945
0.084692515 -0.0005547181 -0.012575081 0.0596669 -0.003397741 0.002138935 -0.06830811 -0.03307885
-0.037144795 0.081300415 -0.065109156 0.07620923 0.058916118 -0.055963222 -0.057546835 -0.0821692
-0.028873973 0.037614193 -0.072322905 0.021269873 0.019805983 0.068051495 0.00599283 -0.0028073327
0.06966145 -0.08314059 0.08658241 0.08027757 -0.015599161 0.048941445 -0.0343738 0.010718219
-0.064154975 -0.032347936 0.033673562 0.013391443 -0.027773391 -0.08374544 -0.05627971 0.046976835
0.08100725 -0.06794917 -0.068787724 -0.05423782 0.011196412 -0.02788131 0.02882839 0.065352075
-0.046041857 0.051233508 -0.014047812 -0.070273705 -0.04771816 -0.084154725 0.0672218 -0.017507574
0.06261431 0.05703347 0.024084583 -0.08715878 0.06002834 0.04627948 -0.075146906 -0.058377683
-0.0075292187 -0.0016254109 0.05137153 0.0042488063 -0.06931281 -0.005816728 -0.08890796 -0.027048953
-0.0062755737 0.055026628 0.08379366 -0.08079652 -0.015774563 -0.022233997 -0.05827415 -0.053298187
0.0104975505 0.015509591 -0.06006028 0.054063626 -0.054438382 0.027296642 -0.024923736 -0.023554305
-0.013289977 -0.04610136 -0.05767623 0.07751336 -0.017238593 -0.07389694 -0.03832175 -0.0016640504
0.05711167 0.07607274 -0.083069704 0.06312133 0.002835323 0.04452501 0.07691444 0.03531494
0.0043701977 -0.045834135 0.019099675 0.063702516 0.05245238 0.06355287 0.015082829 0.03549133
0.07250513 -0.079503015 0.051906623 -0.08566503 0.019501422 0.074732214 -0.021391854 -0.06959297
0.001446466 -0.010432731 -0.012488696 0.043562017 -0.038727127 0.05225977 -0.010324706 0.004107305
-0.039812114 0.053013735 -0.041158106 0.04130485 -0.022931265 0.01225689 -0.07056714 0.01625279
-0.032755096 -0.058095716 -0.020798774 0.018260079 0.041513547 0.04887202 -0.055746358 -0.0665044
0.048936345 0.0026459626 0.027627995 -0.006094011 -0.0631213 -0.041194625 0.08665663 -0.0506567
0.07595405 -0.041541506 0.02549086 -0.027457159 -0.03530375 0.055789515 -0.0140028 -0.03568482
0.06508704 -0.0012042242 0.070826665 -0.08294362 0.0020791218 -0.0036077711 0.06587485 0.014422707
-0.05673767 0.07437609 0.07221665 0.056756016 0.015358828 -0.013848623 0.0072926283 0.037660502
-0.016132621 0.07246304 0.07365737 -0.011385542 -0.0371321 -0.01818683 0.03284899 -0.09114042
-0.01628868 -0.002030045 0.028042324 4.0195882e-05 -0.07259144 0.047726903 -0.045347147 0.037480406
-0.04103248 0.01415689 -0.00049910473 0.028403053 -0.06512644 -0.060475044 -0.008626522 -0.07102965
-0.045096736 0.0673027 0.066361405 0.011178354 0.06048993 0.05743735 -0.003964573 -0.0834423
-0.064705215 -0.040189616 0.030658523 -0.046684735 0.031226583 -0.046765253 0.08075733 0.041180514

fc2.bias f4 [64]
00000000: 1ecf b13d 39b8 103b f844 4ebd 392d 033d
00000010: ac77 843b 7215 833b adf3 953d 1d3b 73bc
00000020: c9bc efbc 8621 5d3d 4f0c 26bd c7b8 a5bd
00000030: 6a50 443d 415f 953d 1dec a73d cdc5 673d
00000040: b4bf b63c 576b a03d 2870 73bd 615f 8e3d
00000050: 922c 4dbc 1dbb b53d de54 c63d 4759 a73d
00000060: 1f3b cd3c f91e 913d 1d3c 8cbd 50a9 c23c
00000070: 79af 8a3d 5577 8f3d 08b3 e1bc 5b63 a2bd
00000080: 1592 523c 820f 7c3d f6d7 ab3d 64d4 b43d
00000090: 9e1a 0dbd db39 97bc 90f5 023c b2dc 2e3d
000000a0: 6fc1 1fbd 2643 37bb 3465 b4bd efe7 1d3d
000000b0: a24d 4fbd e145 113d 88d7 a53d 5f21 77bd
000000c0: cb8d 8bbd faba 423d 7a9a 363d 2940 a03d
000000d0: f160 86bd 54bf 333d 3af7 6b3d 907a 9dbc
000000e0: 6c90 cfbc 4e04 923d 8781 c6bc 2e9c 483d
000000f0: d894 173d 84d7 a53d d281 62bd ebfb a53a
0.086820826 0.0022082462 -0.050358742 0.03202555 0.0040425863 0.004000359 0.07321868 -0.014845637
-0.029264824 0.05398705 -0.040539082 -0.08091884 0.04792825 0.07293559 0.08199332 0.056585122
0.022308208 0.078329735 -0.059433132 0.06951786 -0.012522833 0.0887358 0.09684156 0.08171325
0.025052605 0.07085986 -0.06847403 0.023762375 0.0677175 0.07005183 -0.027551189 -0.07929107
0.0128522115 0.061538227 0.08390801 0.08829573 -0.034449212 -0.018460205 0.007993117 0.04269094
-0.039002832 -0.0027963608 -0.088083655 0.038551267 -0.050611146 0.035467032 0.0809775 -0.06033456
-0.06814154 0.047541596 0.044580914 0.078247376 -0.06561459 0.043883637 0.05760882 -0.019223481
-0.02533742 0.07129727 -0.024231685 0.04897707 0.037007183 0.08097747 -0.055299588 0.0012663578

fc3.weight f4 [32, 64]
00000000: 958f d53d ec6b b9bc d4d5 8e3d 76f2 e1bd
00000010: a1f5 e1bd 53df debd 46a6 653d 4789 703d
00000020: af90 a93d 042f 1abd d0c5 97bd 8486 1d3d
00000030: b597 e53d 2052 b5bb 5c77 e03d 1633 87bd
00000040: afc8 88bd da57 3a3d 5ab3 5c3d 8441 d53d
00000050: 1e6a 8cbd 7e1e e23d fa60 ddbd bbc8 db3d
00000060: e370 fbbc c078 a63c bc5c 8f3c 801e 753c
00000070: b472 a4bd 7493 f43c b1be 3dbd 678a 083d
00000080: 81e3 d2bd 2dd0 ad3c a229 c73d 1ba3 863c
00000090: e0d9 b1bb ba6c 4abd 00cf 6dbd 6ba2 db3d
000000a0: 8e31 063d eeb3 ecbc 602d 0cbc b8d7 863d
000000b0: 8ead 9abd 01e5 a13d 206d 8fba 901c 443c
000000c0: 6330 89bd 54c3 73bd 2427 07bd 202b e93d
000000d0: eaaa c63d 6844 f5bd 3abf 1dbd b82a 1a3d
000000e0: 5879 9d3d 028f bfbb 374e b23c e0e5 3cbd
000000f0: d112 8d3b 9005 cfbd 2ed7 f73b b32e c43d
00000100: 5b0b 92bd 70fa 82bd c304 003e 4454 34bd
00000110: 4938 0fbd 0b54 a63d be9b b5bd c6fa 653d
00000120: 814c b53d 18e3 8fbd 6ab4 46bc 20c3 3bbd
00000130: e013 ea3d d84c dabc 9c06 d8bb d8ee d33b
00000140: 5075 e4bd e7f0 8abd 0242 14bc 5096 a2bc
00000150: 29b0 b23d 6d3d aa3d a06c f4bc a65f 833c
00000160: 5548 aa3c 946f 4d3d 3d13 56bd 8220 de3d
00000170: c1f0 9439 8e46 6e3b 35cc 62bd a081 4b3d
00000180: 94f6 b8bd fafa b7bc 90d3 27bd 0ae3 03bd
00000190: d0bc 393c 4bb9 1ebd 2c48 dfbd 791a 9a3d
000001a0: 544f b33d f639 8e3d e48c 9b3d 3ded 71bd
000001b0: 78f9 d63d 1075 0f3d 46ed e33d 6957 a13d
000001c0: b42f c93c 34d6 f33d 18f8 823d 57ee 903b
000001d0: 5879 d33d d640 323d 8f09 b53d 7a79 ed3d
000001e0: 6422 4f3d 239d 533d a907 b13d d893 8ebd
000001f0: 4d73 a23d 9f59 59bd bc90 f33d cff6 9a3d
00000200: 386f babd 48a3 bf3d 76b6 ef3c 8b14 b93d
00000210: ccaa e8bd 3603 c5bc 5f17 dd3c be1e 91bd
00000220: 80b4 f83d 0832 963d 67de a6bd f67b fdbd
00000230: f0f4 bc3d 58b6 993d 88f7 ccbc b4d4 aabd
00000240: 3559 d2bc 573b e0bd e7a3 22bc c8cb ea3d
00000250: a6cf bb3d b8c8 b5bb d83e e43c d075 05bd
00000260: 1e5c bf3d e0ad d13d 442d 153d fc30 b7bd
00000270: 563f e5bd 19e2 e4bd b4de 0cbd 804a 533d
00000280: 5f79 acbd 987c 2b3d 702b 613c e14d 84bd
00000290: b6f8 df3d 0060 e938 f623 d83d a97a 433d
000002a0: 2e9d ca3d 030b dabd 201b 3dbc 4e5e ee3d
000002b0: 30c8 123d 48d9 a33d b276 e33d e688 f2bc
000002c0: 7136 23bd c43d a93d 98c4 a23d 5079 c1bb
000002d0: 5a52 15bd 434d bfbd 0e5b f9bc 9826 78bd
000002e0: dc3f babd 5639 833c 45c5 0fbd 009b abbb
000002f0: b453 dbbd 519e 053d c28f 303d 7863 273d
00000300: c8ce 9dbd 2b39 a6bd 6546 adbc 7ab5 cabd
00000310: 5f4f 4e3c b995 05bd f450 61bb 8e23 93bd
00000320: 6aa7 f13d 8c30 7b3d 439c e53d b81e d9bc
00000330: b3a4 e53c d284 f93d c42b afbd 7011 b1bd
00000340: f3d8 333c 4136 7cbd f832 473d e2a0 f0bd
00000350: c24f 64bd 93c4 10bc 882b f4bd 1d9e c83d
00000360: eccf d7bd 70c4 55bc b4e2 5b3d b0f1 abbc
00000370: 6891 42bd dfec f1bd 3492 b4bd b51b 02bd
00000380: 0701 91bc 526f 243d 309b 4a3c 2227 803d
00000390: 0cef 8e3d 9893 a73d 2898 3c3d 07d5 3b3c
000003a0: 77a5 c23d 3402 233b c85f 9b3c 0a45 c0bc
000003b0: 9022 f5bd 2def d3bd f743 c2bd e07d a2bb
000003c0: 5bdc 33bd e0b0 3b3c 223e e43d 689f ccbd
000003d0: e37a ef3c 819d ee3d 8e8a f6bc d82f eabc
000003e0: c043 c83b 9bcd 7c3d 2b02 5abd 92e0 a5bd
000003f0: 41e2 843d 240c b73d ae97 74bd f5cb 003d
0.10427777 -0.022634469 0.06974378 -0.11032574 -0.11033178 -0.108824395 0.056066774 0.058724668
0.08279549 -0.037642494 -0.074107766 0.038458362 0.112105764 -0.0055334717 0.10960266 -0.06601541
-0.06678902 0.045493938 0.05388198 0.10412887 -0.06856178 0.11040972 -0.108095124 0.10731646
-0.030693477 0.02032125 0.017500274 0.014960885 -0.080296904 0.029855467 -0.046324436 0.033335116
-0.10297299 0.02121743 0.09724738 0.016435197 -0.005427584 -0.049420096 -0.05805874 0.10724338
0.032762103 -0.02889439 -0.00855574 0.06584114 -0.07552634 0.07905007 -0.0010942556 0.0119697
-0.06698682 -0.05951245 -0.03299631 0.113851786 0.09700568 -0.11975938 -0.038512446 0.037638396
0.0768916 -0.0058459053 0.021765811 -0.046117663 0.0043052216 -0.10108483 0.007563493 0.0957922
-0.07131072 -0.063954234 0.12501816 -0.044025674 -0.034965787 0.08121499 -0.08867596 0.05614736
0.088524826 -0.070257366 -0.012127975 -0.045840383 0.11429572 -0.02664797 -0.006592585 0.0064676814
-0.11155188 -0.0678423 -0.009048941 -0.019847065 0.08725006 0.08312497 -0.029836953 0.01603682
0.020786444 0.050155237 -0.05226444 0.10846044 0.00028408135 0.0036357972 -0.05537053 0.049684167
-0.09031406 -0.022458542 -0.040973246 -0.032198943 0.01133652 -0.038750928 -0.109024376 0.075245805
0.08755365 0.06944649 0.07595232 -0.05906414 0.10496801 0.03502375 0.11129241 0.07878
0.02455888 0.119060904 0.063949764 0.0044229436 0.10325879 0.043518864 0.08839714 0.115954354
0.050569907 0.05166353 0.08644039 -0.06961793 0.07932148 -0.053063985 0.1189284 0.07566606
-0.091032445 0.09357315 0.029261809 0.090371214 -0.11360702 -0.024049383 0.026988683 -0.07085942
0.12143803 0.073337615 -0.08147889 -0.12377159 0.092264056 0.075054824 -0.025020376 -0.08341351
-0.025677303 -0.10948818 -0.009926773 0.114646494 0.09170465 -0.005547609 0.027861997 -0.032583058
0.09343742 0.10238242 0.03642012 -0.0894489 -0.11193721 -0.11175937 -0.034392074 0.05158472
-0.08421587 0.04186687 0.013743266 -0.06460167 0.1093611 0.00011128187 0.10553734 0.0477244
0.09893261 -0.106466316 -0.011542112 0.11639081 0.035835445 0.080004275 0.11106624 -0.029606294
-0.03984684 0.08263734 0.079476535 -0.005904354 -0.03645549 -0.093409084 -0.030438926 -0.06058368
-0.090942115 0.01601855 -0.03510024 -0.0052369833 -0.107093245 0.032621685 0.043105848 0.040866345
-0.07705456 -0.08116373 -0.02115173 -0.09897895 0.012592166 -0.03261349 -0.0034380527 -0.07184516
0.1179951 0.061325595 0.11211445 -0.026503906 0.028032636 0.121835366 -0.085532695 -0.08645904
0.010977018 -0.061575178 0.048632592 -0.11749436 -0.055740125 -0.008835929 -0.119223654 0.09795783
-0.10537705 -0.013047323 0.053682998 -0.020989269 -0.04750195 -0.11812758 -0.088169485 -0.031764705
-0.017700685 0.040145226 0.012366101 0.06257464 0.06979188 0.08182448 0.046043545 0.011464364
0.09504216 0.002487314 0.01896657 -0.02347042 -0.11969483 -0.103483535 -0.094856195 -0.004958853
-0.04391132 0.0114557445 0.111446634 -0.09991342 0.029233402 0.11651135 -0.030095365 -0.028587267
0.006111592 0.06171952 -0.053224724 -0.08099474 0.06488467 0.089378625 -0.059714966 0.03144451

fc3.bias f4 [32]
00000000: bdd8 30bc f68f f73d b60e 98bc ac53 e6bd
00000010: 84c8 c73c 39f9 debd 6f03 0e3e c428 4bbd
00000020: 12e6 debd 20cd 1cbc 9c94 793c 98af ccbd
00000030: d07d 18ba 5fa7 863d b065 623c 0aef cf3d
00000040: a897 d7bc 3017 413a 5919 04bd 2488 f4bc
00000050: 025f 58bc ad0c b33d 3f96 a6bd 3ca8 343c
00000060: 185c 0f3d b7f8 b2bc 842e 98bd 6438 e43d
00000070: 4477 57bd 52a1 b8bd b12e 603d 821c d63d
-0.010793862 0.12088005 -0.018561702 -0.11246428 0.024387605 -0.10887379 0.13868497 -0.049599424
-0.10883726 -0.00957039 0.015233185 -0.09994429 -0.00058170874 0.06574892 0.0138181895 0.10153015
-0.026317433 0.0007365821 -0.032250736 -0.029850073 -0.013206245 0.08742652 -0.08134126 0.011026438
0.034999937 -0.021847112 -0.07430747 0.11143568 -0.052603975 -0.090151444 0.05473203 0.10454656

fc4.weight f4 [6, 32]
00000000: b608 03be fadd db3d 076c c4bd 5516 2ebe
00000010: cb7b 90bd 6178 053d b95c 0ebe 2c89 603d
00000020: 1901 323e 5e8c bc3d 83b0 303e 0146 e03d
00000030: 535d 923d 277d 12bd 1228 bd3d 26a5 ee3d
00000040: 04ab 6bbd 68ae 0fbe b7ec 2f3d 99ab 143e
00000050: 5556 b3bd abfd 4d3d 2818 643d d0a8 82bd
00000060: 73a7 25be af09 2d3e b9f7 2ebe 50df 713c
00000070: e88e 07be cd8a 86bd fbe5 15be 0e5e 953d
00000080: 7add 90bc e47b ce3d febe a2bd b678 173e
00000090: 226f d5bd d845 f93d d9de ffbd 660f 2ebe
000000a0: 40ed 523b 8408 2ebe 7fac f0bd d4d0 2abe
000000b0: 136e 3cbd dac2 2bbd 618e 26be cca8 303d
000000c0: 522a 26be 42bb 823c 61a7 4e3d 9ef6 f83d
000000d0: 392f cbbd 1f9e e53d 9db6 11be 8e3b d0bd
000000e0: 0c0c bfbd 7e45 c7bd a8bc bbbd a224 923d
000000f0: 523f 9f3d e60f 67bb de8b 8a3d 407d 05bd
00000100: 6ab5 2abd 0059 f4bd 8b54 acbd d387 07bd
00000110: fad5 b5bb cbf5 1f3e 69ba 113e b03c 733c
00000120: f741 1f3e d3b3 d3bd 4ee2 a3bd 09fa a13d
00000130: f135 b0bd 1d2d 29be a01d 14be 787d 4b3d
00000140: fe19 bf3d d6ff 08be e221 ce3b 2fe5 0f3a
00000150: ceb2 dbbc 7185 ad3c 8c1f 5fbd 4430 8ebd
00000160: b47f c2bd e05d bd3d dcd0 3fbd c2d0 efbd
00000170: a0ca a9bd 09b9 e7bd c4ee fb3d 466a f13d
00000180: 5ab4 fdbd ebc9 0a3e 91d8 313d 837d e03d
00000190: 9b3c e43d 1dd2 a23d f4fb 0abe 0b92 a8bd
000001a0: 1f71 f7bd 8a78 a73d f28b f13d 82dc 2cbe
000001b0: 5ae0 a93d 1add 3cbd e4eb 883d f628 c23d
000001c0: 86a7 c1bd 6f2f bd3d 4ee8 1bbe fda9 413c
000001d0: adee b63d 1d9a 1ebe c591 eeb8 2c71 0b3e
000001e0: c386 1c3d 1783 df3c 206e ab3c 59fd 103e
000001f0: ba96 9c3d 3313 883b e4c3 1f3d b6d4 fe3d
00000200: 6a14 ac3d 42f7 02be 549e 25be b51a c03d
00000210: a8d6 19be 4cb4 133e 8adb 753d e289 dbbd
00000220: 142e 6abd 615b 1c3e 6f74 f43d bd83 bebd
00000230: 06b8 e43d 9a89 b2bd 7397 273e aae8 ad3d
00000240: d40f b03d 0da4 22be 3e4a 0ebe b0ee e83d
00000250: 0703 2a3e c227 0a3d c8e3 d23d 3104 2ebe
00000260: 4d9f b63d 2f5e 74bd 5075 283c d3c8 e0bd
00000270: 78c2 b33c a3b8 2a3d b6f4 1a3e 5d08 2e3e
00000280: 723f 413d 4936 2bbe a6a7 64bd c51f febb
00000290: 7020 d03d ea5d 1fbe 9d95 35be 4656 ae3d
000002a0: 2c56 65bd 4d29 223e 3e50 cd3d f3f1 db3b
000002b0: 3c06 873c ebbf 583d d419 043d 8bb7 1fbe
000002c0: b18a 433d c6a3 02be 405e d73d 9668 653d
000002d0: 424a 033e bdb1 a7bd e4fa 3fbc 9ac0 4fbb
000002e0: 25dc 3f3d 4ec3 893d 17f9 233e da1c 08be
000002f0: d00b 033c 6729 edbd 8a7b 5a3d d0a7 7f3d
-0.12796292 0.10735698 -0.09590917 -0.17000706 -0.07054862 0.032585505 -0.13902558 0.054818317
0.17383231 0.092064604 0.17254834 0.10950852 0.071467064 -0.035763886 0.092361584 0.11652593
-0.05753614 -0.14031374 0.04295036 0.14518584 -0.08756701 0.050290745 0.0556871 -0.06379855
-0.16177158 0.16898225 -0.17086686 0.0147627145 -0.13238108 -0.06569443 -0.14638512 0.0729333
-0.017683733 0.10082224 -0.07946585 0.14792141 -0.104215875 0.12171525 -0.12493677 -0.16998062
0.003218487 -0.16995436 -0.11751651 -0.16681224 -0.046003412 -0.04193387 -0.1626525 0.043129727
-0.16227081 0.015958432 0.050452594 0.121564135 -0.099211164 0.112118 -0.14229818 -0.10167609
-0.0932847 -0.097300515 -0.09166843 0.071358934 0.07775749 -0.003525728 0.06764959 -0.03259015
-0.041676916 -0.11931038 -0.08414563 -0.033088516 -0.0055491896 0.15621106 0.14231266 0.014846012
0.15552507 -0.10337033 -0.080021486 0.079090185 -0.086040385 -0.16521116 -0.14464426 0.049680203
0.093311295 -0.13378844 0.0062906602 0.0005489168 -0.02681866 0.021181794 -0.054473445 -0.069428
-0.09497014 0.09246421 -0.046830043 -0.11709739 -0.08290601 -0.113145895 0.123014 0.11787848
-0.12387915 0.13553588 0.043419424 0.109614395 0.11144372 0.07950232 -0.13572675 -0.082309805
-0.12082123 0.08177288 0.117942706 -0.16880992 0.08294745 -0.046109296 0.066856176 0.09480469
-0.09455781 0.09237563 -0.15225336 0.0118203135 0.089322425 -0.15488477 -0.00011375876 0.1361739
0.038214456 0.027284188 0.020926535 0.14159144 0.07645936 0.0041526794 0.039005175 0.12442915
0.08402331 -0.12789634 -0.16173679 0.09380094 -0.15023291 0.14424247 0.060023822 -0.107196584
-0.05717285 0.15269233 0.119362704 -0.09302471 0.11167912 -0.08717652 0.16366367 0.08491643
0.08596769 -0.15882893 -0.13895509 0.11373651 0.16602717 0.033729322 0.10297352 -0.16993786
0.08917103 -0.059660133 0.010281876 -0.10975804 0.021943316 0.04167999 0.15132412 0.16995378
0.047179647 -0.16719927 -0.055823945 -0.007755252 0.10162437 -0.15563169 -0.17732854 0.08512549
-0.055990383 0.15836067 0.100250706 0.006712192 0.016482465 0.052917402 0.032251194 -0.1559736
0.04773969 -0.12757787 0.10516024 0.056007944 0.12821296 -0.08188198 -0.011717532 -0.0031700493
0.046840806 0.067267045 0.16012989 -0.13292256 0.007998422 -0.115801625 0.053340472 0.062415898

fc4.bias f4 [6]
00000000: 129f 043e df27 4b3c 1808 083e 1f82 81bd
00000010: da97 91bd 1ccf 6e3c
0.12951306 0.012399643 0.13284338 -0.06323647 -0.071090415 0.014575746
