src/params_data/240418_005728/80param.pt (torch, 46927 bytes, 8 tensors)

fc1.weight f4 [128, 4]
-0.083607204 0.25284246 0.4476092 0.29785016 -0.33139992 -0.46912342 -0.37744707 0.11968851
-0.13101847 0.47961527 -0.41804796 -0.20741004 -0.42814004 -0.0015295148 -0.32847863 0.32582194
-0.17958236 -0.3795783 0.17366768 0.037035584 -0.1986317 -0.21493477 0.19820078 -0.079494216
-0.2282748 -0.24405558 0.35181132 0.01603544 0.0052600503 -0.4781674 0.017138679 -0.083797514
-0.31473705 0.3460623 -0.19057412 0.007104997 0.46553665 0.27327195 0.42506376 -0.4808412
0.09630865 -0.15384899 0.09068549 -0.42434514 -0.1115217 0.40830243 -0.012175479 -0.30636716
0.039623898 0.24574131 -0.18281563 0.469783 -0.16256824 0.2278044 -0.23903713 0.4814232
-0.18006915 -0.35579285 0.2570301 0.005099714 0.42473787 -0.3989973 -0.1819992 -0.2422055
0.37593877 -0.15263581 -0.096120894 0.2369039 -0.4632651 -0.03930617 0.31461525 -0.44556025
0.11460668 -0.18784374 -0.08348769 0.4795326 0.36225736 -0.3514307 0.2018956 -0.14955807
0.020309063 0.19431461 0.30833936 -0.43298456 0.4225153 0.04140945 0.24608885 0.21229418
0.036964 -0.4807002 -0.47278005 -0.42937273 -0.37441924 0.3298127 0.18091144 -0.26784572
0.25059 0.36768776 -0.24724141 0.28922567 -0.40759042 0.040867373 -0.040549614 0.43876696
-0.13030541 -0.20256834 0.24908313 0.110723905 0.20997708 0.29066277 -0.31178722 0.4218061
-0.4731994 0.3995547 0.03479826 -0.26235127 -0.026172455 0.36501074 0.39703903 0.07423443
0.4112327 -0.09348112 -0.23067278 -0.35707897 0.47878498 0.2913757 0.024046782 0.2653898
-0.05897624 0.39630562 -0.078530066 0.2930262 0.40605965 0.007783722 0.40777528 0.09535249
0.09134013 0.46311298 -0.24384344 -0.18653063 0.03200853 -0.4235025 -0.1449306 0.100269556
0.40869513 -0.022452693 0.49333736 0.2744975 0.18125401 0.28277645 -0.4064737 0.47557178
0.057988763 -0.1986947 0.068631485 -0.0991146 0.08693899 0.4905668 0.14958741 0.13603204
-0.01642713 0.33381692 0.15871534 -0.45816803 0.34086996 -0.4061222 -0.10116416 0.114675045
-0.33853167 -0.35727316 0.13563076 -0.12388742 -0.39057392 0.38775107 0.30361128 0.18562199
0.13825503 0.49493653 -0.38534546 -0.20132308 0.25497705 0.072096415 -0.20234133 -0.10987033
-0.08700953 0.26815635 -0.19269769 -0.1349333 -0.023923794 0.031416938 -0.15978535 -0.14741895
0.27056104 -0.37660247 -0.42812335 0.044445515 0.40009576 -0.0027144304 -0.42281747 -0.28605533
-0.46141073 0.14826143 -0.34519815 -0.3076434 -0.15674694 0.2597377 0.005972917 0.06421033
0.14710027 -0.13924193 0.29386467 -0.46469653 0.35982302 0.37700248 -0.036010727 -0.19395368
0.38585752 -0.42714986 0.2786183 -0.1625691 -0.03706503 -0.07670784 -0.27875042 -0.3694036
-0.16924995 -0.2545671 -0.10438186 0.1950388 -0.3336799 -0.15501875 0.046692926 -0.23135996
0.27061626 0.22937123 0.10343276 -0.1055133 0.11164254 -0.23266125 0.11695942 0.3788858
-0.11951104 0.20823584 0.34205666 0.500386 -0.30849832 -0.41865516 -0.33857268 0.0009531975
-0.43044338 0.2516189 -0.44780114 -0.026686799 -0.31207362 0.20160802 0.07566269 0.26431775
00000000: 413a abbd 9174 813e 082d e53e d17f 983e
00000010: 40ad a9be f230 f0be be40 c1be 401f f53d
00000020: b529 06be 2290 f53e 620a d6be 4c63 54be
00000030: 2c35 dbbe 007a c8ba 5a2e a8be 22d2 a63e
00000040: 70e4 37be 1658 c2be f1d5 313e a0b2 173d
00000050: 1c66 4bbe dc17 5cbe 25f5 4a3e ddcd a2bd
00000060: dfc0 69be b5e9 79be 9d20 b43e c15c 833c
00000070: 805c ac3b 5cd2 f4be 6a66 8c3c 089e abbd
00000080: 3725 a1be 142f b13e dd25 43be 09d1 e83b
00000090: d25a ee3e 4dea 8b3e f5a1 d93e d130 f6be
000000a0: 783d c53d 978a 1dbe 50b9 b93d c443 d9be
000000b0: 7d65 e4bd 040d d13e a97b 47bc 28dc 9cbe
000000c0: ab4c 223d 9ca3 7b3e 0534 3bbe 6687 f03e
000000d0: 4a78 26be 8e45 693e 26c6 74be 1a7d f63e
000000e0: 0c64 38be 7b2a b6be 7399 833e 801b a73b
000000f0: 3e77 d93e 6049 ccbe 005e 3abe b804 78be
00000100: 0c7b c03e 904c 1cbe 08db c4bd f096 723e
00000110: 1531 edbe 82ff 20bd 4015 a13e 7920 e4be
00000120: e8b6 ea3d 1c5a 40be 98fb aabd 4c85 f53e
00000130: cc79 b93e baee b3be b8bd 4e3e c025 19be
00000140: 315f a63c 69fa 463e a8de 9d3e 27b0 ddbe
00000150: ed53 d83e f59c 293d b7fe 7b3e a563 593e
00000160: 9067 173d 561e f6be 3a10 f2be bed6 dbbe
00000170: e1b3 bfbe 36dd a83e d940 393e 1323 89be
00000180: 554d 803e 9241 bc3e da2c 7dbe 6315 943e
00000190: b1af d0be 8c64 273d 5a17 26bd 10a6 e03e
000001a0: c86e 05be 136e 4fbe a60f 7f3e 37c3 e23d
000001b0: 3b04 573e c0d1 943e 93a2 9fbe f8f6 d73e
000001c0: 3147 f2be 6f92 cc3e 9f88 0e3d e852 86be
000001d0: 9e67 d6bc b0e2 ba3e b348 cb3e 3908 983d
000001e0: 188d d23e 0873 bfbd 7c35 6cbe 0ed3 b6be
000001f0: 4e23 f53e 322f 953e c2fd c43c 2ce1 873e
00000200: 1291 71bd 92e8 ca3e 5fd4 a0bd 8807 963e
00000210: 0de7 cf3e 980e ff3b ecc7 d03e 2b48 c33d
00000220: 8910 bb3d 251d ed3e 18b2 79be e301 3fbe
00000230: 601b 033d 52d5 d8be b068 14be 205a cd3d
00000240: 7d40 d13e b6ee b7bc b796 fc3e f08a 8c3e
00000250: a79a 393e 13c8 903e 521d d0be 257e f33e
00000260: a085 6d3d a076 4bbe aa8e 8c3d 98fc cabd
00000270: 120d b23d 922b fb3e 712d 193e fc4b 0b3e
00000280: 3092 86bc 0dea aa3e 4686 223e 0095 eabe
00000290: 8286 ae3e 40ef cfbe 282f cfbd c0da ea3d
000002a0: 0654 adbe 82ec b6be cae2 0a3e b0b8 fdbd
000002b0: 4ef9 c7be 4f87 c63e f072 9b3e b113 3e3e
000002c0: ba92 0d3e 5268 fd3e 004c c5be a327 4ebe
000002d0: 5a8c 823e 49a7 933d 9132 4fbe b203 e1bd
000002e0: 0d32 b2bd ca4b 893e 8b52 45be f42b 0abe
000002f0: d5fb c3bc 0caf 003d c59e 23be fef4 16be
00000300: fa86 8a3e 0ad2 c0be fc32 dbbe 800c 363d
00000310: 5ad9 cc3e 96e4 31bb 887b d8be d875 92be
00000320: 073e ecbe d8d1 173e d0bd b0be 7083 9dbe
00000330: 4582 20be 57fc 843e 76b8 c33b b580 833d
00000340: 74a1 163e 7095 0ebe 6e75 963e b4ec edbe
00000350: b93a b83e 7806 c13e fc7f 13bd cb9b 46be
00000360: 1e8f c53e 63b3 dabe 0fa7 8e3e 8478 26be
00000370: 80d1 17bd 0019 9dbd 60b8 8ebe 7822 bdbe
00000380: dc4f 2dbe 9e56 82be 28c6 d5bd 40b8 473e
00000390: 18d8 aabe 3cbd 1ebe 1541 3f3d a0e9 6cbe
000003a0: 378e 8a3e 4be0 6a3e 8ed4 d33d 5b17 d8bd
000003b0: d8a4 e43d c03e 6ebe 6c88 ef3d 52fd c13e
000003c0: 34c2 f4bd c73b 553e 0d22 af3e 4c19 003f
000003d0: 7ef3 9dbe f859 d6be 6659 adbe 00e0 793a
000003e0: 1363 dcbe 31d4 803e 3146 e5be 469e dabc
000003f0: 1dc8 9fbe 5572 4e3e 0af5 9a3d a854 873e

fc1.bias f4 [128]
-0.3841408 0.49892968 -0.4227594 -0.03278345 -0.31237525 0.31059402 0.029692853 -0.16341554
-0.31017488 -0.17556389 0.043405432 -0.20567495 0.47521663 0.20403224 -0.29511872 -0.31212336
-0.4770487 0.48098588 0.11814618 0.45279694 -0.22994453 -0.24391103 -0.26035225 0.16805264
-0.45997617 0.31367105 -0.15089719 -0.16821875 0.4832901 -0.27511308 -0.08670139 0.4182157
0.2473985 0.18889281 0.5016696 0.06685406 -0.4795364 -0.41188735 -0.23377198 -0.4809727
0.03220051 -0.18168318 -0.17065825 0.3698292 -0.4458191 0.5043183 0.20515716 0.41295156
-0.28189343 -0.27379727 -0.3274251 -0.49180192 0.47177485 -0.29063264 0.08105149 -0.3283326
0.20775986 -0.15112773 0.28239235 -0.20121327 0.41408303 0.4509312 -0.25745928 0.4825647
-0.3447995 0.08266164 -0.008276636 0.23537105 0.4116912 -0.37314743 -0.24567755 -0.32429773
0.10652161 0.21215473 -0.14911471 0.392044 0.3651049 0.44829547 -0.095079586 -0.02226774
0.4485134 -0.29119295 0.17289692 -0.17895773 0.3622269 -0.0227925 0.2859025 -0.034531295
0.1355066 -0.21034534 0.05639854 0.02767972 0.34461337 -0.07331681 -0.3612159 -0.049561147
-0.28735882 0.44439998 -0.08465606 0.028918445 -0.021811783 0.08762191 0.3728464 0.2172535
-0.47543088 0.4222886 -0.42628744 -0.18567775 0.046567954 0.29900667 -0.4235916 -0.28506875
-0.45359018 -0.019295156 0.24552011 0.18785903 -0.494222 -0.33081612 0.014675915 -0.42074937
0.23665938 -0.22243279 0.43549627 -0.024526175 -0.4068403 0.32202664 0.3798814 0.24144419
00000000: 1aae c4be b673 ff3e ec73 d8be f047 06bd
00000010: a6ef 9fbe 2e06 9f3e 6d3e f33c 6756 27be
00000020: 3ecf 9ebe 05c7 33be e5c9 313d 749c 52be
00000030: 984f f33e d4ed 503e cd19 97be a2ce 9fbe
00000040: ba3f f4be c843 f63e a0f6 f13d 00d5 e73e
00000050: 9476 6bbe d0c3 79be e44c 85be fe15 2c3e
00000060: ff81 ebbe 7e99 a03e cb84 1abe 8941 2cbe
00000070: cd71 f73e 9fdb 8cbe 8090 b1bd 5e20 d63e
00000080: 0856 7d3e 1e6d 413e 6b6d 003f c8ea 883d
00000090: cc85 f5be e6e2 d2be ec61 6fbe 0e42 f6be
000000a0: afe4 033d 280b 3abe 09c1 2ebe 415a bd3e
000000b0: 6742 e4be 011b 013f b814 523e 636e d33e
000000c0: 5654 90be 282f 8cbe 43a4 a7be 76cd fbbe
000000d0: 798c f13e cdcd 94be 53fe a53d 361b a8be
000000e0: 00bf 543e 3ac1 1abe bb95 903e da0a 4ebe
000000f0: b102 d43e 74e0 e63e b4d1 83be b812 f73e
00000100: 8f89 b0be 824a a93d ba9a 07bc 1c05 713e
00000110: 30c9 d23e 2e0d bfbe e592 7bbe 5a0a a6be
00000120: 0028 da3d 173f 593e 87b1 18be feb9 c83e
00000130: 08ef ba3e fc86 e53e 16b9 c2bd d66a b6bc
00000140: 8ca3 e53e 3e17 95be e40b 313e b240 37be
00000150: ce75 b93e 56b7 babc d061 923e b070 0dbd
00000160: 3ec2 0a3e c564 57be 2802 673d 95c0 e23c
00000170: 2a71 b03e 2027 96bd 4af1 b8be a100 4bbd
00000180: b220 93be 6588 e33e 2860 adbd 60e6 ec3c
00000190: a0ae b2bc 1e73 b33d b9e5 be3e b477 5e3e
000001a0: ad6b f3be 3636 d83e 5942 dabe 4f22 3ebe
000001b0: 0abe 3e3d 6717 993e 00e1 d8be 88f4 91be
000001c0: f93c e8be e010 9ebc a069 7b3e 1e5e 403e
000001d0: aa0a fdbe bb60 a9be 4073 703c 766c d7be
000001e0: d656 723e 6cc5 63be 5ef9 de3e 1eeb c8bc
000001f0: 5f4d d0be ade0 a43e d17f c23e 253d 773e

fc2.weight f4 [64, 128]
-0.0644282 -0.051406953 0.013387985 0.07115423 0.051967572 0.06766434 0.014696535 -0.075358875
-0.0011001062 0.07836339 -0.024771467 0.076384015 -0.08894309 -0.07382288 0.062522426 -0.07722321
-0.055150256 0.037642762 -0.06689057 -0.023195265 -0.0042209057 0.0050583165 -0.051718965 -0.042283047
-0.05525841 0.06420505 0.005200951 0.011820099 -0.022033183 -0.023421464 0.0058271512 -0.064556494
-0.08898808 -0.0021323238 -0.070557475 -0.069080316 0.01631419 0.072180055 0.029216941 -0.014944134
0.0849534 -0.0005547181 -0.012220763 0.0599578 -0.0033672613 0.002138935 -0.06825009 -0.03307885
-0.037144795 0.081300415 -0.065109156 0.076363616 0.05933828 -0.055813286 -0.05719714 -0.0821692
-0.028873973 0.037965067 -0.0720653 0.021624219 0.020135501 0.068051495 0.00599283 -0.0025543938
0.06990898 -0.08304487 0.086987816 0.0806557 -0.015599161 0.04929815 -0.0343738 0.010718219
-0.064154975 -0.03199044 0.033673562 0.013391443 -0.027773391 -0.08344409 -0.055913996 0.046987664
0.0812954 -0.06788794 -0.068787724 -0.05383415 0.011196412 -0.027638517 0.02882839 0.065352075
-0.045783356 0.051488113 -0.013729305 -0.06998802 -0.047569226 -0.084154725 0.0672218 -0.017173715
0.06294469 0.05717673 0.024084583 -0.08715878 0.060328506 0.046642017 -0.07503673 -0.058377683
-0.007128554 -0.0014851304 0.05137153 0.0043692924 -0.06896052 -0.005816728 -0.088515975 -0.027048953
-0.0059043914 0.055026628 0.08379366 -0.08056703 -0.015774563 -0.02187198 -0.05827415 -0.053298187
0.0109169 0.015866866 -0.06006028 0.054344725 -0.054021545 0.027303003 -0.024581091 -0.02318844
-0.013276282 -0.04610136 -0.05771313 0.07751336 -0.01750683 -0.074253194 -0.038597025 -0.0019360664
0.057092562 0.07608478 -0.08333689 0.06311908 0.002804503 0.044473294 0.07662302 0.03531494
0.0043701977 -0.04574354 0.019099675 0.063434124 0.05246733 0.06357164 0.015082829 0.035498023
0.07247714 -0.07952282 0.05153871 -0.085719004 0.019502612 0.07474155 -0.021391854 -0.069597736
0.0014378472 -0.01040103 -0.012506967 0.043562017 -0.03868737 0.052182477 -0.010591754 0.004108355
-0.03980697 0.053013735 -0.04142663 0.04131232 -0.022963155 0.012239691 -0.07059332 0.016370935
-0.032755096 -0.057616763 -0.020809468 0.018258508 0.041501317 0.04886611 -0.056019764 -0.0665044
0.048936345 0.0023791804 0.027629804 -0.0063601565 -0.06310927 -0.041194625 0.08656918 -0.050653774
0.07595668 -0.041561566 0.025136245 -0.027426686 -0.03530375 0.05551542 -0.014074698 -0.03568482
0.06508704 -0.0014884111 0.07076343 -0.08294362 0.0020791218 -0.0036017303 0.065583825 0.014389148
-0.05673309 0.0743498 0.07221665 0.056403756 0.015358828 -0.013847286 0.0072926283 0.037660502
-0.016126731 0.072464176 0.07366683 -0.011378381 -0.03713823 -0.01818683 0.03284899 -0.09111946
-0.016276775 -0.002036354 0.028042324 4.0195882e-05 -0.07258114 0.047765553 -0.045361977 0.037480406
-0.041217137 0.01414745 -0.00057238387 0.028388489 -0.06539164 -0.060407378 -0.008553477 -0.07102965
-0.045084134 0.0673027 0.06628546 0.011174405 0.06048993 0.057464667 -0.003964573 -0.0834423
-0.06470524 -0.040459275 0.030592727 -0.046680197 0.031396806 -0.04681128 0.08077541 0.040875
00000000: eff2 83bd 1990 52bd 4759 5b3c 4fb9 913d
00000010: f3db 543d 9a93 8a3d bcc9 703c c155 9abd
00000020: 7031 90ba fc7c a03d 88ed cabc 396f 9c3d
00000030: cb27 b6bd 7330 97bd c20b 803d 3427 9ebd
00000040: 3ce5 61bd 4c2f 1a3d ecfd 88bd ff03 bebc
00000050: 864f 8abb 3cc0 a53b 44d7 53bd fd30 2dbd
00000060: a456 62bd f07d 833d bd6c aa3b 17a9 413c
00000070: ef7e b4bc 5fde bfbc b0f1 be3b 3236 84bd
00000080: 623f b6bd 75be 0bbb 7080 90bd fb79 8dbd
00000090: 56a5 853c 23d3 933d 5e58 ef3c 3ed8 74bc
000000a0: 0cfc ad3d 806a 11ba 9839 48bc 4f96 753d
000000b0: 45ad 5cbb 602d 0c3b b4c6 8bbd b07d 07bd
000000c0: 2425 18bd d580 a63d f357 85bd 8764 9c3d
000000d0: b20c 733d 799c 64bd 8c47 6abd 5348 a8bd
000000e0: 1c89 ecbc 4281 1b3d f996 93bd 4625 b13c
000000f0: 35f3 a43c 955e 8b3d 805f c43b 9e67 27bb
00000100: 702c 8f3d 6e13 aabd ab26 b23d d12e a53d
00000110: a093 7fbc dbec 493d 8bcb 0cbd 789b 2f3c
00000120: af63 83bd 6808 03bd 4aed 093d c867 5b3c
00000130: 0685 e3bc bce4 aabd 1306 65bd 2376 403d
00000140: 347e a63d d508 8bbd 94e0 8cbd 3381 5cbd
00000150: 2871 373c 2c6a e2bc 8429 ec3c 4fd7 853d
00000160: 5487 3bbd 33e5 523d e1f0 60bc e155 8fbd
00000170: f3d7 42bd 5059 acbd 95ab 893d e4af 8cbc
00000180: 25e9 803d 2632 6a3d 084d c53c 4d80 b2bd
00000190: 061b 773d b30b 3f3d dbac 99bd 701d 6fbd
000001a0: a596 e9bb b5a8 c2ba f46a 523d 482c 8f3b
000001b0: 2c3b 8dbd 409a bebb dd47 b5bd c495 ddbc
000001c0: a079 c1bb 9a63 613d 039c ab3d 5400 a5bd
000001d0: a839 81bc de2c b3bc e0b0 6ebd 334f 5abd
000001e0: ccdc 323c 3bfb 813c c501 76bd 9398 5e3d
000001f0: b245 5dbd 8caa df3c 495e c9bc aff5 bdbc
00000200: c384 59bc c8d4 3cbd 9a64 6cbd 53bf 9e3d
00000210: 7c6a 8fbc 0f12 98bd ea17 1ebd 9cc3 fdba
00000220: e4d9 693d 56d2 9b3d 88ac aabd 9444 813d
00000230: c1cb 373b a129 363d 88ec 9c3d 66a6 103d
00000240: e033 8f3b 945d 3bbd ec76 9c3c c0e9 813d
00000250: fce7 563d d931 823d f81d 773c 6066 113d
00000260: e56e 943d dcdc a2bd 411a 533d 728d afbd
00000270: f1c3 9f3c 1912 993d f83d afbc 4289 8ebd
00000280: 2576 bc3a 1569 2abc 06ea 4cbc 166e 323d
00000290: a676 1ebd 4bbd 553d 0989 2dbc 619f 863b
000002a0: a20c 23bd ee24 593d f8ae 29bd 1b37 293d
000002b0: 3a1d bcbc fc88 483c 3b93 90bd 571c 863c
000002c0: 352a 06bd 8eff 6bbd 9e78 aabc de92 953c
000002d0: 49fd 293d d527 483d fb74 65bd 7533 88bd
000002e0: 7a71 483d 06ec 1b3b e657 e23c dc68 d0bb
000002f0: 6f3f 81bd b2bb 28bd 2f4b b13d 557a 4fbd
00000300: 2d8f 9b3d 763c 2abd 87ea cd3c eead e0bc
00000310: aa9a 10bd 2364 633d 9099 66bc 3f2a 12bd
00000320: 5b4c 853d ca16 c3ba 6bec 903d 58de a9bd
00000330: e041 083b 020b 6cbb d050 863d 76c0 6b3c
00000340: f560 68bd b544 983d 53e6 933d a007 673d
00000350: 98a3 7b3c badf 62bc 00f7 ee3b e641 1a3d
00000360: 351c 84bc 1968 943d a3de 963d 646c 3abc
00000370: 421e 18bd 8cfc 94bc aa8c 063d d79c babd
00000380: df56 85bc 5a74 05bb 04b9 e53c 0098 2838
00000390: 6ca5 94bd d0a5 433d 7bcd 39bd 0e85 193d
000003a0: 4dd3 28bd b5ca 673c 080c 16ba fa8e e83c
000003b0: 0dec 85bd ba6d 77bd e223 0cbc fe77 91bd
000003c0: 24aa 38bd ffd5 893d acc0 873d da14 373c
000003d0: 4ac4 773d 1260 6b3d 40e9 81bb cce3 aabd
000003e0: 2e84 84bd a0b8 25bd 999d fa3c bc33 3fbd
000003f0: f099 003d 2fbd 3fbd 946d a53d 8b6c 273d

fc2.bias f4 [64]
0.0872238 0.0021986957 -0.050537344 0.031867955 0.004419234 0.004282304 0.07295904 -0.014833388
-0.028909242 0.05398705 -0.040897667 -0.08091884 0.0484275 0.07293559 0.08219314 0.057290565
0.02270216 0.077886656 -0.05955314 0.06951786 -0.01238618 0.08938242 0.09723024 0.081853464
0.024925401 0.07085986 -0.06868252 0.023762375 0.06735294 0.07015815 -0.027505964 -0.079376794
0.012586808 0.060977396 0.08329171 0.0883264 -0.034449212 -0.018278299 0.007993117 0.04233536
-0.038796153 -0.002371358 -0.088083655 0.0388404 -0.050611146 0.03523958 0.080895476 -0.060899112
-0.068427 0.047541596 0.044580914 0.078247376 -0.065564394 0.044445645 0.057944417 -0.019223481
-0.02533742 0.071250305 -0.024074432 0.04897707 0.036925383 0.08099066 -0.05518371 0.0009155026
00000000: 64a2 b23d fe17 103b 3f00 4fbd f987 023d
00000010: 39cf 903b 9252 8c3b 8d6b 953d bd07 73bc
00000020: 13d3 ecbc 8621 5d3d 5084 27bd c7b8 a5bd
00000030: ea5b 463d 415f 953d e154 a83d 83a9 6a3d
00000040: e1f9 b93c 0a83 9f3d feed 73bd 615f 8e3d
00000050: 68ef 4abc 210e b73d a620 c73d caa2 a73d
00000060: 5b30 cc3c f91e 913d 6ca9 8cbd 50a9 c23c
00000070: 57f0 893d 13af 8f3d 3054 e1bc 4d90 a2bd
00000080: e638 4e3c 6fc3 793d d894 aa3d 79e4 b43d
00000090: 9e1a 0dbd 5fbc 95bc 90f5 023c d867 2d3d
000000a0: b7e8 1ebd c968 1bbb 3465 b4bd 1c17 1f3d
000000b0: a24d 4fbd 6157 103d 87ac a53d 5971 79bd
000000c0: 7423 8cbd faba 423d 7a9a 363d 2940 a03d
000000d0: a046 86bd a30c 363d 2057 6d3d 907a 9dbc
000000e0: 6c90 cfbc aeeb 913d be37 c5bc 2e9c 483d
000000f0: 123f 173d 6ede a53d 5008 62bd 57fe 6f3a

fc3.weight f4 [32, 64]
0.10427777 -0.022634469 0.06974378 -0.11032574 -0.11033178 -0.108824395 0.056066774 0.058724668
0.08279549 -0.037642494 -0.074107766 0.038458362 0.112105764 -0.0055334717 0.10960266 -0.06601541
-0.06678902 0.045493938 0.05388198 0.10412887 -0.06856178 0.11040972 -0.108095124 0.10731646
-0.030693477 0.02032125 0.017500274 0.014960885 -0.080296904 0.029855467 -0.046324436 0.033335116
-0.10297299 0.02121743 0.09724738 0.016435197 -0.005427584 -0.049420096 -0.05805874 0.10724338
0.032762103 -0.02889439 -0.00855574 0.06584114 -0.07552634 0.07905007 -0.0010942556 0.0119697
-0.06698682 -0.05951245 -0.03299631 0.113851786 0.09700568 -0.11975938 -0.038512446 0.037638396
0.0768916 -0.0058459053 0.021765811 -0.046117663 0.0043052216 -0.10108483 0.007563493 0.0957922
-0.07127945 -0.06409064 0.124887735 -0.044128466 -0.03518267 0.081027366 -0.08878602 0.056022387
0.08852555 -0.070257366 -0.01226073 -0.045840383 0.114133 -0.02664797 -0.0064982744 0.006253014
-0.11166205 -0.06799097 -0.009214412 -0.019847065 0.08709865 0.08295315 -0.03001833 0.016112806
0.020690491 0.050155237 -0.052352693 0.10846044 0.00025245835 0.0036710624 -0.055282097 0.049556397
-0.09042176 -0.022609722 -0.040883906 -0.03237616 0.01133652 -0.03893298 -0.109024376 0.07518125
0.08753535 0.069305226 0.07595232 -0.059017472 0.10496801 0.03509163 0.11113303 0.07909136
0.024417203 0.119060904 0.063949764 0.0044229436 0.10317976 0.04336922 0.08825918 0.115954354
0.050569907 0.05168218 0.086267635 -0.06961793 0.079204276 -0.05314615 0.119036764 0.07545735
-0.091032445 0.09357315 0.029261809 0.090371214 -0.11360702 -0.024049383 0.026988683 -0.07085942
0.12143803 0.073337615 -0.08147889 -0.12377159 0.092264056 0.075054824 -0.025020376 -0.08341351
-0.025677303 -0.10948818 -0.009926773 0.114646494 0.09170465 -0.005547609 0.027861997 -0.032583058
0.09343742 0.10238242 0.03642012 -0.0894489 -0.11193721 -0.11175937 -0.034392074 0.05158472
-0.08421587 0.04186687 0.013743266 -0.06460167 0.1093611 0.00011128187 0.10553734 0.0477244
0.09893261 -0.106466316 -0.011542112 0.11639081 0.035835445 0.080004275 0.11106624 -0.029606294
-0.03984684 0.08263734 0.079476535 -0.005904354 -0.03645549 -0.093409084 -0.030438926 -0.06058368
-0.090942115 0.01601855 -0.03510024 -0.0052369833 -0.107093245 0.032621685 0.043105848 0.040866345
-0.07705456 -0.08116373 -0.02115173 -0.09897895 0.012592166 -0.03261349 -0.0034380527 -0.07184516
0.1179951 0.061325595 0.11211445 -0.026503906 0.028032636 0.121835366 -0.085532695 -0.08645904
0.010977018 -0.061575178 0.048632592 -0.11749436 -0.055740125 -0.008835929 -0.119223654 0.09795783
-0.10537705 -0.013047323 0.053682998 -0.020989269 -0.04750195 -0.11812758 -0.088169485 -0.031764705
-0.017700685 0.040145226 0.012366101 0.06257464 0.06979188 0.08182448 0.046043545 0.011464364
0.09504216 0.002487314 0.01896657 -0.02347042 -0.11969483 -0.103483535 -0.094856195 -0.004958853
-0.04391132 0.0114557445 0.111446634 -0.09991342 0.029233402 0.11651135 -0.030095365 -0.028587267
0.006111592 0.06171952 -0.053224724 -0.08099474 0.06488467 0.089378625 -0.059714966 0.03144451
00000000: 958f d53d ec6b b9bc d4d5 8e3d 76f2 e1bd
00000010: a1f5 e1bd 53df debd 46a6 653d 4789 703d
00000020: af90 a93d 042f 1abd d0c5 97bd 8486 1d3d
00000030: b597 e53d 2052 b5bb 5c77 e03d 1633 87bd
00000040: afc8 88bd da57 3a3d 5ab3 5c3d 8441 d53d
00000050: 1e6a 8cbd 7e1e e23d fa60 ddbd bbc8 db3d
00000060: e370 fbbc c078 a63c bc5c 8f3c 801e 753c
00000070: b472 a4bd 7493 f43c b1be 3dbd 678a 083d
00000080: 81e3 d2bd 2dd0 ad3c a229 c73d 1ba3 863c
00000090: e0d9 b1bb ba6c 4abd 00cf 6dbd 6ba2 db3d
000000a0: 8e31 063d eeb3 ecbc 602d 0cbc b8d7 863d
000000b0: 8ead 9abd 01e5 a13d 206d 8fba 901c 443c
000000c0: 6330 89bd 54c3 73bd 2427 07bd 202b e93d
000000d0: eaaa c63d 6844 f5bd 3abf 1dbd b82a 1a3d
000000e0: 5879 9d3d 028f bfbb 374e b23c e0e5 3cbd
000000f0: d112 8d3b 9005 cfbd 2ed7 f73b b32e c43d
00000100: f6fa 91bd f441 83bd 24c5 ff3d 0dc0 34bd
00000110: b41b 10bd adf1 a53d 72d5 b5bd bb77 653d
00000120: e24c b53d 18e3 8fbd 3be1 48bc 20c3 3bbd
00000130: 90be e93d d84c dabc 7aef d4bb 15e6 cc3b
00000140: 13af e4bd da3e 8bbd 0cf8 16bc 5096 a2bc
00000150: c760 b23d 57e3 a93d 00e9 f5bc 01ff 833c
00000160: 1b7f a93c 946f 4d3d c76f 56bd 8220 de3d
00000170: 635c 8439 3596 703b 7b6f 62bd a6fb 4a3d
00000180: 0b2f b9bd 0638 b9bc e275 27bd dd9c 04bd
00000190: d0bc 393c 3078 1fbd 2c48 dfbd a1f8 993d
000001a0: bc45 b33d e6ef 8d3d e48c 9b3d 4ebc 71bd
000001b0: 78f9 d63d 3ebc 0f3d b799 e33d a7fa a13d
000001c0: 9606 c83c 34d6 f33d 18f8 823d 57ee 903b
000001d0: e94f d33d eca3 313d 3bc1 b43d 7a79 ed3d
000001e0: 6422 4f3d b2b0 533d 16ad b03d d893 8ebd
000001f0: da35 a23d c7af 59bd 8cc9 f33d 6289 9a3d
00000200: 386f babd 48a3 bf3d 76b6 ef3c 8b14 b93d
00000210: ccaa e8bd 3603 c5bc 5f17 dd3c be1e 91bd
00000220: 80b4 f83d 0832 963d 67de a6bd f67b fdbd
00000230: f0f4 bc3d 58b6 993d 88f7 ccbc b4d4 aabd
00000240: 3559 d2bc 573b e0bd e7a3 22bc c8cb ea3d
00000250: a6cf bb3d b8c8 b5bb d83e e43c d075 05bd
00000260: 1e5c bf3d e0ad d13d 442d 153d fc30 b7bd
00000270: 563f e5bd 19e2 e4bd b4de 0cbd 804a 533d
00000280: 5f79 acbd 987c 2b3d 702b 613c e14d 84bd
00000290: b6f8 df3d 0060 e938 f623 d83d a97a 433d
000002a0: 2e9d ca3d 030b dabd 201b 3dbc 4e5e ee3d
000002b0: 30c8 123d 48d9 a33d b276 e33d e688 f2bc
000002c0: 7136 23bd c43d a93d 98c4 a23d 5079 c1bb
000002d0: 5a52 15bd 434d bfbd 0e5b f9bc 9826 78bd
000002e0: dc3f babd 5639 833c 45c5 0fbd 009b abbb
000002f0: b453 dbbd 519e 053d c28f 303d 7863 273d
00000300: c8ce 9dbd 2b39 a6bd 6546 adbc 7ab5 cabd
00000310: 5f4f 4e3c b995 05bd f450 61bb 8e23 93bd
00000320: 6aa7 f13d 8c30 7b3d 439c e53d b81e d9bc
00000330: b3a4 e53c d284 f93d c42b afbd 7011 b1bd
00000340: f3d8 333c 4136 7cbd f832 473d e2a0 f0bd
00000350: c24f 64bd 93c4 10bc 882b f4bd 1d9e c83d
00000360: eccf d7bd 70c4 55bc b4e2 5b3d b0f1 abbc
00000370: 6891 42bd dfec f1bd 3492 b4bd b51b 02bd
00000380: 0701 91bc 526f 243d 309b 4a3c 2227 803d
00000390: 0cef 8e3d 9893 a73d 2898 3c3d 07d5 3b3c
000003a0: 77a5 c23d 3402 233b c85f 9b3c 0a45 c0bc
000003b0: 9022 f5bd 2def d3bd f743 c2bd e07d a2bb
000003c0: 5bdc 33bd e0b0 3b3c 223e e43d 689f ccbd
000003d0: e37a ef3c 819d ee3d 8e8a f6bc d82f eabc
000003e0: c043 c83b 9bcd 7c3d 2b02 5abd 92e0 a5bd
000003f0: 41e2 843d 240c b73d ae97 74bd f5cb 003d

fc3.bias f4 [32]
-0.010793862 0.120885 -0.018561702 -0.11246428 0.023933155 -0.10862596 0.13923977 -0.049599424
-0.10883726 -0.00957039 0.014999798 -0.09991071 -0.0008322166 0.06587244 0.0138181895 0.10153015
-0.026317433 0.0007985308 -0.03225025 -0.029850073 -0.013229232 0.088002205 -0.081497595 0.011026438
0.03487744 -0.02222785 -0.07430747 0.11143568 -0.052603975 -0.090151444 0.054792944 0.10454656
00000000: bdd8 30bc 8e92 f73d b60e 98bc ac53 e6bd
00000010: 770f c43c 4a77 debd df94 0e3e c428 4bbd
00000020: 12e6 debd 20cd 1cbc b6c1 753c fc9d ccbd
00000030: 1c29 5aba 21e8 863d b065 623c 0aef cf3d
00000040: a897 d7bc 7f54 513a d718 04bd 2488 f4bc
00000050: 6cbf 58bc 803a b43d 36e8 a6bd 3ca8 343c
00000060: a6db 0e3d 2e17 b6bc 842e 98bd 6438 e43d
00000070: 4477 57bd 52a1 b8bd 916e 603d 821c d63d

fc4.weight f4 [6, 32]
-0.12796292 0.107261874 -0.09590917 -0.17000706 -0.07062744 0.032434754 -0.13919711 0.054818317
0.17383231 0.092064604 0.1718002 0.10953198 0.07137588 -0.035687428 0.092361584 0.11652593
-0.05753614 -0.14027143 0.04285648 0.14518584 -0.08811082 0.05020502 0.05547951 -0.06379855
-0.16183569 0.16888505 -0.17086686 0.0147627145 -0.13238108 -0.06569443 -0.14647676 0.0729333
-0.017683733 0.100883566 -0.07946585 0.14792141 -0.10420771 0.12175634 -0.124823816 -0.16998062
0.003218487 -0.16995436 -0.117818035 -0.16673717 -0.04593512 -0.041970585 -0.1626525 0.043129727
-0.16227081 0.016094578 0.050521135 0.121564135 -0.09940859 0.1121596 -0.14207733 -0.10167609
-0.09324094 -0.09723801 -0.09166843 0.071358934 0.07775749 -0.003525728 0.06772145 -0.03259015
-0.041676916 -0.11914757 -0.08414563 -0.033088516 -0.0054284884 0.15634842 0.14221247 0.014846012
0.15552507 -0.10337033 -0.07998068 0.07903673 -0.08584198 -0.16520925 -0.14464426 0.049680203
0.093311295 -0.1336282 0.006474598 0.0005489168 -0.026782012 0.021315834 -0.05421864 -0.069428
-0.09484359 0.09263737 -0.046830043 -0.11709739 -0.08290601 -0.113145895 0.1231846 0.11787848
-0.12387915 0.13536222 0.043419424 0.109614395 0.111310914 0.07931988 -0.13604866 -0.082309805
-0.12082123 0.08177288 0.11809583 -0.16890873 0.08280862 -0.046554618 0.066856176 0.09480469
-0.09455781 0.091903366 -0.15242079 0.0118203135 0.08945899 -0.15510412 -0.00095344003 0.1361739
0.038056992 0.027162548 0.020926535 0.14159144 0.07645936 0.0041526794 0.03887953 0.12442915
0.08402331 -0.12781182 -0.16173679 0.09380094 -0.15019327 0.14431413 0.05996612 -0.107196584
-0.05717285 0.15269233 0.11917809 -0.09293743 0.11174609 -0.08720072 0.16366367 0.08491643
0.08596769 -0.15875557 -0.13886733 0.11373651 0.16587062 0.03376278 0.10305578 -0.16993786
0.08922287 -0.059570257 0.010281876 -0.10975804 0.021943316 0.04167999 0.15140444 0.16995378
0.047179647 -0.16724458 -0.055823945 -0.007755252 0.10156824 -0.15568969 -0.17694815 0.08512549
-0.055990383 0.15836067 0.09996111 0.006759235 0.016399445 0.052591864 0.032251194 -0.1559736
0.04773969 -0.12752874 0.10510063 0.056007944 0.12799363 -0.08190085 -0.011727833 -0.0031700493
0.046824783 0.06719851 0.16012989 -0.13292256 0.007998422 -0.115801625 0.05325984 0.062415898
00000000: b608 03be 1dac db3d 076c c4bd 5516 2ebe
00000010: 1fa5 90bd 4eda 043d b089 0ebe 2c89 603d
00000020: 1901 323e 5e8c bc3d 64ec 2f3e 4d52 e03d
00000030: 842d 923d fb2c 12bd 1228 bd3d 26a5 ee3d
00000040: 04ab 6bbd 50a3 0fbe 478a 2f3d 99ab 143e
00000050: 7273 b4bd c7a3 4d3d 7c3e 633d d0a8 82bd
00000060: 41b8 25be 34f0 2c3e b9f7 2ebe 50df 713c
00000070: e88e 07be cd8a 86bd 01fe 15be 0e5e 953d
00000080: 7add 90bc 0b9c ce3d febe a2bd b678 173e
00000090: da6a d5bd 635b f93d a1a3 ffbd 660f 2ebe
000000a0: 40ed 523b 8408 2ebe 954a f1bd 26bd 2abe
000000b0: 7726 3cbd 59e9 2bbd 618e 26be cca8 303d
000000c0: 522a 26be c7d8 833c 40ef 4e3d 9ef6 f83d
000000d0: bb96 cbbd efb3 e53d b87c 11be 8e3b d0bd
000000e0: 1bf5 bebd b924 c7bd a8bc bbbd a224 923d
000000f0: 523f 9f3d e60f 67bb 8bb1 8a3d 407d 05bd
00000100: 6ab5 2abd a403 f4bd 8b54 acbd d387 07bd
00000110: 76e1 b1bb cd19 203e 25a0 113e b03c 733c
00000120: f741 1f3e d3b3 d3bd e9cc a3bd 02de a13d
00000130: eccd afbd 9d2c 29be a01d 14be 787d 4b3d
00000140: fe19 bf3d d5d5 08be dd28 d43b 2fe5 0f3a
00000150: f365 dbbc 8b9e ae3c 5d14 5ebd 4430 8ebd
00000160: 5b3d c2bd a9b8 bd3d dcd0 3fbd c2d0 efbd
00000170: a0ca a9bd 09b9 e7bd 3548 fc3d 466a f13d
00000180: 5ab4 fdbd 659c 0a3e 91d8 313d 837d e03d
00000190: faf6 e33d 7672 a23d 5750 0bbe 0b92 a8bd
000001a0: 1f71 f7bd 8a78 a73d 3adc f13d 69f6 2cbe
000001b0: 9197 a93d 0eb0 3ebd e4eb 883d f628 c23d
000001c0: 86a7 c1bd d537 bc3d 3214 1cbe fda9 413c
000001d0: 4636 b73d 9dd3 1ebe 47f0 79ba 2c71 0b3e
000001e0: a6e1 1b3d fe83 de3c 206e ab3c 59fd 103e
000001f0: ba96 9c3d 3313 883b 2440 1f3d b6d4 fe3d
00000200: 6a14 ac3d 1ae1 02be 549e 25be b51a c03d
00000210: 44cc 19be 15c7 133e 099f 753d e289 dbbd
00000220: 142e 6abd 615b 1c3e a413 f43d fb55 bebd
00000230: 22db e43d 4b96 b2bd 7397 273e aae8 ad3d
00000240: d40f b03d d290 22be 3d33 0ebe b0ee e83d
00000250: fdd9 293e d74a 0a3d e90e d33d 3104 2ebe
00000260: 7bba b63d f1ff 73bd 5075 283c d3c8 e0bd
00000270: 78c2 b33c a3b8 2a3d c409 1b3e 5d08 2e3e
00000280: 723f 413d 2a42 2bbe a6a7 64bd c51f febb
00000290: 0203 d03d 1e6d 1fbe e531 35be 4656 ae3d
000002a0: 2c56 65bd 4d29 223e 69b8 cc3d 937c dd3b
000002b0: 2158 863c 916a 573d d419 043d 8bb7 1fbe
000002c0: b18a 433d e596 02be 003f d73d 9668 653d
000002d0: c310 033e a2bb a7bd 1926 40bc 9ac0 4fbb
000002e0: 58cb 3f3d 5f9f 893d 17f9 233e da1c 08be
000002f0: d00b 033c 6729 edbd fd26 5a3d d0a7 7f3d

fc4.bias f4 [6]
0.1293847 0.012572122 0.13289537 -0.06368218 -0.07096399 0.01410105
00000000: 6c7d 043e 4dfb 4d3c b915 083e ce6b 82bd
00000010: 9255 91bd 1708 673c
