src/params_data/reinforcement_learning/16param.pt (torch, 46927 bytes, 8 tensors)

fc1.weight f4 [128, 4]
00000000: 9677 3cbe 5b9e 333c 0a12 c73e 17e7 8d3e
00000010: 402f ae3e c683 8abe 1027 b5bd 5022 27bd
00000020: 918f d23e 10be 8f3e dc8b 2cbe 7a94 703e
00000030: 7cc4 d03e 9a76 c33c 69a1 cfbe 0f8b a5be
00000040: a4cb 48be 2044 abbe e617 cfbe f211 e73e
00000050: ec11 b83e 5045 f6be db85 3a3e 387b b8bd
00000060: 80c1 fbbb acf0 33be 846c e0be ec52 f4be
00000070: 023e dcbe 9c48 52be 904b 14bd a8b3 773e
00000080: c969 d73e ec3c 1cbd c45f f83e a063 453e
00000090: 7e07 ea3e 405a 2fbe 82ed f3be 3076 0cbe
000000a0: ac48 c03e 5cdb 923e c938 0c3e 216f 34be
000000b0: 52b2 93be debb b03d bad8 7dbe fb6d e63e
000000c0: 6e5e db3d b6eb fc3d 6275 f9be 07d7 f6be
000000d0: b972 d53c 8a63 f53e c2a2 f4be cc4c b43e
000000e0: 098a 22be cff8 e43e 7ad1 8f3e dc00 b8bd
000000f0: 6089 cc3d 5cc0 d9be ee49 7f3b 5655 91be
00000100: 0220 d03e 2f80 cf3e 4cd2 f73e 497a e5bd
00000110: 2d68 7cbd a193 6cbd d724 cd3e 5dc9 b93e
00000120: 6ccc a0bd 96d7 133e 5f5f 2b3d b4f0 ed3e
00000130: 15a6 503d d33e 843d aa9c e13e 2734 94be
00000140: a034 97be af70 743e 31f4 75be be86 e4bd
00000150: 44b7 d1be b886 bebe 24e4 163e 26a7 b0be
00000160: aeec 9bbe 78f3 0cbe e00e 6c3e f8ce dbbe
00000170: 9a71 cf3e 3ae0 a1be e236 2b3e a05b cd3e
00000180: 0c8d b33e e2e3 eabe b8eb d2be d81b d33e
00000190: 1036 003d c8a9 94be 2d4d f53e 73d0 e8be
000001a0: c4de 57be 9123 dcbe 69f5 d23e 5925 de3e
000001b0: 4b7f 96be c2ca e0bd acef a03e eebe 2abe
000001c0: 2bd7 e63e 65e3 c33e 703c aebe 8d13 963e
000001d0: 46cc b4be 9d9d 09be 0c44 843e 4bcf 9ebe
000001e0: 0bd2 9d3e 1a97 fe3e 7816 d43e 9aa0 a0bd
000001f0: 7097 893d a603 90be bc22 f63c 4a27 f13e
00000200: 6ca8 8f3e 4524 8aba 5f77 713e f58c 10be
00000210: 806c f7be 1289 88be fea5 273e 60ad a33c
00000220: 1d3b 603e ab21 b53e 5b48 9d3d 48c0 3a3e
00000230: d2a5 ebbc 61a1 423e 551d 93be e5ac 233d
00000240: 7f25 e83e 217d 593d 8b5c fdbd 9461 e03e
00000250: c0dd 6b3e d0ef 77be 8e77 353e f485 7dbe
00000260: 2e78 75be 84ca b23d 5f29 263d aef7 5a3e
00000270: 8e1b c83d 8a3b a03d f84c ecbe f028 f5be
00000280: 788e 833e 8f3f bd3e 9deb a4bd 8fa8 6abc
00000290: 6c57 fdbe d065 36be e038 9fbc b80c 6bbe
000002a0: 2ac9 ecbe 0438 85be 8d75 ec3e 6be7 bcbe
000002b0: 2edb d5be 7d74 003f a12d 743d 1769 e1be
000002c0: 7cd2 8abe 743b a8be 327d c5be 707d 48bd
000002d0: 184e c0bd e44e 20be ffba ea3e 010f b13e
000002e0: 22b5 ca3e cca8 e93d dafc cc3e f499 423e
000002f0: 92ec a2be 5212 d63e 6d61 d93e 9246 70be
00000300: 4431 66be 8208 acbe 7abe dcbe a652 a23e
00000310: 8d62 d9be dd95 9d3e 25fc 9ebe 2a26 763e
00000320: a02f 5bbe 8cd6 453e 4b87 803e 17ce 233a
00000330: ccd7 0dbe 840a d5be 2e9a 813e c281 8dbe
00000340: 4a3f d9be cc03 28be eea2 3f3e d9e0 283e
00000350: e958 833e a122 0b3d dd27 3f3d b29f ed3e
00000360: 868a c3be a0e2 47be 482e 1dbe 4e32 bc3e
00000370: ed05 c4be 1761 c63e 12fa 66be 50c7 15be
00000380: 6ac6 c93e 68c3 febd 7c60 8dbe eab6 833e
00000390: 6a1d 8fbe 7026 f7be 3034 8fbe c02b f93c
000003a0: 2585 a33e e507 793e eaa3 8a3e 820e 523e
000003b0: 900f b03e 90e4 41bd 880b dabd e02d 70be
000003c0: 553d 283d ffef 083e e9d0 d13e 7a9d d83c
000003d0: a4fd 87be e2cf 88be d5c7 a33d 502b 743d
000003e0: f80e 99bd 381c e9bd 0da5 8e3c c84c a0be
000003f0: 28f1 eebe b917 cd3e 97f5 ee3e 2f6b 9ebe
-0.18404993 0.010963048 0.3888095 0.2771537 0.34020424 -0.2705366 -0.08845341 -0.040804207
0.41125157 0.28074694 -0.16850227 0.2349414 0.40774906 0.023860265 -0.40552834 -0.32332656
-0.19608933 -0.33450413 -0.4044792 0.4513088 0.35951173 -0.48099756 0.18215124 -0.09007877
-0.007682979 -0.17572278 -0.4383279 -0.47719514 -0.43016058 -0.20535511 -0.036204875 0.24189627
0.42072895 -0.038144037 0.48510563 0.19276285 0.4570884 -0.17124271 -0.47642142 -0.1371696
0.37555444 0.28682983 0.13693537 -0.17620517 -0.28846985 0.08629583 -0.24789706 0.45005783
0.107113704 0.12349646 -0.48722368 -0.48210928 0.02605568 0.47927505 -0.47780424 0.3521484
-0.15872969 0.44721076 0.28089505 -0.08984539 0.0998714 -0.4252957 0.0038953978 -0.2838542
0.4064942 0.40527484 0.4840263 -0.11204965 -0.061622787 -0.057757977 0.4006717 0.3628644
-0.078514904 0.14437708 0.041839 0.46472704 0.05093964 0.06457295 0.44064838 -0.2894604
-0.29532337 0.2387111 -0.24018933 -0.111585125 -0.40960133 -0.37212157 0.14735466 -0.34502524
-0.3045401 -0.13764751 0.2305255 -0.42931342 0.4051636 -0.31616384 0.16720155 0.40108967
0.35068548 -0.45876986 -0.41195464 0.4123218 0.031301558 -0.29035783 0.47910443 -0.45471534
-0.21081072 -0.42995885 0.41202858 0.4338787 -0.29393992 -0.10976173 0.31432855 -0.16674396
0.45086035 0.38259426 -0.34030485 0.2931179 -0.35312098 -0.13439031 0.25833166 -0.31017527
0.30824313 0.49724656 0.41423392 -0.07843132 0.067183375 -0.28127784 0.03004586 0.47100288
0.28058183 -0.0010539374 0.23580693 -0.14116271 -0.48324966 -0.26667076 0.16371915 0.019980133
0.2189755 0.3537725 0.07679816 0.18237412 -0.028765593 0.19006874 -0.28733316 0.039959807
0.45341107 0.053097848 -0.12371167 0.43824446 0.2303381 -0.24212575 0.17721388 -0.2475813
-0.23971626 0.08730033 0.0405668 0.21383545 0.09770881 0.07823856 -0.46152472 -0.47882795
0.25694633 0.36962554 -0.08052752 -0.014322414 -0.4948076 -0.17812276 -0.0194363 -0.2295407
-0.46247226 -0.260193 0.46183434 -0.36895308 -0.41768783 0.50177747 0.059613828 -0.4402549
-0.27113712 -0.3285786 -0.3857208 -0.04894775 -0.09389895 -0.15655094 0.45845792 0.3458176
0.39591318 0.114091486 0.4003666 0.19004041 -0.31821114 0.41810852 0.42457142 -0.2346442
-0.22479731 -0.3360024 -0.43114072 0.3170368 -0.42458 0.307784 -0.31051746 0.24037996
-0.21404886 0.19320124 0.2510322 0.00062486663 -0.13851851 -0.41609585 0.25312942 -0.2763806
-0.42431098 -0.16407698 0.18714496 0.16492023 0.2565377 0.03396857 0.046668876 0.464109
-0.38191622 -0.19520044 -0.15349686 0.3675713 -0.3828577 0.3874595 -0.22556332 -0.14626813
0.3940919 -0.124396145 -0.27612674 0.2572549 -0.2795213 -0.48271513 -0.27969503 0.03041637
0.3193752 0.24319418 0.27078182 0.20513347 0.34386873 -0.047337115 -0.10646731 -0.23455
0.041074116 0.13372801 0.40979698 0.026442278 -0.265607 -0.26721102 0.07997099 0.05961162
-0.07473558 -0.113823354 0.017412687 -0.3130858 -0.46668363 0.4005716 0.46671745 -0.3094115

fc1.bias f4 [128]
00000000: 194f 8c3e fcc5 75be 1855 81be 1e29 a13c
00000010: 4019 e3be 593d 50be a492 973e 5877 e53e
00000020: 6d03 923e 4413 e5be feb3 833e 7939 86bd
00000030: a00c bdbe 1ab2 cdbe 4bb1 ffbc 66c4 c93e
00000040: 8eab f93d f401 adbe d2e4 d7be 1a06 f3be
00000050: 20fa 1cbe 13ac 49be 0603 493e df54 9dbc
00000060: 58bd 1b3e 0597 cdbe 2cd5 c13e 98a7 bd3e
00000070: b19b b63d ab47 a7be 0f73 8f3c c614 8e3e
00000080: b58d d33b a9fc 9a3e f1e0 a9bd 784f 8b3e
00000090: 1c45 8dbe 2cab 813e 9f0f 3fbe ee0c d53e
000000a0: e643 df3e 5846 ebbe 24bb 16be 7412 353e
000000b0: 1c14 11be 06f7 d43e a215 893e c4a6 a73e
000000c0: 70da 133e 23a6 ae3e e876 86be b169 99bc
000000d0: 1959 7b3e d546 053e 54a3 18be 0089 c6bd
000000e0: d8f3 e3bd 3820 e0bd 73c1 ff3d 00ac 403c
000000f0: aaee b5be 70f1 4cbd e813 ec3e cdbc ac3c
00000100: a404 d8be e092 e63d bb5f e4bd c8a3 07be
00000110: 3425 163e db5f a6be 6bee aebe cef3 f3be
00000120: 83f0 673e 9d68 19be 9dd6 ce3e 0e7d fc3e
00000130: 2f38 f33e 4e4c a23e 164f 80be a25c 663e
00000140: f218 f2be ec55 80be 60f5 dcbe 6572 e03e
00000150: a2f2 543e 4042 64bd 727c aabe c2be d53e
00000160: 507c efbe 6e68 41bd cc7f d5be 3c98 f73e
00000170: 15bc debe e4c9 a03e 0c71 313e d0da f53e
00000180: 54b4 95be 607c ecbe a415 ad3d 1f41 9fbe
00000190: 112e 903e eff6 d5be 281e 16be 1c0d c5be
000001a0: b817 15be 4d77 243e a1da ef3e 11f8 da3b
000001b0: 7060 7cbd 0096 4dbc 7a2e e9bd 4f8d 13be
000001c0: 1674 c0be b202 993e e962 59be b91f 833e
000001d0: 6830 063e 008d e63e 896d b4be f45a 803e
000001e0: a1e8 06be 4456 823e 0c0f 8d3e bc2e 553e
000001f0: 17a7 c0be 6c54 bd3e d093 13be b886 c93e
0.27404097 -0.24001306 -0.25260234 0.019672927 -0.44355202 -0.20335902 0.29604065 0.44817615
0.2851824 -0.4474126 0.2572326 -0.06553931 -0.36923695 -0.40174943 -0.03121247 0.39407653
0.121909246 -0.33790553 -0.42166764 -0.47465593 -0.1532979 -0.19694547 0.1963006 -0.019205509
0.15208948 -0.4015428 0.3785795 0.37041926 0.089164145 -0.32671866 0.017510919 0.27750224
0.006456102 0.3027089 -0.08294857 0.27209067 -0.2759179 0.25325906 -0.18658303 0.41611427
0.4360649 -0.45952106 -0.14719826 0.1768282 -0.14167827 0.41594714 0.26774317 0.3274442
0.14438796 0.34111127 -0.26262593 -0.018727155 0.24545707 0.13015302 -0.14906055 -0.096940994
-0.11130494 -0.10943645 0.124880694 0.011759758 -0.3553365 -0.05003494 0.46108937 0.021086121
-0.4219104 0.11258483 -0.11151072 -0.13246071 0.1466263 -0.32495007 -0.34166273 -0.47646946
0.22650342 -0.14981313 0.40398112 0.4931416 0.47503802 0.3169884 -0.25060338 0.22496274
-0.47284657 -0.25065553 -0.43155956 0.43837276 0.20795682 -0.055727243 -0.3329807 0.417471
-0.4677453 -0.047218733 -0.41699064 0.48358333 -0.4350287 0.3140403 0.1732828 0.48018503
-0.29239142 -0.4618864 0.08451393 -0.3110437 0.28160146 -0.41789958 -0.14659941 -0.38486564
-0.14559829 0.16061135 0.46846488 0.006682404 -0.061615407 -0.01254797 -0.11385818 -0.14409374
-0.37588567 0.2988487 -0.21229137 0.2561014 0.13104403 0.4502945 -0.3523982 0.25069392
-0.13174678 0.2545644 0.27550542 0.20818609 -0.3762748 0.3697847 -0.14411855 0.39360595

fc2.weight f4 [64, 128]
00000000: 3d83 993d c68a f8bc 4a60 33bd 970a abb9
00000010: 7f90 8d3d c30c 223d d409 a2bd e5a6 3ebd
00000020: f993 b63d 408a 683b 4c44 373d 650e 173d
00000030: 9384 74bd 8b4a ae3d 9bf3 9dbd 64f1 933d
00000040: f6fc f8bb 7a20 87bd 1bc9 68bd 7b7d 7fbb
00000050: a56f 33bd 29ad 6b3d 6cf6 5b3d 5c4e b1bd
00000060: c682 b0bd f29d abbd 954d 9d3d 8cc9 29bd
00000070: 08ff 45bd b5c5 a33d 33a7 ae3d 307d 9b3d
00000080: 97a9 f83c 7047 aebd fb84 983c fe97 dfbc
00000090: 2161 b23d e654 253c a809 9e3c 595b 8cbd
000000a0: 2a43 b1bc ddb8 a83d b482 9b3d e811 0ebd
000000b0: 3af7 163d 7730 92bd 87d4 253d 3a0e 0ebc
000000c0: 5e6d e2bc b075 3bbd 25fa 203d 10b6 c8bc
000000d0: 3add 8cbd df31 093c 16f0 91bd 00a5 323d
000000e0: 9c27 a1bc eee6 54bd 39b1 833c cc6c 76bd
000000f0: 98e1 8fbd 6bca 083b ef59 79bd fb47 91bd
00000100: d279 59bd fa23 673d eb8a fcbc a03e 1b3c
00000110: 4119 03bd 8994 58bd 4351 b1bc 6451 99bd
00000120: 71cd 52bd a4f5 8f3d 456b fbbb 810b 783d
00000130: 6e95 e03c 9676 42bd 1420 10bd c882 e3bc
00000140: 8a70 3c3c f0cf 81bd f4ca cdbc a220 ad3d
00000150: f0fb 323d 3148 aa3d 8eae 1fbd 28c3 94bd
00000160: 184c 1b3d 0ded 07bd 6737 b2bd 8098 8aba
00000170: 9eb5 a33d fd19 493d d16c 1abd aad5 263d
00000180: 40df ff3c 07b9 96bd 8806 98bd ecb1 acbd
00000190: fb19 82bc 9aa1 d0bc bb3e b13d 3c4f b6bc
000001a0: 807e f43c 9925 593d 2e3c d63c ad62 a23d
000001b0: 64e4 a7bd 87cf d4bc 6874 9f3d 0c38 2fbd
000001c0: 0806 b83c 36a0 253d 2f07 82bc d719 b3bd
000001d0: eb15 07bd 9ff0 5f3c ca07 6cbd 5f89 a3bc
000001e0: fc75 7abd ca12 e6bc bc6d a43c 52a1 b13c
000001f0: 2eb9 aabd 84f0 9e3d e66e ac3d 892c 61bd
00000200: 16fe aebd eb5c 09bd ef3f 56bd 04cd abbd
00000210: 0f6f 18bd 6f27 b03d 68d8 f13c a03e a9bb
00000220: 7ce4 433d 9b13 a7bd 0832 09bd 5a5c 68bc
00000230: 9e8e c23a 3f91 723c 02e8 cd3c 0373 39bc
00000240: 79ee 5e3d 30c2 91bd e3ed 74bd 47cd 19bd
00000250: d8d0 f3bc ad83 ecbb 4961 43bd 8001 7d3a
00000260: 402f 79bb 21ba 053d 5962 6dbd 76c4 993d
00000270: 84bf 7abd 9c10 823c 94d5 623d 9ccd 54bd
00000280: 6a0a 463d af7e f9bb ea69 df3c 74d3 9a3d
00000290: d6ef 4dbd c044 4e3d e41f aa3c 03f8 4c3d
000002a0: 16f2 133d 0ff1 933d 931f ca3c c66b 4d3d
000002b0: 00a2 d93a 2b25 36bd d22c 603d d700 ab3c
000002c0: 002d 70ba cc81 583d abe3 353b 5ed9 52bc
000002d0: b0e9 213c 374f babd f844 9dbd 106d 97bd
000002e0: 3903 99bd a0f0 f4bb 323d 8d3d 7129 913d
000002f0: 2e1b 8bbd 384d 3c3d f72a a3bc 1947 8cbc
00000300: 6e5d 5e3d 03f1 85bd 89e5 67bd 1c1a a53c
00000310: 808c 32bc fe9c 0b3c 53f8 1d3d d0c7 93bd
00000320: 3353 11bd 1a88 a23d b48f bebb 57b8 4d3d
00000330: c140 873d 4cd5 8b3d 006d c83a 4fcd b2bd
00000340: 2e6d 843c b21e 4d3d 0135 abbd 2d80 9ebd
00000350: 982e a13d 2272 a1bd d94a 443d d9c3 99bd
00000360: 639c 3cbd 669a bbbd 68a6 bebc 19e5 23bd
00000370: 0a2d 233c eafe 053d cca1 91bd 2820 89bd
00000380: 5b18 843d 1b78 b2bd be97 1cbb 74cd 923d
00000390: 7d7a a73d 0f99 5f3c 7c55 bcbc daaa 053d
000003a0: a0c7 4b3b ebe3 523c f546 11bd 4f55 52bd
000003b0: ac96 833c 7e24 2ebd 948b ad3d c11d 89bd
000003c0: be91 4ebd caed 08bd 81fb ee3c aeea 643d
000003d0: 865f 613d 73d1 ab3c c006 aebd f9ca 113d
000003e0: efea 6b3b f60a 843d 3cda 153d d384 e73b
000003f0: 631a a4bd 2de2 823d 7fb0 0c3d aa79 81bd
0.07495735 -0.03033961 -0.043793 -0.00032623552 0.06912326 0.03956295 -0.07912031 -0.04654588
0.08914942 0.0035482794 0.044742867 0.036878962 -0.059696745 0.08510312 -0.0771248 0.07223776
-0.0075985147 -0.06597991 -0.056832414 -0.0038984704 -0.043807644 0.057538185 0.053701803 -0.08657524
-0.08618693 -0.08379735 0.07680813 -0.041451976 -0.04833892 0.07996694 0.085279845 0.07592237
0.030354304 -0.08509719 0.018618098 -0.027294155 0.08709932 0.010091042 0.019291714 -0.06853361
-0.021638472 0.08238385 0.07593289 -0.034685045 0.036856867 -0.0713815 0.040485885 -0.008670384
-0.027640041 -0.045766532 0.039301056 -0.024500877 -0.06878133 0.008373707 -0.07125871 0.043614388
-0.019672208 -0.051978044 0.016075717 -0.06016235 -0.070254505 0.0020872604 -0.060876783 -0.07093807
-0.053094693 0.056430794 -0.03082796 0.00947538 -0.032006506 -0.05287603 -0.021645194 -0.07486227
-0.051465455 0.07029274 -0.0076726996 0.060557846 0.027415004 -0.047476374 -0.035186842 -0.027772322
0.011501441 -0.06338489 -0.02512119 0.0845349 0.043697298 0.08314551 -0.038984828 -0.072637856
0.037914366 -0.033185054 -0.087019734 -0.0010574013 0.07993625 0.04909705 -0.03770143 0.04073111
0.031234384 -0.0735951 -0.07423121 -0.084323734 -0.01588153 -0.025467683 0.08654543 -0.022254579
0.029845476 0.05301437 0.026151743 0.07928977 -0.08197859 -0.025977863 0.077858746 -0.04277806
0.022463813 0.040435992 -0.015872566 -0.08745163 -0.032979887 0.013668208 -0.057624616 -0.019962965
-0.061147675 -0.028085131 0.020071857 0.021683369 -0.083361015 0.077607185 0.0841959 -0.054974113
-0.08544557 -0.03353588 -0.052307066 -0.08388713 -0.03721529 0.08601271 0.029522136 -0.005164936
0.04782532 -0.08158036 -0.03349498 -0.014182175 0.0014843529 0.014805137 0.025135044 -0.011318925
0.054426644 -0.071171165 -0.05979718 -0.037549283 -0.02976267 -0.0072178454 -0.0477002 0.00096514076
-0.0038022548 0.03264821 -0.05795512 0.07508175 -0.0612178 0.01587706 0.055379465 -0.051953897
0.048349775 -0.007613979 0.027272183 0.07559863 -0.050277553 0.050358534 0.02076716 0.05004121
0.036119543 0.07223713 0.024673259 0.05015161 0.0016604066 -0.04446904 0.054730244 0.020874424
-0.0009161979 0.05285816 0.002775411 -0.012869207 0.009882376 -0.0909714 -0.0767917 -0.07393849
-0.07471318 -0.007474974 0.06896438 0.070879824 -0.067922935 0.04597208 -0.019917948 -0.017123746
0.05428832 -0.0654011 -0.056615386 0.020154051 -0.010897756 0.008521317 0.0385669 -0.072158456
-0.035479736 0.079361156 -0.0058154706 0.05022463 0.06604148 0.068277925 0.0015291274 -0.08730566
0.016165342 0.0500781 -0.08359719 -0.07739291 0.07870215 -0.07883097 0.047922943 -0.07508058
-0.04604758 -0.091603085 -0.023272708 -0.040013406 0.009959469 0.032713808 -0.071109384 -0.066955864
0.06449958 -0.087143146 -0.0023894156 0.07168093 0.0817766 0.013647332 -0.02298998 0.03263364
0.0031094328 0.012871723 -0.03546806 -0.051350888 0.016063057 -0.04251527 0.08473888 -0.06695128
-0.05043196 -0.0334299 0.02917266 0.05588787 0.05502274 0.020973897 -0.08497381 0.03559396
0.0035998186 0.06447403 0.036585078 0.0070653944 -0.08012845 0.06390796 0.034348007 -0.06322034

fc2.bias f4 [64]
00000000: 6058 1f3d 6e72 aa3d c075 23bd e317 a43d
00000010: cd01 9cbb c42d 47bc 570b e93c 39dd 33bd
00000020: 720d 053d e0f5 a93b 014e 403d 97ba 82bd
00000030: 2e36 503d 6f79 ae3d 8bad 93bd d83c abbc
00000040: 8eda 0d3c 7d80 82bd 8642 2dbd bea8 803d
00000050: 8171 2ebd ca2f 43bd 2dea 8dbd 3d46 72bd
00000060: a790 42bd bd56 2ebd d47a 7bbc 27e7 833d
00000070: d326 89bd f809 213c f27e 383d c9ae 40bd
00000080: b77d a8bd 132f 933d 388a 173c 766f f8bc
00000090: 8cba 33bc 28f3 8abc 9389 023c 0ebd 6c3d
000000a0: ec83 abbd b4d1 a8bd bfe6 f63b 50be d3bc
000000b0: 35a7 57bd 13ba f0bc 271f 993c e953 aebd
000000c0: 7fb9 253d 1a53 52bd 5eab a9bd 8092 903c
000000d0: d87a a0bc a077 e13b 4e5f 783d 1043 92bb
000000e0: c4a9 81bc cc2d a5bd e459 86bc d8b1 543c
000000f0: 5e14 503d 9c11 68bc f685 acbd 6dec 313d
0.03890264 0.08322607 -0.039907217 0.080123685 -0.004760957 -0.0121569075 0.02844779 -0.043912146
0.032483526 0.0051867813 0.04694939 -0.063832454 0.05083292 0.08519255 -0.07210835 -0.020903036
0.0086580645 -0.063721634 -0.04229977 0.06282185 -0.042588715 -0.047652997 -0.06929431 -0.059149016
-0.047501232 -0.04256319 -0.015349109 0.06440573 -0.06696858 0.009829037 0.04504294 -0.047041688
-0.08227103 0.07186713 0.0092492625 -0.030326586 -0.010969769 -0.016961649 0.007967371 0.057797484
-0.083747715 -0.08243123 0.0075348313 -0.025847584 -0.052649695 -0.029385602 0.018691612 -0.08512098
0.040460106 -0.051348783 -0.08284639 0.017647982 -0.019589826 0.0068807155 0.060637765 -0.004463561
-0.01582802 -0.08065376 -0.016400285 0.012981854 0.050800674 -0.014164355 -0.084239885 0.043438364

fc3.weight f4 [32, 64]
00000000: 7fd0 863c c93e 013e 886d abbd 2074 fc3b
00000010: 0faf 34bd df38 043c 5b5c f7bd a467 11bd
00000020: 9851 d7bd 1ea4 b2bd cf64 433c 6c1d d8bd
00000030: 225a a43d 986e b93c 621f 46bd 5846 2ebd
00000040: 360b 67bd 9c9f f23d 98d2 833d ceef f43d
00000050: f0bc 2b3b 7200 acbc dc90 4a3d 852a 80bd
00000060: fa42 bcbd 7b7a d9bd f00f 8dbd 0864 8a3c
00000070: 1015 03bc e491 0fbd 585b a1bc 76cd ddbd
00000080: 3368 79bd 00c3 9b3c 6cc7 88bd 6d11 8bbc
00000090: eef6 b63d bc83 84bd df33 bc3d 77ad b2bc
000000a0: 242a 933d 9ba7 ecba f6c9 453d 0cf5 063d
000000b0: 8104 a23d 5927 773d 0ec5 a1bc 29e6 3c39
000000c0: 5867 96bd b580 d83d cc06 97bd 56c4 85bd
000000d0: 409a 5c3d c2f8 f2bd 7626 ecbd a012 423d
000000e0: 85ee c13d 79f2 cb3c 2a52 483c 8282 abbd
000000f0: 4a25 26bd 89ae f33d 72ad 9cbc 5e61 273d
00000100: 384f 98bd 3cce 9dbd 5c65 863d f0d8 f23d
00000110: 8e8d 94bd d843 86bd 3035 2dbc 2e17 dcbd
00000120: 0cae a1bd 90eb e6bd 00ed 7eba e8d7 d43d
00000130: 28c1 89bc d2ae b2bd defe aebd 74f5 80bd
00000140: 28e6 adbc c241 ebbd 48ec ce3d 101a 913d
00000150: b000 44bc 26b8 88bd cc88 e73d 48a2 0ebd
00000160: 1c1c 86bd 7866 1d3d 289c 34bd 7cdd f9bd
00000170: d013 0f3c 5073 b43c 489f 8fbc 002b fbbb
00000180: 9094 94bc d254 dd3d 809f adbc 1cd5 35bd
00000190: 260c cfbd a079 9e3b 5031 313d 08f9 fc3c
000001a0: a4f7 693d a00c 913d 2284 a73d 00f2 d7b9
000001b0: 00ee a03d 6824 c7bc fcec 233d 9017 7b3d
000001c0: 2cfe 7abd 7c39 243d a2f9 d0bd f633 b6bd
000001d0: e0ea 893c f4d6 a1bd a0da 363d 8e83 9ebd
000001e0: 40e8 89bc 5c96 8c3d 8058 2abb cedf ff3d
000001f0: 1650 f0bd eccb f03d 422c a63d 1aa6 b73d
00000200: e309 043d a7fd cebb 9054 a6bc 08ab 92bd
00000210: eda0 2dbd c46c 64bd d689 f3bd 400e 12bc
00000220: 36bc fe3d a06c 0ebc 863d 933d 00b6 feb9
00000230: 2232 a13d 34aa 233d 680d 8cbd c0b5 d43b
00000240: 1f61 0dbc fdbd 9fbd 6588 84bd bfee 883d
00000250: c01f f9bd a0c5 d53c e306 26bd 8f0a fe3d
00000260: 179c a23d c156 0bbd 6a53 a43c 0078 65ba
00000270: 12dd a7bd 1c76 003d 8092 e3ba 0e78 90bd
00000280: 2631 cabd 67ae 803c 4488 5b3d bcec 1a3d
00000290: 573f 6fbd 0002 333b a674 35bb 34dc a03d
000002a0: 17a8 463d caea 8bbd d2e6 0a3d 7029 a13d
000002b0: a096 1e3d 5109 573d 9f18 75bc 30ad 5b3c
000002c0: 5b74 6f3d ea50 88bd e253 bbbd c0c4 813d
000002d0: a449 39bd 7673 d7bd 2e5f e0bd a080 903b
000002e0: 4522 403d 0abb ddbd 3510 c6bd 2c6a 27bd
000002f0: 980c e0bc 3186 dc3d 0644 e03d cc07 f33d
00000300: 5403 ec3d 24f3 983d c045 ea3d f856 bcbc
00000310: bed8 143d 36ca 1f3d 0a62 c8bb 6444 01bd
00000320: 3815 e3bc 800f 043c e5ee 28bd 4035 dc3d
00000330: 10c3 87bc 5e6f c5bd d726 e3bc 4cd3 14bd
00000340: 9a7d b7bd 8f41 d73d 0f3a f33d f5c2 6b3c
00000350: f2c0 89bd e16e cc3d bbe7 053d 3765 9dbc
00000360: 24a2 02bc d79b 10bd f435 b0bd 882b 44bd
00000370: ae02 903d 9ca4 b5bd 70dd 893c ca68 cd3d
00000380: 3778 e23a 2a72 b03c fce9 053d 9023 c7bd
00000390: 9f02 9abd b0a9 adbc de0b c7bd d65e cc3d
000003a0: 41c9 90bc ae18 ab3d e261 fd3d 2847 f3bc
000003b0: 6045 aa3b 58d2 3cbd d36e acbd b853 cabd
000003c0: 3f16 bbbd 2c82 3fbd 7e43 41bd 0cb4 d03d
000003d0: 5003 bebc 6898 613d 0c51 2f3d 8094 b73a
000003e0: b2e8 243d ee1e f53d 4360 f3bd bc51 f5bd
000003f0: fd61 f83b e813 2dbd 6686 a2bc b1b2 f53d
0.01645684 0.12621607 -0.08370501 0.007704273 -0.04411226 0.0080702 -0.12078162 -0.03549923
-0.1051361 -0.08722709 0.01192589 -0.10552487 0.08025004 0.022635743 -0.048369773 -0.042547554
-0.056407176 0.11846849 0.06436652 0.119598016 0.0026205145 -0.020996306 0.049454555 -0.0625811
-0.09192462 -0.106190644 -0.068878055 0.016893402 -0.008000627 -0.03505124 -0.019696876 -0.10830204
-0.060890388 0.019013882 -0.06678662 -0.016976083 0.08933817 -0.06470439 0.09189581 -0.02181123
0.07185772 -0.0018055321 0.048288308 0.03294854 0.07911015 0.06034026 -0.019747283 0.00018014818
-0.0734393 0.10571424 -0.07374343 -0.06531589 0.05385804 -0.11863853 -0.11530773 0.047381043
0.09469322 0.024895893 0.012226621 -0.08374502 -0.040562905 0.11898524 -0.019125674 0.04086434
-0.07436985 -0.07705352 0.065623015 0.11857784 -0.07253562 -0.06555909 -0.010571763 -0.10746609
-0.07894525 -0.11275399 -0.0009724647 0.10392743 -0.016815737 -0.087247506 -0.08544706 -0.062968165
-0.021227911 -0.11487152 0.10103661 0.07085049 -0.011963055 -0.066757485 0.11305389 -0.034822732
-0.0654833 0.0384278 -0.044094235 -0.12200448 0.008732751 0.022027642 -0.017532006 -0.007665038
-0.018137246 0.10807194 -0.02119422 -0.04439269 -0.10109739 0.004836276 0.04325992 0.030880466
0.057120934 0.07082486 0.08179499 -0.000411883 0.07857895 -0.024309352 0.040020928 0.061301768
-0.061277553 0.040093884 -0.10203864 -0.088966295 0.01683563 -0.07902327 0.04464209 -0.07739936
-0.016834378 0.06864616 -0.0025992692 0.12493859 -0.11734025 0.11757645 0.0811391 0.08967228
0.03223599 -0.006316859 -0.020303994 -0.07161528 -0.0423898 -0.05576779 -0.118915245 -0.00891453
0.12438242 -0.00869289 0.07189469 -0.00048582256 0.0787089 0.03995724 -0.068384945 0.006491393
-0.0086291125 -0.07799909 -0.06471328 0.06686162 -0.12164259 0.026095212 -0.04053391 0.12404358
0.07939928 -0.03401828 0.020059306 -0.0008753538 -0.08196463 0.031362638 -0.0017362386 -0.070541486
-0.098726556 0.015708162 0.05359675 0.037823424 -0.058410015 0.0027314425 -0.0027687936 0.078545004
0.048500147 -0.06831892 0.033911534 0.07869232 0.038717866 0.05249912 -0.014959483 0.01340799
0.058460575 -0.06656058 -0.09146859 0.06336355 -0.045236245 -0.10520069 -0.10955654 0.0044098645
0.046907682 -0.108266905 -0.0967106 -0.040872738 -0.027349755 0.107677825 0.109504744 0.118667215
0.11524072 0.074682504 0.11439085 -0.022990689 0.036339514 0.039011203 -0.006115203 -0.031559363
-0.027720079 0.008060336 -0.041243453 0.10752344 -0.016572505 -0.09640382 -0.027728481 -0.03633432
-0.089595035 0.10510551 0.11876308 0.014389743 -0.067262545 0.09982086 0.0326917 -0.019213302
-0.007973228 -0.03530487 -0.08604041 -0.047893077 0.07031761 -0.08869287 0.016829222 0.100297526
0.0017278258 0.021538813 0.032693848 -0.0972358 -0.07520031 -0.021199077 -0.0971906 0.09979026
-0.01767409 0.08354317 0.12372185 -0.029697016 0.0051962584 -0.046099037 -0.084195755 -0.09879249
-0.091351025 -0.046755 -0.047183506 0.10190591 -0.023194939 0.055076987 0.0428019 0.0014006048
0.040260978 0.1196879 -0.11883595 -0.1197848 0.0075800405 -0.042255312 -0.019839477 0.11996973

fc3.bias f4 [32]
00000000: c486 e3bd 6427 373d de7f 8fbd 1082 6ebd
00000010: e21c d7bd 006c e0bb c1ec 053c 1052 1b3d
00000020: 50a4 fbbd dd3c 90bd ec72 e63c b4bc 1d3d
00000030: 75e7 47bd d0ef de3d 918b 913d a900 e3bd
00000040: 471c cb3d 0812 d23c 9c09 c2bd 451d 5b3d
00000050: f70f 3cbd d1d7 943c b160 5c3d 9c47 cd3c
00000060: a8fc 3dbc ccd8 67bd 4d6e bd3c 6428 a2bd
00000070: b6fd aabd 28d2 d43d 70ea f73d 7f94 9ebd
-0.11109689 0.0447153 -0.070068106 -0.058229506 -0.10503556 -0.006848812 0.008174122 0.037920058
-0.122871995 -0.07042859 0.02813097 0.03851004 -0.04880472 0.10885584 0.07106698 -0.1108411
0.09917503 0.025643364 -0.09474489 0.05349471 -0.045913663 0.018169316 0.05380315 0.02505856
-0.0115958825 -0.056603238 0.023123885 -0.0791786 -0.08349173 0.103916466 0.12105262 -0.07743167

fc4.weight f4 [6, 32]
00000000: 2e26 0f3e 9998 193e 608f 4bbd 3db7 283c
00000010: 8682 60bd 86b7 a03d 6649 353c 264a b63d
00000020: f573 1c3e 77de 9cbd 9ad1 2cbd 3c1b 11bd
00000030: c7b2 f8bd f687 c73d 7d9d 22bd 9659 4fbd
00000040: fdd7 abbd a618 f93d 7030 36bd c863 633d
00000050: a315 f3bd 8a9d 143e 6af0 aabd c9a0 aeb9
00000060: 43e9 153e 0c6d 5bbd bcd9 da3d fc63 9f3d
00000070: 0c47 1bbd 3af1 2d3e 3a88 03be 7d70 9a3d
00000080: edf3 003e 2405 223d e8ad ecbc 337c 2f3e
00000090: 87f5 1f3e bfdd 343e 4f97 10be 20a7 a13c
000000a0: 7dc2 023e 1173 be3d d5b4 2abe 2dc5 21bd
000000b0: f9d0 cf3d 8069 0cbb 1f29 26be 9ecc bb3d
000000c0: dfe2 0a3e be48 03be dc63 c7bd db04 6cbc
000000d0: 8c9e adbd 14ca 56bd 5cd1 24be 4150 8e3d
000000e0: 538a b03d aec4 e43d dca2 5b3c 807b 2b3e
000000f0: e064 d2bd 48ec f33d f436 313d b359 133e
00000100: d5f4 113e 60bf e53b 4038 29bb e660 7ebd
00000110: cc70 c1bd c5d4 113e 6d16 18be 6d94 023e
00000120: a013 21bc fe44 28bd da6d f9bd 43d4 01bd
00000130: 1bf1 2c3e d971 2bbe 4e02 b8bd a222 c6bd
00000140: 490d 00be 404e 383c bc76 35bd 6c3c cabd
00000150: f278 163b df93 edbd 21f1 303d 41c7 c0bc
00000160: 77e8 a8bd dc29 59bd 4cd2 aa3d 8de6 2abe
00000170: 43d1 bbbc 014c 2cbe 227e 09be 48cb f23d
00000180: c925 3e3c 503b 04bc 341b 93bc 16be 90bd
00000190: 8c94 4c3d f03f 8b3c 5923 95bc 5cb9 f7bd
000001a0: 2049 a53c a80a 063e 24df 0e3e db55 50bd
000001b0: d9f6 253d 9e7a e33d 26e6 06be 4168 03be
000001c0: 5cf7 9cbc b853 c83c d846 733d 34f6 c0bc
000001d0: c13a d03b 88de 2bbe e72d c63c fe20 f33c
000001e0: 4f13 1dbe c833 c23c 1edc 013e 7009 9bbd
000001f0: c4a2 b9bd 4d4d f53d d429 3dbd f0dc 01be
00000200: 6f07 0dbe b205 e13d 66a4 d53d 8c07 f83d
00000210: beeb 8fbd c8af 04be f434 03bd b4da 3bbd
00000220: e81a 3a3d 5ec9 133e b4f4 78bd 3cb6 3c3d
00000230: a64d f33d 80ee e43a d950 60bd c56b 07bc
00000240: a8d3 053d 6207 cf3d 1749 023e 38cc 95bd
00000250: c27d 263d 37a4 5cbd 9981 1f3e 17ce 8c3d
00000260: fa10 16be b6a4 f33d 40f0 e6bc 7954 0ebc
00000270: f613 d23d 5f74 453b 0043 2d3a 18cd eb3d
00000280: a5ec 1ebb e09c 623d 71e5 083e 55e8 eebd
00000290: 790e d7bd dbc5 233e 6143 0f3e db4a 0a3e
000002a0: ceee d73d 2554 2ebd d976 883d 922e 31be
000002b0: c620 97bd d098 c9bc ad71 29be 4f3c 263d
000002c0: 66f5 a6bd b9b6 c1bd 286e 80bc 702d 38bd
000002d0: 4432 f83d 6734 21be 7460 e5bc d3b6 e13d
000002e0: 065f debd 160a a43d 9d57 233d 0a09 febd
000002f0: f032 1abc 1638 edbd af09 a7bd 16d8 ea3d
0.13979408 0.14999618 -0.04969728 0.010297594 -0.054811977 0.07847504 0.011064863 0.089008614
0.15278609 -0.07659619 -0.04219208 -0.035426363 -0.12143474 0.09742729 -0.039700974 -0.050622545
-0.08390806 0.121629044 -0.044479787 0.05551508 -0.11869361 0.14513221 -0.083466366 -0.0003330766
0.14639764 -0.053570792 0.10686061 0.077827424 -0.037909552 0.16986552 -0.12844935 0.07540987
0.1259305 0.039555684 -0.028891519 0.17137222 0.15621005 0.17662714 -0.1412022 0.019733012
0.12769504 0.09299291 -0.16670544 -0.039494682 0.1014728 -0.0021425188 -0.16226624 0.09169887
0.13563107 -0.12820718 -0.097358435 -0.0144054545 -0.08477506 -0.05243881 -0.1609549 0.06948901
0.08620133 0.11170326 0.013405528 0.1674633 -0.10273147 0.119103014 0.043265298 0.14389686
0.14253552 0.007011339 -0.002582088 -0.06210413 -0.094453424 0.14241321 -0.14852305 0.12751932
-0.009831339 -0.04108142 -0.12179156 -0.03169657 0.1688885 -0.16742648 -0.089848146 -0.096745744
-0.12505068 0.011249125 -0.044302687 -0.09874806 0.0022960273 -0.1160047 0.04319871 -0.023532512
-0.08247464 -0.053018436 0.08340892 -0.1668951 -0.022926932 -0.16825868 -0.13427022 0.11855179
0.011605688 -0.008070782 -0.017957307 -0.07067506 0.049946353 0.016998261 -0.018205332 -0.12095901
0.02017647 0.13090003 0.13952309 -0.05086313 0.040518615 0.11107372 -0.13173732 -0.12832738
-0.019160919 0.024453983 0.059393734 -0.023554899 0.0063546603 -0.16784108 0.02419181 0.029678818
-0.15339397 0.023706332 0.12681624 -0.075701594 -0.09064248 0.119776346 -0.04618247 -0.12681937
-0.13772367 0.109874144 0.10431747 0.121108145 -0.07027386 -0.1295768 -0.032032922 -0.04586287
0.045435816 0.14432284 -0.060780242 0.04607223 0.11880045 0.0017466098 -0.054764602 -0.00826544
0.032672554 0.1010883 0.12723194 -0.07314342 0.040647276 -0.053867545 0.15576781 0.06875246
-0.14654914 0.118966505 -0.028190732 -0.008687132 0.102577135 0.0030129177 0.000660941 0.11513728
-0.0024249938 0.05532539 0.13368775 -0.116654076 -0.10500807 0.15993445 0.13990547 0.13505118
0.10543595 -0.042560715 0.066632934 -0.17302921 -0.07379298 -0.024609 -0.1654727 0.04058486
-0.08152275 -0.0945868 -0.015677527 -0.044965208 0.121189624 -0.15742646 -0.028000094 0.11021199
-0.10857968 0.08009736 0.039878476 -0.12404068 -0.0094115585 -0.11582963 -0.08156144 0.11466996

fc4.bias f4 [6]
00000000: 1ab9 ccbd 9380 e43d 82f8 0bbe 1c34 9d3d
00000010: 0a85 a53d a3e9 093e
-0.09996243 0.11157336 -0.13669017 0.07675955 0.08082016 0.13468032
