src/params_data/reinforcement_learning/28param.pt (torch, 46927 bytes, 8 tensors)

fc1.weight f4 [128, 4]
000000 a0 9a 38 be 5e 53 76 3c e8 21 c9 3e 28 15 8f 3e
       -0.18027735 0.015034525 0.3928368 0.27945828
000010 40 2f ae 3e c6 83 8a be 10 27 b5 bd 50 22 27 bd
       0.34020424 -0.2705366 -0.08845341 -0.040804207
000020 e7 63 cf 3e 89 b7 8e 3e 11 44 2e be 79 40 6f 3e
       0.40505907 0.278744 -0.17018153 0.23364438
000030 c6 fe d1 3e a3 90 d6 3c 51 8f ce be 73 47 a4 be
       0.4101469 0.026192015 -0.40343717 -0.3208576
000040 a4 cb 48 be 20 44 ab be e6 17 cf be f2 11 e7 3e
       -0.19608933 -0.33450413 -0.4044792 0.4513088
000050 ec 11 b8 3e 50 45 f6 be a8 85 3b 3e 38 7b b8 bd
       0.35951173 -0.48099756 0.18312705 -0.09007877
000060 80 c1 fb bb ac f0 33 be 84 6c e0 be ec 52 f4 be
       -0.007682979 -0.17572278 -0.4383279 -0.47719514
000070 02 3e dc be 9c 48 52 be 90 4b 14 bd a8 b3 77 3e
       -0.43016058 -0.20535511 -0.036204875 0.24189627
000080 26 5e d9 3e e2 5d 13 bd 82 ee f8 3e 80 3c 47 3e
       0.42454642 -0.035978206 0.48619467 0.19456673
000090 7e 07 ea 3e 40 5a 2f be 82 ed f3 be 30 76 0c be
       0.4570884 -0.17124271 -0.47642142 -0.1371696
0000a0 79 28 bf 3e c4 46 92 3e d6 8a 0b 3e 88 d2 35 be
       0.37335566 0.28569615 0.1362718 -0.17756093
0000b0 de d5 91 be a1 82 b1 3d 49 f2 7d be d9 2d e6 3e
       -0.2848348 0.086674936 -0.24799456 0.44956854
0000c0 53 92 cf 3d a3 79 f8 3d 4b 56 fa be 8b 95 f7 be
       0.10135331 0.12132575 -0.4889396 -0.4835628
0000d0 31 a4 da 3c 51 9a f4 3e d5 aa f5 be 85 51 b3 3e
       0.02668962 0.47773984 -0.47981897 0.35023132
0000e0 2d 5d 1d be c9 b2 e6 3e 64 69 91 3e 85 a2 b1 bd
       -0.15367575 0.45058277 0.2840072 -0.08673576
0000f0 60 89 cc 3d 5c c0 d9 be de a1 bc 3b 56 55 91 be
       0.0998714 -0.4252957 0.0057566008 -0.2838542
000100 d1 67 d1 3e d8 6d cf 3e bf 0c f7 3e db fb e5 bd
       0.40899518 0.40513492 0.48251912 -0.11229678
000110 07 12 61 bd 12 99 58 bd be 7c cf 3e a6 aa bb 3e
       -0.054948833 -0.052880354 0.40524858 0.36653632
000120 64 68 a7 bd b8 56 13 3e d5 87 29 3d 07 8a ee 3e
       -0.08174208 0.1438855 0.041389305 0.46589682
000130 7f fa 59 3d 06 42 89 3d a1 f2 e2 3e 46 f5 92 be
       0.053217407 0.06702046 0.44325736 -0.28702754
000140 76 4c 94 be 97 49 78 3e 8b bc 72 be 90 7e dd bd
       -0.28964585 0.24246822 -0.23704736 -0.108151555
000150 44 b7 d1 be b8 86 be be c2 8b 12 3e 26 a7 b0 be
       -0.40960133 -0.37212157 0.14311126 -0.34502524
000160 ad 49 9c be fd 56 0e be fc 42 6a 3e 74 40 dc be
       -0.3052496 -0.13900371 0.22877115 -0.43017924
000170 9a 71 cf 3e 3a e0 a1 be d5 10 2e 3e a0 5b cd 3e
       0.4051636 -0.31616384 0.16998608 0.40108967
000180 0c 8d b3 3e e2 e3 ea be b8 eb d2 be d8 1b d3 3e
       0.35068548 -0.45876986 -0.41195464 0.4123218
000190 57 1e 03 3d fc 5b 94 be 0d 13 f5 3e 54 31 e9 be
       0.032011356 -0.28976429 0.47866097 -0.45545447
0001a0 c4 de 57 be 23 85 dc be 62 9d d1 3e 63 fb dd 3e
       -0.21081072 -0.43070325 0.40940386 0.43355855
0001b0 da d7 97 be 69 48 e6 bd 4b 78 9f 3e 01 fe 2c be
       -0.2965687 -0.1124428 0.31146464 -0.1689377
0001c0 ec bb e6 3e 80 3f c6 3e 76 01 ac be ec 3d 98 3e
       0.45065248 0.38720322 -0.33594865 0.29734743
0001d0 77 07 b5 be fa be 0a be f8 04 84 3e cf 30 9f be
       -0.35357258 -0.13549414 0.2578504 -0.31091926
0001e0 40 80 9d 3e a7 72 fc 3e 94 a9 d1 3e 78 54 ab bd
       0.3076191 0.49306223 0.4094969 -0.083657205
0001f0 70 97 89 3d a6 03 90 be 0d 97 09 3d 4a 27 f1 3e
       0.067183375 -0.28127784 0.03359132 0.47100288
000200 f6 cc 91 3e 2d d7 95 3a 56 2c 73 3e 69 ad 0e be
       0.28476685 0.0011431925 0.23747382 -0.13933338
000210 80 6c f7 be 4f 7d 88 be 3c 68 22 3e 60 ad a3 3c
       -0.48324966 -0.26658103 0.15860075 0.019980133
000220 23 f6 5d 3e e5 ab b4 3e 13 f9 9a 3d 3a 45 3a 3e
       0.21675925 0.35287395 0.075670384 0.1819047
000230 2d e0 e0 bc 8f 4d 43 3e c5 dd 92 be d7 25 26 3d
       -0.027450645 0.19072555 -0.28684822 0.04056343
000240 b6 7c e5 3e 62 32 48 3d 5d d5 02 be 68 74 de 3e
       0.4482171 0.048876174 -0.12776704 0.43448186
000250 c0 dd 6b 3e 50 02 77 be a8 9e 38 3e f4 85 7d be
       0.2303381 -0.24121976 0.18029273 -0.2475813
000260 5b 07 73 be 64 04 b5 3d 36 cd 25 3d d5 3e 5a 3e
       -0.23733275 0.08838728 0.040478908 0.21313031
000270 48 10 d0 3d 07 15 ab 3d 6d 83 e9 be e5 8f f2 be
       0.101593554 0.0835362 -0.45608082 -0.47375408
000280 d1 0f 83 3e 75 e1 bd 3e 91 9c a1 bd b9 72 57 bc
       0.25598004 0.37086073 -0.07891191 -0.013149911
000290 6c 57 fd be d0 65 36 be e0 38 9f bc b8 0c 6b be
       -0.4948076 -0.17812276 -0.0194363 -0.2295407
0002a0 57 ac ec be 26 27 84 be 44 13 ed 3e e6 b1 bb be
       -0.46225235 -0.25811118 0.4630376 -0.36659163
0002b0 67 1c d2 be e5 05 01 3f 50 4f 78 3d 23 d6 e0 be
       -0.41037294 0.5039962 0.060622513 -0.43913373
0002c0 7c d2 8a be 74 3b a8 be 32 7d c5 be 70 7d 48 bd
       -0.27113712 -0.3285786 -0.3857208 -0.04894775
0002d0 89 6e c1 bd 2b bc 1e be c2 06 eb 3e 28 bd b1 3e
       -0.09444911 -0.15501468 0.45903593 0.34714627
0002e0 aa 86 cc 3e bd 23 ea 3d 34 ec cc 3e 15 d9 41 3e
       0.3994649 0.11432598 0.4002396 0.18930466
0002f0 1e ad a1 be 34 1e d6 3e 2b e8 d8 3e 6e 44 71 be
       -0.3157739 0.41819918 0.4236463 -0.2356126
000300 44 31 66 be 82 08 ac be 7a be dc be a6 52 a2 3e
       -0.22479731 -0.3360024 -0.43114072 0.3170368
000310 cf cc da be 9d af 9a 3e 0a a5 a1 be f5 31 71 3e
       -0.42734382 0.30212107 -0.31571227 0.23554213
000320 88 dc 56 be c0 48 48 3e 2e 40 81 3e ca 81 0a 3b
       -0.20982563 0.19559002 0.25244278 0.002113449
000330 cc d7 0d be cd 95 d2 be fa 16 83 3e c2 81 8d be
       -0.13851851 -0.41129914 0.25603467 -0.2763806
000340 4a 3f d9 be a5 6e 26 be 4d e7 41 3e 40 a2 29 3e
       -0.42431098 -0.16253145 0.1893589 0.165658
000350 4b 82 81 3e f6 8b 07 3d 84 00 3c 3d cb 54 ed 3e
       0.25294718 0.03309246 0.04589893 0.46353754
000360 86 8a c3 be a0 e2 47 be 48 2e 1d be 4e 32 bc 3e
       -0.38191622 -0.19520044 -0.15349686 0.3675713
000370 b2 f3 c0 be 7a f4 c7 3e 63 f5 64 be 10 99 13 be
       -0.37685925 0.39053708 -0.22359233 -0.14413857
000380 6a c6 c9 3e 68 c3 fe bd 7c 60 8d be ea b6 83 3e
       0.3940919 -0.124396145 -0.27612674 0.2572549
000390 6a 1d 8f be 70 26 f7 be 30 34 8f be c0 2b f9 3c
       -0.2795213 -0.48271513 -0.27969503 0.03041637
0003a0 e6 69 a4 3e 37 cc 78 3e af 56 8a 3e b1 01 51 3e
       0.32112044 0.24296652 0.2701926 0.20410801
0003b0 90 0f b0 3e 90 e4 41 bd 88 0b da bd e0 2d 70 be
       0.34386873 -0.047337115 -0.10646731 -0.23455
0003c0 f1 c8 18 3d 52 38 09 3e 82 ad d1 3e 39 b9 e0 3c
       0.037301008 0.1340039 0.40952688 0.027432071
0003d0 a4 fd 87 be e2 cf 88 be a2 86 9f 3d 50 2b 74 3d
       -0.265607 -0.26721102 0.07789351 0.05961162
0003e0 f8 0e 99 bd 38 1c e9 bd 7c 33 87 3c c8 4c a0 be
       -0.07473558 -0.113823354 0.016504042 -0.3130858
0003f0 22 66 eb be 3a 50 d0 3e f3 a9 f1 3e 6a 94 9b be
       -0.4597636 0.40686208 0.47199973 -0.30386668

fc1.bias f4 [128]
000000 fb 89 8e 3e fc c5 75 be e9 41 82 be e5 c2 b6 3c
       0.27839646 -0.24001306 -0.2544091 0.02230973
000010 40 19 e3 be 95 3d 4f be a4 92 97 3e 58 77 e5 3e
       -0.44355202 -0.20238335 0.29604065 0.44817615
000020 6a a0 92 3e 44 13 e5 be 0b 4e 83 3e 18 bf 85 bd
       0.2863801 -0.4474126 0.2564548 -0.06530589
000030 86 1a be be 86 ae ce be 57 e0 e6 bc 54 b8 ca 3e
       -0.3712961 -0.40367526 -0.028183145 0.39593756
000040 15 ff f6 3d 85 98 aa be c6 3a d8 be e9 b3 f1 be
       0.12060372 -0.33319488 -0.4223234 -0.47207573
000050 94 b3 19 be 4f 04 4e be 06 23 47 3e b6 85 86 bc
       -0.1500991 -0.20118831 0.19446954 -0.01642118
000060 58 bd 1b 3e 01 d8 cd be 7a 33 c0 3e 47 4d bc 3e
       0.15208948 -0.4020386 0.37539274 0.36777708
000070 6c b9 bf 3d f8 7d a7 be 80 d8 59 3c 72 e5 8f 3e
       0.09361538 -0.32713294 0.0132962465 0.2810474
000080 59 b4 06 3c aa 6a 98 3e 3a 79 ac bd 87 9f 8b 3e
       0.008221709 0.29768878 -0.0842156 0.27270147
000090 bb 59 8f be a8 40 83 3e 33 3d 3e be 40 ca d7 3e
       -0.27998146 0.25635266 -0.18578033 0.42146492
0000a0 98 29 e0 3e 58 46 eb be 1a f3 15 be ac 39 36 3e
       0.43781734 -0.45952106 -0.14643517 0.17795438
0000b0 1c 14 11 be 09 59 d5 3e a6 01 89 3e 82 78 a7 3e
       -0.14167827 0.4166949 0.2675907 0.32709128
0000c0 70 da 13 3e 43 d2 ab 3e 2f b8 85 be f9 34 7f bc
       0.14438796 0.33558854 -0.26117083 -0.0155765945
0000d0 1e d1 7d 3e 47 d0 04 3e 54 a3 18 be 0d d1 c1 bd
       0.24786803 0.12970077 -0.14906055 -0.094637014
0000e0 d8 f3 e3 bd 38 20 e0 bd aa d6 fe 3d 00 ac 40 3c
       -0.11130494 -0.10943645 0.12443288 0.011759758
0000f0 39 02 b6 be 9d 73 55 bd d4 9c eb 3e e1 a2 d7 3c
       -0.3554857 -0.05211221 0.46018088 0.026322784
000100 a4 04 d8 be e0 92 e6 3d 65 97 dd bd c8 a3 07 be
       -0.4219104 0.11258483 -0.10819892 -0.13246071
000110 34 25 16 3e ca f5 a5 be 60 cb ae be ce f3 f3 be
       0.1466263 -0.32414085 -0.34139538 -0.47646946
000120 1a 79 6b 3e 3e 4d 19 be 0a b4 ce 3e c9 f2 fb 3e
       0.22995415 -0.14970872 0.40371734 0.49208668
000130 6a 4a f3 3e b7 72 a0 3e 16 4f 80 be 26 46 66 3e
       0.4751771 0.3133752 -0.25060338 0.22487697
000140 68 a4 f1 be ec 55 80 be 60 f5 dc be 5b be df 3e
       -0.47195745 -0.25065553 -0.43155956 0.43699917
000150 f6 a2 53 3e 40 42 64 bd 8e 48 a8 be 70 81 d7 3e
       0.20667633 -0.055727243 -0.32867855 0.4209094
000160 8e d8 f0 be 37 af 40 bd cc 7f d5 be 3c 98 f7 3e
       -0.47040218 -0.047042098 -0.41699064 0.48358333
000170 2b 29 e0 be 40 65 a1 3e 0c 71 31 3e d0 da f5 3e
       -0.4378141 0.3152256 0.1732828 0.48018503
000180 54 b4 95 be 60 7c ec be 09 43 ad 3d 30 92 9e be
       -0.29239142 -0.4618864 0.084600516 -0.30970907
000190 99 14 8f 3e 1a da d5 be 28 1e 16 be 93 54 c1 be
       0.27945402 -0.4176796 -0.14659941 -0.37759838
0001a0 b8 17 15 be 98 5b 27 3e 33 68 f0 3e 31 3c e5 3b
       -0.14559829 0.16343534 0.46954498 0.0069957008
0001b0 70 60 7c bd 7b b8 1a bc 2b 84 eb bd ff 0b 17 be
       -0.061615407 -0.009443398 -0.114998184 -0.1475067
0001c0 16 74 c0 be b2 02 99 3e ea 81 59 be de 51 83 3e
       -0.37588567 0.2988487 -0.21240965 0.25648397
0001d0 68 30 06 3e 58 60 e7 3e b1 1b b4 be f1 49 82 3e
       0.13104403 0.45190692 -0.35177377 0.25447038
0001e0 22 42 06 be 14 fb 80 3e 0c 0f 8d 3e ba 4b 5a 3e
       -0.13111165 0.25191557 0.27550542 0.2131795
0001f0 c6 db c0 be 29 f0 bc 3e a4 4d 18 be b8 86 c9 3e
       -0.37667674 0.36901978 -0.14873368 0.39360595

fc2.weight f4 [64, 128]
000000 19 a0 94 3d c6 8a f8 bc 7a 31 3a bd 5b 1a cd 3a
       0.07257099 -0.03033961 -0.04545734 0.0015648113
000010 7f 90 8d 3d 1c 79 17 3d d4 09 a2 bd e5 a6 3e bd
       0.06912326 0.036980733 -0.07912031 -0.04654588
000020 3a 24 b2 3d 40 8a 68 3b 0c a3 2f 3d 30 c6 13 3d
       0.08698316 0.0035482794 0.042880103 0.03607768
000030 c2 2c 69 bd ba b7 aa 3d cb 0e a2 bd 0a ce 8e 3d
       -0.05692745 0.08335824 -0.07912978 0.069728926
000040 f7 a8 1c bc c4 85 8c bd 1d da 70 bd 5b b9 c7 bb
       -0.009561769 -0.06861451 -0.05880176 -0.006095094
000050 a6 52 3b bd 44 28 61 3d f1 a0 53 3d 9c 9c b6 bd
       -0.045733117 0.05497004 0.051667158 -0.089165896
000060 c6 82 b0 bd c8 96 af bd af b0 98 3d 20 fe 2e bd
       -0.08618693 -0.08573681 0.07455575 -0.04272282
000070 cf da 4c bd 54 97 a0 3d 5b aa aa 3d 87 0b 96 3d
       -0.05001336 0.078413635 0.08333274 0.073264174
000080 cc 97 e7 3c c2 7d b3 bd 75 0d 89 3c 69 fa ec bc
       0.028270625 -0.08764221 0.01673005 -0.028927999
000090 58 c6 b3 3d 2b 85 f9 3b 51 85 8c 3c 6c d0 85 bd
       0.087780654 0.007614752 0.017153414 -0.06533894
0000a0 63 67 c0 bc dd b8 a8 3d 08 de 97 3d 71 3c 16 bd
       -0.023486799 0.08238385 0.07415396 -0.036678735
0000b0 3a f7 16 3d 84 2d 95 bd d6 a5 1d 3d 0c d6 2f bc
       0.036856867 -0.07284072 0.03848823 -0.010732185
0000c0 5e 6d e2 bc 32 25 43 bd eb 59 18 3d ae ed dd bc
       -0.027640041 -0.047642894 0.037195127 -0.027090874
0000d0 ea 02 91 bd 17 a7 dc 3b 16 f0 91 bd 6b ab 2a 3d
       -0.07080634 0.006733786 -0.07125871 0.041667383
0000e0 9c 27 a1 bc ee e6 54 bd 54 ae 67 3c cc 6c 76 bd
       -0.019672208 -0.051978044 0.014140684 -0.06016235
0000f0 6e 28 94 bd 20 f6 fa b9 df 0a 82 bd 3e 93 95 bd
       -0.07234274 -0.00047867093 -0.0634973 -0.07303475
000100 d2 79 59 bd fa 23 67 3d ac 08 08 bd a0 3e 1b 3c
       -0.053094693 0.056430794 -0.033211395 0.00947538
000110 41 19 03 bd 66 8d 60 bd a2 d1 c0 bc 64 51 99 bd
       -0.032006506 -0.054822348 -0.02353746 -0.07486227
000120 1e 16 5d bd 0d fa 8b 3d e5 0e 20 bc 39 d6 70 3d
       -0.05397617 0.06834803 -0.009769176 0.05879805
000130 cc a5 ca 3c 13 06 4d bd 14 20 10 bd a0 cf f8 bc
       0.024737261 -0.05005462 -0.035186842 -0.03037244
000140 20 f4 21 3c f0 cf 81 bd f4 ca cd bc a8 7b a9 3d
       0.009884864 -0.06338489 -0.02512119 0.08275539
000150 66 d1 2a 3d 31 48 aa 3d a6 43 28 bd 73 f3 98 bd
       0.041703604 0.08314551 -0.04108014 -0.07468309
000160 e0 36 13 3d 80 40 10 bd 67 37 b2 bd 80 98 8a ba
       0.035941005 -0.035217762 -0.087019734 -0.0010574013
000170 f1 c3 9e 3d a9 81 41 3d d1 6c 1a bd aa d5 26 3d
       0.077522166 0.047242794 -0.03770143 0.04073111
000180 40 df ff 3c 07 b9 96 bd cb 49 9c bd 5f f7 b0 bd
       0.031234384 -0.0735951 -0.076312624 -0.08640932
000190 c3 8e 90 bc 98 a5 d8 bc bb 3e b1 3d dc 3f 8f bc
       -0.0176462 -0.026446149 0.08654543 -0.017486505
0001a0 80 7e f4 3c fb 65 52 3d c5 64 c6 3c f8 ff 9d 3d
       0.029845476 0.051366787 0.024217973 0.07714838
0001b0 64 e4 a7 bd ae 61 e7 bc b5 ab 9b 3d 4c 84 37 bd
       -0.08197859 -0.02824482 0.0760111 -0.044803903
0001c0 08 06 b8 3c 36 a0 25 3d e8 dd 8f bc 22 8b b8 bd
       0.022463813 0.040435992 -0.017561868 -0.090109125
0001d0 eb 15 07 bd 31 6f 45 3c 85 b7 73 bd 9f 11 b5 bc
       -0.032979887 0.012050436 -0.05950119 -0.022103129
0001e0 e5 51 81 bd b6 de f4 bc bc 6d a4 3c 30 31 9c 3c
       -0.06314448 -0.029891353 0.020071857 0.019066423
0001f0 1f f5 af bd 21 69 9a 3d 6e b9 a8 3d 89 2c 61 bd
       -0.08591675 0.07539583 0.08238493 -0.054974113
000200 4f 8d b1 bd eb 5c 09 bd e5 49 59 bd d4 46 af bd
       -0.086695306 -0.03353588 -0.053048987 -0.08558431
000210 0f 6f 18 bd d5 59 ac 3d 68 d8 f1 3c a0 3e a9 bb
       -0.03721529 0.084155716 0.029522136 -0.005164936
000220 82 08 3f 3d 9b 13 a7 bd 50 cd 0c bd da 34 79 bc
       0.046638973 -0.08158036 -0.03437549 -0.015210355
000230 e7 8f 82 3a 23 6f 66 3c 97 42 c6 3c cf 13 57 bc
       0.0009961099 0.014064583 0.024201674 -0.013127281
000240 82 0a 5b 3d a8 4f 94 bd 2a 95 78 bd 64 67 1e bd
       0.053476818 -0.07241756 -0.06068913 -0.03867282
000250 d8 3b fa bc 7d 81 14 bc 28 05 4d bd a9 5d 6b ba
       -0.030546114 -0.009064076 -0.050053746 -0.0008978495
000260 40 2f 79 bb 4e 95 f8 3c d5 2e 75 bd 6a 32 97 3d
       -0.0038022548 0.030344632 -0.059859116 0.073826626
000270 89 aa 7d bd 52 b8 61 3c 51 02 5f 3d e4 97 5c bd
       -0.061930213 0.013776856 0.05444557 -0.05385579
000280 87 7c 41 3d 5b 05 1b bc 0e 5d d8 3c 43 45 99 3d
       0.0472379 -0.009461726 0.02641156 0.07483914
000290 0e 97 50 bd dd 62 46 3d a4 0b a2 3c c8 f2 49 3d
       -0.050925307 0.048434127 0.019780941 0.0493038
0002a0 88 98 10 3d 0f f1 93 3d 30 51 b7 3c 03 c0 49 3d
       0.035301715 0.07223713 0.02237758 0.049255382
0002b0 00 a2 d9 3a 3d dd 3a bd 8f f6 5b 3d 70 f0 a2 3c
       0.0016604066 -0.045621146 0.053701933 0.01989004
0002c0 00 2d 70 ba 37 2a 55 3d 72 bc e8 3a 9b 50 71 bc
       -0.0009161979 0.052042212 0.0017756356 -0.0147286905
0002d0 a4 17 03 3c 08 0d bc bd f8 44 9d bd 91 1f 99 bd
       0.008001242 -0.09182173 -0.0767917 -0.07476724
0002e0 39 03 99 bd a0 f0 f4 bb 3c 52 8b 3d 71 29 91 3d
       -0.07471318 -0.007474974 0.06802794 0.070879824
0002f0 2e 43 8d bd 5d be 34 3d c9 a8 b2 bc 07 6c 94 bc
       -0.06897579 0.044126857 -0.021808999 -0.018117918
000300 6e 5d 5e 3d 03 f1 85 bd 1a de 6f bd 1c 1a a5 3c
       0.05428832 -0.0654011 -0.058561422 0.020154051
000310 80 8c 32 bc 9d bc f9 3b 28 8f 1a 3d d0 c7 93 bd
       -0.010897756 0.0076213614 0.03773418 -0.072158456
000320 52 51 15 bd 3a 98 a0 3d ea ef df bb 1a 85 4a 3d
       -0.036454506 0.07841535 -0.00683402 0.04944334
000330 51 45 84 3d 55 09 88 3d 00 6d c8 3a 67 a1 b6 bd
       0.064585336 0.06642405 0.0015291274 -0.08917504
000340 73 97 7d 3c b2 1e 4d 3d 01 35 ab bd 9c 1e a0 bd
       0.015478003 0.0500781 -0.08359719 -0.07818338
000350 bb 33 9f 3d 22 72 a1 bd 35 46 40 3d 45 a1 9d bd
       0.07773539 -0.07883097 0.046941955 -0.07696775
000360 61 8e 40 bd 2c 7d bd bd 68 a6 be bc 19 e5 23 bd
       -0.047010783 -0.0925239 -0.023272708 -0.040013406
000370 62 63 03 3c 08 8d 02 3d cc a1 91 bd 28 20 89 bd
       0.0080193 0.03187278 -0.071109384 -0.066955864
000380 5b 18 84 3d 1b 78 b2 bd 5c 4e 9d bb 97 cb 90 3d
       0.06449958 -0.087143146 -0.004800601 0.07070082
000390 d6 e1 a5 3d bf a7 52 3c 7c 55 bc bc 2c cc 07 3d
       0.080997154 0.012857377 -0.02298998 0.033153698
0003a0 a0 c7 4b 3b c9 73 47 3c 12 db 14 bd 96 67 56 bd
       0.0031094328 0.012173601 -0.036341734 -0.05234488
0003b0 ac 96 83 3c 2b f4 35 bd 6b b5 a9 3d fb e6 8c bd
       0.016063057 -0.04442231 0.08286556 -0.068799935
0003c0 be 91 4e bd ca ed 08 bd 6f 13 e3 3c be 17 5d 3d
       -0.05043196 -0.0334299 0.027719228 0.05397772
0003d0 86 5f 61 3d 0a 04 a6 3c bc 2b b0 bd 55 84 0d 3d
       0.05502274 0.020265598 -0.08602092 0.03455003
0003e0 b2 0d 2e 3b a8 68 82 3d 3c da 15 3d 87 f1 a9 3b
       0.0026558456 0.06367618 0.036585078 0.005186263
0003f0 cf e3 a7 bd 7f fc 7d 3d 9e db 08 3d aa 79 81 bd
       -0.08197748 0.062008377 0.03341257 -0.06322034

fc2.bias f4 [64]
000000 60 91 16 3d a6 2c a7 3d c0 75 23 bd e3 17 a4 3d
       0.036759734 0.08162813 -0.039907217 0.080123685
000010 5d 1c c6 bb 91 dd 25 bc 31 d9 ec 3c 39 dd 33 bd
       -0.0060458616 -0.010123626 0.028912159 -0.043912146
000020 72 0d 05 3d e0 f5 a9 3b 44 e0 3b 3d 97 ba 82 bd
       0.032483526 0.0051867813 0.045868173 -0.063832454
000030 2e 36 50 3d 6f 79 ae 3d 85 da 9c bd d8 3c ab bc
       0.05083292 0.08519255 -0.07658867 -0.020903036
000040 f9 94 55 3c e5 d7 80 bd a9 ed 27 bd e5 3e 86 3d
       0.013036006 -0.062911786 -0.040998135 0.06554965
000050 b5 3c 30 bd ca 6a 43 bd fd 7b 8a bd bb ae 69 bd
       -0.043026645 -0.047709264 -0.0676193 -0.0570514
000060 f7 78 35 bd 1c d5 2f bd a5 2d 50 bc 27 e7 83 3d
       -0.044304814 -0.042927846 -0.012706195 0.06440573
000070 d3 26 89 bd f8 09 21 3c f2 7e 38 3d c9 ae 40 bd
       -0.06696858 0.009829037 0.04504294 -0.047041688
000080 75 92 a8 bd a3 1a 94 3d 38 8a 17 3c 47 05 0a bd
       -0.082310595 0.07231643 0.0092492625 -0.03369644
000090 17 a3 41 bc 28 f3 8a bc 35 ae af 3b 6d f9 5a 3d
       -0.011818669 -0.016961649 0.0053613433 0.053460527
0000a0 65 4e b1 bd 98 22 a7 bd 39 89 3a 3c 50 be d3 bc
       -0.08657531 -0.08160895 0.0113852555 -0.025847584
0000b0 27 f1 57 bd af 5c fc bc 49 be 6e 3c 3e 72 ad bd
       -0.052720215 -0.030805914 0.014571735 -0.084690556
0000c0 28 33 1c 3d 49 67 4d bd 64 90 a9 bd 80 92 90 3c
       0.038134724 -0.05014733 -0.082794935 0.017647982
0000d0 d8 7a a0 bc a0 77 e1 3b 4e 5f 78 3d 10 43 92 bb
       -0.019589826 0.0068807155 0.060637765 -0.004463561
0000e0 b4 1c 69 bc be 21 a3 bd a6 3c 4d bc d8 b1 54 3c
       -0.014228035 -0.0796542 -0.012526667 0.012981854
0000f0 41 09 50 3d b5 cb 8a bc e4 6d b0 bd 6a 0f 36 3d
       0.050790075 -0.016942838 -0.0861471 0.044448294

fc3.weight f4 [32, 64]
000000 8a 37 54 3c 33 db fb 3d 88 6d ab bd 20 74 fc 3b
       0.012952695 0.12297668 -0.08370501 0.007704273
000010 95 78 33 bd f6 b6 88 3b 8e 38 f7 bd a4 67 11 bd
       -0.043816168 0.0041722013 -0.12071334 -0.03549923
000020 98 51 d7 bd 1e a4 b2 bd 56 7d 47 3c 6c 1d d8 bd
       -0.1051361 -0.08722709 0.0121758785 -0.10552487
000030 22 5a a4 3d 98 6e b9 3c 7f 4e 44 bd 58 46 2e bd
       0.08025004 0.022635743 -0.047926422 -0.042547554
000040 39 f9 77 bd cd db e9 3d 4e 46 76 3d ac eb eb 3d
       -0.06054041 0.11418877 0.06012564 0.1151956
000050 70 1d 3c 3b 4d d4 ab bc de 6e 38 3d 2b 77 89 bd
       0.002870407 -0.020975256 0.045027606 -0.067121826
000060 0e e0 c5 bd af 3c dd bd 11 b0 93 bd 08 64 8a 3c
       -0.09661876 -0.1080259 -0.072113164 0.016893402
000070 10 15 03 bc e4 91 0f bd 58 5b a1 bc 76 cd dd bd
       -0.008000627 -0.03505124 -0.019696876 -0.10830204
000080 7b 11 79 bd 51 f9 7e 3c 6c c7 88 bd eb 3f 87 bc
       -0.060807686 0.015562371 -0.06678662 -0.01650997
000090 ba 2c af 3d bc 83 84 bd c2 17 b5 3d a4 d7 ad bc
       0.08553453 -0.06470439 0.08842422 -0.02122099
0000a0 c1 15 8d 3d 8c ba a1 ba ba 17 30 3d 0c f5 06 3d
       0.06888915 -0.001233892 0.042991377 0.03294854
0000b0 16 11 a2 3d d3 11 77 3d 90 fe b9 bc 32 45 87 3a
       0.07913415 0.060319733 -0.022704393 0.0010320304
0000c0 f7 51 9c bd af fc d8 3d f7 d7 9d bd 56 c4 85 bd
       -0.07632821 0.105950706 -0.07707208 -0.06531589
0000d0 40 9a 5c 3d c2 f8 f2 bd 76 26 ec bd a0 12 42 3d
       0.05385804 -0.11863853 -0.11530773 0.047381043
0000e0 bc 3e ba 3d f7 1c d8 3c 6d 73 00 3c 82 82 ab bd
       0.09093997 0.026380999 0.00784002 -0.08374502
0000f0 2f 1a 26 bd d8 19 f0 3d f6 33 c3 bc 02 db 17 3d
       -0.040552314 0.11723679 -0.023828488 0.037074097
000100 38 4f 98 bd 3c ce 9d bd 5c 65 86 3d f0 d8 f2 3d
       -0.07436985 -0.07705352 0.065623015 0.11857784
000110 8e 8d 94 bd d8 43 86 bd 30 35 2d bc 2e 17 dc bd
       -0.07253562 -0.06555909 -0.010571763 -0.10746609
000120 0c ae a1 bd 90 eb e6 bd 00 ed 7e ba e8 d7 d4 3d
       -0.07894525 -0.11275399 -0.0009724647 0.10392743
000130 28 c1 89 bc d2 ae b2 bd de fe ae bd 74 f5 80 bd
       -0.016815737 -0.087247506 -0.08544706 -0.062968165
000140 28 e6 ad bc c2 41 eb bd 48 ec ce 3d 10 1a 91 3d
       -0.021227911 -0.11487152 0.10103661 0.07085049
000150 b0 00 44 bc 26 b8 88 bd cc 88 e7 3d 48 a2 0e bd
       -0.011963055 -0.066757485 0.11305389 -0.034822732
000160 1c 1c 86 bd 78 66 1d 3d 28 9c 34 bd 7c dd f9 bd
       -0.0654833 0.0384278 -0.044094235 -0.12200448
000170 d0 13 0f 3c 50 73 b4 3c 48 9f 8f bc 00 2b fb bb
       0.008732751 0.022027642 -0.017532006 -0.007665038
000180 90 94 94 bc d2 54 dd 3d 80 9f ad bc 1c d5 35 bd
       -0.018137246 0.10807194 -0.02119422 -0.04439269
000190 26 0c cf bd a0 79 9e 3b 50 31 31 3d 08 f9 fc 3c
       -0.10109739 0.004836276 0.04325992 0.030880466
0001a0 a4 f7 69 3d a0 0c 91 3d 22 84 a7 3d 00 f2 d7 b9
       0.057120934 0.07082486 0.08179499 -0.000411883
0001b0 00 ee a0 3d 68 24 c7 bc fc ec 23 3d 90 17 7b 3d
       0.07857895 -0.024309352 0.040020928 0.061301768
0001c0 2c fe 7a bd 7c 39 24 3d a2 f9 d0 bd f6 33 b6 bd
       -0.061277553 0.040093884 -0.10203864 -0.088966295
0001d0 e0 ea 89 3c f4 d6 a1 bd a0 da 36 3d 8e 83 9e bd
       0.01683563 -0.07902327 0.04464209 -0.07739936
0001e0 40 e8 89 bc 5c 96 8c 3d 80 58 2a bb ce df ff 3d
       -0.016834378 0.06864616 -0.0025992692 0.12493859
0001f0 16 50 f0 bd ec cb f0 3d 42 2c a6 3d 1a a6 b7 3d
       -0.11734025 0.11757645 0.0811391 0.08967228
000200 d7 35 01 3d 2c 9c e5 bb 90 54 a6 bc 08 ab 92 bd
       0.031545486 -0.0070071425 -0.020303994 -0.07161528
000210 ad 74 30 bd f1 40 67 bd d6 89 f3 bd 40 0e 12 bc
       -0.04308002 -0.056458417 -0.118915245 -0.00891453
000220 36 bc fe 3d a0 6c 0e bc 86 3d 93 3d 00 b6 fe b9
       0.12438242 -0.00869289 0.07189469 -0.00048582256
000230 22 32 a1 3d 34 aa 23 3d 68 0d 8c bd c0 b5 d4 3b
       0.0787089 0.03995724 -0.068384945 0.006491393
000240 d8 b1 18 bc 26 28 a1 bd 73 f2 85 bd af 84 87 3d
       -0.009319745 -0.07868986 -0.06540384 0.06617104
000250 c0 1f f9 bd a0 c5 d5 3c 01 db 28 bd 6a a0 fc 3d
       -0.12164259 0.026095212 -0.041224483 0.12335284
000260 17 32 a1 3d 24 2a 0e bd 8c a9 9e 3c 00 78 65 ba
       0.07870882 -0.034708157 0.019367956 -0.0008753538
000270 12 dd a7 bd 1c 76 00 3d 80 92 e3 ba 0e 78 90 bd
       -0.08196463 0.031362638 -0.0017362386 -0.070541486
000280 26 31 ca bd cd 0c 76 3c 44 88 5b 3d bc ec 1a 3d
       -0.098726556 0.0150177 0.05359675 0.037823424
000290 4b 13 72 bd 00 02 33 3b f5 b1 62 bb 34 dc a0 3d
       -0.05910043 0.0027314425 -0.0034590934 0.078545004
0002a0 48 d4 43 3d ca ea 8b bd da 11 08 3d 70 29 a1 3d
       0.04780987 -0.06831892 0.03322015 0.07869232
0002b0 a0 96 1e 3d f7 35 54 3d a2 33 80 bc 30 ad 5b 3c
       0.038717866 0.051809277 -0.01564962 0.01340799
0002c0 9c a0 6c 3d ea 50 88 bd e1 bd bc bd c0 c4 81 3d
       0.057770357 -0.06656058 -0.09215904 0.06336355
0002d0 a4 49 39 bd 76 73 d7 bd 2e 5f e0 bd a0 80 90 3b
       -0.045236245 -0.10520069 -0.10955654 0.0044098645
0002e0 50 4e 3d 3d 0a bb dd bd 5e 7a c7 bd 2c 6a 27 bd
       0.046217263 -0.108266905 -0.097401366 -0.040872738
0002f0 98 0c e0 bc 66 1c db 3d ce d9 de 3d bb 9d f1 3d
       -0.027349755 0.10698776 0.10881387 0.11797663
000300 07 5c eb 3d 5f ef 97 3d c0 45 ea 3d f8 56 bc bc
       0.11492162 0.07418703 0.11439085 -0.022990689
000310 20 4d 0c 3d 6c c5 1d 3d b4 35 09 bc 64 44 01 bd
       0.03425324 0.038518354 -0.00837462 -0.031559363
000320 38 15 e3 bc 80 0f 04 3c 70 34 2a bd 40 35 dc 3d
       -0.027720079 0.008060336 -0.041553915 0.10752344
000330 10 c3 87 bc 5e 6f c5 bd da 4f f7 bc 4c d3 14 bd
       -0.016572505 -0.09640382 -0.030189443 -0.03633432
000340 93 a2 b8 bd 68 99 d5 3d e7 00 f2 3d 6f ee 5e 3c
       -0.090153836 0.104296505 0.11816578 0.013606652
000350 07 bf 89 bd a6 5e cc 3d cf 99 02 3d 0e 80 a3 bc
       -0.06725889 0.0997899 0.031884965 -0.019958522
000360 75 e4 16 bc 7f 52 12 bd 6f a2 b0 bd 88 2b 44 bd
       -0.009209742 -0.035723206 -0.08624732 -0.047893077
000370 ae 02 90 3d 9c a4 b5 bd 70 dd 89 3c ca 68 cd 3d
       0.07031761 -0.08869287 0.016829222 0.100297526
000380 cc 4d ea 3a 96 76 ac 3c fc e9 05 3d 3d ae cc bd
       0.0017875968 0.02105264 0.032693848 -0.09994171
000390 11 2d 9b bd b0 a9 ad bc c5 d5 c7 bd f7 a1 c7 3d
       -0.07576955 -0.021199077 -0.0975757 0.09747689
0003a0 fe cb 94 bc a8 63 a6 3d ca db fb 3d 28 47 f3 bc
       -0.018163677 0.08124477 0.12297781 -0.029697016
0003b0 60 45 aa 3b bc 8b 43 bd c1 f1 ab bd f4 67 cb bd
       0.0051962584 -0.047740683 -0.0839572 -0.09931937
0003c0 39 fc bc bd 9e a5 4b bd 29 e2 42 bd 0c b4 d0 3d
       -0.09227795 -0.04971849 -0.047578964 0.10190591
0003d0 50 03 be bc 68 98 61 3d 0c 51 2f 3d 80 94 b7 3a
       -0.023194939 0.055076987 0.0428019 0.0014006048
0003e0 52 d1 22 3d 68 be ef 3d 77 3b f6 bd bc 51 f5 bd
       0.039750405 0.11706239 -0.12023061 -0.1197848
0003f0 05 09 f8 3b e6 c3 31 bd 78 eb a4 bc a3 b9 f4 3d
       0.0075694346 -0.043399714 -0.020131811 0.1194947

fc3.bias f4 [32]
000000 58 73 e9 bd 64 27 37 3d d4 e9 90 bd 15 8c 73 bd
       -0.11398953 0.0447153 -0.07075849 -0.059459765
000010 e2 1c d7 bd 44 53 f5 ba d2 c1 2b 3c 10 52 1b 3d
       -0.10503556 -0.0018716832 0.010483222 0.037920058
000020 50 a4 fb bd b5 5a 95 bd 6f ae ff 3c cf 52 0e 3d
       -0.122871995 -0.072926916 0.031211106 0.03474694
000030 2e 99 49 bd d0 ef de 3d 37 7b 91 3d 4f 5f e2 bd
       -0.04921835 0.10885584 0.071035795 -0.11053335
000040 2d 2d c6 3d 08 12 d2 3c 9c 09 c2 bd f1 c7 56 3d
       0.09676585 0.025643364 -0.09474489 0.052436773
000050 64 4b 27 bd d9 d5 89 3c 8f f0 62 3d 51 6f f9 3c
       -0.040843382 0.016825603 0.055405196 0.030448588
000060 8b 51 5a bc cc d8 67 bd 2e 0d d2 3c b8 f8 a6 bd
       -0.013325105 -0.056603238 0.02564105 -0.08152908
000070 42 03 ab bd 64 f9 d6 3d 70 ea f7 3d dc bb 98 bd
       -0.08350231 0.10496786 0.12105262 -0.07457706

fc4.weight f4 [6, 32]
000000 6e 62 11 3e 99 98 19 3e 60 8f 4b bd c3 1b 58 3c
       0.14197704 0.14999618 -0.04969728 0.013190213
000010 86 82 60 bd b3 78 97 3d 4f 36 52 3c 26 4a b6 3d
       -0.054811977 0.073960684 0.012830331 0.089008614
000020 f5 73 1c 3e 3a 15 9d bd e0 c3 21 bd 30 49 0b bd
       0.15278609 -0.07670064 -0.03949344 -0.034005344
000030 c2 57 f3 bd f6 87 c7 3d 09 ac 22 bd e2 c6 4a bd
       -0.11881973 0.09742729 -0.039714847 -0.049506076
000040 4b 96 a3 bd a6 18 f9 3d 70 30 36 bd 08 0c 62 3d
       -0.079876505 0.121629044 -0.044479787 0.055187255
000050 49 70 ee bd 14 5e 15 3e 8a 47 a5 bd 62 03 1b bb
       -0.116425104 0.14586669 -0.080702856 -0.002365314
000060 bd 7f 16 3e 0c 6d 5b bd f8 dd df 3d c7 0e a2 3d
       0.14697166 -0.053570792 0.10931009 0.07912975
000070 0c 47 1b bd 28 e0 30 3e 3a 88 03 be 79 e8 9f 3d
       -0.037909552 0.17273009 -0.12844935 0.078080125
000080 96 36 02 3e 24 05 22 3d e8 ad ec bc 18 40 32 3e
       0.12716135 0.039555684 -0.028891519 0.17407262
000090 87 f5 1f 3e dd e2 34 3e 31 cf 0f be 20 a7 a1 3c
       0.15621005 0.17664666 -0.14043881 0.019733012
0000a0 7d c2 02 3e ff 27 bd 3d 84 ed 27 be bb 76 1d bd
       0.12769504 0.09236144 -0.16399199 -0.03844331
0000b0 84 80 d2 3d 80 69 0c bb 3f 23 26 be a2 61 bc 3d
       0.10278419 -0.0021425188 -0.16224383 0.091983095
0000c0 75 02 0c 3e be 48 03 be dc 63 c7 bd 84 f9 69 bc
       0.13672812 -0.12820718 -0.097358435 -0.014280681
0000d0 a5 af a9 bd c1 69 56 bd 8a 93 22 be b9 2c 97 3d
       -0.08285455 -0.05234695 -0.15876594 0.07381577
0000e0 d0 aa b1 3d ae c4 e4 3d d7 83 79 3c 99 c8 2b 3e
       0.08675158 0.11170326 0.015229187 0.1677574
0000f0 e0 64 d2 bd 29 12 f7 3d f4 36 31 3d ed 80 15 3e
       -0.10273147 0.12064011 0.043265298 0.14599963
000100 ea 39 10 3e 60 bf e5 3b 40 38 29 bb 5d 3f 8b bd
       0.14084592 0.007011339 -0.002582088 -0.06799195
000110 cc 70 c1 bd 1b ba 0f 3e 77 eb 16 be 6d 94 02 3e
       -0.094453424 0.14035837 -0.1473826 0.12751932
000120 a0 13 21 bc 4f 8e 28 bd 26 31 fd bd c6 77 07 bd
       -0.009831339 -0.04115134 -0.1236289 -0.03307321
000130 f1 6a 2b 3e d9 71 2b be 5c f4 b7 bd 2b 0e c7 bd
       0.16740014 -0.16742648 -0.08982155 -0.09719499
000140 fe 0e fe bd 40 4e 38 3c bc 76 35 bd 41 25 ca bd
       -0.12405203 0.011249125 -0.044302687 -0.09870387
000150 61 76 85 38 33 25 ed bd 0f 60 26 3d 0c be f8 bc
       6.363984e-05 -0.11579361 0.040618952 -0.030364059
000160 a7 10 a9 bd dc 29 59 bd 49 37 a6 3d 89 5b 2b be
       -0.08255129 -0.053018436 0.081160136 -0.16734137
000170 05 bb bb bc f3 13 2e be 22 7e 09 be 26 3e ed 3d
       -0.022916326 -0.16999798 -0.13427022 0.115841195
000180 86 55 76 3c 50 3b 04 bc 3e a3 8d bc e0 7a 86 bd
       0.015035039 -0.008070782 -0.017289754 -0.06566405
000190 8c 94 4c 3d 68 f0 49 3c 48 61 8d bc 5c b9 f7 bd
       0.049946353 0.012325384 -0.017258301 -0.12095901
0001a0 20 49 a5 3c 5e 0c 05 3e fd fd 11 3e c8 28 47 bd
       0.02017647 0.12992999 0.14257045 -0.048622876
0001b0 6f bb 35 3d 9e 7a e3 3d 53 de 06 be 5f ec 01 be
       0.044368204 0.11107372 -0.13170747 -0.12687825
0001c0 23 aa 72 bc b8 53 c8 3c d8 46 73 3d 89 75 bf bc
       -0.014811072 0.024453983 0.059393734 -0.023371475
0001d0 2f 7c 25 3c f3 23 2b be 74 ac e8 3c c4 8e e9 3c
       0.010100408 -0.16712932 0.028402545 0.028510459
0001e0 32 51 1c be c8 33 c2 3c bc ed 05 3e 77 a4 97 bd
       -0.15265349 0.023706332 0.1307897 -0.07404416
0001f0 38 9d b9 bd 51 a3 fd 3d d4 29 3d bd 09 0a fb bd
       -0.0906319 0.12384666 -0.04618247 -0.122577734
000200 62 c3 08 be b2 05 e1 3d 66 a4 d5 3d 12 b7 01 3e
       -0.13355783 0.109874144 0.10431747 0.12667492
000210 be eb 8f bd 57 be 0e be a1 14 e8 bc b4 da 3b bd
       -0.07027386 -0.13939796 -0.02833015 -0.04586287
000220 e8 1a 3a 3d 4c 48 12 3e d1 c9 67 bd 11 e1 44 3d
       0.045435816 0.14285392 -0.05658895 0.048066203
000230 c2 a1 fd 3d 80 ee e4 3a 85 35 60 bd c9 b1 d3 bb
       0.123843685 0.0017466098 -0.05473854 -0.0064604026
000240 0b 08 22 3d 62 07 cf 3d 17 49 02 3e c0 69 95 bd
       0.03955845 0.1010883 0.12723194 -0.07295561
000250 0f dd 38 3d 02 1d 5a bd 50 c8 24 3e 8a ee 82 3d
       0.045132693 -0.05325032 0.16092038 0.06393154
000260 77 db 15 be b6 a4 f3 3d ba e0 bf bc 1f 93 df bb
       -0.146345 0.118966505 -0.023422588 -0.006822958
000270 f6 13 d2 3d 46 73 0a 3c 00 43 2d 3a 7a 52 f6 3d
       0.102577135 0.008450335 0.000660941 0.1202745
000280 9b 41 3e 3b e0 9c 62 3d 71 e5 08 3e b4 dd dd bd
       0.0029030803 0.05532539 0.13368775 -0.10833302
000290 79 0e d7 bd 08 b3 1f 3e 6c 2d 14 3e db 4a 0a 3e
       -0.10500807 0.15595639 0.14470452 0.13505118
0002a0 ce ee d7 3d e8 2e 2e bd 04 69 96 3d 41 57 2e be
       0.10543595 -0.042525202 0.07344249 -0.17025472
0002b0 d1 44 8a bd d0 98 c9 bc 2e 6c 29 be 23 2c 2f 3d
       -0.06751407 -0.024609 -0.16545174 0.0427667
0002c0 cb 87 95 bd b9 b6 c1 bd 28 6e 80 bc ea c5 37 bd
       -0.07301291 -0.0945868 -0.015677527 -0.04486648
0002d0 7d 7e 02 3e ea 92 20 be 96 f8 aa bc c5 25 ea 3d
       0.12743564 -0.15681043 -0.020870488 0.11432985
0002e0 28 75 dc bd 16 0a a4 3d 31 49 3d 3d 83 26 fa bd
       -0.10764533 0.08009736 0.04621238 -0.12214377
0002f0 f0 32 1a bc 2d b9 de bd af 09 a7 bd 79 fa f8 3d
       -0.0094115585 -0.10875163 -0.08156144 0.12157149

fc4.bias f4 [6]
000000 87 f7 c8 bd e8 b6 e7 3d af b0 0d be 23 18 a3 3d
       -0.09812837 0.113141835 -0.1383693 0.07963588
000010 a5 f5 ab 3d ac fd 0e 3e
       0.08396462 0.13963956
