src/params_data/reinforcement_learning/57param.pt (torch, 46927 bytes, 8 tensors)

fc1.weight f4 [128, 4]
000000 78 36 2d be 38 10 78 3c f7 41 c8 3e 72 20 8d 3e
       -0.1691531 0.015140586 0.39112827 0.27563816
000010 40 2f ae 3e c6 83 8a be 10 27 b5 bd 50 22 27 bd
       0.34020424 -0.2705366 -0.08845341 -0.040804207
000020 c7 20 ca 3e 5e b6 8e 3e 3c a1 2d be 37 4e 71 3e
       0.39478132 0.2787351 -0.16956037 0.23564993
000030 0f 38 d2 3e 58 b4 d9 3c 10 73 ce be 69 ec a3 be
       0.41058394 0.026575252 -0.4032216 -0.32016304
000040 a4 cb 48 be 20 44 ab be e6 17 cf be f2 11 e7 3e
       -0.19608933 -0.33450413 -0.4044792 0.4513088
000050 ec 11 b8 3e 50 45 f6 be 2d c6 3b 3e 38 7b b8 bd
       0.35951173 -0.48099756 0.18337317 -0.09007877
000060 80 c1 fb bb ac f0 33 be 84 6c e0 be ec 52 f4 be
       -0.007682979 -0.17572278 -0.4383279 -0.47719514
000070 02 3e dc be 9c 48 52 be 90 4b 14 bd a8 b3 77 3e
       -0.43016058 -0.20535511 -0.036204875 0.24189627
000080 9f 9c db 3e f5 a3 13 bd 58 21 f8 3e 6f ee 45 3e
       0.4289293 -0.036045033 0.4846294 0.19329236
000090 7e 07 ea 3e 40 5a 2f be 82 ed f3 be 30 76 0c be
       0.4570884 -0.17124271 -0.47642142 -0.1371696
0000a0 c1 96 c0 3e 8a 2b 92 3e f3 70 0b 3e 78 de 36 be
       0.37615016 0.28548843 0.13617305 -0.17858303
0000b0 ea 8c 8d be 13 56 b0 3d 33 8b 7f be 01 bf e4 3e
       -0.2764657 0.08610167 -0.24955444 0.44676974
0000c0 29 37 cd 3d 94 39 f7 3d b3 78 fa be dc 3e f7 be
       0.100202866 0.12071529 -0.4892021 -0.48290145
0000d0 7f 9d ff 3c 81 1e f4 3e fe 63 f6 be 7a af b2 3e
       0.03120303 0.47679523 -0.48123163 0.34899503
0000e0 b9 eb 11 be e4 ba e6 3e 30 b6 90 3e cf 2c b7 bd
       -0.14250077 0.4506446 0.28263998 -0.089440934
0000f0 60 89 cc 3d 5c c0 d9 be c9 8f bd 3b 56 55 91 be
       0.0998714 -0.4252957 0.005784963 -0.2838542
000100 fe fd cf 3e 01 ca cf 3e b3 0b f7 3e 1a 21 e4 bd
       0.40623468 0.40583804 0.48251113 -0.11139126
000110 34 5c 3a bd ca 3a 54 bd 9c d0 cf 3e 12 c7 ba 3e
       -0.045498088 -0.051813878 0.40588844 0.36480004
000120 89 79 bb bd 34 d2 12 3e 19 38 2a 3d 77 28 f0 3e
       -0.0915404 0.14337999 0.041557405 0.46905872
000130 9a d3 55 3d d2 d1 88 3d 8a 06 e3 3e 57 ea 92 be
       0.052203752 0.06680645 0.44340926 -0.28694412
000140 9c 8e 8e be cb 32 78 3e 87 6c 74 be 80 bd e2 bd
       -0.27843177 0.24238126 -0.23869525 -0.110713005
000150 44 b7 d1 be b8 86 be be cf 88 13 3e 26 a7 b0 be
       -0.40960133 -0.37212157 0.14407657 -0.34502524
000160 28 50 9b be c7 43 0d be b5 94 6b 3e c6 03 db be
       -0.30334592 -0.13795386 0.23005946 -0.42776316
000170 9a 71 cf 3e 3a e0 a1 be e6 cc 2c 3e a0 5b cd 3e
       0.4051636 -0.31616384 0.16875038 0.40108967
000180 0c 8d b3 3e e2 e3 ea be b8 eb d2 be d8 1b d3 3e
       0.35068548 -0.45876986 -0.41195464 0.4123218
000190 8c 0f 07 3d 2b 59 93 be 6f 11 f6 3e 95 ac e8 be
       0.03297381 -0.28778967 0.48060176 -0.4544417
0001a0 c4 de 57 be e6 7a dd be 73 83 cf 3e e3 81 dd 3e
       -0.21081072 -0.43257827 0.40529975 0.43263158
0001b0 cc cf 98 be 85 4e e4 bd bd b6 9f 3e 04 72 2b be
       -0.29846036 -0.11147789 0.31194106 -0.16742712
0001c0 14 6b e4 3e 89 63 c6 3e 56 d4 ab be f8 a2 98 3e
       0.44612944 0.38747814 -0.33560437 0.29811835
0001d0 0f 8a b3 be b7 61 06 be 5c d8 85 3e 43 40 9d be
       -0.35066268 -0.13123213 0.26141632 -0.3071309
0001e0 26 fe 9e 3e 32 33 fc 3e 4c 24 d1 3e fd 78 b0 bd
       0.31053275 0.4925781 0.40848005 -0.08616827
0001f0 70 97 89 3d a6 03 90 be d8 77 0d 3d 4a 27 f1 3e
       0.067183375 -0.28127784 0.03453812 0.47100288
000200 62 2d 95 3e 44 a6 b9 3a 92 98 72 3e ad a2 0f be
       0.29136187 0.0014163931 0.23691013 -0.140269
000210 80 6c f7 be 8f 2d 88 be 47 49 21 3e 60 ad a3 3c
       -0.48324966 -0.26597258 0.1575061 0.019980133
000220 47 43 5a 3e ce 8e b4 3e 40 f0 9a 3d 75 a8 3a 3e
       0.21314727 0.352652 0.07565355 0.18228324
000230 82 7b c6 bc 94 db 42 3e ac 3a 93 be 1f 86 23 3d
       -0.024228815 0.19029075 -0.287557 0.03992283
000240 bf ca e2 3e 30 a1 42 3d c1 47 04 be 7a d3 dd 3e
       0.44295308 0.047517 -0.12917997 0.43325406
000250 c0 dd 6b 3e c9 af 77 be b2 34 39 3e f4 85 7d be
       0.2303381 -0.2418815 0.18086508 -0.2475813
000260 34 7a 6c be a4 51 b5 3d 99 e8 1f 3d 6d 63 57 3e
       -0.23093492 0.08853462 0.03904018 0.21034022
000270 d3 10 e4 3d fc 1a c2 3d a2 ae e3 be 6e e8 ec be
       0.111360215 0.09477803 -0.44469172 -0.4627108
000280 4d 9b 83 3e 75 63 bd 3e 1c d7 a1 bd 99 24 5a bc
       0.25704423 0.36989942 -0.07902357 -0.01331439
000290 6c 57 fd be d0 65 36 be e0 38 9f bc b8 0c 6b be
       -0.4948076 -0.17812276 -0.0194363 -0.2295407
0002a0 38 63 eb be 71 2b 82 be 9a b2 ee 3e 5c 61 ba be
       -0.45974135 -0.25423768 0.46620637 -0.36402404
0002b0 c7 e3 ca be f7 73 01 3f 27 b5 75 3d db 75 e2 be
       -0.39626905 0.50567573 0.059987213 -0.44230542
0002c0 7c d2 8a be 74 3b a8 be 32 7d c5 be 70 7d 48 bd
       -0.27113712 -0.3285786 -0.3857208 -0.04894775
0002d0 e7 64 c8 bd 7a 33 21 be f2 a1 e9 3e 29 5d b1 3e
       -0.097848706 -0.15742293 0.45631367 0.34641388
0002e0 c6 96 d2 3e 91 3b eb 3d d1 86 cc 3e cf c6 3e 3e
       0.41130656 0.11485971 0.39946607 0.18630527
0002f0 48 35 a1 be 5c 11 d6 3e 0a f1 d8 3e e9 01 72 be
       -0.31485963 0.4181012 0.42371398 -0.23633541
000300 44 31 66 be 82 08 ac be 7a be dc be a6 52 a2 3e
       -0.22479731 -0.3360024 -0.43114072 0.3170368
000310 bd 8e da be 4d 12 9a 3e 1e 4e a2 be bd aa 6f 3e
       -0.42687026 0.30092087 -0.31700224 0.23404975
000320 4e d3 4a be 59 90 48 3e 79 15 80 3e f7 99 a9 ba
       -0.19807169 0.19586314 0.25016382 -0.0012939562
000330 cc d7 0d be f8 e3 cd be e0 d4 84 3e c2 81 8d be
       -0.13851851 -0.4021299 0.2594366 -0.2763806
000340 d0 6d d8 be 3a ff 25 be a4 e4 42 3e 65 e3 28 3e
       -0.4227128 -0.16210642 0.19032532 0.16492994
000350 68 03 7c 3e b3 40 03 3d 50 c4 37 3d 91 df ed 3e
       0.24610674 0.032044124 0.044864953 0.4645963
000360 86 8a c3 be a0 e2 47 be 48 2e 1d be 4e 32 bc 3e
       -0.38191622 -0.19520044 -0.15349686 0.3675713
000370 6d 07 bf be fa 06 c8 3e f8 6c 65 be 1e 9e 14 be
       -0.37310353 0.39067823 -0.2240485 -0.14513442
000380 6a c6 c9 3e 68 c3 fe bd 7c 60 8d be ea b6 83 3e
       0.3940919 -0.124396145 -0.27612674 0.2572549
000390 6a 1d 8f be 70 26 f7 be 30 34 8f be c0 2b f9 3c
       -0.2795213 -0.48271513 -0.27969503 0.03041637
0003a0 a2 e6 a7 3e 09 39 79 3e 48 4e 8a 3e ae 69 4f 3e
       0.32793146 0.24338163 0.2701285 0.20255157
0003b0 90 0f b0 3e 90 e4 41 bd 88 0b da bd e0 2d 70 be
       0.34386873 -0.047337115 -0.10646731 -0.23455
0003c0 67 17 d8 3c e0 e3 08 3e 60 f3 d1 3e 5b e0 f3 3c
       0.026378347 0.13368177 0.41005993 0.029770067
0003d0 a4 fd 87 be e2 cf 88 be ad 72 a0 3d 50 2b 74 3d
       -0.265607 -0.26721102 0.07834373 0.05961162
0003e0 f8 0e 99 bd 38 1c e9 bd 38 73 5f 3c c8 4c a0 be
       -0.07473558 -0.113823354 0.01363831 -0.3130858
0003f0 16 bf e6 be 65 cb d0 3e 02 53 f1 3e 44 6a 9c be
       -0.45067662 0.40780178 0.47133642 -0.30549824

fc1.bias f4 [128]
000000 96 ea 8d 3e fc c5 75 be 12 10 82 be 11 51 bb 3c
       0.27718037 -0.24001306 -0.25402886 0.022865804
000010 40 19 e3 be 1b fd 4e be a4 92 97 3e 58 77 e5 3e
       -0.44355202 -0.2021374 0.29604065 0.44817615
000020 63 ab 91 3e 44 13 e5 be d5 51 83 3e d1 2d 87 bd
       0.2845107 -0.4474126 0.2564837 -0.06600536
000030 f3 6f be be d7 75 cf be 16 7b ef bc 07 bc ca 3e
       -0.37194785 -0.40519592 -0.029233497 0.39596578
000040 6d cd f6 3d 32 26 aa be d3 65 d8 be dc aa f1 be
       0.120509006 -0.33232266 -0.42265186 -0.47200668
000050 b0 5e 1b be 4f 07 4d be 63 c8 47 3e ef a4 90 bc
       -0.15172839 -0.2002232 0.19510035 -0.017656771
000060 58 bd 1b 3e 4f 07 cd be 58 b8 bd 3e 52 55 bd 3e
       0.15208948 -0.4004464 0.37054706 0.36979157
000070 29 8f bf 3d 8f b2 a5 be 03 a0 54 3c 8e 61 90 3e
       0.093534775 -0.32362792 0.012977603 0.28199428
000080 58 66 f5 3b 2b e3 97 3e 9f fd ac bd 58 3a 8b 3e
       0.007489007 0.29665503 -0.08446812 0.2719295
000090 ce f6 8f be b3 85 83 3e 2b e5 3e be 9b 03 de 3e
       -0.28117985 0.25687942 -0.18642108 0.43362126
0000a0 44 ee df 3e 58 46 eb be 0c 67 12 be 03 df 35 3e
       0.4373647 -0.45952106 -0.14297122 0.17760853
0000b0 1c 14 11 be bf 3e d4 3e 33 d0 88 3e 35 95 a7 3e
       -0.14167827 0.4145412 0.26721343 0.32731023
0000c0 70 da 13 3e 99 fd aa 3e 5f a3 86 be 5d 02 3b bc
       0.14438796 0.33396605 -0.26296517 -0.011414138
0000d0 71 87 7f 3e b7 5d 04 3e 54 a3 18 be bc cf c2 bd
       0.2495401 0.12926374 -0.14906055 -0.095122784
0000e0 d8 f3 e3 bd 38 20 e0 bd fa dd ff 3d 00 ac 40 3c
       -0.11130494 -0.10943645 0.124935105 0.011759758
0000f0 56 c8 b5 be 8c 9b 53 bd 47 25 ea 3e 6f af d0 3c
       -0.35504407 -0.051662013 0.45731565 0.025474278
000100 a4 04 d8 be e0 92 e6 3d e1 57 e2 bd c8 a3 07 be
       -0.4219104 0.11258483 -0.11051918 -0.13246071
000110 34 25 16 3e 5a 41 a6 be 22 8b af be ce f3 f3 be
       0.1466263 -0.32471734 -0.34285837 -0.47646946
000120 f5 32 6a 3e ba 5c 19 be 73 7e ce 3e 70 45 fb 3e
       0.22871001 -0.14976779 0.40330848 0.49076414
000130 60 eb f2 3e 9a c4 a0 3e 16 4f 80 be 3f fd 63 3e
       0.47445202 0.31399995 -0.25060338 0.22264574
000140 2c 5b f2 be ec 55 80 be 60 f5 dc be a0 ac df 3e
       -0.47335184 -0.25065553 -0.43155956 0.4368639
000150 75 ec 53 3e 40 42 64 bd 37 21 a9 be 0f 77 d7 3e
       0.2069567 -0.055727243 -0.33033153 0.42083022
000160 b1 cd f0 be 86 c0 3b bd cc 7f d5 be 3c 98 f7 3e
       -0.4703193 -0.0458379 -0.41699064 0.48358333
000170 b2 56 df be 25 7f a1 3e 0c 71 31 3e d0 da f5 3e
       -0.4362083 0.31542316 0.1732828 0.48018503
000180 54 b4 95 be 60 7c ec be 5a 1f aa 3d c4 19 9f be
       -0.29239142 -0.4618864 0.08306761 -0.31074345
000190 26 4f 8f 3e ff 61 d2 be 28 1e 16 be f5 e2 bd be
       0.27990073 -0.4109039 -0.14659941 -0.37087217
0001a0 b8 17 15 be 5f a5 25 3e 73 18 ef 3e a8 40 d9 3b
       -0.14559829 0.16176365 0.4669834 0.006630022
0001b0 70 60 7c bd f5 e0 22 bc 68 bc e8 bd ce 32 18 be
       -0.061615407 -0.009941329 -0.11364061 -0.1486313
0001c0 16 74 c0 be b2 02 99 3e a7 0c 59 be f1 81 82 3e
       -0.37588567 0.2988487 -0.21196233 0.25489762
0001d0 68 30 06 3e 18 1f e7 3e 4d 52 b2 be 08 d4 81 3e
       0.13104403 0.4514091 -0.34828416 0.2535708
0001e0 9a f9 06 be b9 29 7e 3e 0c 0f 8d 3e 9c 08 5b 3e
       -0.13181153 0.24820603 0.27550542 0.21390003
0001f0 c0 44 c1 be 5c bb bd 3e 5c 7b 18 be b8 86 c9 3e
       -0.37747765 0.37057006 -0.14890808 0.39360595

fc2.weight f4 [64, 128]
000000 5f 03 92 3d c6 8a f8 bc 96 2b 3a bd ca be b7 3b
       0.07129549 -0.03033961 -0.045451723 0.0056074606
000010 7f 90 8d 3d 75 78 17 3d d4 09 a2 bd e5 a6 3e bd
       0.06912326 0.03698011 -0.07912031 -0.04654588
000020 33 e2 b0 3d 40 8a 68 3b 1b 42 2e 3d 93 c6 14 3d
       0.08636894 0.0035482794 0.04254351 0.036322188
000030 aa 70 4d bd 74 68 aa 3d 2d 54 a3 bd ba cd 8e 3d
       -0.050156273 0.08320704 -0.0797504 0.06972833
000040 63 da 24 bc fa f8 8f bd 88 5f 73 bd b2 77 e3 bb
       -0.010061833 -0.070299104 -0.059417278 -0.006941759
000050 ae 58 3d bd 9e 27 61 3d 6d a0 53 3d ed 9c b6 bd
       -0.04622715 0.054969423 0.051666666 -0.0891665
000060 c6 82 b0 bd 06 97 af bd 64 b0 98 3d 6e d3 2e bd
       -0.08618693 -0.08573727 0.07455519 -0.042682104
000070 b1 a4 4c bd 24 a7 a0 3d a3 a4 a9 3d 34 0b 96 3d
       -0.04996175 0.078443795 0.08283355 0.073263556
000080 2d 58 e4 3c 12 7e b3 bd ba c9 85 3c c7 9d ec bc
       0.027874077 -0.087642804 0.016331542 -0.028883828
000090 c1 82 bc 3d 01 80 f9 3b 3a 5f 84 3c 69 13 64 bd
       0.09204627 0.007614136 0.016158689 -0.055682573
0000a0 75 c5 c2 bc dd b8 a8 3d 9f e8 97 3d ee d1 18 bd
       -0.023775795 0.08238385 0.07417416 -0.03730958
0000b0 3a f7 16 3d 48 5c 95 bd 8d a5 1b 3d a0 af 3b bc
       0.036856867 -0.07292992 0.03799968 -0.0114554465
0000c0 5e 6d e2 bc b9 4e 45 bd 52 1f 15 3d 00 ef dd bc
       -0.027640041 -0.04817078 0.036406823 -0.027091503
0000d0 2d 03 91 bd 79 7c e3 3b 16 f0 91 bd 57 73 28 3d
       -0.07080684 0.0069423285 -0.07125871 0.04112562
0000e0 9c 27 a1 bc ee e6 54 bd 15 59 60 3c cc 6c 76 bd
       -0.019672208 -0.051978044 0.013693114 -0.06016235
0000f0 c0 ae 95 bd c8 4a fb b9 32 0b 82 bd 9d 31 97 bd
       -0.073087215 -0.00047930167 -0.063497916 -0.0738251
000100 d2 79 59 bd fa 23 67 3d 4a 09 08 bd a0 3e 1b 3c
       -0.053094693 0.056430794 -0.033211984 0.00947538
000110 41 19 03 bd ef 77 62 bd 60 fa c3 bc 64 51 99 bd
       -0.032006506 -0.05529016 -0.023923099 -0.07486227
000120 a6 65 63 bd 87 0b 8b 3d c1 83 2d bc 0a 0a 70 3d
       -0.05551686 0.06789308 -0.010590495 0.058603324
000130 67 06 bb 3c ba 06 4d bd 14 20 10 bd f4 d0 f8 bc
       0.022830201 -0.050055243 -0.035186842 -0.030373074
000140 85 83 23 3c f0 cf 81 bd f4 ca cd bc 0f fe a8 3d
       0.009980087 -0.06338489 -0.02512119 0.08251583
000150 db 8d 28 3d 31 48 aa 3d a6 47 2b bd b8 f3 98 bd
       0.04115091 0.08314551 -0.041816376 -0.07468361
000160 70 ef 10 3d 27 12 13 bd 67 37 b2 bd 80 98 8a ba
       0.035384595 -0.035905983 -0.087019734 -0.0010574013
000170 a3 c3 9e 3d 00 58 40 3d d1 6c 1a bd aa d5 26 3d
       0.077521585 0.046958923 -0.03770143 0.04073111
000180 40 df ff 3c 07 b9 96 bd 13 4a 9c bd 4d cb b2 bd
       0.031234384 -0.0735951 -0.07631316 -0.08730183
000190 2f 53 92 bc eb 1a d1 bc bb 3e b1 3d e2 78 11 bc
       -0.01786193 -0.02552553 0.08654543 -0.008878918
0001a0 80 7e f4 3c e1 f7 52 3d de 2d c2 3c 26 27 9c 3d
       0.029845476 0.051505927 0.023703512 0.076246545
0001b0 64 e4 a7 bd e7 62 e7 bc 74 ab 9b 3d d9 84 37 bd
       -0.08197859 -0.028245403 0.076010615 -0.044804428
0001c0 08 06 b8 3c 36 a0 25 3d e4 3e 8d bc 77 8b b8 bd
       0.022463813 0.040435992 -0.017241903 -0.09010976
0001d0 eb 15 07 bd aa f4 47 3c c9 33 77 bd b4 2a bc bc
       -0.032979887 0.012204329 -0.06035212 -0.022969581
0001e0 20 8e 82 bd 69 21 f7 bc bc 6d a4 3c db 2f 9c 3c
       -0.063747644 -0.030167298 0.020071857 0.019065788
0001f0 6f f5 af bd d6 68 9a 3d 03 56 a8 3d 89 2c 61 bd
       -0.085917346 0.07539527 0.082195304 -0.054974113
000200 09 ed b5 bd eb 5c 09 bd 3f 03 54 bd 93 2c af bd
       -0.088831015 -0.03353588 -0.05176091 -0.08553424
000210 0f 6f 18 bd 71 c3 ae 3d 68 d8 f1 3c a0 3e a9 bb
       -0.03721529 0.08533371 0.029522136 -0.005164936
000220 d4 af 38 3d 9b 13 a7 bd 94 7a 0b bd 22 9b 66 bc
       0.045089558 -0.08158036 -0.034052446 -0.0140750725
000230 06 27 d3 3b 45 73 7c 3c 85 29 c5 3c 2c 10 42 bc
       0.006443861 0.015408342 0.02406765 -0.011844676
000240 1a a5 5a 3d 78 90 9b bd 9b 98 78 bd 02 1c 23 bd
       0.05338011 -0.075959146 -0.06069241 -0.039821632
000250 3b e7 f2 bc c5 84 01 bc 1f 3f 53 bd 90 54 93 39
       -0.029651275 -0.00790519 -0.05157387 0.0002810103
000260 40 2f 79 bb da 66 ed 3c b7 46 71 bd e8 d4 8e 3d
       -0.0038022548 0.028979708 -0.05890533 0.069742024
000270 58 70 77 bd db 5b 43 3c 2a f5 5e 3d a3 5f 57 bd
       -0.060409874 0.0119237555 0.054433025 -0.05258144
000280 9b 0c 3e 3d f5 45 08 bc 97 09 db 3c a6 16 9d 3d
       0.04639874 -0.00831746 0.026737971 0.076703355
000290 f2 de 39 bd f9 d7 4a 3d 4d ee 9c 3c 22 00 6c 3d
       -0.045378633 0.049522374 0.0191566 0.057617314
0002a0 13 46 13 3d 0f f1 93 3d 8b 6f a8 3c 65 d1 49 3d
       0.0359555 0.07223713 0.020561 0.04927196
0002b0 00 a2 d9 3a 01 73 4c bd f7 48 5a 3d f6 a8 9f 3c
       0.0016604066 -0.049914364 0.05329224 0.019489747
0002c0 00 2d 70 ba d3 65 58 3d b0 2c a1 3a 71 e6 5d bc
       -0.0009161979 0.052831482 0.0012296643 -0.013543711
0002d0 f7 95 0c 3c eb 2f ba bd f8 44 9d bd bb 11 98 bd
       0.008580676 -0.09091171 -0.0767917 -0.07425257
0002e0 39 03 99 bd a0 f0 f4 bb 10 52 8b 3d 71 29 91 3d
       -0.07471318 -0.007474974 0.068027616 0.070879824
0002f0 49 cf 8e bd 81 7a 39 3d 13 da a9 bc 65 c2 98 bc
       -0.0697313 0.045282844 -0.020733869 -0.018647382
000300 6e 5d 5e 3d 03 f1 85 bd db d3 6b bd 1c 1a a5 3c
       0.05428832 -0.0654011 -0.057575088 0.020154051
000310 80 8c 32 bc ef 4c fe 3b 73 95 1c 3d d0 c7 93 bd
       -0.010897756 0.007760636 0.038228463 -0.072158456
000320 4c a6 19 bd 69 7e a0 3d fc 41 f5 bb a5 99 4e 3d
       -0.03751211 0.07836611 -0.0074846726 0.050439496
000330 db c0 78 3d e8 66 8a 3d 00 6d c8 3a 03 45 b4 bd
       0.060730796 0.06757909 0.0015291274 -0.088022254
000340 56 09 8d 3c b2 1e 4d 3d 01 35 ab bd 45 3c 9e bd
       0.017216366 0.0500781 -0.08359719 -0.07726339
000350 66 d3 9e 3d 22 72 a1 bd 8c 7d 3e 3d b2 3a 9c bd
       0.07755165 -0.07883097 0.04650645 -0.07628383
000360 7e 51 41 bd c9 bf bd bd 68 a6 be bc 19 e5 23 bd
       -0.047196858 -0.09265096 -0.023272708 -0.040013406
000370 ba 05 14 3c 4a ba 04 3d cc a1 91 bd 28 20 89 bd
       0.009034568 0.03240422 -0.071109384 -0.066955864
000380 5b 18 84 3d 1b 78 b2 bd c6 71 ca bb 97 a0 8f 3d
       0.06449958 -0.087143146 -0.0061781136 0.07013052
000390 35 e5 a7 3d 9c 94 7e 3c 7c 55 bc bc 5a 71 2d 3d
       0.08198015 0.015538361 -0.02298998 0.04234443
0003a0 a0 c7 4b 3b 6c 0a 63 3c ec 1d 14 bd a9 d7 58 bd
       0.0031094328 0.013857465 -0.03616135 -0.052940045
0003b0 ac 96 83 3c f1 f7 31 bd 09 df a9 3d 6a 57 8b bd
       0.016063057 -0.043449346 0.08294494 -0.06803782
0003c0 be 91 4e bd ca ed 08 bd a3 27 c6 3c cb a5 61 3d
       -0.05043196 -0.0334299 0.024188822 0.055089753
0003d0 86 5f 61 3d 48 65 b6 3c 4e ef b9 bd 07 3b 0a 3d
       0.05502274 0.022265092 -0.09078847 0.0337477
0003e0 b4 29 23 3b d5 2a 84 3d 3c da 15 3d 6d 85 d1 3b
       0.0024896683 0.06453482 0.036585078 0.0063940794
0003f0 56 a1 a5 bd c0 fb 80 3d 83 cb 09 3d aa 79 81 bd
       -0.08087413 0.062980175 0.03364135 -0.06322034

fc2.bias f4 [64]
000000 c0 26 13 3d 71 d1 a2 3d c0 75 23 bd e3 17 a4 3d
       0.035925627 0.07950104 -0.039907217 0.080123685
000010 64 20 c6 bb b9 41 44 bc 3e a8 f0 3c 39 dd 33 bd
       -0.0060463417 -0.01197856 0.0293771 -0.043912146
000020 72 0d 05 3d e0 f5 a9 3b 63 37 42 3d 97 ba 82 bd
       0.032483526 0.0051867813 0.047416102 -0.063832454
000030 2e 36 50 3d 6f 79 ae 3d e0 e1 a0 bd d8 3c ab bc
       0.05083292 0.08519255 -0.07855582 -0.020903036
000040 6a 9a 43 3c f6 39 84 bd c8 5c 2a bd b7 7c 84 3d
       0.011938671 -0.06456368 -0.04159239 0.064691
000050 53 5e 2c bd ca 6a 43 bd b4 69 8d bd a6 4d 71 bd
       -0.042082142 -0.047709264 -0.06904927 -0.058911942
000060 b8 e0 37 bd 0f a7 2f bd 3c 99 55 bc 27 e7 83 3d
       -0.044892043 -0.04288393 -0.013037022 0.06440573
000070 d3 26 89 bd f8 09 21 3c f2 7e 38 3d c9 ae 40 bd
       -0.06696858 0.009829037 0.04504294 -0.047041688
000080 75 92 a8 bd 70 b6 94 3d 38 8a 17 3c 45 50 17 bd
       -0.082310595 0.0726136 0.0092492625 -0.036941785
000090 1f c5 34 bc 28 f3 8a bc 94 5e d0 3b 3d f1 5a 3d
       -0.011033325 -0.016961649 0.006358931 0.05345272
0000a0 45 9d b1 bd 15 db a7 bd 7b 21 22 3c 50 be d3 bc
       -0.08672575 -0.081960835 0.009895678 -0.025847584
0000b0 27 f1 57 bd 3e 68 fd bc c0 cb 77 3c d3 0c ad bd
       -0.052720215 -0.030933496 0.015124261 -0.08449712
0000c0 9a 9a 19 3d 69 6b 49 bd 87 bc aa bd 80 92 90 3c
       0.037500955 -0.0491747 -0.0833674 0.017647982
0000d0 d8 7a a0 bc a0 77 e1 3b 4e 5f 78 3d 10 43 92 bb
       -0.019589826 0.0068807155 0.060637765 -0.004463561
0000e0 14 07 78 bc 95 05 a0 bd c6 34 63 bc d8 b1 54 3c
       -0.015138406 -0.07813565 -0.013867563 0.012981854
0000f0 41 09 50 3d 40 71 8a bc 6c 7a ad bd 58 44 34 3d
       0.050790075 -0.016899705 -0.08470616 0.04401049

fc3.weight f4 [32, 64]
000000 e4 2e 63 3c 20 da fb 3d 88 6d ab bd 20 74 fc 3b
       0.01386616 0.122974634 -0.08370501 0.007704273
000010 7d 78 33 bd 63 1d 8c 3b 98 d6 f7 bd a4 67 11 bd
       -0.04381608 0.004275964 -0.121014774 -0.03549923
000020 98 51 d7 bd 1e a4 b2 bd 33 30 82 3c 6c 1d d8 bd
       -0.1051361 -0.08722709 0.015892124 -0.10552487
000030 22 5a a4 3d 98 6e b9 3c 1f 3b 44 bd 58 46 2e bd
       0.08025004 0.022635743 -0.047907945 -0.042547554
000040 87 0e 78 bd 58 c4 e9 3d 92 c4 74 3d 44 1e eb 3d
       -0.06056073 0.11414403 0.059757777 0.11480382
000050 b4 a0 b9 3b 4d d4 ab bc 61 53 36 3d ed ba 89 bd
       0.0056649093 -0.020975256 0.04451311 -0.067251064
000060 8d 8a c6 bd 92 bc db bd 00 07 94 bd 08 64 8a 3c
       -0.09694395 -0.10729326 -0.07227898 0.016893402
000070 10 15 03 bc e4 91 0f bd 58 5b a1 bc 76 cd dd bd
       -0.008000627 -0.03505124 -0.019696876 -0.10830204
000080 7b 11 79 bd 5d dc 80 3c 6c c7 88 bd 6f 65 88 bc
       -0.060807686 0.015730077 -0.06678662 -0.01664993
000090 96 f4 ae 3d bc 83 84 bd 56 a2 b4 3d 07 d8 ad bc
       0.08542745 -0.06470439 0.088200256 -0.021221174
0000a0 cc c2 8c 3d bd 03 00 b9 a8 92 2f 3d 0c f5 06 3d
       0.06873092 -0.00012208424 0.04286447 0.03294854
0000b0 16 11 a2 3d 7a 0a 78 3d 40 47 b9 bc cf 2b 69 3b
       0.07913415 0.060556866 -0.022616982 0.003557909
0000c0 a3 b7 9c bd 4f 4b d8 3d 9f 1c 9d bd 56 c4 85 bd
       -0.076522134 0.10561239 -0.07671475 -0.06531589
0000d0 40 9a 5c 3d c2 f8 f2 bd 76 26 ec bd a0 12 42 3d
       0.05385804 -0.11863853 -0.11530773 0.047381043
0000e0 07 83 ba 3d d3 1f 01 3d 47 f5 ea 3b 82 82 ab bd
       0.09107023 0.03152449 0.0071703526 -0.08374502
0000f0 2f 1a 26 bd 9b 27 f0 3d d1 75 c3 bc dd 10 19 3d
       -0.040552314 0.11726304 -0.02385989 0.037369598
000100 38 4f 98 bd 3c ce 9d bd 5c 65 86 3d f0 d8 f2 3d
       -0.07436985 -0.07705352 0.065623015 0.11857784
000110 8e 8d 94 bd d8 43 86 bd 30 35 2d bc 2e 17 dc bd
       -0.07253562 -0.06555909 -0.010571763 -0.10746609
000120 0c ae a1 bd 90 eb e6 bd 00 ed 7e ba e8 d7 d4 3d
       -0.07894525 -0.11275399 -0.0009724647 0.10392743
000130 28 c1 89 bc d2 ae b2 bd de fe ae bd 74 f5 80 bd
       -0.016815737 -0.087247506 -0.08544706 -0.062968165
000140 28 e6 ad bc c2 41 eb bd 48 ec ce 3d 10 1a 91 3d
       -0.021227911 -0.11487152 0.10103661 0.07085049
000150 b0 00 44 bc 26 b8 88 bd cc 88 e7 3d 48 a2 0e bd
       -0.011963055 -0.066757485 0.11305389 -0.034822732
000160 1c 1c 86 bd 78 66 1d 3d 28 9c 34 bd 7c dd f9 bd
       -0.0654833 0.0384278 -0.044094235 -0.12200448
000170 d0 13 0f 3c 50 73 b4 3c 48 9f 8f bc 00 2b fb bb
       0.008732751 0.022027642 -0.017532006 -0.007665038
000180 90 94 94 bc d2 54 dd 3d 80 9f ad bc 1c d5 35 bd
       -0.018137246 0.10807194 -0.02119422 -0.04439269
000190 26 0c cf bd a0 79 9e 3b 50 31 31 3d 08 f9 fc 3c
       -0.10109739 0.004836276 0.04325992 0.030880466
0001a0 a4 f7 69 3d a0 0c 91 3d 22 84 a7 3d 00 f2 d7 b9
       0.057120934 0.07082486 0.08179499 -0.000411883
0001b0 00 ee a0 3d 68 24 c7 bc fc ec 23 3d 90 17 7b 3d
       0.07857895 -0.024309352 0.040020928 0.061301768
0001c0 2c fe 7a bd 7c 39 24 3d a2 f9 d0 bd f6 33 b6 bd
       -0.061277553 0.040093884 -0.10203864 -0.088966295
0001d0 e0 ea 89 3c f4 d6 a1 bd a0 da 36 3d 8e 83 9e bd
       0.01683563 -0.07902327 0.04464209 -0.07739936
0001e0 40 e8 89 bc 5c 96 8c 3d 80 58 2a bb ce df ff 3d
       -0.016834378 0.06864616 -0.0025992692 0.12493859
0001f0 16 50 f0 bd ec cb f0 3d 42 2c a6 3d 1a a6 b7 3d
       -0.11734025 0.11757645 0.0811391 0.08967228
000200 d7 35 01 3d 32 9c e5 bb 90 54 a6 bc 08 ab 92 bd
       0.031545486 -0.0070071453 -0.020303994 -0.07161528
000210 ad 74 30 bd f1 40 67 bd d6 89 f3 bd 40 0e 12 bc
       -0.04308002 -0.056458417 -0.118915245 -0.00891453
000220 36 bc fe 3d a0 6c 0e bc 86 3d 93 3d 00 b6 fe b9
       0.12438242 -0.00869289 0.07189469 -0.00048582256
000230 22 32 a1 3d 34 aa 23 3d 68 0d 8c bd c0 b5 d4 3b
       0.0787089 0.03995724 -0.068384945 0.006491393
000240 d8 b1 18 bc 26 28 a1 bd 73 f2 85 bd af 84 87 3d
       -0.009319745 -0.07868986 -0.06540384 0.06617104
000250 c0 1f f9 bd a0 c5 d5 3c 01 db 28 bd 6a a0 fc 3d
       -0.12164259 0.026095212 -0.041224483 0.12335284
000260 17 32 a1 3d 24 2a 0e bd 8c a9 9e 3c 00 78 65 ba
       0.07870882 -0.034708157 0.019367956 -0.0008753538
000270 12 dd a7 bd 1c 76 00 3d 80 92 e3 ba 0e 78 90 bd
       -0.08196463 0.031362638 -0.0017362386 -0.070541486
000280 26 31 ca bd cd 0c 76 3c 44 88 5b 3d bc ec 1a 3d
       -0.098726556 0.0150177 0.05359675 0.037823424
000290 4b 13 72 bd 00 02 33 3b 04 b2 62 bb 34 dc a0 3d
       -0.05910043 0.0027314425 -0.003459097 0.078545004
0002a0 48 d4 43 3d ca ea 8b bd da 11 08 3d 70 29 a1 3d
       0.04780987 -0.06831892 0.03322015 0.07869232
0002b0 a0 96 1e 3d f7 35 54 3d a2 33 80 bc 30 ad 5b 3c
       0.038717866 0.051809277 -0.01564962 0.01340799
0002c0 9c a0 6c 3d ea 50 88 bd e1 bd bc bd c0 c4 81 3d
       0.057770357 -0.06656058 -0.09215904 0.06336355
0002d0 a4 49 39 bd 76 73 d7 bd 2e 5f e0 bd a0 80 90 3b
       -0.045236245 -0.10520069 -0.10955654 0.0044098645
0002e0 50 4e 3d 3d 0a bb dd bd 5e 7a c7 bd 2c 6a 27 bd
       0.046217263 -0.108266905 -0.097401366 -0.040872738
0002f0 98 0c e0 bc 66 1c db 3d ce d9 de 3d bb 9d f1 3d
       -0.027349755 0.10698776 0.10881387 0.11797663
000300 b1 30 ef 3d 33 f8 97 3d c0 45 ea 3d f8 56 bc bc
       0.11679209 0.07420387 0.11439085 -0.022990689
000310 c7 4c 0c 3d ce b0 1b 3d 10 81 ac bb 64 44 01 bd
       0.034252908 0.03801041 -0.005264409 -0.031559363
000320 38 15 e3 bc 80 0f 04 3c e6 ab 30 bd 40 35 dc 3d
       -0.027720079 0.008060336 -0.043132685 0.10752344
000330 10 c3 87 bc 5e 6f c5 bd 93 8a f5 bc 4c d3 14 bd
       -0.016572505 -0.09640382 -0.029973304 -0.03633432
000340 f8 18 b9 bd 2a 30 d5 3d a3 1a f1 3d f8 e5 5d 3c
       -0.090379655 0.10409577 0.11772659 0.013543598
000350 36 22 8e bd a6 5e cc 3d ad ff 02 3d 1d 86 a6 bc
       -0.06940119 0.0997899 0.031982113 -0.020327622
000360 57 c1 16 bc c4 50 0b bd d0 18 b2 bd 88 2b 44 bd
       -0.009201369 -0.03401257 -0.08696139 -0.047893077
000370 ae 02 90 3d 9c a4 b5 bd 70 dd 89 3c ca 68 cd 3d
       0.07031761 -0.08869287 0.016829222 0.100297526
000380 cc 4d ea 3a dc a8 ac 3c fc e9 05 3d e7 d3 ca bd
       0.0017875968 0.021076612 0.032693848 -0.099036984
000390 c1 7a 9b bd b0 a9 ad bc f4 3d c8 bd 80 a1 c7 3d
       -0.07591773 -0.021199077 -0.097774416 0.097476006
0003a0 fc 7b 8f bc ba 3d aa 3d fa 7c fa 3d 28 47 f3 bc
       -0.017515175 0.08312555 0.12230869 -0.029697016
0003b0 60 45 aa 3b bb d6 43 bd 46 a2 ab bd 58 2b d0 bd
       0.0051962584 -0.047812205 -0.083805606 -0.10164517
0003c0 4f 0f bc bd 1c 6d 41 bd f9 ed 42 bd 0c b4 d0 3d
       -0.091826074 -0.047223195 -0.04759023 0.10190591
0003d0 50 03 be bc 68 98 61 3d 0c 51 2f 3d 80 94 b7 3a
       -0.023194939 0.055076987 0.0428019 0.0014006048
0003e0 61 3f 22 3d cd d7 ea 3d 9d b8 f3 bd bc 51 f5 bd
       0.039611224 0.11466942 -0.119004466 -0.1197848
0003f0 05 09 f8 3b ad cb 31 bd 16 45 a4 bc 67 d7 f2 3d
       0.0075694346 -0.04340713 -0.020052474 0.11857491

fc3.bias f4 [32]
000000 e2 37 e7 bd 64 27 37 3d d4 e9 90 bd b8 4f 78 bd
       -0.11289956 0.0447153 -0.07075849 -0.0606229
000010 e2 1c d7 bd c9 03 82 b9 48 d2 26 3c 10 52 1b 3d
       -0.10503556 -0.00024798352 0.010181971 0.037920058
000020 50 a4 fb bd b5 5a 95 bd f6 09 fe 3c 24 ee 10 3d
       -0.122871995 -0.072926916 0.03101061 0.03538336
000030 4b 8b 4b bd d0 ef de 3d 37 7b 91 3d f4 43 e1 bd
       -0.049693387 0.10885584 0.071035795 -0.10999289
000040 85 08 c7 3d 08 12 d2 3c 9c 09 c2 bd fe cd 55 3d
       0.09718422 0.025643364 -0.09474489 0.052198403
000050 a6 20 2a bd 97 c1 88 3c a2 d8 5b 3d 36 9f e6 3c
       -0.041535042 0.016693873 0.053673394 0.02815209
000060 75 11 46 bc cc d8 67 bd f5 37 cc 3c 23 57 a6 bd
       -0.012089123 -0.056603238 0.024929026 -0.08122089
000070 42 03 ab bd 2a 7b d5 3d 70 ea f7 3d e7 08 9b bd
       -0.08350231 0.10423882 0.12105262 -0.07570057

fc4.weight f4 [6, 32]
000000 8e e2 10 3e 99 98 19 3e 60 8f 4b bd df 1c 32 3c
       0.14148924 0.14999618 -0.04969728 0.010871141
000010 86 82 60 bd 80 42 74 3d f4 ee 69 3c 26 4a b6 3d
       -0.054811977 0.05963373 0.014278162 0.089008614
000020 f5 73 1c 3e 3a 15 9d bd f5 2b 26 bd 96 1d 16 bd
       0.15278609 -0.07670064 -0.040569264 -0.03664931
000030 78 02 f2 bd f6 87 c7 3d 09 ac 22 bd 63 e7 4f bd
       -0.11816877 0.09742729 -0.039714847 -0.050757777
000040 31 f5 9e bd a6 18 f9 3d 70 30 36 bd 3c b9 60 3d
       -0.0776161 0.121629044 -0.044479787 0.054864153
000050 be a2 f0 bd 7b 4b 15 3e 28 32 a7 bd 57 50 12 bc
       -0.117497906 0.14579575 -0.081638634 -0.008930287
000060 c1 a9 11 3e 0c 6d 5b bd a0 55 de 3d 8b 9c a0 3d
       0.14224912 -0.053570792 0.108561754 0.07842358
000070 0c 47 1b bd 2b 83 30 3e 3a 88 03 be 94 13 9f 3d
       -0.037909552 0.17237537 -0.12844935 0.07767406
000080 c6 35 02 3e 24 05 22 3d e8 ad ec bc b9 f7 31 3e
       0.12715825 0.039555684 -0.028891519 0.17379655
000090 87 f5 1f 3e 1f 4f 3a 3e 6d c4 10 be 20 a7 a1 3c
       0.15621005 0.18194245 -0.1413743 0.019733012
0000a0 7d c2 02 3e ff 27 bd 3d eb 46 27 be 45 d3 18 bd
       0.12769504 0.09236144 -0.16335647 -0.037310857
0000b0 70 01 d2 3d 80 69 0c bb 3f 23 26 be 80 50 bc 3d
       0.102541804 -0.0021425188 -0.16224383 0.09195042
0000c0 b9 18 0b 3e be 48 03 be dc 63 c7 bd 26 4d 6c bc
       0.1358365 -0.12820718 -0.097358435 -0.0144226905
0000d0 d7 e8 a8 bd d6 fa 55 bd ea 51 22 be 3d cf 99 3d
       -0.08247536 -0.05224117 -0.1585156 0.07510231
0000e0 01 68 b5 3d ae c4 e4 3d 33 ae 7d 3c 00 14 2c 3e
       0.08857728 0.11170326 0.015483427 0.16804504
0000f0 e0 64 d2 bd b4 12 f6 3d f4 36 31 3d 9c 93 15 3e
       -0.10273147 0.12015286 0.043265298 0.1460709
000100 71 38 10 3e 60 bf e5 3b 40 38 29 bb 18 77 8b bd
       0.1408403 0.007011339 -0.002582088 -0.06809825
000110 cc 70 c1 bd 13 7f 13 3e 3f b7 16 be 6d 94 02 3e
       -0.094453424 0.14403944 -0.1471834 0.12751932
000120 a0 13 21 bc 4f 8e 28 bd 51 a7 fc bd 29 8a 06 bd
       -0.009831339 -0.04115134 -0.123366006 -0.032846604
000130 13 5d 2b 3e d9 71 2b be 5c f4 b7 bd de b8 c6 bd
       0.16734724 -0.16742648 -0.08982155 -0.09703229
000140 f9 06 fd bd 40 4e 38 3c bc 76 35 bd f0 fb c9 bd
       -0.123548456 0.011249125 -0.044302687 -0.098625064
000150 e4 1e 7d 39 ea fa ec bd b2 07 27 3d 81 7c f9 bc
       0.00024139468 -0.115712956 0.040778823 -0.030454876
000160 86 9b a7 bd dc 29 59 bd e0 46 a6 3d ed 28 2b be
       -0.081839606 -0.053018436 0.08118987 -0.1671483
000170 05 bb bb bc 8d 11 2e be 22 7e 09 be c2 04 ed 3d
       -0.022916326 -0.16998883 -0.13427022 0.11573173
000180 b4 71 79 3c 50 3b 04 bc 3e a3 8d bc b0 55 86 bd
       0.015224863 -0.008070782 -0.017289754 -0.06559312
000190 8c 94 4c 3d 37 ec 46 3b ea 77 86 bc 5c b9 f7 bd
       0.049946353 0.0030353197 -0.016414601 -0.12095901
0001a0 20 49 a5 3c 5e 0c 05 3e 3c 75 12 3e 1f e2 47 bd
       0.02017647 0.12992999 0.14302534 -0.04879963
0001b0 54 f2 37 3d 9e 7a e3 3d 53 de 06 be 54 27 02 be
       0.044908836 0.11107372 -0.13170747 -0.12710315
0001c0 6c 5f 63 bc b8 53 c8 3c d8 46 73 3d fc 96 be bc
       -0.013877731 0.024453983 0.059393734 -0.023265354
0001d0 7a 81 24 3c b1 22 2b be 05 55 e9 3c af 5f d9 3c
       0.010040635 -0.16712452 0.028482923 0.026534883
0001e0 e5 2b 1c be c8 33 c2 3c ca 46 06 3e 42 80 97 bd
       -0.1525112 0.023706332 0.13112941 -0.0739751
0001f0 38 9d b9 bd bb bd fd 3d d4 29 3d bd 8f b1 f9 bd
       -0.0906319 0.12389704 -0.04618247 -0.1219207
000200 ac d1 08 be b2 05 e1 3d 66 a4 d5 3d 01 00 00 3e
       -0.13361233 0.109874144 0.10431747 0.12500001
000210 be eb 8f bd e0 ec 1c be f9 c4 cf bc b4 da 3b bd
       -0.07027386 -0.15324736 -0.025362479 -0.04586287
000220 e8 1a 3a 3d 4c 48 12 3e 96 b8 6b bd 8d 0c 3e 3d
       0.045435816 0.14285392 -0.05754908 0.046398688
000230 33 61 ff 3d 80 ee e4 3a 85 35 60 bd cc 6b e3 bb
       0.12469711 0.0017466098 -0.05473854 -0.0069403406
000240 1d 86 2f 3d 62 07 cf 3d 17 49 02 3e fb 47 95 bd
       0.04285251 0.1010883 0.12723194 -0.0728912
000250 0a 28 36 3d ab 3c 5a bd 8a 35 24 3e 89 c9 67 3d
       0.044471778 -0.053280514 0.16036049 0.056588683
000260 f3 b3 17 be b6 a4 f3 3d cd 83 c1 bc 48 00 e5 bb
       -0.14814739 0.118966505 -0.023622418 -0.006988559
000270 f6 13 d2 3d ff 3b 0d 3c 00 43 2d 3a bf 7d f6 3d
       0.102577135 0.008620261 0.000660941 0.12035703
000280 f3 b8 3c 3b e0 9c 62 3d 71 e5 08 3e 9b b2 de bd
       0.0028796762 0.05532539 0.13368775 -0.1087391
000290 79 0e d7 bd df 1e 1b 3e 95 d5 14 3e db 4a 0a 3e
       -0.10500807 0.15148495 0.145346 0.13505118
0002a0 ce ee d7 3d e8 2e 2e bd c8 f7 95 3d fd d5 2e be
       0.10543595 -0.042525202 0.07322651 -0.17073818
0002b0 33 af 89 bd d0 98 c9 bc 2e 6c 29 be d9 36 2e 3d
       -0.0672287 -0.024609 -0.16545174 0.042532776
0002c0 30 92 93 bd b9 b6 c1 bd 28 6e 80 bc be d0 37 bd
       -0.072056174 -0.0945868 -0.015677527 -0.044876806
0002d0 f9 3c 02 3e 4c a5 20 be 9c 24 ac bc dc f7 e3 3d
       0.12718572 -0.15688056 -0.02101355 0.1113126
0002e0 d9 40 dc bd 16 0a a4 3d 68 18 3d 3d fd 0b fa bd
       -0.10754556 0.08009736 0.046165854 -0.12209318
0002f0 f0 32 1a bc 6e a1 de bd af 09 a7 bd 02 12 f9 3d
       -0.0094115585 -0.10870634 -0.08156144 0.12161638

fc4.bias f4 [6]
000000 66 92 cc bd f3 24 e8 3d 7a 56 0d be c1 07 a2 3d
       -0.09988861 0.113351725 -0.1380252 0.07911635
000010 45 52 a8 3d 3d 49 0e 3e
       0.08218817 0.13895126
