src/params_data/reinforcement_learning/73param.pt (torch, 46927 bytes, 8 tensors)

fc1.weight f4 [128, 4]
000000 a6 d6 29 be 99 58 7d 3c 27 6c c8 3e 4b 8d 8c 3e
       -0.16585788 0.015463018 0.39145014 0.27451548
000010 40 2f ae 3e c6 83 8a be 10 27 b5 bd 50 22 27 bd
       0.34020424 -0.2705366 -0.08845341 -0.040804207
000020 32 7f c8 3e 43 ce 8e 3e e1 65 2d be 3f 82 72 3e
       0.39159542 0.2789174 -0.16933395 0.23682497
000030 71 01 d2 3e 62 c7 d4 3c 30 ba ce be ff 27 a4 be
       0.41016725 0.02597398 -0.40376425 -0.32061765
000040 a4 cb 48 be 20 44 ab be e6 17 cf be f2 11 e7 3e
       -0.19608933 -0.33450413 -0.4044792 0.4513088
000050 ec 11 b8 3e 50 45 f6 be f2 9c 3b 3e 38 7b b8 bd
       0.35951173 -0.48099756 0.18321589 -0.09007877
000060 80 c1 fb bb ac f0 33 be 84 6c e0 be ec 52 f4 be
       -0.007682979 -0.17572278 -0.4383279 -0.47719514
000070 02 3e dc be 9c 48 52 be 90 4b 14 bd a8 b3 77 3e
       -0.43016058 -0.20535511 -0.036204875 0.24189627
000080 2d 3b dd 3e a8 d5 12 bd cd 12 f8 3e 96 ef 45 3e
       0.4320921 -0.03584829 0.48451844 0.19329676
000090 7e 07 ea 3e 40 5a 2f be 82 ed f3 be 30 76 0c be
       0.4570884 -0.17124271 -0.47642142 -0.1371696
0000a0 dc 70 c0 3e f5 28 92 3e b6 97 0b 3e 7d 9f 37 be
       0.37586105 0.28546873 0.13632092 -0.17931934
0000b0 1a c8 8c be 4a a5 ac 3d 4c c7 80 be c3 8b e3 3e
       -0.27496415 0.08429964 -0.2515205 0.44442567
0000c0 4c e0 ce 3d 36 c3 f4 3d d2 04 fb be 7e d3 f7 be
       0.10101375 0.11951296 -0.49027115 -0.48403543
0000d0 6f 5b 07 3d d4 1b f4 3e e3 8c f6 be 0f a0 b2 3e
       0.033046182 0.4767748 -0.48154363 0.3488774
0000e0 b7 88 0d be 1d cf e6 3e 4e bf 90 3e a8 d1 b9 bd
       -0.13821684 0.4507989 0.28270954 -0.09073192
0000f0 60 89 cc 3d 5c c0 d9 be b6 d4 ae 3b 56 55 91 be
       0.0998714 -0.4252957 0.0053354157 -0.2838542
000100 ea 22 d0 3e 8a bb cf 3e c8 e6 f6 3e 23 d9 e2 bd
       0.40651637 0.40572768 0.48222947 -0.11076572
000110 e5 ef 2b bd 1d ca 53 bd 64 f0 cf 3e f0 40 ba 3e
       -0.041976828 -0.051706422 0.4061309 0.36377668
000120 91 05 c0 bd 78 7a 12 3e f3 49 29 3d 8d fd f0 3e
       -0.09376062 0.1430453 0.04133029 0.47068444
000130 1b 03 57 3d a5 5f 89 3d 36 22 e3 3e b9 ae 92 be
       0.052493196 0.06707696 0.44362038 -0.28648928
000140 f6 be 8b be d6 95 78 3e 37 4b 74 be 2b ef e3 bd
       -0.2729413 0.24275908 -0.23856817 -0.11129602
000150 44 b7 d1 be b8 86 be be a3 bd 13 3e 26 a7 b0 be
       -0.40960133 -0.37212157 0.1442781 -0.34502524
000160 35 f2 99 be 87 68 0d be 95 5e 6b 3e 34 cc da be
       -0.30067602 -0.13809405 0.22985299 -0.4273392
000170 9a 71 cf 3e 3a e0 a1 be 94 2b 2c 3e a0 5b cd 3e
       0.4051636 -0.31616384 0.16813499 0.40108967
000180 0c 8d b3 3e e2 e3 ea be b8 eb d2 be d8 1b d3 3e
       0.35068548 -0.45876986 -0.41195464 0.4123218
000190 e1 1d 19 3d 17 b5 92 be 66 bc f6 3e 44 76 e8 be
       0.03738201 -0.28653786 0.48190612 -0.4540273
0001a0 c4 de 57 be 7c 54 dd be 65 57 cf 3e 73 ed dd 3e
       -0.21081072 -0.4322852 0.40496364 0.43345222
0001b0 a3 db 99 be 75 55 e5 bd 12 90 9f 3e c9 eb 2a be
       -0.30050382 -0.1119794 0.31164604 -0.16691507
0001c0 21 65 e4 3e cb 76 c6 3e 80 bd ab be 8d cc 98 3e
       0.44608405 0.38762507 -0.33543015 0.2984356
0001d0 80 91 b5 be 66 93 05 be 1f ea 85 3e 0d 17 9c be
       -0.3546257 -0.1304451 0.26155183 -0.30486336
0001e0 64 c1 9e 3e 3b 16 fc 3e 07 df d0 3e 7d e4 b2 bd
       0.3100692 0.4923571 0.40795156 -0.08734987
0001f0 70 97 89 3d a6 03 90 be 1f 51 0c 3d 4a 27 f1 3e
       0.067183375 -0.28127784 0.03425705 0.47100288
000200 d0 fa 96 3e cf 0d ae 3a bd 67 72 3e a5 17 10 be
       0.2948823 0.0013279262 0.23672386 -0.1407152
000210 80 6c f7 be c3 8a 87 be 8b b0 21 3e 60 ad a3 3c
       -0.48324966 -0.26473054 0.15790002 0.019980133
000220 6e 8e 59 3e 98 90 b4 3e 92 ef 9a 3d 2e bd 3a 3e
       0.21245739 0.35266566 0.07565226 0.18236229
000230 86 79 af bc 62 f7 42 3e cc 35 93 be 2e c9 21 3d
       -0.021420252 0.19039682 -0.2875198 0.0394985
000240 53 87 e1 3e 97 67 41 3d 75 bd 04 be 82 92 dd 3e
       0.44048557 0.04721793 -0.12962897 0.4327584
000250 c0 dd 6b 3e eb e3 7b be e5 fd 37 3e f4 85 7d be
       0.2303381 -0.24598663 0.17967947 -0.2475813
000260 95 cd 6a be 64 7d b5 3d a3 68 1f 3d 44 5a 56 3e
       -0.22929986 0.08861807 0.03891815 0.20932871
000270 b0 97 ea 3d a9 8c c9 3d 1c fc e1 be 98 36 eb be
       0.11454713 0.09841282 -0.44137657 -0.4594009
000280 8c 82 84 3e 0f 61 bd 3e f5 2b a1 bd df 6e 57 bc
       0.2588085 0.36988112 -0.07869712 -0.013148992
000290 6c 57 fd be d0 65 36 be e0 38 9f bc b8 0c 6b be
       -0.4948076 -0.17812276 -0.0194363 -0.2295407
0002a0 28 f5 ec be 20 ad 82 be 07 28 ee 3e 86 97 ba be
       -0.4628079 -0.2552271 0.46514913 -0.36443728
0002b0 ee 3f c8 be b7 8b 01 3f ce b3 75 3d 6d 60 e3 be
       -0.39111274 0.5060381 0.05998593 -0.44409505
0002c0 7c d2 8a be 74 3b a8 be 32 7d c5 be 70 7d 48 bd
       -0.27113712 -0.3285786 -0.3857208 -0.04894775
0002d0 24 2c cc bd ae 53 22 be 68 38 e9 3e d1 9c b1 3e
       -0.09969357 -0.15852234 0.45550847 0.34689954
0002e0 96 4f d4 3e 17 de ea 3d 67 63 cc 3e 0a f2 3c 3e
       0.4146697 0.114681415 0.39919588 0.18451706
0002f0 5b 6d a1 be bd 24 d6 3e fd d7 d8 3e ca 43 72 be
       -0.31528744 0.41824904 0.42352286 -0.23658672
000300 44 31 66 be 82 08 ac be 7a be dc be a6 52 a2 3e
       -0.22479731 -0.3360024 -0.43114072 0.3170368
000310 c6 e1 da be 3a 22 9a 3e 5b 67 a2 be 66 ec 6e 3e
       -0.42750376 0.30104238 -0.3171948 0.23332366
000320 7c 5c 45 be 07 0c 48 3e 71 f5 7f 3e 33 19 3b bb
       -0.19273561 0.19535838 0.24995972 -0.0028548955
000330 cc d7 0d be 37 b4 cc be 23 28 85 3e c2 81 8d be
       -0.13851851 -0.39981243 0.26007184 -0.2763806
000340 c1 47 d8 be 5c 35 27 be 3c e1 41 3e e0 a3 27 3e
       -0.42242244 -0.16328949 0.18933576 0.16371107
000350 6e ef 78 3e 74 21 02 3d da bf 35 3d 71 64 ee 3e
       0.24310085 0.031770185 0.044372417 0.46561006
000360 86 8a c3 be a0 e2 47 be 48 2e 1d be 4e 32 bc 3e
       -0.38191622 -0.19520044 -0.15349686 0.3675713
000370 78 d3 bd be c8 14 c8 3e 05 75 65 be 51 a0 14 be
       -0.370754 0.39078355 -0.2240792 -0.14514281
000380 6a c6 c9 3e 68 c3 fe bd 7c 60 8d be ea b6 83 3e
       0.3940919 -0.124396145 -0.27612674 0.2572549
000390 6a 1d 8f be 70 26 f7 be 30 34 8f be c0 2b f9 3c
       -0.2795213 -0.48271513 -0.27969503 0.03041637
0003a0 f7 a7 a8 3e 98 17 79 3e 9b 43 8a 3e 90 1a 4e 3e
       0.32940647 0.24325407 0.27004704 0.2012732
0003b0 90 0f b0 3e 90 e4 41 bd 88 0b da bd e0 2d 70 be
       0.34386873 -0.047337115 -0.10646731 -0.23455
0003c0 ac 5d bd 3c 98 b9 08 3e 63 d6 d1 3e a6 ce fa 3c
       0.023115955 0.13352048 0.40983877 0.030616116
0003d0 a4 fd 87 be e2 cf 88 be 51 ff a0 3d 50 2b 74 3d
       -0.265607 -0.26721102 0.07861198 0.05961162
0003e0 f8 0e 99 bd 38 1c e9 bd cc 81 52 3c c8 4c a0 be
       -0.07473558 -0.113823354 0.012848329 -0.3130858
0003f0 08 46 e4 be e0 c8 d0 3e 9f 5e f1 3e 13 b9 9c be
       -0.4458468 0.40778255 0.47142503 -0.3060995

fc1.bias f4 [128]
000000 2a 17 8e 3e fc c5 75 be 3e f3 81 be 35 5a b7 3c
       0.27752048 -0.24001306 -0.25380892 0.022381881
000010 40 19 e3 be 4f 26 4f be a4 92 97 3e 58 77 e5 3e
       -0.44355202 -0.20229457 0.29604065 0.44817615
000020 76 75 91 3e 44 13 e5 be 11 69 83 3e 1a 61 8a bd
       0.28409928 -0.4474126 0.25666097 -0.06756802
000030 f2 1b bf be c3 a4 cf be 1e 8b ef bc 22 81 ca 3e
       -0.37326008 -0.4055539 -0.029241141 0.39551646
000040 86 50 f6 3d 46 0a aa be 15 ad d8 be 87 a1 f1 be
       0.120270774 -0.33210963 -0.4231955 -0.47193548
000050 bb 80 1b be 7d d2 4c be e8 1d 47 3e 19 af 95 bc
       -0.15185826 -0.2000217 0.19445002 -0.01827197
000060 58 bd 1b 3e 78 99 cc be 9d 5f bd 3e 56 b4 bd 3e
       0.15208948 -0.39960837 0.3698701 0.37051648
000070 21 a9 bf 3d 40 69 a5 be 91 b8 55 3c b8 3c 90 3e
       0.09358431 -0.32306862 0.013044492 0.28171325
000080 18 dd e8 3b ec 24 98 3e e3 22 ad bd b2 45 8b 3e
       0.0071064346 0.2971567 -0.0845392 0.2720161
000090 14 17 90 be 3f c9 82 3e c5 94 3e be 8d 67 e0 3e
       -0.28142607 0.25544164 -0.18611439 0.43829003
0000a0 a8 f0 df 3e 58 46 eb be a5 da 12 be 46 ee 35 3e
       0.43738294 -0.45952106 -0.14341219 0.17766675
0000b0 1c 14 11 be b1 f4 d3 3e 53 b1 88 3e 92 a6 a7 3e
       -0.14167827 0.41397622 0.26697788 0.3274427
0000c0 70 da 13 3e a1 cd aa 3e 70 d6 86 be 76 8c 2c bc
       0.14438796 0.33360007 -0.26335478 -0.010531535
0000d0 6b e4 7e 3e 30 38 04 3e 54 a3 18 be 97 00 c3 bd
       0.24891822 0.12912059 -0.14906055 -0.09521597
0000e0 d8 f3 e3 bd 38 20 e0 bd 6d 30 00 3e 00 ac 40 3c
       -0.11130494 -0.10943645 0.12518473 0.011759758
0000f0 47 cc b5 be 54 82 52 bd c3 bd e9 3e 5f 8b cd 3c
       -0.35507414 -0.05139382 0.4565259 0.025090871
000100 a4 04 d8 be e0 92 e6 3d bc f4 e5 bd c8 a3 07 be
       -0.4219104 0.11258483 -0.1122832 -0.13246071
000110 34 25 16 3e f8 50 a6 be 84 a9 af be ce f3 f3 be
       0.1466263 -0.3248365 -0.34309018 -0.47646946
000120 62 77 69 3e 01 68 19 be 25 6c ce 3e 46 0d fb 3e
       0.22799447 -0.1498108 0.40316883 0.49033564
000130 42 d2 f2 3e 4a df a0 3e 16 4f 80 be 30 9e 63 3e
       0.4742604 0.31420356 -0.25060338 0.22228312
000140 a9 65 f2 be ec 55 80 be 60 f5 dc be e0 a8 df 3e
       -0.47343186 -0.25065553 -0.43155956 0.4368353
000150 b4 11 54 3e 40 42 64 bd 35 44 a9 be a5 e7 d6 3e
       0.20709878 -0.055727243 -0.3305985 0.41973606
000160 8d bd f0 be 58 a7 39 bd cc 7f d5 be 3c 98 f7 3e
       -0.47019616 -0.045325607 -0.41699064 0.48358333
000170 b5 c9 de be 86 8b a1 3e 0c 71 31 3e d0 da f5 3e
       -0.43513265 0.3155176 0.1732828 0.48018503
000180 54 b4 95 be 60 7c ec be e1 15 a3 3d d0 38 9f be
       -0.29239142 -0.4618864 0.079631574 -0.31098032
000190 5d 4f 8f 3e 92 dd ce be 28 1e 16 be bf 8e bd be
       0.27990237 -0.4040342 -0.14659941 -0.3702297
0001a0 b8 17 15 be b9 8a 25 3e 5c cf ee 3e a0 38 d7 3b
       -0.14559829 0.161662 0.46642578 0.0065680295
0001b0 70 60 7c bd 51 13 2b bc fb b6 e4 bd d0 8c 18 be
       -0.061615407 -0.010441617 -0.11167713 -0.14897466
0001c0 16 74 c0 be b2 02 99 3e 89 49 5a be b2 31 82 3e
       -0.37588567 0.2988487 -0.21317114 0.2542854
0001d0 68 30 06 3e 66 03 e7 3e c1 e4 b1 be 2b b0 81 3e
       0.13104403 0.4511978 -0.34744838 0.25329718
0001e0 84 95 06 be 4e 9b 7c 3e 0c 0f 8d 3e b1 0b 5b 3e
       -0.13142973 0.24668619 0.27550542 0.21391179
0001f0 93 3f c1 be e1 26 be 3e c9 c6 18 be b8 86 c9 3e
       -0.37743816 0.37139037 -0.1491958 0.39360595

fc2.weight f4 [64, 128]
000000 ba 54 91 3d c6 8a f8 bc 4f 84 3a bd 3f 1c b8 3b
       0.070962384 -0.03033961 -0.045536336 0.0056186016
000010 7f 90 8d 3d 75 78 17 3d d4 09 a2 bd e5 a6 3e bd
       0.06912326 0.03698011 -0.07912031 -0.04654588
000020 d8 90 b0 3d 40 8a 68 3b fb a7 2d 3d e8 a7 14 3d
       0.08621377 0.0035482794 0.042396527 0.03629294
000030 39 be 49 bd 1e 23 aa 3d 88 c3 a3 bd ba cd 8e 3d
       -0.049253676 0.08307479 -0.07996279 0.06972833
000040 b2 c6 27 bc 74 c7 90 bd b7 40 74 bd 17 5f eb bb
       -0.010240244 -0.07069293 -0.05963203 -0.0071829665
000050 7e 37 3e bd 9e 27 61 3d 6d a0 53 3d ed 9c b6 bd
       -0.04643964 0.054969423 0.051666666 -0.0891665
000060 c6 82 b0 bd 06 97 af bd 64 b0 98 3d a3 3c 2f bd
       -0.08618693 -0.08573727 0.07455519 -0.042782437
000070 1a fa 4c bd 24 a7 a0 3d 73 45 a9 3d 34 0b 96 3d
       -0.050043203 0.078443795 0.082651995 0.073263556
000080 77 60 e3 3c 12 7e b3 bd 6b 70 84 3c dc 7a ed bc
       0.027755959 -0.087642804 0.016166886 -0.028989248
000090 8e 1e be 3d 01 80 f9 3b 12 e2 81 3c 0f 63 5e bd
       0.092831716 0.007614136 0.015854869 -0.05429369
0000a0 7e f6 c3 bc dd b8 a8 3d 9f e8 97 3d 27 ba 19 bd
       -0.023921248 0.08238385 0.07417416 -0.037531044
0000b0 3a f7 16 3d 83 74 95 bd bb f9 1a 3d 43 81 3f bc
       0.036856867 -0.072976135 0.037835818 -0.011688533
0000c0 5e 6d e2 bc 27 36 46 bd 7c 1d 14 3d 00 ef dd bc
       -0.027640041 -0.048391487 0.03616093 -0.027091503
0000d0 2d 03 91 bd 67 39 e3 3b 16 f0 91 bd 53 94 27 3d
       -0.07080684 0.006934333 -0.07125871 0.040912937
0000e0 9c 27 a1 bc ee e6 54 bd c1 9c 5d 3c cc 6c 76 bd
       -0.019672208 -0.051978044 0.013526143 -0.06016235
0000f0 35 25 96 bd c8 4a fb b9 32 0b 82 bd 6b b3 97 bd
       -0.073313154 -0.00047930167 -0.063497916 -0.07407268
000100 d2 79 59 bd fa 23 67 3d 4a 09 08 bd a0 3e 1b 3c
       -0.053094693 0.056430794 -0.033211984 0.00947538
000110 41 19 03 bd 21 32 63 bd 88 58 c5 bc 64 51 99 bd
       -0.032006506 -0.05546773 -0.024090067 -0.07486227
000120 21 36 65 bd 14 b4 8a 3d 4c a9 31 bc b0 80 6f 3d
       -0.055959824 0.067726284 -0.010843586 0.058472335
000130 08 1c b7 3c ba 06 4d bd 14 20 10 bd f4 d0 f8 bc
       0.022352234 -0.050055243 -0.035186842 -0.030373074
000140 8e 3f 22 3c f0 cf 81 bd f4 ca cd bc b8 b3 a8 3d
       0.009902848 -0.06338489 -0.02512119 0.08237404
000150 75 c5 27 3d 31 48 aa 3d 9b 3d 2c bd b8 f3 98 bd
       0.040959794 0.08314551 -0.04205094 -0.07468361
000160 47 26 10 3d 3f 06 14 bd 67 37 b2 bd 80 98 8a ba
       0.035192754 -0.03613877 -0.087019734 -0.0010574013
000170 a3 c3 9e 3d 6e c5 3f 3d d1 6c 1a bd aa d5 26 3d
       0.077521585 0.046819143 -0.03770143 0.04073111
000180 40 df ff 3c 07 b9 96 bd 13 4a 9c bd bd 5b b3 bd
       0.031234384 -0.0735951 -0.07631316 -0.08757732
000190 34 73 93 bc d5 10 cb bc bb 3e b1 3d fb 6d f7 bb
       -0.017999269 -0.0247883 0.08654543 -0.0075509525
0001a0 80 7e f4 3c 77 b5 52 3d 5c 99 c0 3c 5f 95 9b 3d
       0.029845476 0.05144259 0.023510627 0.0759685
0001b0 64 e4 a7 bd e7 62 e7 bc 74 ab 9b 3d d9 84 37 bd
       -0.08197859 -0.028245403 0.076010615 -0.044804428
0001c0 08 06 b8 3c 36 a0 25 3d 2e 53 8d bc 77 8b b8 bd
       0.022463813 0.040435992 -0.017251577 -0.09010976
0001d0 eb 15 07 bd c0 ac 46 3c 3d f6 77 bd 57 4c be bc
       -0.032979887 0.012126148 -0.060537565 -0.023229761
0001e0 2f fa 82 bd 73 59 f8 bc bc 6d a4 3c db 2f 9c 3c
       -0.06395375 -0.03031609 0.020071857 0.019065788
0001f0 6f f5 af bd d6 68 9a 3d e2 21 a8 3d 89 2c 61 bd
       -0.085917346 0.07539527 0.08209588 -0.054974113
000200 a8 3d b7 bd eb 5c 09 bd 83 0d 53 bd 30 1c ad bd
       -0.08947307 -0.03353588 -0.051526558 -0.08452642
000210 0f 6f 18 bd 03 63 b0 3d 68 d8 f1 3c a0 3e a9 bb
       -0.03721529 0.08612635 0.029522136 -0.005164936
000220 4b 22 38 3d 9b 13 a7 bd a7 7d 0b bd 42 74 7a bc
       0.04495458 -0.08158036 -0.03405538 -0.015286507
000230 4e 13 fd 3b 87 49 7e 3c 2b 7f c3 3c 3b a5 33 bc
       0.0077232486 0.01552046 0.02386435 -0.010964687
000240 78 30 5a 3d 8b 39 9d bd 9a 6e 79 bd f3 78 24 bd
       0.05326888 -0.07676991 -0.060896493 -0.04015441
000250 db e1 f3 bc 10 4f e9 bb 1f 4d 57 bd aa 21 8c 3a
       -0.029770782 -0.0071200207 -0.052563783 0.0010691185
000260 40 2f 79 bb b0 69 e6 3c 10 49 6f bd 45 c5 8b 3d
       -0.0038022548 0.028126568 -0.058419287 0.068247356
000270 26 5e 76 bd 08 ea 2e 3c f1 7b 5e 3d 49 e5 53 bd
       -0.06014838 0.010675915 0.05431742 -0.051732335
000280 25 24 3e 3d de 6a f7 bb 32 a5 da 3c fd 64 9d 3d
       0.04642119 -0.0075505814 0.0266901 0.076852776
000290 1e b3 31 bd 45 cc 4d 3d 4b 0f 99 3c 54 4d 7a 3d
       -0.04338371 0.050243635 0.01868405 0.061108902
0002a0 b6 60 13 3d 0f f1 93 3d 36 3b 9f 3c 3d ec 48 3d
       0.035980903 0.07223713 0.019437414 0.04905342
0002b0 00 a2 d9 3a ac 0b 52 bd 67 ed 59 3d 05 5f 9d 3c
       0.0016604066 -0.051280662 0.05320492 0.019210348
0002c0 00 2d 70 ba c3 af 57 3d e5 1c 70 3a f3 ec 50 bc
       -0.0009161979 0.052657854 0.0009159579 -0.012751806
0002d0 6b a7 0e 3c 34 63 b9 bd f8 44 9d bd d4 5f 98 bd
       0.008706908 -0.090521246 -0.0767917 -0.07440153
0002e0 39 03 99 bd a0 f0 f4 bb 06 2c 8b 3d 71 29 91 3d
       -0.07471318 -0.007474974 0.06795506 0.070879824
0002f0 66 62 8f bd 03 ad 3c 3d a0 68 a4 bc 40 66 9b bc
       -0.0700119 0.046063434 -0.02006942 -0.018969655
000300 6e 5d 5e 3d 03 f1 85 bd 9c 55 69 bd 1c 1a a5 3c
       0.05428832 -0.0654011 -0.05696641 0.020154051
000310 80 8c 32 bc 75 5f fb 3b b6 6f 1c 3d d0 c7 93 bd
       -0.010897756 0.0076712915 0.038192473 -0.072158456
000320 de 28 1d bd e3 57 a0 3d 97 68 00 bc b3 f7 4e 3d
       -0.038369052 0.07829263 -0.007837436 0.050529193
000330 58 35 74 3d 16 02 8c 3d 00 6d c8 3a 8c b1 b2 bd
       0.059621185 0.06836335 0.0015291274 -0.08725271
000340 b1 46 8f 3c b2 1e 4d 3d 01 35 ab bd 24 20 9e bd
       0.017489763 0.0500781 -0.08359719 -0.07720974
000350 fa 84 9e 3d 22 72 a1 bd 6e 61 3d 3d ca d8 9b bd
       0.07740207 -0.07883097 0.046235494 -0.076097086
000360 f9 f1 41 bd 7c 46 be bd 68 a6 be bc 19 e5 23 bd
       -0.047349904 -0.092907876 -0.023272708 -0.040013406
000370 4c c7 1e 3c 11 dd 04 3d cc a1 91 bd 28 20 89 bd
       0.009691071 0.032437388 -0.071109384 -0.066955864
000380 5b 18 84 3d 1b 78 b2 bd ba 4d e1 bb dd cb 8e 3d
       0.06449958 -0.087143146 -0.006875721 0.069724776
000390 3a 0b a8 3d 4c 0b 96 3c 7c 55 bc bc fd 4a 37 3d
       0.08205266 0.018315934 -0.02298998 0.04474925
0003a0 a0 c7 4b 3b e3 4f 68 3c 44 ac 14 bd e1 86 5a bd
       0.0031094328 0.014179203 -0.036297098 -0.053351287
0003b0 ac 96 83 3c c9 1e 30 bd 85 cd a9 3d 22 00 8b bd
       0.016063057 -0.04299811 0.08291153 -0.06787135
0003c0 be 91 4e bd ca ed 08 bd 55 2b ba 3c 31 81 64 3d
       -0.05043196 -0.0334299 0.02272574 0.05578727
0003d0 86 5f 61 3d b3 88 b8 3c 4a 82 bc bd 8a b1 08 3d
       0.05502274 0.02252612 -0.09204538 0.03337244
0003e0 6c b8 16 3b 8f 3b 84 3d 3c da 15 3d fa 25 ec 3b
       0.0022998108 0.064566724 0.036585078 0.0072066756
0003f0 31 1b a4 bd 41 c7 81 3d 5e 47 0a 3d aa 79 81 bd
       -0.08012999 0.06336833 0.033759467 -0.06322034

fc2.bias f4 [64]
000000 67 2a 12 3d c0 08 a1 3d c0 75 23 bd e3 17 a4 3d
       0.03568497 0.07862997 -0.039907217 0.080123685
000010 64 20 c6 bb 43 b3 49 bc 83 65 f1 3c 39 dd 33 bd
       -0.0060463417 -0.012310806 0.02946735 -0.043912146
000020 72 0d 05 3d e0 f5 a9 3b da 01 42 3d 97 ba 82 bd
       0.032483526 0.0051867813 0.047365047 -0.063832454
000030 2e 36 50 3d 6f 79 ae 3d e0 e1 a0 bd d8 3c ab bc
       0.05083292 0.08519255 -0.07855582 -0.020903036
000040 8c 83 47 3c 20 0e 85 bd 32 1f 2b bd 61 40 84 3d
       0.012177359 -0.06496835 -0.041777797 0.06457592
000050 50 73 2b bd ca 6a 43 bd 3d 06 8c bd be bb 72 bd
       -0.041858017 -0.047709264 -0.06837127 -0.059261076
000060 57 e7 39 bd ee 0f 31 bd 16 01 58 bc 27 e7 83 3d
       -0.04538664 -0.043228082 -0.013183853 0.06440573
000070 d3 26 89 bd f8 09 21 3c f2 7e 38 3d c9 ae 40 bd
       -0.06696858 0.009829037 0.04504294 -0.047041688
000080 75 92 a8 bd 84 db 94 3d 38 8a 17 3c 62 81 1a bd
       -0.082310595 0.07268432 0.0092492625 -0.037721045
000090 b6 33 2f bc 28 f3 8a bc d5 e9 da 3b 3d f1 5a 3d
       -0.010693481 -0.016961649 0.006680707 0.05345272
0000a0 fa a4 b1 bd bc 67 a8 bd 93 0f 1c 3c 50 be d3 bc
       -0.08674045 -0.08222911 0.009525198 -0.025847584
0000b0 27 f1 57 bd be df fe bc 08 12 71 3c f9 66 ad bd
       -0.052720215 -0.031112548 0.014713772 -0.08466906
0000c0 6f 47 19 3d 86 ff 47 bd bd a5 a9 bd 80 92 90 3c
       0.03742164 -0.04882767 -0.08283565 0.017647982
0000d0 d8 7a a0 bc a0 77 e1 3b 4e 5f 78 3d 10 43 92 bb
       -0.019589826 0.0068807155 0.060637765 -0.004463561
0000e0 c1 07 77 bc 67 4d a0 bd 8b e8 63 bc d8 b1 54 3c
       -0.015077532 -0.07827263 -0.013910423 0.012981854
0000f0 41 09 50 3d 05 1d 8a bc af 8e ac bd 1d 2c 34 3d
       0.050790075 -0.01685954 -0.08425652 0.043987382

fc3.weight f4 [32, 64]
000000 d5 3c 62 3c f3 ed fb 3d 88 6d ab bd 20 74 fc 3b
       0.013808449 0.123012446 -0.08370501 0.007704273
000010 7d 78 33 bd 1e 73 8e 3b 37 41 f8 bd a4 67 11 bd
       -0.04381608 0.004347219 -0.12121814 -0.03549923
000020 98 51 d7 bd 1e a4 b2 bd 08 4a 8a 3c 6c 1d d8 bd
       -0.1051361 -0.08722709 0.016881004 -0.10552487
000030 22 5a a4 3d 98 6e b9 3c 1f 3b 44 bd 58 46 2e bd
       0.08025004 0.022635743 -0.047907945 -0.042547554
000040 c0 d7 77 bd ed c8 e9 3d 73 e5 74 3d 6e 16 eb 3d
       -0.06050849 0.11415277 0.059789132 0.114788875
000050 7c 99 ca 3b 4d d4 ab bc 1b 45 36 3d 47 53 89 bd
       0.0061828475 -0.020975256 0.044499498 -0.06705337
000060 ce 2c c6 bd 3f 25 db bd d5 d1 93 bd 08 64 8a 3c
       -0.096765146 -0.107004635 -0.07217757 0.016893402
000070 10 15 03 bc e4 91 0f bd 58 5b a1 bc 76 cd dd bd
       -0.008000627 -0.03505124 -0.019696876 -0.10830204
000080 7b 11 79 bd c2 93 81 3c 6c c7 88 bd c6 9f 88 bc
       -0.060807686 0.015817527 -0.06678662 -0.016677748
000090 0c 2a af 3d bc 83 84 bd 18 9f b4 3d 07 d8 ad bc
       0.08552942 -0.06470439 0.08819407 -0.021221174
0000a0 20 a3 8c 3d 7b c8 9e 39 94 e1 2f 3d 0c f5 06 3d
       0.06867051 0.00030285478 0.042939737 0.03294854
0000b0 16 11 a2 3d 76 1a 78 3d 08 13 b8 bc ac 24 87 3b
       0.07913415 0.06057211 -0.022470012 0.0041242447
0000c0 9b 7a 9c bd 64 c0 d7 3d 92 d3 9c bd 56 c4 85 bd
       -0.07640573 0.105347425 -0.07657541 -0.06531589
0000d0 40 9a 5c 3d c2 f8 f2 bd 76 26 ec bd a0 12 42 3d
       0.05385804 -0.11863853 -0.11530773 0.047381043
0000e0 50 bf ba 3d 23 49 03 3d 86 bb e9 3b 82 82 ab bd
       0.09118521 0.03205217 0.0071329502 -0.08374502
0000f0 2f 1a 26 bd 23 42 f0 3d a6 2f c3 bc 23 97 19 3d
       -0.040552314 0.117313646 -0.023826431 0.03749765
000100 38 4f 98 bd 3c ce 9d bd 5c 65 86 3d f0 d8 f2 3d
       -0.07436985 -0.07705352 0.065623015 0.11857784
000110 8e 8d 94 bd d8 43 86 bd 30 35 2d bc 2e 17 dc bd
       -0.07253562 -0.06555909 -0.010571763 -0.10746609
000120 0c ae a1 bd 90 eb e6 bd 00 ed 7e ba e8 d7 d4 3d
       -0.07894525 -0.11275399 -0.0009724647 0.10392743
000130 28 c1 89 bc d2 ae b2 bd de fe ae bd 74 f5 80 bd
       -0.016815737 -0.087247506 -0.08544706 -0.062968165
000140 28 e6 ad bc c2 41 eb bd 48 ec ce 3d 10 1a 91 3d
       -0.021227911 -0.11487152 0.10103661 0.07085049
000150 b0 00 44 bc 26 b8 88 bd cc 88 e7 3d 48 a2 0e bd
       -0.011963055 -0.066757485 0.11305389 -0.034822732
000160 1c 1c 86 bd 78 66 1d 3d 28 9c 34 bd 7c dd f9 bd
       -0.0654833 0.0384278 -0.044094235 -0.12200448
000170 d0 13 0f 3c 50 73 b4 3c 48 9f 8f bc 00 2b fb bb
       0.008732751 0.022027642 -0.017532006 -0.007665038
000180 90 94 94 bc d2 54 dd 3d 80 9f ad bc 1c d5 35 bd
       -0.018137246 0.10807194 -0.02119422 -0.04439269
000190 26 0c cf bd a0 79 9e 3b 50 31 31 3d 08 f9 fc 3c
       -0.10109739 0.004836276 0.04325992 0.030880466
0001a0 a4 f7 69 3d a0 0c 91 3d 22 84 a7 3d 00 f2 d7 b9
       0.057120934 0.07082486 0.08179499 -0.000411883
0001b0 00 ee a0 3d 68 24 c7 bc fc ec 23 3d 90 17 7b 3d
       0.07857895 -0.024309352 0.040020928 0.061301768
0001c0 2c fe 7a bd 7c 39 24 3d a2 f9 d0 bd f6 33 b6 bd
       -0.061277553 0.040093884 -0.10203864 -0.088966295
0001d0 e0 ea 89 3c f4 d6 a1 bd a0 da 36 3d 8e 83 9e bd
       0.01683563 -0.07902327 0.04464209 -0.07739936
0001e0 40 e8 89 bc 5c 96 8c 3d 80 58 2a bb ce df ff 3d
       -0.016834378 0.06864616 -0.0025992692 0.12493859
0001f0 16 50 f0 bd ec cb f0 3d 42 2c a6 3d 1a a6 b7 3d
       -0.11734025 0.11757645 0.0811391 0.08967228
000200 d7 35 01 3d 32 9c e5 bb 90 54 a6 bc 08 ab 92 bd
       0.031545486 -0.0070071453 -0.020303994 -0.07161528
000210 ad 74 30 bd f1 40 67 bd d6 89 f3 bd 40 0e 12 bc
       -0.04308002 -0.056458417 -0.118915245 -0.00891453
000220 36 bc fe 3d a0 6c 0e bc 86 3d 93 3d 00 b6 fe b9
       0.12438242 -0.00869289 0.07189469 -0.00048582256
000230 22 32 a1 3d 34 aa 23 3d 68 0d 8c bd c0 b5 d4 3b
       0.0787089 0.03995724 -0.068384945 0.006491393
000240 d8 b1 18 bc 26 28 a1 bd 73 f2 85 bd af 84 87 3d
       -0.009319745 -0.07868986 -0.06540384 0.06617104
000250 c0 1f f9 bd a0 c5 d5 3c 01 db 28 bd 6a a0 fc 3d
       -0.12164259 0.026095212 -0.041224483 0.12335284
000260 17 32 a1 3d 24 2a 0e bd 8c a9 9e 3c 00 78 65 ba
       0.07870882 -0.034708157 0.019367956 -0.0008753538
000270 12 dd a7 bd 1c 76 00 3d 80 92 e3 ba 0e 78 90 bd
       -0.08196463 0.031362638 -0.0017362386 -0.070541486
000280 26 31 ca bd cd 0c 76 3c 44 88 5b 3d bc ec 1a 3d
       -0.098726556 0.0150177 0.05359675 0.037823424
000290 4b 13 72 bd 00 02 33 3b 04 b2 62 bb 34 dc a0 3d
       -0.05910043 0.0027314425 -0.003459097 0.078545004
0002a0 48 d4 43 3d ca ea 8b bd da 11 08 3d 70 29 a1 3d
       0.04780987 -0.06831892 0.03322015 0.07869232
0002b0 a0 96 1e 3d f7 35 54 3d a2 33 80 bc 30 ad 5b 3c
       0.038717866 0.051809277 -0.01564962 0.01340799
0002c0 9c a0 6c 3d ea 50 88 bd e1 bd bc bd c0 c4 81 3d
       0.057770357 -0.06656058 -0.09215904 0.06336355
0002d0 a4 49 39 bd 76 73 d7 bd 2e 5f e0 bd a0 80 90 3b
       -0.045236245 -0.10520069 -0.10955654 0.0044098645
0002e0 50 4e 3d 3d 0a bb dd bd 5e 7a c7 bd 2c 6a 27 bd
       0.046217263 -0.108266905 -0.097401366 -0.040872738
0002f0 98 0c e0 bc 66 1c db 3d ce d9 de 3d bb 9d f1 3d
       -0.027349755 0.10698776 0.10881387 0.11797663
000300 56 83 f0 3d f3 25 98 3d c0 45 ea 3d f8 56 bc bc
       0.117438 0.07429113 0.11439085 -0.022990689
000310 c7 4c 0c 3d 2f 7c 1b 3d 0e 58 56 bb 64 44 01 bd
       0.034252908 0.037960228 -0.0032706293 -0.031559363
000320 38 15 e3 bc 80 0f 04 3c 58 67 35 bd 40 35 dc 3d
       -0.027720079 0.008060336 -0.04428801 0.10752344
000330 10 c3 87 bc 5e 6f c5 bd 93 8a f5 bc 4c d3 14 bd
       -0.016572505 -0.09640382 -0.029973304 -0.03633432
000340 ff fc b8 bd be 38 d5 3d d3 07 f1 3d 9e 55 5f 3c
       -0.0903263 0.10411213 0.117690705 0.013631253
000350 02 20 91 bd a6 5e cc 3d fc b0 03 3d 10 48 a6 bc
       -0.07086183 0.0997899 0.032151207 -0.020298034
000360 44 c8 14 bc 1c 43 08 bd a7 19 b2 bd 88 2b 44 bd
       -0.00908095 -0.033267125 -0.08696299 -0.047893077
000370 ae 02 90 3d 9c a4 b5 bd 70 dd 89 3c ca 68 cd 3d
       0.07031761 -0.08869287 0.016829222 0.100297526
000380 cc 4d ea 3a a3 3f ad 3c fc e9 05 3d 83 9c ca bd
       0.0017875968 0.021148508 0.032693848 -0.098931335
000390 aa 59 9b bd b0 a9 ad bc c5 29 c8 bd 80 a1 c7 3d
       -0.075854614 -0.021199077 -0.09773592 0.097476006
0003a0 91 26 8f bc 98 69 ac 3d 2f 46 fa 3d 28 47 f3 bc
       -0.017474445 0.08418578 0.12220418 -0.029697016
0003b0 60 45 aa 3b d3 9b 43 bd 95 6c ab bd 08 fc d2 bd
       0.0051962584 -0.047756027 -0.0837032 -0.103019774
0003c0 fc 1f bc bd d0 07 3a bd 97 80 42 bd 0c b4 d0 3d
       -0.09185788 -0.045417607 -0.047485914 0.10190591
0003d0 50 03 be bc 68 98 61 3d 0c 51 2f 3d 80 94 b7 3a
       -0.023194939 0.055076987 0.0428019 0.0014006048
0003e0 f1 7e 22 3d 3b 2b e8 3d 75 a9 f2 bd bc 51 f5 bd
       0.039671842 0.113363706 -0.118487276 -0.1197848
0003f0 05 09 f8 3b 61 c4 31 bd ff a4 a3 bc 5d 4e f2 3d
       0.0075694346 -0.043400172 -0.019976137 0.11831353

fc3.bias f4 [32]
000000 f3 20 e6 bd 64 27 37 3d d4 e9 90 bd 4e 48 7a bd
       -0.11236753 0.0447153 -0.07075849 -0.06110411
000010 e2 1c d7 bd 59 1f f5 b9 5c e0 25 3c 10 52 1b 3d
       -0.10503556 -0.00046753397 0.010124292 0.037920058
000020 50 a4 fb bd b5 5a 95 bd 93 7c fc 3c 61 e0 0f 3d
       -0.122871995 -0.072926916 0.03082112 0.035126094
000030 d8 b3 4c bd d0 ef de 3d 37 7b 91 3d 12 27 e2 bd
       -0.0499762 0.10885584 0.071035795 -0.11042608
000040 6e 34 c5 3d 08 12 d2 3c 9c 09 c2 bd d1 cc 55 3d
       0.09629141 0.025643364 -0.09474489 0.05219728
000050 f2 a6 2b bd a7 05 88 3c 6c 1e 5b 3d 8c 35 e1 3c
       -0.04190726 0.016604258 0.05349581 0.027491353
000060 84 b4 41 bc cc d8 67 bd ce 1d ce 3c 2b 2d a7 bd
       -0.011822823 -0.056603238 0.025160696 -0.08162912
000070 42 03 ab bd 71 36 d5 3d 70 ea f7 3d fc 0f 9b bd
       -0.08350231 0.104107745 0.12105262 -0.07571408

fc4.weight f4 [6, 32]
000000 7b 17 11 3e 99 98 19 3e 60 8f 4b bd 2e 4f 32 3c
       0.14169113 0.14999618 -0.04969728 0.010883136
000010 86 82 60 bd 67 68 72 3d 38 6a 6f 3c 26 4a b6 3d
       -0.054811977 0.059181597 0.014612727 0.089008614
000020 f5 73 1c 3e 3a 15 9d bd 1b 19 25 bd 84 da 15 bd
       0.15278609 -0.07670064 -0.040307146 -0.036585346
000030 36 33 f1 bd f6 87 c7 3d 09 ac 22 bd 5e 12 50 bd
       -0.11777346 0.09742729 -0.039714847 -0.050798766
000040 f0 d5 9d bd a6 18 f9 3d 70 30 36 bd 1c b9 60 3d
       -0.07706821 0.121629044 -0.044479787 0.054864034
000050 c2 05 f0 bd ec 4a 15 3e 1b 9c a6 bd 38 59 15 bc
       -0.11719848 0.14579362 -0.081352435 -0.00911551
000060 73 8c 11 3e 0c 6d 5b bd 49 cb de 3d f7 8a a0 3d
       0.14213733 -0.053570792 0.10878617 0.078390054
000070 0c 47 1b bd 41 ab 30 3e 3a 88 03 be 4b 93 9f 3d
       -0.037909552 0.17252828 -0.12844935 0.07791766
000080 99 0f 02 3e 24 05 22 3d e8 ad ec bc 01 91 31 3e
       0.12701263 0.039555684 -0.028891519 0.17340471
000090 87 f5 1f 3e 39 c4 36 3e fe d2 10 be 20 a7 a1 3c
       0.15621005 0.1784829 -0.14142987 0.019733012
0000a0 7d c2 02 3e ff 27 bd 3d ac 36 27 be 91 30 18 bd
       0.12769504 0.09236144 -0.1632945 -0.03715569
0000b0 33 f5 d1 3d 80 69 0c bb 3f 23 26 be 2c de bb 3d
       0.10251846 -0.0021425188 -0.16224383 0.09173235
0000c0 5a c5 0a 3e be 48 03 be dc 63 c7 bd 01 4d 6c bc
       0.13551846 -0.12820718 -0.097358435 -0.014422656
0000d0 52 00 a9 bd 85 e0 55 bd 9f 5b 22 be d4 42 99 3d
       -0.08252014 -0.05221607 -0.15855263 0.074834496
0000e0 8a fe b4 3d ae c4 e4 3d 0f 0e 7d 3c d4 fe 2b 3e
       0.08837612 0.11170326 0.015445246 0.16796428
0000f0 e0 64 d2 bd 17 6d f5 3d f4 36 31 3d 24 85 15 3e
       -0.10273147 0.11983698 0.043265298 0.1460157
000100 e0 61 10 3e 60 bf e5 3b 40 38 29 bb 05 34 8b bd
       0.14099836 0.007011339 -0.002582088 -0.06797031
000110 cc 70 c1 bd c6 91 14 3e 7f 14 16 be 6d 94 02 3e
       -0.094453424 0.14508733 -0.14656256 0.12751932
000120 a0 13 21 bc 4f 8e 28 bd 1e 0d fc bd f6 9c 06 bd
       -0.009831339 -0.04115134 -0.123071894 -0.032864533
000130 26 9f 2b 3e d9 71 2b be 5c f4 b7 bd 19 79 c6 bd
       0.16759929 -0.16742648 -0.08982155 -0.09691066
000140 c4 c7 fb bd 40 4e 38 3c bc 76 35 bd e9 fb c9 bd
       -0.12293962 0.011249125 -0.044302687 -0.09862501
000150 b2 81 0a 3a 43 fa ec bd 50 52 28 3d 38 40 fa bc
       0.00052836083 -0.11571171 0.041094124 -0.0305482
000160 2a 64 a7 bd dc 29 59 bd d8 a5 a6 3d 46 12 2b be
       -0.08173402 -0.053018436 0.08137101 -0.1670619
000170 05 bb bb bc e5 cd 2d be 22 7e 09 be cc 64 ed 3d
       -0.022916326 -0.16973074 -0.13427022 0.11591491
000180 ee 37 79 3c 50 3b 04 bc 3e a3 8d bc 99 45 86 bd
       0.015211089 -0.008070782 -0.017289754 -0.065562434
000190 8c 94 4c 3d e2 e2 2c 3b c5 45 89 bc 5c b9 f7 bd
       0.049946353 0.002638035 -0.016756902 -0.12095901
0001a0 20 49 a5 3c 5e 0c 05 3e 1c 71 12 3e 83 5d 47 bd
       0.02017647 0.12992999 0.1430096 -0.048673164
0001b0 64 a5 37 3d 9e 7a e3 3d 53 de 06 be e4 39 02 be
       0.044835463 0.11107372 -0.13170747 -0.12717396
0001c0 73 85 6b bc b8 53 c8 3c d8 46 73 3d fc 96 be bc
       -0.0143750785 0.024453983 0.059393734 -0.023265354
0001d0 22 64 22 3c ce 1e 2b be 54 5b e8 3c 02 e1 d6 3c
       0.009911569 -0.1671097 0.028363861 0.026230339
0001e0 67 e9 1b be c8 33 c2 3c db 53 06 3e e9 28 97 bd
       -0.15225755 0.023706332 0.13117926 -0.0738085
0001f0 38 9d b9 bd 8f 1c fd 3d d4 29 3d bd e8 8b f9 bd
       -0.0906319 0.12358963 -0.04618247 -0.12184888
000200 83 9f 08 be b2 05 e1 3d 66 a4 d5 3d ed 01 00 3e
       -0.13342099 0.109874144 0.10431747 0.12500735
000210 be eb 8f bd 15 0d 1e be e6 b7 c9 bc b4 da 3b bd
       -0.07027386 -0.15434678 -0.024623822 -0.04586287
000220 e8 1a 3a 3d 4c 48 12 3e 3b b5 6a bd cc ce 3c 3d
       0.045435816 0.14285392 -0.05730174 0.046095654
000230 3d 13 00 3e 80 ee e4 3a 85 35 60 bd e6 b8 e7 bb
       0.12507339 0.0017466098 -0.05473854 -0.007071602
000240 c0 be 32 3d 62 07 cf 3d 17 49 02 3e fb 47 95 bd
       0.043638945 0.1010883 0.12723194 -0.0728912
000250 31 6f 36 3d 8d 29 5a bd 79 5a 24 3e c1 61 64 3d
       0.044539634 -0.053262282 0.16050138 0.055757288
000260 44 e7 17 be b6 a4 f3 3d fa 86 bf bc e9 e4 e2 bb
       -0.14834315 0.118966505 -0.023379792 -0.006924261
000270 f6 13 d2 3d 55 f8 10 3c 00 43 2d 3a 26 38 f7 3d
       0.102577135 0.0088482695 0.000660941 0.12071256
000280 25 61 3c 3b e0 9c 62 3d 71 e5 08 3e 49 af de bd
       0.0028744426 0.05532539 0.13368775 -0.10873277
000290 79 0e d7 bd 0c 37 1c 3e 14 79 14 3e db 4a 0a 3e
       -0.10500807 0.15255374 0.14499313 0.13505118
0002a0 ce ee d7 3d e8 2e 2e bd 99 2b 96 3d f2 9b 2e be
       0.10543595 -0.042525202 0.07332534 -0.17051676
0002b0 80 be 89 bd d0 98 c9 bc 2e 6c 29 be 1f a1 2d 3d
       -0.06725788 -0.024609 -0.16545174 0.042389985
0002c0 38 0e 94 bd b9 b6 c1 bd 28 6e 80 bc be d0 37 bd
       -0.072292745 -0.0945868 -0.015677527 -0.044876806
0002d0 52 35 02 3e 13 a7 20 be c8 16 ac bc f5 1e e4 3d
       0.12715653 -0.15688734 -0.021006957 0.11138717
0002e0 f7 c9 da bd 16 0a a4 3d 8b 4f 3d 3d 6b da f9 bd
       -0.10683053 0.08009736 0.046218436 -0.12199863
0002f0 f0 32 1a bc a7 dd de bd af 09 a7 bd b4 29 f9 3d
       -0.0094115585 -0.108821206 -0.08156144 0.12166157

fc4.bias f4 [6]
000000 5e 50 cb bd ff 75 e7 3d 8d f0 0c be c8 ae a1 3d
       -0.09927438 0.11301803 -0.13763638 0.07894665
000010 7c cd a7 3d b9 25 0e 3e
       0.0819349 0.13881578
