src/params_data/reinforcement_learning/75param.pt (torch, 46927 bytes, 8 tensors)

fc1.weight f4 [128, 4]
0	0xbe29a336	-0.16566166
1	0x3c7dcc58	0.015490614
2	0x3ec86aa1	0.3914385
3	0x3e8c8ce5	0.27451244
4	0x3eae2f40	0.34020424
5	0xbe8a83c6	-0.2705366
6	0xbdb52710	-0.08845341
7	0xbd272250	-0.040804207
8	0x3ec85a50	0.39131403
9	0x3e8eceea	0.27892238
10	0xbe2d6356	-0.16932425
11	0x3e7299bb	0.23691456
12	0x3ed1fa1e	0.41011137
13	0x3cd44cfc	0.025915615
14	0xbecec1ee	-0.40382332
15	0xbea42f72	-0.32067448
16	0xbe48cba4	-0.19608933
17	0xbeab4420	-0.33450413
18	0xbecf17e6	-0.4044792
19	0x3ee711f2	0.4513088
20	0x3eb811ec	0.35951173
21	0xbef64550	-0.48099756
22	0x3e3bcb34	0.18339235
23	0xbdb87b38	-0.09007877
24	0xbbfbc180	-0.007682979
25	0xbe33f0ac	-0.17572278
26	0xbee06c84	-0.4383279
27	0xbef452ec	-0.47719514
28	0xbedc3e02	-0.43016058
29	0xbe52489c	-0.20535511
30	0xbd144b90	-0.036204875
31	0x3e77b3a8	0.24189627
32	0x3edd6284	0.43239224
33	0xbd13b12b	-0.036057632
34	0x3ef7eebd	0.4842433
35	0x3e4579dc	0.19284767
36	0x3eea077e	0.4570884
37	0xbe2f5a40	-0.17124271
38	0xbef3ed82	-0.47642142
39	0xbe0c7630	-0.1371696
40	0x3ec060dd	0.375739
41	0x3e922f5f	0.28551766
42	0x3e0ba6af	0.13637803
43	0xbe37744f	-0.17915462
44	0xbe8cac67	-0.27475283
45	0x3dac9b02	0.08428003
46	0xbe80ce1c	-0.2515725
47	0x3ee36a37	0.44416973
48	0x3dcfc1fd	0.10144422
49	0x3df4d13c	0.11953971
50	0xbefb007a	-0.490238
51	0xbef7d56c	-0.48405015
52	0x3d079c2e	0.03310793
53	0x3ef409c4	0.476637
54	0xbef6a324	-0.4817134
55	0x3eb283a2	0.34866053
56	0xbe0cf7e1	-0.13766433
57	0x3ee6d774	0.45086253
58	0x3e90c35e	0.28274053
59	0xbdb9ebe6	-0.09078197
60	0x3dcc8960	0.0998714
61	0xbed9c05c	-0.4252957
62	0x3bb0f7c5	0.00540063
63	0xbe915556	-0.2838542
64	0x3ed01812	0.40643364
65	0x3ecfa454	0.4055506
66	0x3ef6ceeb	0.4820474
67	0xbde3b189	-0.111178465
68	0xbd2a7a05	-0.041620273
69	0xbd53511b	-0.05159102
70	0x3ed0046b	0.4062837
71	0x3eba4ec0	0.36388206
72	0xbdbffc6d	-0.09374318
73	0x3e12792e	0.14304039
74	0x3d2955f2	0.04134173
75	0x3ef10cea	0.47080165
76	0x3d564d6b	0.052319925
77	0x3d89615b	0.06708022
78	0x3ee328a8	0.44366956
79	0xbe929555	-0.28629556
80	0xbe8b7b30	-0.27242422
81	0x3e7875ce	0.24263689
82	0xbe747e98	-0.23876417
83	0xbde4b089	-0.11166484
84	0xbed1b744	-0.40960133
85	0xbebe86b8	-0.37212157
86	0x3e13d15a	0.1443533
87	0xbeb0a726	-0.34502524
88	0xbe9a0bca	-0.3008712
89	0xbe0d52aa	-0.13801065
90	0x3e6b6c2e	0.22990486
91	0xbedaba39	-0.42720202
92	0x3ecf719a	0.4051636
93	0xbea1e03a	-0.31616384
94	0x3e2c1468	0.1680466
95	0x3ecd5ba0	0.40108967
96	0x3eb38d0c	0.35068548
97	0xbeeae3e2	-0.45876986
98	0xbed2ebb8	-0.41195464
99	0x3ed31bd8	0.4123218
100	0x3d19633b	0.03744815
101	0xbe92bc7e	-0.28659433
102	0x3ef6b86e	0.48187584
103	0xbee8b0b6	-0.4544732
104	0xbe57dec4	-0.21081072
105	0xbedd5c28	-0.43234372
106	0x3ecf53e9	0.40493706
107	0x3eddf22d	0.43348828
108	0xbe99b0d8	-0.30017734
109	0xbde546c3	-0.11195137
110	0x3e9f9325	0.3116695
111	0xbe2b0269	-0.16700138
112	0x3ee462f6	0.4460675
113	0x3ec66965	0.38752285
114	0xbeabd15c	-0.33558166
115	0x3e98ac13	0.29818782
116	0xbeb5a192	-0.3547483
117	0xbe0527bd	-0.1300344
118	0x3e860dcd	0.26182404
119	0xbe9bc0be	-0.30420488
120	0x3e9e92a2	0.30971247
121	0x3efc0e37	0.49229595
122	0x3ed0c9cb	0.40778956
123	0xbdb34b8a	-0.08754642
124	0x3d899770	0.067183375
125	0xbe9003a6	-0.28127784
126	0x3d0bef64	0.034163848
127	0x3ef1274a	0.47100288
128	0x3e973588	0.2953303
129	0x3a9d30db	0.001199271
130	0x3e723f93	0.23657064
131	0xbe105c8a	-0.14097801
132	0xbef76c80	-0.48324966
133	0xbe876baf	-0.26449344
134	0x3e21ab92	0.15788105
135	0x3ca3ad60	0.019980133
136	0x3e59765a	0.21236554
137	0x3eb48af8	0.35262275
138	0x3d9ad5f3	0.07560339
139	0x3e3aa9e2	0.18228868
140	0xbcab9a81	-0.020947697
141	0x3e42ed14	0.1903575
142	0xbe933ab1	-0.28755715
143	0x3d20e6ab	0.039282482
144	0x3ee1566b	0.44011244
145	0x3d415c34	0.047207072
146	0xbe04c265	-0.1296478
147	0x3edd91b6	0.4327523
148	0x3e6bddc0	0.2303381
149	0xbe7c6d4d	-0.2465107
150	0x3e37dd35	0.17955478
151	0xbe7d85f4	-0.2475813
152	0xbe6ac8b2	-0.22928122
153	0x3db577de	0.088607535
154	0x3d1eef07	0.038802173
155	0x3e561a0f	0.20908378
156	0x3dead9ed	0.11467347
157	0x3dca388e	0.09874068
158	0xbee1df96	-0.44115895
159	0xbeeb42a2	-0.45949274
160	0x3e849461	0.25894454
161	0x3ebd587d	0.36981574
162	0xbda149ea	-0.07875426
163	0xbc5a3311	-0.013317839
164	0xbefd576c	-0.4948076
165	0xbe3665d0	-0.17812276
166	0xbc9f38e0	-0.0194363
167	0xbe6b0cb8	-0.2295407
168	0xbeeceb18	-0.46273112
169	0xbe827e51	-0.25486997
170	0x3eee571a	0.46550828
171	0xbeba4a15	-0.36384645
172	0xbec7f78a	-0.39056045
173	0x3f018930	0.50599957
174	0x3d7553de	0.059894435
175	0xbee388dd	-0.44440356
176	0xbe8ad27c	-0.27113712
177	0xbea83b74	-0.3285786
178	0xbec57d32	-0.3857208
179	0xbd487d70	-0.04894775
180	0xbdcc46b2	-0.099744216
181	0xbe22610f	-0.15857337
182	0x3ee92f03	0.4554368
183	0x3eb19682	0.3468514
184	0x3ed487e3	0.41509923
185	0x3deb016a	0.11474879
186	0x3ecc6cf0	0.39926863
187	0x3e3cef9e	0.18450782
188	0xbea19b52	-0.31563812
189	0x3ed61ee4	0.41820443
190	0x3ed8c77d	0.42339697
191	0xbe725ccd	-0.23668213
192	0xbe663144	-0.22479731
193	0xbeac0882	-0.3360024
194	0xbedcbe7a	-0.43114072
195	0x3ea252a6	0.3170368
196	0xbedade7d	-0.4274787
197	0x3e9a1f5f	0.3010206
198	0xbea27000	-0.31726074
199	0x3e6ef761	0.23336555
200	0xbe44aa3a	-0.19205561
201	0x3e47ecbe	0.19523904
202	0x3e7fc193	0.24976186
203	0xbb69e050	-0.003568668
204	0xbe0dd7cc	-0.13851851
205	0xbeccb652	-0.3998285
206	0x3e851690	0.25993776
207	0xbe8d81c2	-0.2763806
208	0xbed847c1	-0.42242244
209	0xbe2703e1	-0.16310073
210	0x3e4217e5	0.18954428
211	0x3e27ebe3	0.16398577
212	0x3e78915e	0.24274203
213	0x3d024148	0.03180054
214	0x3d359d9e	0.04433977
215	0x3eee7e80	0.46580887
216	0xbec38a86	-0.38191622
217	0xbe47e2a0	-0.19520044
218	0xbe1d2e48	-0.15349686
219	0x3ebc324e	0.3675713
220	0xbebdd945	-0.37079826
221	0x3ec7fe65	0.39061275
222	0xbe65b07b	-0.22430603
223	0xbe14f419	-0.14546241
224	0x3ec9c66a	0.3940919
225	0xbdfec368	-0.124396145
226	0xbe8d607c	-0.27612674
227	0x3e83b6ea	0.2572549
228	0xbe8f1d6a	-0.2795213
229	0xbef72670	-0.48271513
230	0xbe8f3430	-0.27969503
231	0x3cf92bc0	0.03041637
232	0x3ea8b752	0.32952362
233	0x3e7937e3	0.24337725
234	0x3e8a52b7	0.2701623
235	0x3e4e2795	0.20132287
236	0x3eb00f90	0.34386873
237	0xbd41e490	-0.047337115
238	0xbdda0b88	-0.10646731
239	0xbe702de0	-0.23455
240	0x3cbaffee	0.022827115
241	0x3e08bd26	0.13353404
242	0x3ed1d454	0.40982306
243	0x3cfa5a33	0.030560588
244	0xbe87fda4	-0.265607
245	0xbe88cfe2	-0.26721102
246	0x3da11b38	0.0786652
247	0x3d742b50	0.05961162
248	0xbd990ef8	-0.07473558
249	0xbde91c38	-0.113823354
250	0x3c4f127c	0.012638684
251	0xbea04cc8	-0.3130858
252	0xbee40675	-0.44536176
253	0x3ed0b29c	0.40761268
254	0x3ef1452c	0.47123086
255	0xbe9d03f5	-0.3066708

fc1.bias f4 [128]
0	0x3e8e18e1	0.27753356
1	0xbe75c5fc	-0.24001306
2	0xbe81eee6	-0.25377578
3	0x3cb6eb08	0.022328869
4	0xbee31940	-0.44355202
5	0xbe4ef810	-0.20211816
6	0x3e9792a4	0.29604065
7	0x3ee57758	0.44817615
8	0x3e914d03	0.28379068
9	0xbee51344	-0.4474126
10	0x3e8373fd	0.2567443
11	0xbd8a6579	-0.067576356
12	0xbebf191b	-0.3732384
13	0xbecfbfcc	-0.40576017
14	0xbcefa6b8	-0.029254302
15	0x3eca89ad	0.39558163
16	0x3df5f36a	0.12009318
17	0xbea9fe03	-0.33201608
18	0xbed8ab80	-0.42318344
19	0xbef19b5c	-0.47188842
20	0xbe1bbb6e	-0.15208218
21	0xbe4cbec6	-0.1999465
22	0x3e471f5c	0.19445556
23	0xbc966873	-0.018360352
24	0x3e1bbd58	0.15208948
25	0xbecca2f0	-0.3996806
26	0x3ebd5749	0.36980656
27	0x3ebdcb32	0.37069088
28	0x3dbf76f8	0.09348863
29	0xbea54042	-0.32275587
30	0x3c547b6a	0.012968877
31	0x3e903081	0.28162006
32	0x3be35492	0.006937572
33	0x3e982599	0.29716185
34	0xbdad5113	-0.08462729
35	0x3e8b3bc2	0.2719403
36	0xbe9017a1	-0.28143027
37	0x3e82b436	0.25528115
38	0xbe3e9fd7	-0.18615662
39	0x3ee08c8f	0.43857238
40	0x3edfe82c	0.4373182
41	0xbeeb4658	-0.45952106
42	0xbe127099	-0.14300765
43	0x3e35c7d2	0.17752007
44	0xbe11141c	-0.14167827
45	0x3ed3f3fa	0.41397077
46	0x3e88b12e	0.26697677
47	0x3ea79b9c	0.32735908
48	0x3e13da70	0.14438796
49	0x3eaabb4f	0.3334603
50	0xbe86f3b5	-0.2635781
51	0xbc2eae62	-0.010661693
52	0x3e7f1226	0.24909267
53	0x3e045662	0.12923577
54	0xbe18a354	-0.14906055
55	0xbdc35aee	-0.09538828
56	0xbde3f3d8	-0.11130494
57	0xbde02038	-0.10943645
58	0x3e004e0a	0.1252977
59	0x3c40ac00	0.011759758
60	0xbeb5c9c5	-0.355055
61	0xbd524a87	-0.051340606
62	0x3ee9a249	0.45631626
63	0x3ccba02b	0.024856647
64	0xbed804a4	-0.4219104
65	0x3de692e0	0.11258483
66	0xbde62ae7	-0.11238652
67	0xbe07a3c8	-0.13246071
68	0x3e162534	0.1466263
69	0xbea666cb	-0.325003
70	0xbeafc976	-0.3433339
71	0xbef3f3ce	-0.47646946
72	0x3e693621	0.22774555
73	0xbe1983a0	-0.14991617
74	0x3ece62e6	0.4030983
75	0x3efaefa6	0.49010962
76	0x3ef2c1fb	0.4741362
77	0x3ea0d54f	0.31412742
78	0xbe804f16	-0.25060338
79	0x3e637952	0.22214249
80	0xbef27958	-0.47358203
81	0xbe8055ec	-0.25065553
82	0xbedcf560	-0.43155956
83	0x3edfb08c	0.43689382
84	0x3e540d8e	0.20708296
85	0xbd644240	-0.055727243
86	0xbea96968	-0.3308823
87	0x3ed6c498	0.41946864
88	0xbef0afa3	-0.47009
89	0xbd392a22	-0.045206197
90	0xbed57fcc	-0.41699064
91	0x3ef7983c	0.48358333
92	0xbedeb3ac	-0.43496454
93	0x3ea1965b	0.31560025
94	0x3e31710c	0.1732828
95	0x3ef5dad0	0.48018503
96	0xbe95b454	-0.29239142
97	0xbeec7c60	-0.4618864
98	0x3da33af0	0.07970226
99	0xbe9f47cb	-0.3110946
100	0x3e8f5edd	0.28002062
101	0xbece73ec	-0.40322816
102	0xbe161e28	-0.14659941
103	0xbebd94fe	-0.37027735
104	0xbe1517b8	-0.14559829
105	0x3e25357b	0.16133682
106	0x3eeeab6c	0.4661516
107	0x3bd3be16	0.006461869
108	0xbd7c6070	-0.061615407
109	0xbc287534	-0.01028185
110	0xbde45a90	-0.11150086
111	0xbe185dfe	-0.14879605
112	0xbec07416	-0.37588567
113	0x3e9902b2	0.2988487
114	0xbe5a7422	-0.21333364
115	0x3e82370e	0.25432628
116	0x3e063068	0.13104403
117	0x3ee6daa5	0.45088688
118	0xbeb1cc1b	-0.34726033
119	0x3e819409	0.25308254
120	0xbe06d1e9	-0.13166012
121	0x3e7c2fd5	0.24627621
122	0x3e8d0f0c	0.27550542
123	0x3e5b126a	0.21393743
124	0xbec155d8	-0.37760806
125	0x3ebe1803	0.37127694
126	0xbe18d49f	-0.14924859
127	0x3ec986b8	0.39360595

fc2.weight f4 [64, 128]
0	0x3d913439	0.07090039
1	0xbcf88ac6	-0.03033961
2	0xbd3acbb3	-0.04560442
3	0x3bb83e9f	0.0056226994
4	0x3d8d907f	0.06912326
5	0x3d177875	0.03698011
6	0xbda209d4	-0.07912031
7	0xbd3ea6e5	-0.04654588
8	0x3db077ce	0.08616601
9	0x3b688a40	0.0035482794
10	0x3d2d62c6	0.042330526
11	0x3d1435bb	0.036184054
12	0xbd49dffb	-0.04928587
13	0x3da9fc7b	0.0830011
14	0xbda3e790	-0.080031514
15	0x3d8ecdba	0.06972833
16	0xbc28d8a6	-0.010305559
17	0xbd90e177	-0.07074254
18	0xbd7488ee	-0.0597009
19	0xbbed660a	-0.00724483
20	0xbd3e8a3c	-0.04651855
21	0x3d61279e	0.054969423
22	0x3d53a06d	0.051666666
23	0xbdb69ced	-0.0891665
24	0xbdb082c6	-0.08618693
25	0xbdaf9706	-0.08573727
26	0x3d98b064	0.07455519
27	0xbd2f5013	-0.042800974
28	0xbd4d44bb	-0.050114375
29	0x3da0a724	0.078443795
30	0x3da922ca	0.082585886
31	0x3d960b34	0.073263556
32	0x3ce2f235	0.027703384
33	0xbdb37e12	-0.087642804
34	0x3c83e259	0.016099142
35	0xbcee1ef8	-0.029067501
36	0x3dbe12cc	0.09280929
37	0x3bf98001	0.007614136
38	0x3c8148dc	0.015781812
39	0xbd5e82cb	-0.054323953
40	0xbcc48829	-0.023990707
41	0x3da8b8dd	0.08238385
42	0x3d97e89f	0.07417416
43	0xbd1a051a	-0.03760252
44	0x3d16f73a	0.036856867
45	0xbd958119	-0.07300014
46	0x3d1aba11	0.037775103
47	0xbc409fa5	-0.011756812
48	0xbce26d5e	-0.027640041
49	0xbd4686d4	-0.048468426
50	0x3d13d613	0.03609283
51	0xbcddef00	-0.027091503
52	0xbd91032d	-0.07080684
53	0x3be1743d	0.0068803118
54	0xbd91f016	-0.07125871
55	0x3d2745b3	0.040837955
56	0xbca1279c	-0.019672208
57	0xbd54e6ee	-0.051978044
58	0x3c5c8c61	0.013461203
59	0xbd766ccc	-0.06016235
60	0xbd964675	-0.07337657
61	0xb9fb4ac8	-0.00047930167
62	0xbd820b32	-0.063497916
63	0xbd97d786	-0.07414155
64	0xbd5979d2	-0.053094693
65	0x3d6723fa	0.056430794
66	0xbd08094a	-0.033211984
67	0x3c1b3ea0	0.00947538
68	0xbd031941	-0.032006506
69	0xbd637913	-0.055535387
70	0xbcc5eae2	-0.024159852
71	0xbd995164	-0.07486227
72	0xbd659149	-0.056046758
73	0x3d8a923d	0.06766174
74	0xbc32c571	-0.0109113315
75	0x3d6f369c	0.05840169
76	0x3cb6a705	0.022296438
77	0xbd4d06ba	-0.050055243
78	0xbd102014	-0.035186842
79	0xbcf8d0f4	-0.030373074
80	0x3c2111a9	0.009830871
81	0xbd81cff0	-0.06338489
82	0xbccdcaf4	-0.02512119
83	0x3da88e77	0.08230298
84	0x3d278057	0.04089388
85	0x3daa4831	0.08314551
86	0xbd2c859a	-0.0421196
87	0xbd98f3b8	-0.07468361
88	0x3d0fe1c5	0.03512742
89	0xbd145079	-0.036209557
90	0xbdb23767	-0.087019734
91	0xba8a9880	-0.0010574013
92	0x3d9ec3a3	0.077521585
93	0x3d3f7e66	0.046751402
94	0xbd1a6cd1	-0.03770143
95	0x3d26d5aa	0.04073111
96	0x3cffdf40	0.031234384
97	0xbd96b907	-0.0735951
98	0xbd9c4a13	-0.07631316
99	0xbdb380ba	-0.08764787
100	0xbc9407ad	-0.018070066
101	0xbcca8509	-0.02472164
102	0x3db13ebb	0.08654543
103	0xbbf883b0	-0.0075840577
104	0x3cf47e80	0.029845476
105	0x3d526b1a	0.05137167
106	0x3cc0078e	0.023441102
107	0x3d9b7004	0.07589725
108	0xbda7e464	-0.08197859
109	0xbce762e7	-0.028245403
110	0x3d9bab74	0.076010615
111	0xbd3784d9	-0.044804428
112	0x3cb80608	0.022463813
113	0x3d25a036	0.040435992
114	0xbc8d532e	-0.017251577
115	0xbdb88b77	-0.09010976
116	0xbd0715eb	-0.032979887
117	0x3c4567bc	0.012048658
118	0xbd7803f0	-0.06055063
119	0xbcbeda25	-0.023297379
120	0xbd831da4	-0.06402138
121	0xbcf8eda9	-0.030386763
122	0x3ca46dbc	0.020071857
123	0x3c9c2fdb	0.019065788
124	0xbdaff56f	-0.085917346
125	0x3d9a68d6	0.07539527
126	0x3da80356	0.08203761
127	0xbd612c89	-0.054974113
128	0xbdb7aa73	-0.089680575
129	0xbd095ceb	-0.03353588
130	0xbd535332	-0.051593013
131	0xbdad1116	-0.084505245
132	0xbd186f0f	-0.03721529
133	0x3db09094	0.08621326
134	0x3cf1d868	0.029522136
135	0xbba93ea0	-0.005164936
136	0x3d37a4f1	0.044835035
137	0xbda7139b	-0.08158036
138	0xbd0bec48	-0.034160882
139	0xbc7eb2dc	-0.015545573
140	0x3c01faae	0.007933302
141	0x3c7ce7f2	0.015436159
142	0x3cc25b5e	0.023725208
143	0xbc321f91	-0.010871784
144	0x3d59aede	0.053145282
145	0xbd9daef1	-0.07699383
146	0xbd7a00a7	-0.06103578
147	0xbd251f5c	-0.04031311
148	0xbcf4e682	-0.029895071
149	0xbbe67c28	-0.0070338435
150	0xbd575f54	-0.052581146
151	0x3a9774f3	0.0011555239
152	0xbb792f40	-0.0038022548
153	0x3ce65c25	0.02812011
154	0xbd6f049b	-0.058354
155	0x3d8b82c3	0.0681205
156	0xbd769fb7	-0.06021091
157	0x3c2ec491	0.010666982
158	0x3d5df9f9	0.05419347
159	0xbd538399	-0.051639173
160	0x3d3dbe3c	0.046324
161	0xbbf4a4dd	-0.0074659423
162	0x3cd9b768	0.026576713
163	0x3d9d4163	0.07678487
164	0xbd3042f3	-0.043032598
165	0x3d4e2472	0.050327726
166	0x3c978f56	0.018500965
167	0x3d7c4481	0.061588768
168	0x3d12f69b	0.035879713
169	0x3d93f10f	0.07223713
170	0x3c9f3e6b	0.019438943
171	0x3d4857b1	0.048911754
172	0x3ad9a200	0.0016604066
173	0xbd52cdba	-0.051465727
174	0x3d597136	0.053086482
175	0x3c9c2190	0.019058973
176	0xba702d00	-0.0009161979
177	0x3d572749	0.0525277
178	0x3a4704d6	0.0007591968
179	0xbc4f7b06	-0.012663608
180	0x3c1028b8	0.008798771
181	0xbdb97672	-0.09055795
182	0xbd9d44f8	-0.0767917
183	0xbd98a46a	-0.074532345
184	0xbd990339	-0.07471318
185	0xbbf4f0a0	-0.007474974
186	0x3d8aee95	0.06783787
187	0x3d912971	0.070879824
188	0xbd8fb181	-0.07016278
189	0x3d3d071d	0.046149362
190	0xbca3d0db	-0.019997051
191	0xbc9cb321	-0.019128384
192	0x3d5e5d6e	0.05428832
193	0xbd85f103	-0.0654011
194	0xbd6908a6	-0.056893013
195	0x3ca51a1c	0.020154051
196	0xbc328c80	-0.010897756
197	0x3bf76e9f	0.007551029
198	0x3d1bfacc	0.038080975
199	0xbd93c7d0	-0.072158456
200	0xbd1e2ba3	-0.038615834
201	0x3da01a7e	0.07817553
202	0xbc03157a	-0.008000726
203	0x3d4e9950	0.05043918
204	0x3d73152e	0.05934637
205	0x3d8c2f30	0.06844938
206	0x3ac86d00	0.0015291274
207	0xbdb28551	-0.08716834
208	0x3c8ed146	0.017433774
209	0x3d4d1eb2	0.0500781
210	0xbdab3501	-0.08359719
211	0xbd9e527c	-0.077305764
212	0x3d9e4108	0.077272475
213	0xbda17222	-0.07883097
214	0x3d3cc34e	0.046084695
215	0xbd9bae0f	-0.076015584
216	0xbd427a69	-0.04748002
217	0xbdbe941c	-0.09305593
218	0xbcbea668	-0.023272708
219	0xbd23e519	-0.040013406
220	0x3c200c46	0.009768551
221	0x3d047479	0.03233764
222	0xbd91a1cc	-0.071109384
223	0xbd892028	-0.066955864
224	0x3d84185b	0.06449958
225	0xbdb2781b	-0.087143146
226	0xbbe1ceae	-0.006891093
227	0x3d8e71ad	0.06955276
228	0x3da7da51	0.081959374
229	0x3c938a48	0.018010274
230	0xbcbc557c	-0.02298998
231	0x3d392b6f	0.045207437
232	0x3b4bc7a0	0.0031094328
233	0x3c67793e	0.0141280275
234	0xbd153237	-0.03642484
235	0xbd5b3c64	-0.05352439
236	0x3c8396ac	0.016063057
237	0xbd2fdab9	-0.0429332
238	0x3da9f584	0.082987815
239	0xbd8ad665	-0.06779174
240	0xbd4e91be	-0.05043196
241	0xbd08edca	-0.0334299
242	0x3cb9d209	0.02268316
243	0x3d64ce76	0.05586096
244	0x3d615f86	0.05502274
245	0x3cb8195e	0.022473034
246	0xbdbcf47e	-0.09226321
247	0x3d0801ff	0.03320503
248	0x3b0dbeaf	0.002162855
249	0x3d84078b	0.06446751
250	0x3d15da3c	0.036585078
251	0x3bef1260	0.0072958916
252	0xbda3f055	-0.08004824
253	0x3d81ebe8	0.06343824
254	0x3d09efa4	0.033675805
255	0xbd8179aa	-0.06322034

fc2.bias f4 [64]
0	0x3d11de34	0.0356123
1	0x3da08a45	0.07838873
2	0xbd2375c0	-0.039907217
3	0x3da417e3	0.080123685
4	0xbbc62064	-0.0060463417
5	0xbc4dcbf9	-0.012560838
6	0x3cf19a94	0.029492654
7	0xbd33dd39	-0.043912146
8	0x3d050d72	0.032483526
9	0x3ba9f5e0	0.0051867813
10	0x3d428e48	0.04749897
11	0xbd82ba97	-0.063832454
12	0x3d50362e	0.05083292
13	0x3dae796f	0.08519255
14	0xbda0e1e0	-0.07855582
15	0xbcab3cd8	-0.020903036
16	0x3c443e75	0.011977782
17	0xbd8582e5	-0.06519107
18	0xbd2bc110	-0.041932166
19	0x3d840ac8	0.06447369
20	0xbd2ad3e6	-0.04170599
21	0xbd436aca	-0.047709264
22	0xbd8c542e	-0.068519935
23	0xbd73f5f2	-0.059560724
24	0xbd3a5f06	-0.045500778
25	0xbd30fa21	-0.04320729
26	0xbc574656	-0.013139328
27	0x3d83e727	0.06440573
28	0xbd8926d3	-0.06696858
29	0x3c2109f8	0.009829037
30	0x3d387ef2	0.04504294
31	0xbd40aec9	-0.047041688
32	0xbda89275	-0.082310595
33	0x3d950cb8	0.072778165
34	0x3c178a38	0.0092492625
35	0xbd1aef7b	-0.037826043
36	0xbc309d1c	-0.010779645
37	0xbc8af328	-0.016961649
38	0x3bdec0e8	0.0067978986
39	0x3d5af13d	0.05345272
40	0xbdb180f0	-0.08667171
41	0xbda84301	-0.08215905
42	0x3c19ef5f	0.009395449
43	0xbcd3be50	-0.025847584
44	0xbd57f127	-0.052720215
45	0xbcfee16c	-0.031113349
46	0x3c713f52	0.014724569
47	0xbdad3511	-0.08457387
48	0x3d190fee	0.037368707
49	0xbd47ff9c	-0.048827752
50	0xbda9c0c1	-0.08288718
51	0x3c909280	0.017647982
52	0xbca07ad8	-0.019589826
53	0x3be177a0	0.0068807155
54	0x3d785f4e	0.060637765
55	0xbb924310	-0.004463561
56	0xbc7b1dea	-0.015326956
57	0xbd9fac0d	-0.07796488
58	0xbc69471f	-0.014238148
59	0x3c54b1d8	0.012981854
60	0x3d500941	0.050790075
61	0xbc8a02ef	-0.016847102
62	0xbdac5bb6	-0.0841593
63	0x3d33fd71	0.043942872

fc3.weight f4 [32, 64]
0	0x3c612818	0.013742469
1	0x3dfc1acd	0.12309799
2	0xbdab6d88	-0.08370501
3	0x3bfc7420	0.007704273
4	0xbd33787d	-0.04381608
5	0x3b91de96	0.004451583
6	0xbdf8b6fb	-0.12144276
7	0xbd1167a4	-0.03549923
8	0xbdd75198	-0.1051361
9	0xbdb2a41e	-0.08722709
10	0x3c8b1b02	0.016980652
11	0xbdd81d6c	-0.10552487
12	0x3da45a22	0.08025004
13	0x3cb96e98	0.022635743
14	0xbd443b1f	-0.047907945
15	0xbd2e4658	-0.042547554
16	0xbd776aca	-0.060404576
17	0x3de9f8e1	0.11424423
18	0x3d7555fe	0.05989646
19	0x3deb4b8a	0.11489017
20	0x3bce86ed	0.0063027055
21	0xbcabd44d	-0.020975256
22	0x3d36bfdd	0.04461657
23	0xbd8910a5	-0.06692628
24	0xbdc5e759	-0.09663267
25	0xbddb1c07	-0.10698705
26	0xbd938fcb	-0.07205161
27	0x3c8a6408	0.016893402
28	0xbc031510	-0.008000627
29	0xbd0f91e4	-0.03505124
30	0xbca15b58	-0.019696876
31	0xbdddcd76	-0.10830204
32	0xbd79117b	-0.060807686
33	0x3c824c51	0.015905531
34	0xbd88c76c	-0.06678662
35	0xbc88c0ea	-0.016693551
36	0x3daf5dc1	0.08562804
37	0xbd8483bc	-0.06470439
38	0x3db4ca00	0.08827591
39	0xbcadd807	-0.021221174
40	0x3d8cab98	0.068686664
41	0x394513ad	0.00018794714
42	0x3d306af8	0.043070763
43	0x3d06f50c	0.03294854
44	0x3da21116	0.07913415
45	0x3d781a76	0.06057211
46	0xbcb80924	-0.022465296
47	0x3b89f9bf	0.0042106803
48	0xbd9c5654	-0.07633653
49	0x3dd72a72	0.10506143
50	0xbd9ca2c4	-0.076482326
51	0xbd85c456	-0.06531589
52	0x3d5c9a40	0.05385804
53	0xbdf2f8c2	-0.11863853
54	0xbdec2676	-0.11530773
55	0x3d4212a0	0.047381043
56	0x3dbaf34e	0.09128438
57	0x3d03db5d	0.032191623
58	0x3becae22	0.0072229067
59	0xbdab8282	-0.08374502
60	0xbd261a2f	-0.040552314
61	0x3df04991	0.11732782
62	0xbcc299cc	-0.023754977
63	0x3d1a2187	0.03762963
64	0xbd984f38	-0.07436985
65	0xbd9dce3c	-0.07705352
66	0x3d86655c	0.065623015
67	0x3df2d8f0	0.11857784
68	0xbd948d8e	-0.07253562
69	0xbd8643d8	-0.06555909
70	0xbc2d3530	-0.010571763
71	0xbddc172e	-0.10746609
72	0xbda1ae0c	-0.07894525
73	0xbde6eb90	-0.11275399
74	0xba7eed00	-0.0009724647
75	0x3dd4d7e8	0.10392743
76	0xbc89c128	-0.016815737
77	0xbdb2aed2	-0.087247506
78	0xbdaefede	-0.08544706
79	0xbd80f574	-0.062968165
80	0xbcade628	-0.021227911
81	0xbdeb41c2	-0.11487152
82	0x3dceec48	0.10103661
83	0x3d911a10	0.07085049
84	0xbc4400b0	-0.011963055
85	0xbd88b826	-0.066757485
86	0x3de788cc	0.11305389
87	0xbd0ea248	-0.034822732
88	0xbd861c1c	-0.0654833
89	0x3d1d6678	0.0384278
90	0xbd349c28	-0.044094235
91	0xbdf9dd7c	-0.12200448
92	0x3c0f13d0	0.008732751
93	0x3cb47350	0.022027642
94	0xbc8f9f48	-0.017532006
95	0xbbfb2b00	-0.007665038
96	0xbc949490	-0.018137246
97	0x3ddd54d2	0.10807194
98	0xbcad9f80	-0.02119422
99	0xbd35d51c	-0.04439269
100	0xbdcf0c26	-0.10109739
101	0x3b9e79a0	0.004836276
102	0x3d313150	0.04325992
103	0x3cfcf908	0.030880466
104	0x3d69f7a4	0.057120934
105	0x3d910ca0	0.07082486
106	0x3da78422	0.08179499
107	0xb9d7f200	-0.000411883
108	0x3da0ee00	0.07857895
109	0xbcc72468	-0.024309352
110	0x3d23ecfc	0.040020928
111	0x3d7b1790	0.061301768
112	0xbd7afe2c	-0.061277553
113	0x3d24397c	0.040093884
114	0xbdd0f9a2	-0.10203864
115	0xbdb633f6	-0.088966295
116	0x3c89eae0	0.01683563
117	0xbda1d6f4	-0.07902327
118	0x3d36daa0	0.04464209
119	0xbd9e838e	-0.07739936
120	0xbc89e840	-0.016834378
121	0x3d8c965c	0.06864616
122	0xbb2a5880	-0.0025992692
123	0x3dffdfce	0.12493859
124	0xbdf05016	-0.11734025
125	0x3df0cbec	0.11757645
126	0x3da62c42	0.0811391
127	0x3db7a61a	0.08967228
128	0x3d0135d7	0.031545486
129	0xbbe59c32	-0.0070071453
130	0xbca65490	-0.020303994
131	0xbd92ab08	-0.07161528
132	0xbd3074ad	-0.04308002
133	0xbd6740f1	-0.056458417
134	0xbdf389d6	-0.118915245
135	0xbc120e40	-0.00891453
136	0x3dfebc36	0.12438242
137	0xbc0e6ca0	-0.00869289
138	0x3d933d86	0.07189469
139	0xb9feb600	-0.00048582256
140	0x3da13222	0.0787089
141	0x3d23aa34	0.03995724
142	0xbd8c0d68	-0.068384945
143	0x3bd4b5c0	0.006491393
144	0xbc18b1d8	-0.009319745
145	0xbda12826	-0.07868986
146	0xbd85f273	-0.06540384
147	0x3d8784af	0.06617104
148	0xbdf91fc0	-0.12164259
149	0x3cd5c5a0	0.026095212
150	0xbd28db01	-0.041224483
151	0x3dfca06a	0.12335284
152	0x3da13217	0.07870882
153	0xbd0e2a24	-0.034708157
154	0x3c9ea98c	0.019367956
155	0xba657800	-0.0008753538
156	0xbda7dd12	-0.08196463
157	0x3d00761c	0.031362638
158	0xbae39280	-0.0017362386
159	0xbd90780e	-0.070541486
160	0xbdca3126	-0.098726556
161	0x3c760ccd	0.0150177
162	0x3d5b8844	0.05359675
163	0x3d1aecbc	0.037823424
164	0xbd72134b	-0.05910043
165	0x3b330200	0.0027314425
166	0xbb62b204	-0.003459097
167	0x3da0dc34	0.078545004
168	0x3d43d448	0.04780987
169	0xbd8beaca	-0.06831892
170	0x3d0811da	0.03322015
171	0x3da12970	0.07869232
172	0x3d1e96a0	0.038717866
173	0x3d5435f7	0.051809277
174	0xbc8033a2	-0.01564962
175	0x3c5bad30	0.01340799
176	0x3d6ca09c	0.057770357
177	0xbd8850ea	-0.06656058
178	0xbdbcbde1	-0.09215904
179	0x3d81c4c0	0.06336355
180	0xbd3949a4	-0.045236245
181	0xbdd77376	-0.10520069
182	0xbde05f2e	-0.10955654
183	0x3b9080a0	0.0044098645
184	0x3d3d4e50	0.046217263
185	0xbdddbb0a	-0.108266905
186	0xbdc77a5e	-0.097401366
187	0xbd276a2c	-0.040872738
188	0xbce00c98	-0.027349755
189	0x3ddb1c66	0.10698776
190	0x3dded9ce	0.10881387
191	0x3df19dbb	0.11797663
192	0x3df0ecc7	0.11763912
193	0x3d983ef0	0.074338794
194	0x3dea45c0	0.11439085
195	0xbcbc56f8	-0.022990689
196	0x3d0c4cc7	0.034252908
197	0x3d1ba429	0.037998352
198	0xbb4bb633	-0.003108394
199	0xbd014464	-0.031559363
200	0xbce31538	-0.027720079
201	0x3c040f80	0.008060336
202	0xbd353dd6	-0.044248424
203	0x3ddc3540	0.10752344
204	0xbc87c310	-0.016572505
205	0xbdc56f5e	-0.09640382
206	0xbcf58a93	-0.029973304
207	0xbd14d34c	-0.03633432
208	0xbdb8e593	-0.09028163
209	0x3dd54d2f	0.10415112
210	0x3df111ba	0.11770959
211	0x3c5fe124	0.013664518
212	0xbd911a09	-0.07085044
213	0x3dcc5ea6	0.0997899
214	0x3d03d0d3	0.032181572
215	0xbca608ad	-0.020267809
216	0xbc14378f	-0.009046449
217	0xbd07961c	-0.03310214
218	0xbdb20e7d	-0.0869417
219	0xbd442b88	-0.047893077
220	0x3d9002ae	0.07031761
221	0xbdb5a49c	-0.08869287
222	0x3c89dd70	0.016829222
223	0x3dcd68ca	0.100297526
224	0x3aea4dcc	0.0017875968
225	0x3cadabd1	0.021200093
226	0x3d05e9fc	0.032693848
227	0xbdca9846	-0.09892325
228	0xbd9b44f8	-0.07581514
229	0xbcada9b0	-0.021199077
230	0xbdc81835	-0.09770242
231	0x3dc7a180	0.097476006
232	0xbc8f01c1	-0.017456891
233	0x3daca2de	0.08429502
234	0x3dfa5289	0.122227736
235	0xbcf34728	-0.029697016
236	0x3baa4560	0.0051962584
237	0xbd439c98	-0.04775676
238	0xbdab6da6	-0.08370523
239	0xbdd2cf4c	-0.10293445
240	0xbdbc19fc	-0.091846436
241	0xbd396f99	-0.045272443
242	0xbd423c59	-0.047420833
243	0x3dd0b40c	0.10190591
244	0xbcbe0350	-0.023194939
245	0x3d619868	0.055076987
246	0x3d2f510c	0.0428019
247	0x3ab79480	0.0014006048
248	0x3d22b616	0.039724432
249	0x3de8206d	0.1133431
250	0xbdf282fd	-0.1184139
251	0xbdf551bc	-0.1197848
252	0x3bf80905	0.0075694346
253	0xbd31cb0e	-0.04340654
254	0xbca35bde	-0.019941267
255	0x3df25bdd	0.11833928

fc3.bias f4 [32]
0	0xbde5e4e0	-0.11225295
1	0x3d372764	0.0447153
2	0xbd90e9d4	-0.07075849
3	0xbd7a8a7d	-0.06116723
4	0xbdd71ce2	-0.10503556
5	0xb9b17329	-0.00033845872
6	0x3c2778de	0.010221688
7	0x3d1b5210	0.037920058
8	0xbdfba450	-0.122871995
9	0xbd955ab5	-0.072926916
10	0x3cfc15c8	0.030772105
11	0x3d10361b	0.03520785
12	0xbd4db996	-0.050225817
13	0x3ddeefd0	0.10885584
14	0x3d917b37	0.071035795
15	0xbde18f50	-0.11013663
16	0x3dc55941	0.096361645
17	0x3cd21208	0.025643364
18	0xbdbca1a6	-0.092105195
19	0x3d55ccd1	0.05219728
20	0xbd2c45c8	-0.042058736
21	0x3c880fa5	0.016609022
22	0x3d59bf31	0.05316085
23	0x3cdedcb8	0.027204856
24	0xbc3c596e	-0.011495931
25	0xbd67d8cc	-0.056603238
26	0x3ccc6324	0.024949618
27	0xbda700ac	-0.08154425
28	0xbdab0342	-0.08350231
29	0x3dd51ad1	0.104055054
30	0x3df7ea70	0.12105262
31	0xbd9b518c	-0.07583913

fc4.weight f4 [6, 32]
0	0x3e11169a	0.14168778
1	0x3e199899	0.14999618
2	0xbd4b8f60	-0.04969728
3	0x3c31598f	0.010824575
4	0xbd608286	-0.054811977
5	0x3d7017a6	0.058616303
6	0x3c717038	0.014736228
7	0x3db64a26	0.089008614
8	0x3e1c73f5	0.15278609
9	0xbd9d153a	-0.07670064
10	0xbd253489	-0.040333305
11	0xbd16a206	-0.03677561
12	0xbdf112f4	-0.11771193
13	0x3dc787f6	0.09742729
14	0xbd22ac09	-0.039714847
15	0xbd50473c	-0.050849184
16	0xbd9d8cb1	-0.076928504
17	0x3df918a6	0.121629044
18	0xbd363070	-0.044479787
19	0x3d60b91c	0.054864034
20	0xbdf00a9f	-0.11720776
21	0x3e1548cc	0.14578551
22	0xbda69c23	-0.081352495
23	0xbc18823b	-0.009308393
24	0x3e11163c	0.14168638
25	0xbd5b6d0c	-0.053570792
26	0x3ddec2b7	0.10876983
27	0x3da07733	0.078352354
28	0xbd1b470c	-0.037909552
29	0x3e30af88	0.1725446
30	0xbe03883a	-0.12844935
31	0x3d9f9468	0.07791978
32	0x3e021d9a	0.12706605
33	0x3d220524	0.039555684
34	0xbcecade8	-0.028891519
35	0x3e31a493	0.17347936
36	0x3e1ff587	0.15621005
37	0x3e3717c3	0.17880158
38	0xbe10d49b	-0.14143603
39	0x3ca1a720	0.019733012
40	0x3e02c27d	0.12769504
41	0x3dbd27ff	0.09236144
42	0xbe271d2f	-0.16319726
43	0xbd17bfab	-0.037048023
44	0x3dd2077e	0.10255335
45	0xbb0c6980	-0.0021425188
46	0xbe26233f	-0.16224383
47	0x3dbbe9cb	0.09175452
48	0x3e0ac132	0.1355026
49	0xbe0348be	-0.12820718
50	0xbdcaabeb	-0.09896072
51	0xbc6c4d01	-0.014422656
52	0xbda8d7a6	-0.08244257
53	0xbd55e0ff	-0.052216526
54	0xbe2247aa	-0.1584765
55	0x3d998bf1	0.07497395
56	0x3db54a7c	0.088520974
57	0x3de4c4ae	0.11170326
58	0x3c7e4dde	0.015521495
59	0x3e2c0273	0.1679781
60	0xbdd264e0	-0.10273147
61	0x3df57713	0.11985602
62	0x3d3136f4	0.043265298
63	0x3e159900	0.14609146
64	0x3e10477e	0.14089772
65	0x3be5bf60	0.007011339
66	0xbb293840	-0.002582088
67	0xbd8b868b	-0.068127714
68	0xbdc170cc	-0.094453424
69	0x3e13f257	0.14447914
70	0xbe162154	-0.14661151
71	0x3e02946d	0.12751932
72	0xbc2113a0	-0.009831339
73	0xbd288e4f	-0.04115134
74	0xbdfc6118	-0.12323207
75	0xbd06ff5d	-0.032958377
76	0x3e2b8865	0.16751249
77	0xbe2b71d9	-0.16742648
78	0xbdb7f45c	-0.08982155
79	0xbdc68b54	-0.096945435
80	0xbdfbe8c6	-0.123002574
81	0x3c384e40	0.011249125
82	0xbd335298	-0.04377994
83	0xbdc9fbe9	-0.09862501
84	0x39cd4785	0.00039153933
85	0xbdecfb99	-0.11571426
86	0x3d27c030	0.04095477
87	0xbcfc2bcd	-0.030782605
88	0xbda79f49	-0.08184678
89	0xbd5929dc	-0.053018436
90	0x3da66130	0.08124006
91	0xbe2b156c	-0.1670739
92	0xbcbbbb05	-0.022916326
93	0xbe2de5ac	-0.16982144
94	0xbe097e22	-0.13427022
95	0x3ded1e02	0.11577989
96	0x3c75ed48	0.015010186
97	0xbc043b50	-0.008070782
98	0xbc8da33e	-0.017289754
99	0xbd86dfcb	-0.06585654
100	0x3d4c948c	0.049946353
101	0x3b348887	0.0027547197
102	0xbc8bf39b	-0.017083934
103	0xbdf7b95c	-0.12095901
104	0x3ca54920	0.02017647
105	0x3e050c5e	0.12992999
106	0x3e121a7f	0.1426792
107	0xbd478db6	-0.04871913
108	0x3d36aa0a	0.044595756
109	0x3de37a9e	0.11107372
110	0xbe06de53	-0.13170747
111	0xbe024cf4	-0.12724668
112	0xbc7113f8	-0.014714234
113	0x3cc853b8	0.024453983
114	0x3d784f77	0.06062266
115	0xbcbe96fc	-0.023265354
116	0x3c1e04da	0.009644711
117	0xbe2b1eab	-0.16710918
118	0x3ce5ede2	0.028067533
119	0x3cd3a278	0.025834307
120	0xbe1be401	-0.15223695
121	0x3cc233c8	0.023706332
122	0x3e0613eb	0.13093536
123	0xbd972236	-0.07379572
124	0xbdb99d38	-0.0906319
125	0x3dfc83d4	0.12329832
126	0xbd3d29d4	-0.04618247
127	0xbdfa21d3	-0.12213483
128	0xbe08d28a	-0.13361564
129	0x3de105b2	0.109874144
130	0x3dd5a466	0.10431747
131	0x3dff32ff	0.124608986
132	0xbd8febbe	-0.07027386
133	0xbe1ea2a7	-0.15491734
134	0xbccb5e37	-0.024825199
135	0xbd3bdab4	-0.04586287
136	0x3d3a1ae8	0.045435816
137	0x3e12484c	0.14285392
138	0xbd6c49c1	-0.057687525
139	0x3d3c2e9f	0.0459429
140	0x3dffcb77	0.1248998
141	0x3ae4ee80	0.0017466098
142	0xbd603585	-0.05473854
143	0xbbebcc98	-0.0071960203
144	0x3d31e09d	0.0434271
145	0x3dcf0762	0.1010883
146	0x3e02e28a	0.1278173
147	0xbd9547fb	-0.0728912
148	0x3d354429	0.044254456
149	0xbd5a27c5	-0.053260583
150	0x3e24064a	0.16018024
151	0x3d61d6c8	0.055136472
152	0xbe1825df	-0.14858197
153	0x3df3a4b6	0.118966505
154	0xbcc193c9	-0.02363004
155	0xbbe36155	-0.006939093
156	0x3dd213f6	0.102577135
157	0x3c0d0982	0.008608224
158	0x3a2d4300	0.000660941
159	0x3df69ecf	0.12042009
160	0x3b3813d5	0.0028087993
161	0x3d629ce0	0.05532539
162	0x3e08e571	0.13368775
163	0xbddeecd6	-0.108850166
164	0xbdd70e79	-0.10500807
165	0x3e1bfd4d	0.15233345
166	0x3e145c43	0.1448832
167	0x3e0a4adb	0.13505118
168	0x3dd7eece	0.10543595
169	0xbd2e2ee8	-0.042525202
170	0x3d95efb7	0.073211126
171	0xbe2ea403	-0.17054753
172	0xbd89e08b	-0.06732281
173	0xbcc998d0	-0.024609
174	0xbe296c2e	-0.16545174
175	0x3d2d671e	0.04233467
176	0xbd943a4a	-0.0723768
177	0xbdc1b6b9	-0.0945868
178	0xbc90c892	-0.017673764
179	0xbd37d0be	-0.044876806
180	0x3e021b4e	0.12705728
181	0xbe20a7a5	-0.15688951
182	0xbcaced7e	-0.021109339
183	0x3de3b55d	0.11118577
184	0xbddac9e9	-0.106830426
185	0x3da40a16	0.08009736
186	0x3d3cfe90	0.046141207
187	0xbdf9dcbe	-0.12200306
188	0xbc1a32f0	-0.0094115585
189	0xbddf07d8	-0.10890168
190	0xbda709af	-0.08156144
191	0x3df8f984	0.12156966

fc4.bias f4 [6]
0	0xbdcb62d2	-0.09930958
1	0x3de775c0	0.11301756
2	0xbe0d0ee1	-0.13775207
3	0x3da12516	0.07868402
4	0x3da72eff	0.08163261
5	0x3e0e11cd	0.13873978
