src/params_data/reinforcement_learning/90param.pt (torch, 46927 bytes, 8 tensors)

fc1.weight f4 [128, 4]
00000000: b285 27be 9a6b 7e3c 2f33 c83e f21d 8c3e
00000010: 402f ae3e c683 8abe 1027 b5bd 5022 27bd
00000020: 50ce c63e dec0 8e3e 204a 2dbe ceb7 733e
00000030: 069a d13e 8b74 ce3c 1c16 cfbe c27e a4be
00000040: a4cb 48be 2044 abbe e617 cfbe f211 e73e
00000050: ec11 b83e 5045 f6be 6f0a 3c3e 387b b8bd
00000060: 80c1 fbbb acf0 33be 846c e0be ec52 f4be
00000070: 023e dcbe 9c48 52be 904b 14bd a8b3 773e
00000080: 3d82 de3e f219 13bd 1539 f83e c494 443e
00000090: 7e07 ea3e 405a 2fbe 82ed f3be 3076 0cbe
000000a0: c25b c03e 1726 923e 1438 0b3e 5a56 37be
000000b0: ab12 8cbe ed4c ac3d df02 81be 6108 e33e
000000c0: 3082 d23d 6dc3 f33d 8548 fbbe d7e6 f7be
000000d0: 4a6a 0b3d be1c f43e 592f f6be 6380 b23e
000000e0: 296b 09be 4bd7 e63e 27d9 903e a9e5 bbbd
000000f0: 6089 cc3d 5cc0 d9be 880f bb3b 5655 91be
00000100: 6011 d03e 5d9b cf3e 62bc f63e 1838 e5bd
00000110: 66c7 1ebd c600 54bd c8c4 cf3e 15b8 b93e
00000120: 4516 c2bd e98c 123e 3a84 293d 6360 f13e
00000130: b97e 533d de79 893d 4431 e33e 9647 92be
00000140: ce75 89be 6097 783e 5402 74be 0589 e7bd
00000150: 44b7 d1be b886 bebe 1007 143e 26a7 b0be
00000160: 53be 99be bbd2 0bbe 5ea7 6c3e f926 dabe
00000170: 9a71 cf3e 3ae0 a1be cbbd 2b3e a05b cd3e
00000180: 0c8d b33e e2e3 eabe b8eb d2be d81b d33e
00000190: 58d7 193d 59f0 92be 8fa9 f63e 3865 e9be
000001a0: c4de 57be 8a7e ddbe 023b cf3e 6521 de3e
000001b0: bc8c 9bbe 3f71 e7bd 211a 9f3e 6833 2bbe
000001c0: 4127 e43e 9071 c63e 87e1 abbe d595 983e
000001d0: 1381 b5be fe5e 03be 1caf 863e 9b3a 9abe
000001e0: 9303 9e3e 12ea fb3e cd90 d03e 0fe6 b4bd
000001f0: 7097 893d a603 90be c2b1 0a3d 4a27 f13e
00000200: 5407 993e b6cc ac3a ac91 723e 043e 11be
00000210: 806c f7be 90aa 86be d008 223e 60ad a33c
00000220: 44ed 583e a57c b43e 96ce 9a3d 04cf 3a3e
00000230: 3415 95bc f8f7 423e 89ea 92be faa1 1d3d
00000240: 8b8a e03e 22f3 413d add0 04be 7798 dd3e
00000250: c0dd 6b3e e157 80be c5b2 363e f485 7dbe
00000260: 0f6a 6abe 850d b53d 96d1 1d3d 7eda 543e
00000270: 59c5 ee3d 61bf ce3d 03da e0be eb8d eabe
00000280: 61f4 843e 7962 bd3e 8b5a a1bd 5d53 66bc
00000290: 6c57 fdbe d065 36be e038 9fbc b80c 6bbe
000002a0: 8e96 ecbe def0 81be 6fab ee3e ff1e b9be
000002b0: 8796 c5be ea88 013f a9b9 753d 449c e4be
000002c0: 7cd2 8abe 743b a8be 327d c5be 707d 48bd
000002d0: 6de3 cfbd 0ea8 23be a0a1 e83e a331 b13e
000002e0: 1529 d63e dca1 ea3d d95f cc3e 23ad 3b3e
000002f0: a361 a2be 3308 d63e 27dc d83e 7262 72be
00000300: 4431 66be 8208 acbe 7abe dcbe a652 a23e
00000310: aecb dabe d312 9a3e a422 a2be c0fa 6e3e
00000320: feaf 3fbe 5d43 483e 8ba9 7f3e a17a cfbb
00000330: ccd7 0dbe 5ad1 cbbe 1d37 853e c281 8dbe
00000340: 858c d7be 83ec 27be 9385 413e db9e 283e
00000350: 532d 753e 130f 023d 202d 363d c72d ef3e
00000360: 868a c3be a0e2 47be 482e 1dbe 4e32 bc3e
00000370: 7831 bdbe e217 c83e dacc 65be a2d3 15be
00000380: 6ac6 c93e 68c3 febd 7c60 8dbe eab6 833e
00000390: 6a1d 8fbe 7026 f7be 3034 8fbe c02b f93c
000003a0: 8348 a93e 1cf7 783e 150d 8a3e 706f 4d3e
000003b0: 900f b03e 90e4 41bd 880b dabd e02d 70be
000003c0: b74f 9f3c d686 083e 7ede d13e 2912 003d
000003d0: a4fd 87be e2cf 88be 802b a13d 502b 743d
000003e0: f80e 99bd 381c e9bd 7e03 463c c84c a0be
000003f0: cbf6 e1be 16c1 d03e 842a f13e d037 9ebe
-0.16359594 0.015528584 0.3910155 0.27366596 0.34020424 -0.2705366 -0.08845341 -0.040804207
0.3882928 0.2788152 -0.16922808 0.23800585 0.40937823 0.025202056 -0.40446556 -0.3212796
-0.19608933 -0.33450413 -0.4044792 0.4513088 0.35951173 -0.48099756 0.18363355 -0.09007877
-0.007682979 -0.17572278 -0.4383279 -0.47719514 -0.43016058 -0.20535511 -0.036204875 0.24189627
0.4345874 -0.035913415 0.4848105 0.19197375 0.4570884 -0.17124271 -0.47642142 -0.1371696
0.37570006 0.28544685 0.13595611 -0.17904034 -0.27357993 0.0841311 -0.25197503 0.4434233
0.102787375 0.11902509 -0.49078766 -0.48418304 0.034036912 0.4767818 -0.48082998 0.34863576
-0.13419785 0.4508613 0.28290674 -0.091746636 0.0998714 -0.4252957 0.0057086386 -0.2838542
0.40638256 0.4054822 0.481906 -0.1119234 -0.03876438 -0.05175855 0.4057982 0.36273256
-0.09476904 0.14311565 0.041385867 0.4714385 0.051634524 0.067126974 0.44373524 -0.2857024
-0.2684769 0.24276495 -0.23829013 -0.11305431 -0.40960133 -0.37212157 0.14455819 -0.34502524
-0.30028018 -0.13654606 0.2311072 -0.4260786 0.4051636 -0.31616384 0.16771619 0.40108967
0.35068548 -0.45876986 -0.41195464 0.4123218 0.037558883 -0.28698996 0.48176238 -0.45585036
-0.21081072 -0.43260604 0.40474707 0.43384853 -0.3038081 -0.11300897 0.31074622 -0.16718829
0.44561198 0.38758516 -0.335705 0.29801813 -0.35450038 -0.12829205 0.26305473 -0.30122837
0.30862102 0.4920202 0.40735474 -0.08832943 0.067183375 -0.28127784 0.03386093 0.47100288
0.29888403 0.0013183567 0.23688382 -0.14183813 -0.48324966 -0.26302004 0.15823674 0.019980133
0.2118426 0.35251346 0.075589344 0.18243033 -0.018198587 0.19039905 -0.2869456 0.03848455
0.438557 0.04735101 -0.12970228 0.43280384 0.2303381 -0.25067046 0.17841633 -0.2475813
-0.2289202 0.08840469 0.038529955 0.20786473 0.11658735 0.100950964 -0.4391633 -0.458114
0.25967696 0.3698919 -0.07878598 -0.014057961 -0.4948076 -0.17812276 -0.0194363 -0.2295407
-0.46208614 -0.2537908 0.46615168 -0.3615646 -0.38591406 0.5059954 0.059991512 -0.4465047
-0.27113712 -0.3285786 -0.3857208 -0.04894775 -0.101508 -0.15982077 0.4543581 0.34608182
0.41828218 0.114566535 0.39916876 0.18327765 -0.31715116 0.4180313 0.42355463 -0.23670366
-0.22479731 -0.3360024 -0.43114072 0.3170368 -0.4273352 0.30092487 -0.31667054 0.23337841
-0.1871948 0.19556947 0.2496702 -0.006331757 -0.13851851 -0.3980816 0.2601861 -0.2763806
-0.42099395 -0.16398816 0.18898611 0.16466849 0.23943071 0.031752657 0.04447663 0.46714613
-0.38191622 -0.19520044 -0.15349686 0.3675713 -0.36951804 0.3908072 -0.22441426 -0.14631513
0.3940919 -0.124396145 -0.27612674 0.2572549 -0.2795213 -0.48271513 -0.27969503 0.03041637
0.33063135 0.24313015 0.26963106 0.20062041 0.34386873 -0.047337115 -0.10646731 -0.23455
0.01944719 0.13332686 0.4099006 0.03126732 -0.265607 -0.26721102 0.07869625 0.05961162
-0.07473558 -0.113823354 0.012085794 -0.3130858 -0.441336 0.40772313 0.4710275 -0.30901957

fc1.bias f4 [128]
00000000: d2ec 8d3e fcc5 75be 3dd6 81be 7bf8 b13c
00000010: 4019 e3be dbb8 4ebe a492 973e 5877 e53e
00000020: c557 913e 4413 e5be c362 833e 6766 8abd
00000030: 3155 bfbe a587 cfbe b3dd f1bc 0bb2 ca3e
00000040: 20f5 f53d 0654 aabe 08ac d8be 619b f1be
00000050: 46d4 1bbe 0f89 4cbe 47e0 473e 271d 99bc
00000060: 58bd 1b3e 50e3 ccbe 3016 bd3e cfce bd3e
00000070: d0b9 bf3d 3a65 a4be e74d 543c d108 903e
00000080: e26b e33b f466 983e 8e9a adbd da51 8b3e
00000090: 6f08 90be 3df7 813e 87b6 3ebe 4de3 e13e
000000a0: 43d8 df3e 5846 ebbe 1a21 11be 9476 353e
000000b0: 1c14 11be 2792 d33e f572 883e 19b1 a73e
000000c0: 70da 133e 63a8 aa3e c00f 87be 7958 27bc
000000d0: fdc0 7e3e 4d04 053e 54a3 18be e92d c3bd
000000e0: d8f3 e3bd 3820 e0bd 94e8 ff3d 00ac 403c
000000f0: c4a7 b5be fb29 52bd dc59 e93e ae69 c83c
00000100: a404 d8be e092 e63d 5adf e8bd c8a3 07be
00000110: 3425 163e a586 a6be 0a2a b0be cef3 f3be
00000120: b6d1 683e 1460 19be 6e46 ce3e 9cd2 fa3e
00000130: 8fb7 f23e face a03e 164f 80be d125 633e
00000140: 284d f2be ec55 80be 60f5 dcbe b3a4 df3e
00000150: 6dd0 533e 4042 64bd 5d9e a9be ec53 d63e
00000160: 7cae f0be 480a 3abd cc7f d5be 3c98 f73e
00000170: 4ff3 ddbe 206c a13e 0c71 313e d0da f53e
00000180: 54b4 95be 607c ecbe a908 9e3d be76 9fbe
00000190: 7f6d 8f3e 4683 cdbe 281e 16be 3290 bdbe
000001a0: b817 15be 1d86 243e 1e6e ee3e 68c2 d03b
000001b0: 7060 7cbd 37e7 16bc 952d debd 3c47 18be
000001c0: 1674 c0be b202 993e ec1c 5abe 4653 823e
000001d0: 6830 063e 4dbf e63e ba61 b1be 4a59 813e
000001e0: 43dd 06be ec60 7b3e 0c0f 8d3e 91c2 5a3e
000001f0: 6885 c1be dfcc bd3e 8230 18be b886 c93e
0.27719742 -0.24001306 -0.25358763 0.02172493 -0.44355202 -0.20187704 0.29604065 0.44817615
0.28387275 -0.4474126 0.25661287 -0.06757813 -0.37369683 -0.40533176 -0.02952466 0.3958896
0.120096445 -0.3326723 -0.4231875 -0.47188857 -0.15217695 -0.19974159 0.19519149 -0.018690659
0.15208948 -0.40017176 0.3693099 0.37071845 0.09361613 -0.3210848 0.0129580265 0.28131726
0.006940351 0.29766047 -0.084767446 0.27210885 -0.28131434 0.2538394 -0.18624316 0.4411873
0.43719682 -0.45952106 -0.14172783 0.17721015 -0.14167827 0.41322443 0.26650205 0.32752302
0.14438796 0.33331594 -0.26379204 -0.010213965 0.24878307 0.12989922 -0.14906055 -0.09530241
-0.11130494 -0.10943645 0.12495533 0.011759758 -0.35479558 -0.051309567 0.4557637 0.024464455
-0.4219104 0.11258483 -0.11370726 -0.13246071 0.1466263 -0.325246 -0.34407073 -0.47646946
0.22736248 -0.14978057 0.4028811 0.48988807 0.4740567 0.3140791 -0.25060338 0.22182395
-0.4732449 -0.25065553 -0.43155956 0.43680343 0.20684977 -0.055727243 -0.33128634 0.41860902
-0.4700812 -0.04541996 -0.41699064 0.48358333 -0.43349692 0.31527805 0.1732828 0.48018503
-0.29239142 -0.4618864 0.077164955 -0.3114528 0.28013226 -0.40139216 -0.14659941 -0.37024075
-0.14559829 0.16066785 0.46568388 0.0063708313 -0.061615407 -0.009210399 -0.10848538 -0.14870924
-0.37588567 0.2988487 -0.21300095 0.25454158 0.13104403 0.45067826 -0.34644872 0.25263435
-0.13170342 0.24548692 0.27550542 0.21363284 -0.37797093 0.37070367 -0.14862254 0.39360595

fc2.weight f4 [64, 128]
00000000: 8cd8 913d c68a f8bc d811 3abd c4bf 9e3b
00000010: 7f90 8d3d 7578 173d d409 a2bd e5a6 3ebd
00000020: 3f74 b13d 408a 683b f751 2e3d 5a4c 123d
00000030: cc20 4cbd aa30 aa3d f87c a3bd bacd 8e3d
00000040: 92d8 24bc ade6 8fbd e8cd 73bd ab3c e3bb
00000050: 8b4a 3ebd 9e27 613d 6da0 533d ed9c b6bd
00000060: c682 b0bd 0697 afbd 64b0 983d 9ae4 2ebd
00000070: f2a2 4cbd 24a7 a03d 1b99 a93d 340b 963d
00000080: 4b96 e63c 127e b3bd 0b8c 853c 4bec edbc
00000090: f086 be3d 0180 f93b c574 823c 4c50 62bd
000000a0: 8001 c3bc ddb8 a83d 9fe8 973d 1054 19bd
000000b0: 3af7 163d 25ec 94bd 5bfe 1b3d 7c34 3dbc
000000c0: 5e6d e2bc 445c 46bd cfb6 143d 00ef ddbc
000000d0: 2d03 91bd 552b ec3b 16f0 91bd 28bc 273d
000000e0: 9c27 a1bc eee6 54bd ed9a 603c cc6c 76bd
000000f0: 4cba 95bd c84a fbb9 320b 82bd bf69 97bd
00000100: d279 59bd fa23 673d 4a09 08bd a03e 1b3c
00000110: 4119 03bd aa96 62bd bc70 c4bc 6451 99bd
00000120: 5180 65bd f317 8b3d 6249 2fbc 04d5 6f3d
00000130: 6b56 b93c ba06 4dbd 1420 10bd f4d0 f8bc
00000140: 8207 233c f0cf 81bd f4ca cdbc e6da a83d
00000150: 447b 283d 3148 aa3d 7f9d 2bbd b8f3 98bd
00000160: 1bd9 103d 149a 13bd 6737 b2bd 8098 8aba
00000170: a3c3 9e3d b75d 403d d16c 1abd aad5 263d
00000180: 40df ff3c 07b9 96bd 134a 9cbd 3227 b3bd
00000190: 0dd7 92bc 0e91 d3bc bb3e b13d a71c fdbb
000001a0: 807e f43c 1b0e 533d 5987 c13c 40ca 9b3d
000001b0: 64e4 a7bd e762 e7bc 74ab 9b3d d984 37bd
000001c0: 0806 b83c 36a0 253d 800b 8dbc 778b b8bd
000001d0: eb15 07bd b25f 463c 5ca3 76bd 4afc bcbc
000001e0: bcac 82bd abc2 f7bc bc6d a43c db2f 9c3c
000001f0: 6ff5 afbd d668 9a3d 15a1 a83d 892c 61bd
00000200: 0fb4 b6bd eb5c 09bd 20ef 52bd 2138 abbd
00000210: 0f6f 18bd 9df1 b03d 68d8 f13c a03e a9bb
00000220: 63d9 3c3d 9b13 a7bd c6d5 0abd 5855 94bc
00000230: c4e4 e83b dd73 783c 5742 c33c 0cd2 2ebc
00000240: cdf1 5a3d 0d93 9bbd 1400 7abd e6ef 22bd
00000250: 7feb f8bc 537b e0bb 1517 56bd e678 af3a
00000260: 402f 79bb 471d e93c 002a 70bd 6a2e 8d3d
00000270: 88af 76bd c5b6 3a3c ecee 5e3d 3bb5 52bd
00000280: 6678 423d 6ef9 eebb 70e6 da3c f627 9c3d
00000290: d476 2abd 0e84 4e3d 52eb 953c 634c 783d
000002a0: a24b 133d 0ff1 933d 0e57 a33c 512d 483d
000002b0: 00a2 d93a 4c63 4fbd b8df 5b3d 3a1c 9d3c
000002c0: 002d 70ba bfcf 543d a6f8 6a3a 85d2 4cbc
000002d0: e9f7 083c f4dd b7bd f844 9dbd dd2e 99bd
000002e0: 3903 99bd a0f0 f4bb a19c 8b3d 7129 913d
000002f0: a0ec 8ebd 86c6 3d3d 0396 a2bc 47cd 9bbc
00000300: 6e5d 5e3d 03f1 85bd 7f85 69bd 1c1a a53c
00000310: 808c 32bc 0e91 fd3b 912a 1c3d d0c7 93bd
00000320: 6b92 21bd 7ada a03d a619 01bc 656c 4e3d
00000330: 2b56 753d d38e 8c3d 006d c83a b327 b2bd
00000340: 4c81 8d3c b21e 4d3d 0135 abbd eb76 9ebd
00000350: 38d4 9e3d 2272 a1bd a66d 3d3d 52a8 9cbd
00000360: 1c5d 41bd 95a3 bebd 68a6 bebc 19e5 23bd
00000370: 1a35 1f3c f145 053d cca1 91bd 2820 89bd
00000380: 5b18 843d 1b78 b2bd 44d3 e0bb eb4f 8e3d
00000390: d7b1 a73d 7031 6f3c 7c55 bcbc ae0a 3e3d
000003a0: a0c7 4b3b be7f 673c f60b 15bd 787d 5bbd
000003b0: ac96 833c 8327 31bd 6dd8 a93d d0de 8bbd
000003c0: be91 4ebd caed 08bd 9c8e c13c 6676 653d
000003d0: 865f 613d fff1 b43c 6fc2 babd 9dbb 083d
000003e0: 21a4 183b 9eda 833d 3cda 153d d645 f53b
000003f0: 7997 a3bd 6a2f 813d 917b 0c3d aa79 81bd
0.07121381 -0.03033961 -0.045427173 0.0048446376 0.06912326 0.03698011 -0.07912031 -0.04654588
0.0866475 0.0035482794 0.042558637 0.035717346 -0.049835965 0.08310063 -0.0798282 0.06972833
-0.0100614 -0.0702642 -0.05952254 -0.0069347224 -0.04645781 0.054969423 0.051666666 -0.0891665
-0.08618693 -0.08573727 0.07455519 -0.04269848 -0.049960084 0.078443795 0.08281156 0.073263556
0.028147837 -0.087642804 0.01630213 -0.029043337 0.09303081 0.007614136 0.01592482 -0.05525236
-0.023804426 0.08238385 0.07417416 -0.037433684 0.036856867 -0.072716035 0.03808437 -0.011548158
-0.027640041 -0.048427835 0.036307152 -0.027091503 -0.07080684 0.007207314 -0.07125871 0.040950924
-0.019672208 -0.051978044 0.013708812 -0.06016235 -0.07310924 -0.00047930167 -0.063497916 -0.07393216
-0.053094693 0.056430794 -0.033211984 0.00947538 -0.032006506 -0.055319466 -0.023979537 -0.07486227
-0.056030575 0.06791677 -0.010698648 0.058552757 0.022624215 -0.050055243 -0.035186842 -0.030373074
0.0099505205 -0.06338489 -0.02512119 0.082448766 0.04113318 0.08314551 -0.041898247 -0.07468361
0.035363298 -0.036035612 -0.087019734 -0.0010574013 0.077521585 0.046964373 -0.03770143 0.04073111
0.031234384 -0.0735951 -0.07631316 -0.0874771 -0.01792481 -0.025826003 0.08654543 -0.007724363
0.029845476 0.051527124 0.02362411 0.076069355 -0.08197859 -0.028245403 0.076010615 -0.044804428
0.022463813 0.040435992 -0.017217398 -0.09010976 -0.032979887 0.0121077765 -0.060214385 -0.02306952
-0.06380603 -0.030244192 0.020071857 0.019065788 -0.085917346 0.07539527 0.08233849 -0.054974113
-0.08921062 -0.03353588 -0.05149758 -0.08360315 -0.03721529 0.08639834 0.029522136 -0.005164936
0.046105754 -0.08158036 -0.033895276 -0.018107101 0.007107349 0.015164343 0.023835344 -0.010670196
0.053453255 -0.07596407 -0.06103523 -0.039779566 -0.03038573 -0.006850639 -0.052268106 0.0013387471
-0.0038022548 0.028456343 -0.058633804 0.068936184 -0.060225993 0.011396115 0.054427072 -0.051442366
0.047478102 -0.007292918 0.02672121 0.076248094 -0.04161723 0.050418906 0.018300686 0.060619723
0.0359608 0.07223713 0.019938972 0.048871342 0.0016604066 -0.050631806 0.05368015 0.019178499
-0.0009161979 0.051955935 0.0008963443 -0.012501364 0.008359888 -0.08977881 -0.0767917 -0.074796416
-0.07471318 -0.007474974 0.06816984 0.070879824 -0.069787264 0.046331905 -0.019846922 -0.019018782
0.05428832 -0.0654011 -0.057012077 0.020154051 -0.010897756 0.007738239 0.038126532 -0.072158456
-0.039446276 0.07854171 -0.00787965 0.05039634 0.05989663 0.06863179 0.0015291274 -0.08698978
0.017273568 0.0500781 -0.08359719 -0.077375256 0.07755321 -0.07883097 0.046247147 -0.07649292
-0.047207937 -0.093085445 -0.023272708 -0.040013406 0.00971725 0.032537404 -0.071109384 -0.066955864
0.06449958 -0.087143146 -0.0068611223 0.06948837 0.08188217 0.014599189 -0.02298998 0.046396904
0.0031094328 0.014129577 -0.03638836 -0.053586453 0.016063057 -0.043250572 0.08293233 -0.068296075
-0.05043196 -0.0334299 0.023627572 0.056021117 0.05502274 0.022088049 -0.091191165 0.033382047
0.0023291188 0.06438182 0.036585078 0.0074851317 -0.079878755 0.06307872 0.03429753 -0.06322034

fc2.bias f4 [64]
00000000: 7cde 123d 4392 a03d c075 23bd e317 a43d
00000010: 6420 c6bb b597 55bc 03c3 f13c 39dd 33bd
00000020: 720d 053d e0f5 a93b edfa 423d 97ba 82bd
00000030: 2e36 503d 6f79 ae3d e0e1 a0bd d83c abbc
00000040: 710d 3c3c 48a2 86bd 84a8 2dbd fa45 833d
00000050: f2f4 2abd ca6a 43bd 856d 8cbd bbee 73bd
00000060: d6ac 39bd 2140 30bd 834f 59bc 27e7 833d
00000070: d326 89bd f809 213c f27e 383d c9ae 40bd
00000080: 7592 a8bd ab77 943d 388a 173c 5432 1cbd
00000090: 279a 2dbc 28f3 8abc 43bd dd3b 3df1 5a3d
000000a0: 6ca6 b1bd d0f4 a7bd 6f39 143c 50be d3bc
000000b0: 27f1 57bd f001 ffbc 9cbe 6f3c cc42 adbd
000000c0: 4ae8 173d 5ad3 47bd 9e63 a9bd 8092 903c
000000d0: d87a a0bc a077 e13b 4e5f 783d 1043 92bb
000000e0: 812a 78bc b120 a1bd 0e44 71bc d8b1 543c
000000f0: 4109 503d 2212 88bc 96d5 acbd a0c1 333d
0.03585671 0.07840397 -0.039907217 0.080123685 -0.0060463417 -0.013036658 0.029511934 -0.043912146
0.032483526 0.0051867813 0.047602583 -0.063832454 0.05083292 0.08519255 -0.07855582 -0.020903036
0.011477814 -0.065739214 -0.042397037 0.06409831 -0.041737504 -0.047709264 -0.06856827 -0.059553843
-0.045330845 -0.043029908 -0.013263586 0.06440573 -0.06696858 0.009829037 0.04504294 -0.047041688
-0.082310595 0.07249387 0.0092492625 -0.038133934 -0.010595835 -0.016961649 0.0067669465 0.05345272
-0.086743206 -0.08200991 0.009046896 -0.025847584 -0.052720215 -0.031128854 0.014632847 -0.08460006
0.037086762 -0.048785545 -0.082709536 0.017647982 -0.019589826 0.0068807155 0.060637765 -0.004463561
-0.0151468525 -0.078675635 -0.014725698 0.012981854 0.050790075 -0.016610209 -0.08439176 0.043885827

fc3.weight f4 [32, 64]
00000000: 29a3 5b3c 2bb0 fb3d 886d abbd 2074 fc3b
00000010: 7d78 33bd e4f0 893b 85b1 f9bd a467 11bd
00000020: 9851 d7bd 1ea4 b2bd e8e4 8d3c 6c1d d8bd
00000030: 225a a43d 986e b93c 1f3b 44bd 5846 2ebd
00000040: 8f73 78bd b47a e93d bc71 743d 31cc ea3d
00000050: 10a7 d23b 4dd4 abbc 89e6 353d 0256 89bd
00000060: 2631 c6bd a064 dbbd 38ee 93bd 0864 8a3c
00000070: 1015 03bc e491 0fbd 585b a1bc 76cd ddbd
00000080: 7b11 79bd f08e 803c 6cc7 88bd 30ec 88bc
00000090: 9cf5 ae3d bc83 84bd d84e b43d 07d8 adbc
000000a0: eca8 8c3d 9a60 e139 fb93 2f3d 0cf5 063d
000000b0: 1611 a23d 37f5 773d ffe5 b7bc f1fa 8a3b
000000c0: 2348 9cbd 19ed d53d dd0f 9dbd 56c4 85bd
000000d0: 409a 5c3d c2f8 f2bd 7626 ecbd a012 423d
000000e0: c184 ba3d c8dd 033d 1324 e73b 8282 abbd
000000f0: 2f1a 26bd 6c74 f03d 4329 c5bc c058 193d
00000100: 384f 98bd 3cce 9dbd 5c65 863d f0d8 f23d
00000110: 8e8d 94bd d843 86bd 3035 2dbc 2e17 dcbd
00000120: 0cae a1bd 90eb e6bd 00ed 7eba e8d7 d43d
00000130: 28c1 89bc d2ae b2bd defe aebd 74f5 80bd
00000140: 28e6 adbc c241 ebbd 48ec ce3d 101a 913d
00000150: b000 44bc 26b8 88bd cc88 e73d 48a2 0ebd
00000160: 1c1c 86bd 7866 1d3d 289c 34bd 7cdd f9bd
00000170: d013 0f3c 5073 b43c 489f 8fbc 002b fbbb
00000180: 9094 94bc d254 dd3d 809f adbc 1cd5 35bd
00000190: 260c cfbd a079 9e3b 5031 313d 08f9 fc3c
000001a0: a4f7 693d a00c 913d 2284 a73d 00f2 d7b9
000001b0: 00ee a03d 6824 c7bc fcec 233d 9017 7b3d
000001c0: 2cfe 7abd 7c39 243d a2f9 d0bd f633 b6bd
000001d0: e0ea 893c f4d6 a1bd a0da 363d 8e83 9ebd
000001e0: 40e8 89bc 5c96 8c3d 8058 2abb cedf ff3d
000001f0: 1650 f0bd eccb f03d 422c a63d 1aa6 b73d
00000200: d735 013d 329c e5bb 9054 a6bc 08ab 92bd
00000210: ad74 30bd f140 67bd d689 f3bd 400e 12bc
00000220: 36bc fe3d a06c 0ebc 863d 933d 00b6 feb9
00000230: 2232 a13d 34aa 233d 680d 8cbd c0b5 d43b
00000240: d8b1 18bc 2628 a1bd 73f2 85bd af84 873d
00000250: c01f f9bd a0c5 d53c 01db 28bd 6aa0 fc3d
00000260: 1732 a13d 242a 0ebd 8ca9 9e3c 0078 65ba
00000270: 12dd a7bd 1c76 003d 8092 e3ba 0e78 90bd
00000280: 2631 cabd cd0c 763c 4488 5b3d bcec 1a3d
00000290: 4b13 72bd 0002 333b 04b2 62bb 34dc a03d
000002a0: 48d4 433d caea 8bbd da11 083d 7029 a13d
000002b0: a096 1e3d f735 543d a233 80bc 30ad 5b3c
000002c0: 9ca0 6c3d ea50 88bd e1bd bcbd c0c4 813d
000002d0: a449 39bd 7673 d7bd 2e5f e0bd a080 903b
000002e0: 504e 3d3d 0abb ddbd 5e7a c7bd 2c6a 27bd
000002f0: 980c e0bc 661c db3d ced9 de3d bb9d f13d
00000300: 56ee f23d 5685 983d c045 ea3d f856 bcbc
00000310: c74c 0c3d 5bea 1c3d e13e 3abb 6444 01bd
00000320: 3815 e3bc 800f 043c 1193 2fbd 4035 dc3d
00000330: 10c3 87bc 5e6f c5bd 938a f5bc 4cd3 14bd
00000340: 5965 b8bd 1b89 d53d e01f f13d 263f 603c
00000350: efb9 8dbd a65e cc3d b656 033d 76fc a5bc
00000360: 3356 16bc 82ef 03bd eb41 b1bd 882b 44bd
00000370: ae02 903d 9ca4 b5bd 70dd 893c ca68 cd3d
00000380: cc4d ea3a f7bc af3c fce9 053d d796 cabd
00000390: 9cff 9abd b0a9 adbc 7bab c7bd 80a1 c73d
000003a0: 806e 93bc 831a ad3d db7c fa3d 2847 f3bc
000003b0: 6045 aa3b 173c 43bd 056a abbd d7d7 cebd
000003c0: d5e2 bdbd e876 38bd c3af 40bd 0cb4 d03d
000003d0: 5003 bebc 6898 613d 0c51 2f3d 8094 b73a
000003e0: eeb5 233d 0dcc ea3d d3f0 f2bd bc51 f5bd
000003f0: 0509 f83b e975 32bd daa9 a1bc 73d2 f23d
0.0134056 0.12289461 -0.08370501 0.007704273 -0.04381608 0.0042096246 -0.12192062 -0.03549923
-0.1051361 -0.08722709 0.017321065 -0.10552487 0.08025004 0.022635743 -0.047907945 -0.042547554
-0.06065708 0.11400357 0.059678778 0.11464728 0.006428607 -0.020975256 0.04440931 -0.06705858
-0.09677343 -0.10712552 -0.07223171 0.016893402 -0.008000627 -0.03505124 -0.019696876 -0.10830204
-0.060807686 0.015693158 -0.06678662 -0.016714185 0.0854294 -0.06470439 0.08804101 -0.021221174
0.06868157 0.00042987318 0.042865735 0.03294854 0.07913415 0.06053659 -0.022448538 0.0042413403
-0.076309465 0.104456134 -0.07669041 -0.06531589 0.05385804 -0.11863853 -0.11530773 0.047381043
0.09107352 0.03219393 0.007053861 -0.08374502 -0.040552314 0.11740956 -0.024067527 0.037438154
-0.07436985 -0.07705352 0.065623015 0.11857784 -0.07253562 -0.06555909 -0.010571763 -0.10746609
-0.07894525 -0.11275399 -0.0009724647 0.10392743 -0.016815737 -0.087247506 -0.08544706 -0.062968165
-0.021227911 -0.11487152 0.10103661 0.07085049 -0.011963055 -0.066757485 0.11305389 -0.034822732
-0.0654833 0.0384278 -0.044094235 -0.12200448 0.008732751 0.022027642 -0.017532006 -0.007665038
-0.018137246 0.10807194 -0.02119422 -0.04439269 -0.10109739 0.004836276 0.04325992 0.030880466
0.057120934 0.07082486 0.08179499 -0.000411883 0.07857895 -0.024309352 0.040020928 0.061301768
-0.061277553 0.040093884 -0.10203864 -0.088966295 0.01683563 -0.07902327 0.04464209 -0.07739936
-0.016834378 0.06864616 -0.0025992692 0.12493859 -0.11734025 0.11757645 0.0811391 0.08967228
0.031545486 -0.0070071453 -0.020303994 -0.07161528 -0.04308002 -0.056458417 -0.118915245 -0.00891453
0.12438242 -0.00869289 0.07189469 -0.00048582256 0.0787089 0.03995724 -0.068384945 0.006491393
-0.009319745 -0.07868986 -0.06540384 0.06617104 -0.12164259 0.026095212 -0.041224483 0.12335284
0.07870882 -0.034708157 0.019367956 -0.0008753538 -0.08196463 0.031362638 -0.0017362386 -0.070541486
-0.098726556 0.0150177 0.05359675 0.037823424 -0.05910043 0.0027314425 -0.003459097 0.078545004
0.04780987 -0.06831892 0.03322015 0.07869232 0.038717866 0.051809277 -0.01564962 0.01340799
0.057770357 -0.06656058 -0.09215904 0.06336355 -0.045236245 -0.10520069 -0.10955654 0.0044098645
0.046217263 -0.108266905 -0.097401366 -0.040872738 -0.027349755 0.10698776 0.10881387 0.11797663
0.11861865 0.07447307 0.11439085 -0.022990689 0.034252908 0.038309436 -0.0028418826 -0.031559363
-0.027720079 0.008060336 -0.042864863 0.10752344 -0.016572505 -0.09640382 -0.029973304 -0.03633432
-0.090037055 0.104265414 0.11773658 0.013686931 -0.0692023 0.0997899 0.032065116 -0.020261984
-0.009175825 -0.032210834 -0.08655151 -0.047893077 0.07031761 -0.08869287 0.016829222 0.100297526
0.0017875968 0.02145241 0.032693848 -0.09892052 -0.07568285 -0.021199077 -0.09749504 0.097476006
-0.017997026 0.08452322 0.122308455 -0.029697016 0.0051962584 -0.047664728 -0.08369831 -0.10099762
-0.092717804 -0.045035273 -0.04704262 0.10190591 -0.023194939 0.055076987 0.0428019 0.0014006048
0.039968424 0.11464701 -0.1186234 -0.1197848 0.0075694346 -0.04356948 -0.019734312 0.11856546

fc3.bias f4 [32]
00000000: 2d13 e6bd 6427 373d d4e9 90bd 1e40 7bbd
00000010: e21c d7bd c923 72ba bf3d 2a3c 1052 1b3d
00000020: 50a4 fbbd b55a 95bd d442 fb3c c1ec 103d
00000030: 3231 4ebd d0ef de3d 377b 913d da00 e1bd
00000040: be2f c53d 0812 d23c bfb5 c5bd 48cb 553d
00000050: 6fe3 2bbd f08e 873c 0a91 593d ed83 dc3c
00000060: 5031 3bbc ccd8 67bd 0976 c93c 1f4a a7bd
00000070: 4203 abbd 3c2f d43d 70ea f73d 5e6c 9bbd
-0.11234126 0.0447153 -0.07075849 -0.061340444 -0.10503556 -0.00092369 0.010390698 0.037920058
-0.122871995 -0.072926916 0.030671515 0.035382036 -0.050339885 0.10885584 0.071035795 -0.109864905
0.09628247 0.025643364 -0.09653806 0.052195817 -0.041964944 0.01654765 0.053116836 0.026918376
-0.011425331 -0.056603238 0.024592416 -0.08168434 -0.08350231 0.10360572 0.12105262 -0.07589029

fc4.weight f4 [6, 32]
00000000: a521 113e 9998 193e 608f 4bbd cb6e 2d3c
00000010: 8682 60bd f537 693d 0a0d 7c3c 264a b63d
00000020: f573 1c3e 3a15 9dbd e67a 25bd 74e1 19bd
00000030: 0f44 f0bd f687 c73d 09ac 22bd 0ad7 50bd
00000040: 17ad 9bbd a618 f93d b219 2cbd 2ab9 603d
00000050: baf1 efbd 9c45 153e ae78 a6bd 428f 27bc
00000060: e3d6 0e3e 0c6d 5bbd a2af de3d 2b36 a03d
00000070: 0c47 1bbd fbc2 303e 3a88 03be 77b4 9f3d
00000080: 3a18 023e 2405 223d e8ad ecbc 32a9 313e
00000090: 87f5 1f3e ac8c 363e cf63 11be 20a7 a13c
000000a0: 7dc2 023e ff27 bd3d d4dc 26be 8a0b 15bd
000000b0: 5180 d13d 8069 0cbb 3f23 26be 37cd bb3d
000000c0: 7df5 093e be48 03be 45fd cabd c84b 6cbc
000000d0: e0cf a8bd 9bdd 55bd f144 22be 0e09 9b3d
000000e0: c826 b73d aec4 e43d 8928 803c 3ffe 2b3e
000000f0: e064 d2bd dc15 f53d f436 313d 98a2 153e
00000100: eb0f 103e 60bf e53b 4038 29bb dce9 8bbd
00000110: cc70 c1bd e191 143e 3736 16be 6d94 023e
00000120: a013 21bc 4f8e 28bd 00c7 fcbd 30d1 06bd
00000130: 4e40 2b3e d971 2bbe 5cf4 b7bd e75b c6bd
00000140: ef42 fcbd 404e 383c f73f 24bd edfb c9bd
00000150: bba4 4639 2705 edbd a9d8 263d 20bb fcbc
00000160: e376 a7bd dc29 59bd 13db a53d 9206 2bbe
00000170: 05bb bbbc 5a11 2ebe 227e 09be 1c7f ec3d
00000180: d906 763c 503b 04bc 3ea3 8dbc a7fa 86bd
00000190: 8c94 4c3d 2a4b 633a 8252 8bbc 5cb9 f7bd
000001a0: 2049 a53c 5e0c 053e 9a07 123e f589 48bd
000001b0: c410 373d 9e7a e33d 53de 06be de7a 02be
000001c0: 101f 6fbc b853 c83c ee8f 6b3d bc96 bebc
000001d0: 853c 1c3c c81b 2bbe 097c e53c 8793 ce3c
000001e0: 0edf 1bbe c833 c23c 6a1a 063e 1b29 97bd
000001f0: 389d b9bd ab31 fc3d d429 3dbd dfe6 f9bd
00000200: 69a2 08be b205 e13d 66a4 d53d b588 ff3d
00000210: beeb 8fbd 3ea1 1dbe d833 c8bc b4da 3bbd
00000220: e81a 3a3d 4c48 123e 1fe3 6abd bfbd 3b3d
00000230: 2c26 003e 80ee e43a 8535 60bd c847 ecbb
00000240: 0552 333d 6207 cf3d 1358 fe3d 0848 95bd
00000250: 6abe 353d 9f1f 5abd 352d 243e ebaa 613d
00000260: 3715 18be b6a4 f33d bd83 bfbc 9740 e1bb
00000270: f613 d23d 5f52 103c 0043 2d3a 1a3d f73d
00000280: 6150 3f3b e09c 623d 71e5 083e 12ad debd
00000290: 790e d7bd b822 1c3e 1a60 143e db4a 0a3e
000002a0: ceee d73d e82e 2ebd df2e 963d f8ae 2ebe
000002b0: 368f 89bd d098 c9bc 2e6c 29be 4fc5 2c3d
000002c0: c1e7 93bd b9b6 c1bd f5ff a4bc 75d0 37bd
000002d0: 4326 023e aca6 20be 30e4 abbc 9e2f e33d
000002e0: b98b d9bd 160a a43d 37a6 3d3d a6d3 f9bd
000002f0: f032 1abc 33c8 debd af09 a7bd 5250 f93d
0.1417299 0.14999618 -0.04969728 0.010585497 -0.054811977 0.05693813 0.015383968 0.089008614
0.15278609 -0.07670064 -0.04040041 -0.037568524 -0.11731731 0.09742729 -0.039714847 -0.050986327
-0.07601374 0.121629044 -0.042016692 0.054864086 -0.117160276 0.14577335 -0.081284866 -0.010227026
0.1394916 -0.053570792 0.10873343 0.07822832 -0.037909552 0.17261879 -0.12844935 0.07798093
0.12704554 0.039555684 -0.028891519 0.17349699 0.15621005 0.178271 -0.1419823 0.019733012
0.12769504 0.09236144 -0.16295177 -0.036387958 0.102295525 -0.0021425188 -0.16224383 0.09170001
0.13472553 -0.12820718 -0.099115886 -0.0144223645 -0.08242774 -0.052213293 -0.15846612 0.075700864
0.08942944 0.11170326 0.015644329 0.16796206 -0.10273147 0.1196706 0.043265298 0.14612806
0.14068572 0.007011339 -0.002582088 -0.068317145 -0.094453424 0.14508773 -0.14669119 0.12751932
-0.009831339 -0.04115134 -0.12342644 -0.03291434 0.16723749 -0.16742648 -0.08982155 -0.09685498
-0.12317454 0.011249125 -0.040100064 -0.09862504 0.00018944118 -0.11573248 0.040733967 -0.030850947
-0.08176973 -0.053018436 0.08098426 -0.16701725 -0.022916326 -0.16998807 -0.13427022 0.11547682
0.015016281 -0.008070782 -0.017289754 -0.06590777 0.049946353 0.0008670563 -0.017007116 -0.12095901
0.02017647 0.12992999 0.14260712 -0.04895969 0.044693723 0.11107372 -0.13170747 -0.12742183
-0.014594808 0.024453983 0.05751031 -0.023265235 0.009535913 -0.16709816 0.028013246 0.02521683
-0.15221807 0.023706332 0.13096014 -0.07380887 -0.0906319 0.12314161 -0.04618247 -0.12202238
-0.13343205 0.109874144 0.10431747 0.12477247 -0.07027386 -0.1539354 -0.024438784 -0.04586287
0.045435816 0.14285392 -0.057345506 0.045835253 0.12514561 0.0017466098 -0.05473854 -0.0072107054
0.04377939 0.1010883 0.124191426 -0.072891295 0.044371046 -0.053252812 0.1603287 0.05509464
-0.14851843 0.118966505 -0.023378247 -0.006874155 0.102577135 0.008808701 0.000660941 0.12072201
0.0029192197 0.05532539 0.13368775 -0.10872854 -0.10500807 0.15247619 0.14489785 0.13505118
0.10543595 -0.042525202 0.07333159 -0.17058933 -0.067167684 -0.024609 -0.16545174 0.042180356
-0.07221938 -0.0945868 -0.020141581 -0.044876534 0.12709908 -0.1568858 -0.020982832 0.11093067
-0.10622353 0.08009736 0.046301093 -0.12198572 -0.0094115585 -0.10878029 -0.08156144 0.12173523

fc4.bias f4 [6]
00000000: 36fe cbbd 7e26 e73d 7404 0dbe d65e a03d
00000010: 8ccd a63d c30d 0e3e
-0.09960596 0.11286639 -0.1377123 0.078305885 0.08144674 0.13872437
